models/ddqn/working.pt (torch, 814136 bytes, 12 tensors)

base.em.weight f4 [14, 1]
0.0 169.2041 125.72535 -174.67987 -160.3981 140.6054 -180.26607 157.34988
200.8431 176.64586 -115.45913 -55.79151 -82.66642 -100.22449
00000000: 0000 0000 4034 2943 6173 fb42 0cae 2ec3
00000010: ea65 20c3 fb9a 0c43 1d44 34c3 9259 1d43
00000020: d5d7 4843 57a5 3043 13eb e6c2 822a 5fc2
00000030: 3555 a5c2 f072 c8c2

out.weight f4 [196, 256]
-0.21324988 -0.14277072 0.039293423 0.07192673 -0.018504817 0.2578266 -0.08111863 -0.2305679
0.019184012 -0.11967959 -0.0243202 0.17867066 -0.13325827 0.69709486 -0.0019944091 -0.0136158895
-0.0307522 -0.048981596 -0.060018085 0.13308313 -0.05052111 0.035059083 0.3139323 0.07512799
0.022708714 0.20644167 -0.04595238 0.83357644 -0.14450483 0.029727057 0.54262877 -0.2355417
0.39780626 -0.07252939 0.0331435 0.11498245 0.17734386 0.051392235 -0.20755671 -0.10860791
-0.07684607 0.044149145 -0.067638874 0.013308727 0.2142977 -0.053475723 -0.008370706 0.17303155
-0.48088607 -0.13685095 -0.007709317 0.43414214 0.023193503 0.5602682 -0.04651033 0.03128587
-0.1148581 0.10860276 0.17436144 0.19754568 -0.048014764 -0.04584884 -0.2422508 -0.12690899
-0.059102166 0.018648423 0.075793125 -0.14445521 0.0059779305 -0.038009703 0.044071127 -0.09666872
0.07965195 -0.05693325 -0.0927866 -0.11732392 -0.07330141 0.22491704 0.06372865 -0.052327193
0.0011116866 -0.0023940944 -0.11048411 0.008441157 0.0024236096 0.14980887 -0.05796695 -0.40643162
0.17651626 -0.10746868 0.27557224 -0.09469042 -0.087121055 -0.1562712 0.016222334 0.11495124
0.044749606 0.18256937 -0.1575847 0.0052434406 0.15573342 0.005768437 -0.031182023 -0.18703634
-0.026448434 0.044305228 0.075587586 0.12861578 1.4573845 -0.13292348 -0.34205145 -0.048389226
-0.16787702 0.08733625 -0.044158462 -0.17609498 -0.0881037 1.3878591 0.08880376 0.10324861
-0.12207656 0.22275896 0.18526359 0.09552573 0.12585802 0.04508243 0.205585 0.079739265
0.40806776 0.06749427 -0.06860107 0.47756383 0.7280076 0.28959867 -0.24830881 0.70647913
0.16140437 0.5656666 -0.008750168 0.18850976 0.27381164 0.16032653 -0.09870097 0.26711679
0.080707654 -0.050764866 -0.25258026 0.08534797 0.07028655 -0.1790103 0.049735896 0.034798894
0.0012541264 0.019206775 -0.16125923 -0.047801062 0.19329572 -0.018061936 0.3569681 -0.016970364
0.021735346 -0.19567241 0.109929204 0.13784805 -0.04915679 -0.06862656 -0.10880244 0.13938148
-0.30447102 0.12447241 -0.08917923 0.38457927 -0.32573843 0.10302765 -0.19818392 -0.004992177
-0.24387348 0.00839424 0.33656293 0.22434354 -0.09058257 -0.2194889 -0.16483817 -0.10671078
-0.03366626 -0.05069571 0.092189185 -0.097726904 -0.14874452 0.009102682 -0.044622563 0.0086993165
-0.117501006 -0.2980357 -0.103779234 0.25477642 -0.087439574 0.44482616 -0.03938655 -0.11521161
0.025735447 0.23665564 -0.08902097 -0.14964113 0.0065405276 0.08277448 0.005816634 -0.1610813
0.28743824 0.1638654 -0.10013484 0.055118117 -0.16329679 -0.012867668 0.20517789 -0.20954469
0.50863004 0.13200006 -0.0984386 0.048222173 -0.2415651 0.008558535 -0.2326519 0.0026517676
0.019066006 -0.09052286 -0.09735298 0.16351429 0.02594135 0.13646655 0.047033314 -0.017852345
-0.4478744 -0.06980549 0.3035995 0.012244654 -0.016061163 1.6554086 1.849862 -0.5209879
-0.13085295 0.08002924 -0.23850915 0.42696723 -0.17289154 -0.16034088 0.21298353 0.03028247
0.09200806 0.15834682 0.07153885 -0.11515095 0.04584368 0.017741153 -0.060890753 0.07706105
00000000: 2d5e 5abe 7d32 12be 24f2 203d 524e 933d
00000010: 6a97 97bc d901 843e 8621 a6bd fe19 6cbe
00000020: ca27 9d3c 931a f5bd 283b c7bc 71f5 363e
00000030: db74 08be cf74 323f a2b4 02bb 2e15 5fbc
00000040: 0aec fbbc eda0 48bd 86d5 75bd f246 083e
00000050: 39ef 4ebd 1d9a 0f3d bcbb a03e b4dc 993d
00000060: a007 ba3c 7265 533e 9038 3cbd 4465 553f
00000070: 13f9 13be 2886 f33c b8e9 0a3f d831 71be
00000080: 43ad cb3e 4a8a 94bd 7bc1 073d eb7b eb3d
00000090: a199 353e aa80 523d bf89 54be d36d debd
000000a0: 7961 9dbd bcd5 343d 4086 8abd d90c 5a3c
000000b0: db70 5b3e 5c09 5bbd 4925 09bc 2f2f 313e
000000c0: b336 f6be a822 0cbe 709e fcbb e147 de3e
000000d0: 4d00 be3c bd6d 0f3f 9e81 3ebd 9d25 003d
000000e0: b93a ebbd 206b de3d ce8b 323e 6a49 4a3e
000000f0: 21ab 44bd fecb 3bbd 9810 78be 6ef4 01be
00000100: 1d15 72bd 94c4 983c 6d39 9b3d 11ec 13be
00000110: 84e2 c33b 10b0 1bbd ed83 343d 40fa c5bd
00000120: 9020 a33d d732 69bd e706 bebd 8647 f0bd
00000130: 0d1f 96bd a750 663e 2b84 823d 0a55 56bd
00000140: 03b6 913a 3de6 1cbb 7e45 e2bd c74c 0a3c
00000150: 6cd5 1e3b 7f67 193e c16e 6dbd ce17 d0be
00000160: aec0 343e 8a18 dcbd ce17 8d3e 0ded c1bd
00000170: 866c b2bd 8f05 20be b3e4 843c 8e6b eb3d
00000180: 5d4b 373d 77f3 3a3e e25d 21be 2bd1 ab3b
00000190: 9578 1f3e 2805 bd3b 7171 ffbc 7486 3fbe
000001a0: 63aa d8bc 6679 353d aacd 9a3d dbb3 033e
000001b0: 938b ba3f 181d 08be 5e21 afbe c833 46bd
000001c0: f4e7 2bbe 59dd b23d 81df 34bd 3e52 34be
000001d0: b66f b4bd 5ea5 b13f bfde b53d 0274 d33d
000001e0: 4703 fabd ed1a 643e bdb5 3d3e fea2 c33d
000001f0: ede0 003e 5ba8 383d e084 523e 574e a33d
00000200: 42ee d03e 703a 8a3d b87e 8cbd 3f83 f43e
00000210: b55e 3a3f 4746 943e aa44 7ebe d1db 343f
00000220: 3047 253e 87cf 103f dd5c 0fbc b408 413e
00000230: 0a31 8c3e a32c 243e bc23 cabd 88c3 883e
00000240: 0e4a a53d d2ee 4fbd 3352 81be ebca ae3d
00000250: 65f2 8f3d 7a4e 37be deb7 4b3d 4989 0e3d
00000260: 8061 a43a 8757 9d3c 2421 25be 0ccb 43bd
00000270: 50ef 453e a0f6 93bc 86c4 b63e 6f05 8bbc
00000280: 530e b23c 595e 48be 9022 e13d 0a28 0d3e
00000290: a158 49bd 158c 8cbd d0d3 debd 05ba 0e3e
000002a0: a0e3 9bbe 64eb fe3d 9aa3 b6bd 93e7 c43e
000002b0: 30c7 a6be 2900 d33d baf0 4abe 6a95 a3bb
000002c0: f8b9 79be ff87 093c fa51 ac3e 50ba 653e
000002d0: 5b83 b9bd b3c1 60be 56cb 28be 2e8b dabd
000002e0: a2e5 09bd 4ea6 4fbd afcd bc3d 0b25 c8bd
000002f0: 7c50 18be 6a23 153c 26c6 36bd 9487 0e3c
00000300: 5ea4 f0bd 2398 98be 358a d4bd 0e72 823e
00000310: 8513 b3bd 41c0 e33e cb53 21bd 11f4 ebbd
00000320: 25d3 d23c db55 723e a050 b6bd 863b 19be
00000330: ec51 d63b ab85 a93d 7699 be3b 7ff2 24be
00000340: 1b2b 933e 55cc 273e 7f13 cdbd 89c3 613d
00000350: 4637 27be e9d2 52bc 271a 523e e292 56be
00000360: 9435 023f 062b 073e 2d9a c9bd 9d84 453d
00000370: d75c 77be 1939 0c3c 4d3c 6ebe 47c9 2d3b
00000380: 5030 9c3c 0d64 b9bd 0061 c7bd 4a70 273e
00000390: f482 d43c e3bd 0b3e 01a6 403d 153f 92bc
000003a0: cb4f e5be 2ef6 8ebd 6571 9b3e cd9d 483c
000003b0: b392 83bc 6ee4 d33f 47c8 ec3f 775f 05bf
000003c0: 51fe 05be 5fe6 a33d be3b 74be 739b da3e
000003d0: 7b0a 31be 6630 24be 5b18 5a3e f112 f83c
000003e0: b96e bc3d ab25 223e f682 923d 43d4 ebbd
000003f0: 95c6 3b3d e555 913c 9568 79bd 2fd2 9d3d

out.bias f4 [196]
-0.32900468 74.515114 27.690908 39.404476 35.5052 44.483337 58.701385 40.554485
28.264853 37.61228 58.6227 43.49317 31.193935 20.31156 49.128277 0.013304956
52.6149 44.674526 41.15118 61.679363 25.718618 42.765503 33.296726 43.338512
30.393559 25.941631 17.680582 44.738342 47.58983 39.91852 0.00035945326 67.40806
21.65646 43.760754 46.334446 48.43979 66.87384 36.273632 34.808064 42.92621
23.661152 38.721096 37.52618 62.356308 53.92189 -0.045263797 67.84836 40.203434
37.983944 48.971863 61.249928 43.030254 22.662947 26.443583 14.994745 3.4688754
42.761513 63.82333 54.896275 55.988132 0.016723089 50.121746 40.55107 45.314537
45.650764 56.982876 27.759745 47.908295 29.550617 25.322327 58.596504 42.40702
60.053455 38.1077 70.232994 -0.011640906 52.16294 60.097645 58.411854 18.997095
42.465168 44.892807 36.246048 15.523408 55.031414 56.043873 44.638855 64.46383
45.164364 54.80894 0.048212208 42.761787 56.331776 38.030056 43.154167 41.288975
45.065285 34.13975 38.096394 57.95927 46.78001 59.039486 61.84974 59.824947
51.776268 -0.005264081 57.35335 48.936455 56.704014 50.224876 42.89317 38.718544
31.96337 49.55291 52.84039 60.173393 38.579025 44.007767 56.06569 37.079376
0.020423532 32.34943 16.917122 42.56215 47.514065 31.90946 34.77577 39.541843
26.147491 38.654835 40.882183 35.998604 40.21956 40.82384 45.19323 -0.042360805
38.67036 26.586693 38.816513 25.89033 46.38269 45.798573 35.327663 40.003963
47.949474 46.144142 26.875309 48.948692 45.597076 36.164024 -0.014639743 42.897366
15.631016 24.828222 46.845016 42.262543 42.211823 30.929365 33.686775 32.9424
42.37933 46.3402 37.621788 32.745224 43.637924 -0.01975786 37.89463 38.93234
0.041584097 -0.03805525 -0.062070474 0.0270468 0.044899695 -0.06101624 -0.019501314 -0.0102427825
0.021054342 0.06185726 0.021429159 0.050003693 -0.058914334 30.788734 0.05731921 0.05774828
0.036231846 0.056715034 -0.020629719 0.036731422 0.053297155 -0.036581002 0.037906095 -0.004378356
0.004481666 -0.0097718015 25.969803 -0.03467074
00000000: 4d73 a8be bd07 9542 fb86 dd41 2f9e 1d42
00000010: 5305 0e42 f0ee 3142 38ce 6a42 cb37 2242
00000020: 6b1e e241 fa72 1642 a57d 6a42 02f9 2d42
00000030: 2e8d f941 137e a241 5b83 4442 08fd 593c
00000040: a875 5242 b7b2 3242 cf9a 2442 abb7 7642
00000050: bbbf cd41 e00f 2b42 d92f 0542 a35a 2d42
00000060: 0226 f341 7688 cf41 d571 8d41 10f4 3242
00000070: fc5b 3e42 91ac 1f42 0075 bc39 edd0 8642
00000080: 6e40 ad41 030b 2f42 7956 3942 58c2 4142
00000090: 68bf 8542 3318 1142 753b 0b42 70b4 2b42
000000a0: 0a4a bd41 67e2 1a42 cf1a 1642 dc6c 7942
000000b0: 04b0 5742 8866 39bd 5cb2 8742 51d0 2042
000000c0: 8fef 1742 30e3 4342 edff 7442 fb1e 2c42
000000d0: b74d b541 758c d341 7aea 6f41 0e02 5e40
000000e0: ca0b 2b42 174b 7f42 c995 5b42 d9f3 5f42
000000f0: dcfe 883c ab7c 4842 4c34 2242 1642 3542
00000100: 629a 3642 77ee 6342 f513 de41 18a2 3f42
00000110: aa67 ec41 2094 ca41 d262 6a42 caa0 2942
00000120: bd36 7042 496e 1842 4b77 8c42 80b9 3ebc
00000130: daa6 5042 fd63 7042 bda5 6942 0dfa 9741
00000140: 55dc 2942 3c92 3342 f4fb 1042 e15f 7841
00000150: 2b20 5c42 ed2c 6042 308e 3242 7bed 8042
00000160: 4fa8 3442 5b3c 5b42 2a7a 453d 120c 2b42
00000170: bd53 6142 c71e 1842 de9d 2c42 e927 2542
00000180: da42 3442 1b8f 0842 b562 1842 4bd6 6742
00000190: bb1e 3b42 6f28 6c42 2266 7742 bf4c 6f42
000001a0: e61a 4f42 507e acbb d569 6542 eebe 4342
000001b0: e9d0 6242 46e6 4842 9b92 2b42 cadf 1a42
000001c0: fbb4 ff41 2e36 4642 8f5c 5342 8eb1 7042
000001d0: ec50 1a42 f407 3042 4443 6042 4851 1442
000001e0: 404f a73c d165 0142 4456 8741 a43f 2a42
000001f0: 670e 3e42 9346 ff41 631a 0b42 d92a 1e42
00000200: 102e d141 8d9e 1a42 5b87 2342 92fe 0f42
00000210: d4e0 2042 9d4b 2342 dec5 3442 8682 2dbd
00000220: 73ae 1a42 8cb1 d441 1c44 1b42 651f cf41
00000230: e087 3942 bd31 3742 874f 0d42 0f04 2042
00000240: 43cc 3f42 9a93 3842 a200 d741 76cb 4342
00000250: 6863 3642 f6a7 1042 88db 6fbc e796 2b42
00000260: a418 7a41 33a0 c641 4c61 3b42 d80c 2942
00000270: e8d8 2842 576f f741 42bf 0642 05c5 0342
00000280: 6f84 2942 5d5c 3942 b67c 1642 1cfb 0242
00000290: 3c8d 2e42 3cdb a1bc 1a94 1742 b7ba 1b42
000002a0: 1654 2a3d d2df 1bbd 9c3d 7ebd 4091 dd3c
000002b0: bee8 373d 2aec 79bd 38c1 9fbc 58d1 27bc
000002c0: 287a ac3c 0a5e 7d3d 348c af3c acd0 4c3d
000002d0: 2850 71bd 544f f641 8cc7 6a3d 7689 6c3d
000002e0: d867 143d 064e 683d a8ff a8bc b073 163d
000002f0: 1e4e 5a3d f6d5 15bd 6c43 1b3d 5078 8fbb
00000300: f0da 923b e819 20bc 28c2 cf41 e802 0ebd

base.em.weight f4 [14, 1]
0.0 168.85576 125.670876 -174.28053 -159.96304 140.0567 -179.80211 156.92622
200.2747 176.35184 -115.16238 -55.28733 -83.238464 -99.63405
00000000: 0000 0000 13db 2843 7d57 fb42 d147 2ec3
00000010: 8af6 1fc3 840e 0c43 57cd 33c3 1ded 1c43
00000020: 5346 4843 125a 3043 2353 e6c2 3a26 5dc2
00000030: 187a a6c2 a244 c7c2

out.weight f4 [196, 256]
-0.19102824 -0.12791309 0.028625423 0.09491672 -0.017843934 0.25059327 -0.079202615 -0.2305679
0.047634333 -0.11004546 0.0023604482 0.16783932 -0.13325827 0.7293223 -0.011280061 -0.02742713
-0.027163912 -0.05177295 -0.039699305 0.13308313 -0.06222386 0.015570167 0.3250167 0.08754386
0.016752087 0.1843117 -0.037140325 0.8562413 -0.12978487 0.02337414 0.5530961 -0.2312872
0.38799295 -0.07736844 0.036912527 0.10469539 0.17076078 0.051392235 -0.21265869 -0.110258356
-0.07684607 0.044149145 -0.041295383 0.0045169783 0.21293849 -0.053475723 0.005331569 0.18454304
-0.48088607 -0.14183833 0.0029462664 0.43624973 0.012044833 0.5838833 -0.040346432 0.03687793
-0.11649905 0.100494675 0.16890863 0.18624899 -0.042741265 -0.047583263 -0.22290131 -0.12454956
-0.047146652 0.025310723 0.07450259 -0.15541151 0.01796112 -0.024996758 0.03239233 -0.09951295
0.06469281 -0.059608515 -0.100859806 -0.11935623 -0.090762645 0.22720759 0.058830053 -0.052327193
0.02046888 -0.011613888 -0.12033107 -0.0020656085 0.01568762 0.14848593 -0.06546463 -0.4086784
0.2069763 -0.10746868 0.29283294 -0.08598005 -0.07223618 -0.15436657 0.016222334 0.102382295
0.03795834 0.20428865 -0.12513296 0.008203773 0.15573342 0.008306634 -0.036459032 -0.17463167
-0.022578606 0.05304273 0.05853196 0.15639214 1.4745442 -0.1142058 -0.34390488 -0.05472802
-0.16856895 0.08126704 -0.017038995 -0.1781288 -0.08222771 1.3764893 0.08623971 0.11486792
-0.10081096 0.22735533 0.17577118 0.09743375 0.10774663 0.033540834 0.22723523 0.072445035
0.39449966 0.06348834 -0.07226488 0.4714575 0.7280076 0.2837445 -0.23076685 0.7257826
0.16011558 0.55325025 -0.011555853 0.16964462 0.29348323 0.19056945 -0.10391055 0.2626421
0.07260442 -0.056197334 -0.25518206 0.07707637 0.056029562 -0.158745 0.07184542 0.04585578
0.0012541264 0.020710792 -0.15523124 -0.04203564 0.22274853 -0.023098884 0.3549584 -0.011701158
0.01891855 -0.18733296 0.10805667 0.13066256 -0.0629741 -0.05535871 -0.11622582 0.145837
-0.29803377 0.118036166 -0.079114705 0.3945923 -0.30731606 0.095546894 -0.2030408 -0.007307964
-0.24387348 0.025523715 0.32627216 0.21625264 -0.09542861 -0.23715252 -0.17129585 -0.11319284
-0.040571883 -0.06521335 0.091615945 -0.0982973 -0.16756237 0.009102682 -0.040741116 -0.0008846115
-0.11970537 -0.26550412 -0.111794546 0.26346698 -0.08934772 0.44229147 -0.04805763 -0.11085664
0.023385264 0.23986824 -0.07610186 -0.1504017 0.002369781 0.10220236 0.015796345 -0.13216491
0.26345164 0.16285703 -0.07451697 0.03704073 -0.15305898 -0.0070034624 0.20833497 -0.19327515
0.50479233 0.15997413 -0.08040282 0.0409135 -0.2415651 0.020396702 -0.21043737 -0.008158548
0.011588423 -0.09052286 -0.097126834 0.1530916 0.019705541 0.13646655 0.0582018 -0.025747992
-0.44992518 -0.074544154 0.29181787 0.0013416616 -0.02070779 1.6554086 1.8830699 -0.5035847
-0.1280193 0.07379235 -0.20609151 0.4274249 -0.17190245 -0.15594135 0.21298353 0.028776992
0.10431617 0.16308041 0.06380119 -0.09694763 0.03575603 0.0065869787 -0.060084984 0.06449176
00000000: e89c 43be a6fb 02be dd7f ea3c b363 c23d
00000010: 712d 92bc c34d 803e fb34 a2bd fe19 6cbe
00000020: 381c 433d 845f e1bd c0b1 1a3b 12de 2b3e
00000030: db74 08be deb4 3a3f 01d0 38bc dcae e0bc
00000040: da86 debc df0f 54bd bd9b 22bd f246 083e
00000050: 72de 7ebd 041a 7f3c 9768 a63e 324a b33d
00000060: ac3b 893c 35bc 3c3e 7420 18bd a132 5b3f
00000070: 53e6 04be 207b bf3c b597 0d3f 8dd6 6cbe
00000080: 03a7 c63e 5873 9ebd 9731 173d 896a d63d
00000090: eadb 2e3e aa80 523d 33c3 59be 22cf e1bd
000000a0: 7961 9dbd bcd5 343d 5925 29bd 2903 943b
000000b0: 8c0c 5a3e 5c09 5bbd 71b4 ae3b daf8 3c3e
000000c0: b336 f6be 113e 11be 2616 413b 205c df3e
000000d0: b157 453c 6079 153f 4d42 25bd 500d 173d
000000e0: 0e97 eebd 27d0 cd3d 62f6 2c3e 0eb8 3e3e
000000f0: 7711 2fbd abe6 42bd 3e40 64be d713 ffbd
00000100: d91c 41bd 6f58 cf3c d094 983d 3224 1fbe
00000110: 3323 933c 00c6 ccbc d2ad 043d 72cd cbbd
00000120: aa7d 843d 0f28 74bd 968f cebd 0a71 f4bd
00000130: c4e1 b9bd 1ba9 683e c8f7 703d 0a55 56bd
00000140: 5aae a73c 2d48 3ebc 2370 f6bd 295f 07bb
00000150: 5383 803c b20c 183e 5212 86bd 4c3e d1be
00000160: 98f1 533e 8a18 dcbd 33ee 953e 4f16 b0bd
00000170: 90f0 93bd 4512 1ebe b3e4 843c cfad d13d
00000180: 347a 1b3d 0b31 513e db22 00be 1e69 063c
00000190: 9578 1f3e 8c18 083c 1156 15bd a5d2 32be
000001a0: c5f6 b8bc 5543 593d 35bf 6f3d 4325 203e
000001b0: ddbd bc3f bbe4 e9bd 4d14 b0be 7d2a 60bd
000001c0: 579d 2cbe 556f a63d 5d95 8bbc 6567 36be
000001d0: 0067 a8bd cd30 b03f 729e b03d df3f eb3d
000001e0: fa75 cebd d6cf 683e 5cfd 333e 598b c73d
000001f0: 44aa dc3d 1d62 093d 5ab0 683e 105e 943d
00000200: dcfb c93e 2d06 823d 9cff 93bd e162 f13e
00000210: b55e 3a3f f646 913e 254e 6cbe e3cc 393f
00000220: 57f5 233e cfa1 0d3f c354 3dbc 52b7 2d3e
00000230: 6f43 963e a324 433e 0ecf d4bd 0679 863e
00000240: a0b1 943d 2d2f 66bd 39a7 82be 37da 9d3d
00000250: 417f 653d 0d8e 22be b123 933d 45d3 3b3d
00000260: 8061 a43a aea9 a93c f0f4 1ebe 902d 2cbd
00000270: 3118 643e df39 bdbc 1bbd b53e 37b6 3fbc
00000280: 13fb 9a3c 36d4 3fbe d14c dd3d 68cc 053e
00000290: 91f8 80bd d1bf 62bd cd07 eebd 4b56 153e
000002a0: e297 98be f2bc f13d e406 a2bd 0008 ca3e
000002b0: 8858 9dbe 17ae c33d ede9 4fbe a577 efbb
000002c0: f8b9 79be 1c17 d13c 250d a73e 5571 5d3e
000002d0: 1370 c3bd 1cd8 72be 2e68 2fbe a6d1 e7bd
000002e0: b42e 26bd 948e 85bd 24a1 bb3d 1850 c9bd
000002f0: 7895 2bbe 6a23 153c 28e0 26bd 46e5 67ba
00000300: 1728 f5bd 28f0 87be 8af4 e4bd 25e5 863e
00000310: f0fb b6bd 0774 e23e 14d8 44bd ce08 e3bd
00000320: 7492 bf3c 05a0 753e 4bdb 9bbd e702 1abe
00000330: 544e 1b3b 794f d13d 5667 813c 3d56 07be
00000340: 22e3 863e fec3 263e 5a9c 98bd 05b8 173d
00000350: 7ebb 1cbe 4d7d e5bb c355 553e ece9 45be
00000360: 123a 013f 42d0 233e 3caa a4bd ea94 273d
00000370: d75c 77be fc16 a73c e57c 57be 6eab 05bc
00000380: 5edd 3d3c 0d64 b9bd 6fea c6bd 0bc4 1c3e
00000390: 846d a13c e3bd 0b3e 0365 6e3d 74ed d2bc
000003a0: 985c e6be 9baa 98bd 2769 953e b1da af3a
000003b0: 62a3 a9bc 6ee4 d33f 6f08 f13f edea 00bf
000003c0: 7e17 03be 7220 973d a709 53be 70d7 da3e
000003d0: 3207 30be 17af 1fbe 5b18 5a3e babd eb3c
000003e0: b7a3 d53d 8dfe 263e 33aa 823d 7b8c c6bd
000003f0: ea74 123d 95d7 d73b ac1b 76bd 4214 843d

out.bias f4 [196]
-0.32633284 74.377 27.7336 39.403168 35.420815 44.392673 58.566036 40.555916
28.318508 37.461445 58.507504 43.8875 31.191439 20.361967 48.934628 0.013304956
52.545242 44.704258 41.123253 61.68218 25.731394 42.654987 33.396763 43.25634
30.33154 25.89914 17.631668 44.665413 47.41801 39.978233 0.00035945326 67.361435
21.64846 43.76669 46.56982 48.41265 66.72685 36.325783 34.992016 42.93507
23.640036 38.73595 37.449215 62.32036 53.84061 -0.045263797 67.716324 40.271385
38.410847 48.692764 61.141346 43.000477 22.574272 26.297493 15.013174 3.479018
42.64202 63.599945 54.83419 55.890102 0.016723089 49.990078 40.481804 45.117413
45.683968 56.887005 27.747757 47.705307 29.596006 25.08767 58.45534 42.37129
59.921993 37.887714 70.19438 -0.011640906 52.028046 60.177753 58.187763 18.910364
42.29274 44.774387 36.241207 15.45224 54.923267 55.920517 44.750393 65.11599
44.932793 54.75345 0.048212208 42.73353 56.400253 38.172337 43.0085 41.21813
45.032185 34.021873 38.167587 58.012074 46.65949 58.838676 61.810467 60.140667
51.512314 -0.005264081 57.302246 48.8351 56.662445 50.255806 42.911278 38.58267
31.716082 49.55962 52.902824 60.141056 38.49765 43.92117 55.827873 36.979618
0.020423532 32.231747 16.939531 42.48361 47.473644 31.866602 34.632374 39.409294
26.02178 38.482445 40.784344 35.945415 40.253227 40.9081 45.14045 -0.042360805
38.580177 26.500229 38.678844 25.799496 46.28213 45.639477 35.375942 39.832726
47.852425 45.883076 26.762428 48.751423 45.630608 36.08594 -0.014639743 42.69432
15.556532 24.821352 46.499695 42.22701 42.09177 30.903095 33.491276 32.9424
42.14981 46.224594 37.50581 32.78511 43.469624 -0.01975786 37.73625 39.040375
0.041584097 -0.03805525 -0.062070474 0.0270468 0.044899695 -0.06101624 -0.019501314 -0.0102427825
0.021054342 0.06185726 0.021429159 0.050003693 -0.058914334 30.78746 0.05731921 0.05774828
0.036231846 0.056715034 -0.020629719 0.036731422 0.053297155 -0.036581002 0.037906095 -0.004378356
0.004481666 -0.0097718015 25.969803 -0.03467074
00000000: 1915 a7be 06c1 9442 6ade dd41 d89c 1d42
00000010: eaae 0d42 1992 3142 9f43 6a42 4239 2242
00000020: 4e8c e241 85d8 1542 af07 6a42 cd8c 2f42
00000030: 1188 f941 4fe5 a241 0fbd 4342 08fd 593c
00000040: 542e 5242 29d1 3242 367e 2442 8dba 7642
00000050: e5d9 cd41 b59e 2a42 4996 0542 7e06 2d42
00000060: fea6 f241 7031 cf41 a80d 8d41 62a9 3242
00000070: 0bac 3d42 b6e9 1f42 0075 bc39 0eb9 8642
00000080: 0c30 ad41 1711 2f42 7f47 3a42 8ea6 4142
00000090: 2674 8542 9a4d 1142 d3f7 0b42 83bd 2b42
000000a0: cb1e bd41 9df1 1a42 ffcb 1542 0c48 7942
000000b0: c95c 5742 8866 39bd c26e 8742 e615 2142
000000c0: b5a4 1942 64c5 4242 bd90 7442 7d00 2c42
000000d0: 1c98 b441 4461 d241 f635 7041 3ba8 5e40
000000e0: 6e91 2a42 5866 7e42 3656 5b42 778f 5f42
000000f0: dcfe 883c d7f5 4742 5eed 2142 3b78 3442
00000100: 62bc 3642 4b8c 6342 68fb dd41 3cd2 3e42
00000110: 9fc4 ec41 8cb3 c841 45d2 6942 337c 2942
00000120: 1fb0 6f42 058d 1742 8663 8c42 80b9 3ebc
00000130: b81c 5042 05b6 7042 45c0 6842 6d48 9741
00000140: c42b 2942 f918 3342 fff6 1042 603c 7741
00000150: 6db1 5b42 9cae 5f42 6700 3342 633b 8242
00000160: 2ebb 3342 8803 5b42 2a7a 453d 22ef 2a42
00000170: dc99 6142 79b0 1842 b408 2c42 5ddf 2442
00000180: f520 3442 6616 0842 9cab 1842 5d0c 6842
00000190: 51a3 3a42 ce5a 6b42 eb3d 7742 0b90 7042
000001a0: 9c0c 4e42 507e acbb 8035 6542 2457 4342
000001b0: 58a6 6242 f205 4942 26a5 2b42 a754 1a42
000001c0: 89ba fd41 0d3d 4642 7e9c 5342 7190 7042
000001d0: 98fd 1942 47af 2f42 be4f 5f42 21eb 1342
000001e0: 404f a73c 4fed 0042 2984 8741 37ef 2942
000001f0: 03e5 3d42 cdee fe41 8d87 0a42 1ea3 1d42
00000200: 9b2c d041 06ee 1942 2b23 2342 1bc8 0f42
00000210: 4e03 2142 e5a1 2342 d28f 3442 8682 2dbd
00000220: 1a52 1a42 7800 d441 23b7 1a42 5e65 ce41
00000230: e720 3942 d38e 3642 f780 0d42 b654 1f42
00000240: e268 3f42 4588 3742 7419 d641 7501 4342
00000250: be85 3642 0158 1042 88db 6fbc fcc6 2a42
00000260: 8ee7 7841 2192 c641 b0ff 3942 75e8 2842
00000270: f95d 2842 8a39 f741 11f7 0542 05c5 0342
00000280: 6899 2842 fce5 3842 f305 1642 f423 0342
00000290: e5e0 2d42 3cdb a1bc ecf1 1642 5829 1c42
000002a0: 1654 2a3d d2df 1bbd 9c3d 7ebd 4091 dd3c
000002b0: bee8 373d 2aec 79bd 38c1 9fbc 58d1 27bc
000002c0: 287a ac3c 0a5e 7d3d 348c af3c acd0 4c3d
000002d0: 2850 71bd b84c f641 8cc7 6a3d 7689 6c3d
000002e0: d867 143d 064e 683d a8ff a8bc b073 163d
000002f0: 1e4e 5a3d f6d5 15bd 6c43 1b3d 5078 8fbb
00000300: f0da 923b e819 20bc 28c2 cf41 e802 0ebd

exp_avg f4 [14, 1]
0.0 -39845.203 -1647.0732 24739.14 22070.262 -21185.805 25273.154 -16641.262
-55279.707 -10764.427 3382.8596 2373.1003 -8826.009 4748.7705
00000000: 0000 0000 34a5 1bc7 58e2 cdc4 4846 c146
00000010: 866c ac46 9c83 a5c6 4f72 c546 8602 82c6
00000020: b5ef 57c7 b531 28c6 c16d 5345 9b51 1445
00000030: 09e8 09c6 2a66 9445

exp_avg_sq f4 [14, 1]
0.0 9.019576e+09 1.3550793e+09 2.1222639e+09 1.3561115e+09 1.5892554e+09 2.380426e+09 2.1241208e+09
4.7837445e+09 1.7039916e+09 3.0346346e+08 1.6308758e+08 8.633255e+07 5.9342932e+07
00000000: 0000 0000 f466 0650 bd89 a14e 5bfe fc4e
00000010: 3da9 a14e 3a74 bd4e 6be2 0d4f 0637 fd4e
00000020: 1391 8e4f b221 cb4e e1b3 904d 4e88 1b4d
00000030: 91aa a44c 1560 624c

exp_avg f4 [196, 256]
-0.022116471 0.21609734 -0.018942988 -0.017976847 0.1774092 0.062065464 0.055684254 6e-45
0.34483173 0.1914734 0.2252963 0.05739673 -6e-45 0.09419907 -0.07995889 -0.026781416
0.026948621 0.13256544 0.14308824 6e-45 0.0041616857 0.08228021 0.031014342 0.10191041
-0.04251863 -0.002385706 0.12748082 0.19070776 0.27839258 0.14407404 0.22241372 0.032975845
-0.030526023 -0.19984458 0.29142562 -0.0413615 -0.12256361 0.0 -0.07695265 0.035411403
-6e-45 0.0 0.105934605 -0.024564499 0.025813296 0.0 0.1709918 0.08871532
6e-45 0.091371365 0.111611195 0.047676 0.094992094 0.11942806 0.011972798 0.2744393
0.0066569145 0.14717019 -0.22826304 0.0029380175 0.018753635 0.14189483 0.08060932 0.026705906
0.326571 0.19044898 0.0006743113 0.009434422 0.032950185 0.0053234384 -0.015146089 -0.049386878
-0.0110714305 -0.0060186386 -0.030044569 0.0020844205 0.10226915 0.054225076 0.06913588 0.0
0.39367446 -0.010350846 -0.0045791524 -0.09407349 0.04847946 0.033590008 0.050776124 0.017939562
0.013450784 -6e-45 -0.0047226935 0.18941069 0.036389068 0.06970112 -6e-45 0.27999455
-0.037949763 -0.022547206 0.048730157 0.16040055 -6e-45 -0.06266827 0.05986465 0.06838689
0.16416274 -0.054361325 0.045067787 0.12820597 -0.0033156425 0.21912071 0.010525926 0.24611841
0.10003071 0.041594137 0.10541409 0.06499673 0.07043353 -0.006293256 0.039390996 0.12559475
0.34328222 0.124459855 -0.06496198 0.26598123 0.08019249 0.17364898 -0.020091338 0.097895086
-0.042015173 0.1159088 -0.009891817 0.14415714 6e-45 0.012453856 0.2528123 -0.0035398456
0.10564353 -0.029732142 0.05065644 0.06536602 -0.021080513 0.031348042 0.110848784 -0.14063014
0.13926806 -0.020616453 0.29641744 0.05997525 -0.028544188 0.30241096 -0.028129673 0.020189557
0.0 0.49261087 -0.0565518 -0.030127881 0.19645791 0.17179476 0.001554125 0.117575206
0.048177812 0.13203004 0.015252313 -0.00097387045 -0.027370103 0.2400486 0.4403797 0.091850854
0.16655403 0.12669547 0.1256811 0.10245397 0.0535111 0.11670003 0.08216904 0.09988081
6e-45 0.24655426 0.03577004 -0.021839524 0.09518716 0.11205072 -0.112891704 -0.043051053
0.26900667 -0.14296056 0.15096208 0.11313938 0.030355118 6e-45 -0.03187943 0.10372873
0.1659338 0.26081818 0.040216755 0.008001004 0.011887211 0.06655115 -0.017390294 0.15070358
0.07486194 -0.07289366 0.07637603 0.09200999 0.03629004 -0.00055512023 0.12004123 0.100110866
-0.013294914 0.25745025 0.2691932 0.1990739 0.29465088 0.16963731 0.012218392 0.18438557
-0.0391532 0.08291514 0.10253863 0.11707759 6e-45 0.1399634 0.115052976 0.21715257
0.13676548 6e-45 0.08301721 -0.08603017 0.019315388 -6e-45 0.081648886 0.02198902
0.007873521 -0.048606146 0.006731127 0.0007322669 0.101371214 -6e-45 0.04626212 0.122621916
0.076251715 0.063966334 0.1858669 0.050332073 0.13916676 0.19372004 -6e-45 0.0035405369
0.005110218 0.07990657 0.13245675 0.16676332 0.2008273 -0.11877919 0.06706442 -0.0721885
00000000: 9a2d b5bc 9f48 5d3e 532e 9bbc 2e44 93bc
00000010: c2aa 353e 5b38 7e3d 2c15 643d 0400 0000
00000020: c98d b03e 9a11 443e 13b4 663e d518 6b3d
00000030: 0400 0080 71eb c03d 7dc1 a3bd b364 dbbc
00000040: 5bc3 dc3c 3cbf 073e b985 123e 0400 0000
00000050: c05e 883b 8782 a83d ca11 fe3c 68b6 d03d
00000060: 0428 2ebd 8159 1cbb 558a 023e e548 433e
00000070: 7989 8e3e 2588 133e 6cc0 633e ae11 073d
00000080: b611 fabc 0fa4 4cbe bd35 953e ad6a 29bd
00000090: a102 fbbd 0000 0000 5a99 9dbd 8c0b 113d
000000a0: 0400 0080 0000 0000 3ef4 d83d 7d3b c9bc
000000b0: 6876 d33c 0000 0000 7918 2f3e 61b0 b53d
000000c0: 0400 0000 e920 bb3d 6994 e43d e947 433d
000000d0: 378b c23d b396 f43d 8e29 443c 4f83 8c3e
000000e0: 3f22 da3b c8b3 163e c9bd 69be c18b 403b
000000f0: 39a1 993c e14c 113e 8016 a53d 58c6 da3c
00000100: 5034 a73e 0f05 433e 44c4 303a d592 1a3c
00000110: c6f6 063d 3d70 ae3b 4d27 78bc e549 4abd
00000120: f264 35bc 0038 c5bb 0720 f6bc c69a 083b
00000130: 7d72 d13d 1d1b 5e3d 1d97 8d3d 0000 0000
00000140: b38f c93e 9896 29bc b70c 96bb 9aa9 c0bd
00000150: 6692 463d ad95 093d a0fa 4f3d fdf5 923c
00000160: ad60 5c3c 0400 0080 d3c0 9abb e0f4 413e
00000170: b40c 153d 76bf 8e3d 0400 0080 725b 8f3e
00000180: 3671 1bbd ebb4 b8bc 4699 473d 0b40 243e
00000190: 0400 0080 3958 80bd a334 753d 6d0e 8c3d
000001a0: 471a 283e fba9 5ebd 0099 383d 6d48 033e
000001b0: 404b 59bb 2e61 603e ef74 2c3c 7706 7c3e
000001c0: e7dc cc3d 9d5e 2a3d 58e3 d73d 011d 853d
000001d0: 743f 903d a837 cebb 7458 213d e99b 003e
000001e0: b0c2 af3e cfe4 fe3d c90a 85bd b12e 883e
000001f0: f63b a43d 0ad1 313e 9796 a4bc 387d c83d
00000200: 1a18 2cbd 9861 ed3d 4a11 22bc ee9d 133e
00000210: 0400 0000 420b 4c3c 9d70 813e c1fc 67bb
00000220: a35b d83d d290 f3bc 217d 4f3d 9fde 853d
00000230: 0ab1 acbc ce66 003d b004 e33d 5901 10be
00000240: 499c 0e3e d6e3 a8bc 07c4 973e 9ca8 753d
00000250: 80d5 e9bc 9cd5 9a3e 3370 e6bc 9264 a53c
00000260: 0000 0000 7e37 fc3e dca2 67bd bfce f6bc
00000270: 432c 493e f7ea 2f3e c8b3 cb3a 45cb f03d
00000280: 1956 453d e232 073e d6e4 793c 574b 7fba
00000290: 4437 e0bc 4dcf 753e 7379 e13e 4d1c bc3d
000002a0: 248d 2a3e 75bc 013e 8cb2 003e 63d3 d13d
000002b0: 752e 5b3d 6d00 ef3d 3e48 a83d 4f8e cc3d
000002c0: 0400 0000 b878 7c3e 9b83 123d cde8 b2bc
000002d0: 7cf1 c23d d97a e53d c433 e7bd 4d56 30bd
000002e0: 3ebb 893e 4164 12be ce95 1a3e 9fb5 e73d
000002f0: 4cab f83c 0400 0000 0194 02bd ba6f d43d
00000300: 8dea 293e f689 853e 53ba 243d a516 033c
00000310: 94c2 423c f84b 883d 1776 8ebc 0a52 1a3e
00000320: 3851 993d 4549 95bd 096b 9c3d bc6f bc3d
00000330: dda4 143d 7d85 11ba 2dd8 f53d ed06 cd3d
00000340: e9d2 59bc 85d0 833e b1d3 893e 07da 4b3e
00000350: 7bdc 963e 67b5 2d3e a72f 483c 92cf 3c3e
00000360: 1b5f 20bd 6acf a93d c6ff d13d 60c6 ef3d
00000370: 0400 0000 9152 0f3e e5a0 eb3d 3e5d 5e3e
00000380: 400c 0c3e 0400 0000 ed04 aa3d 9630 b0bd
00000390: 4e3b 9e3c 0400 0080 8837 a73d 5122 b43c
000003a0: f1ff 003c 3d17 47bd c990 dc3b 9af5 3f3a
000003b0: b69b cf3d 0400 0080 597d 3d3d 3321 fb3d
000003c0: dc29 9c3d c800 833d e553 3e3e 0129 4e3d
000003d0: bb81 0e3e 8c5e 463e 0400 0080 5a08 683b
000003e0: 9e73 a73b 0ea6 a33d bea2 073e 01c4 2a3e
000003f0: aca5 4d3e 8142 f3bd 1259 893d 90d7 93bd

exp_avg_sq f4 [196, 256]
0.09462597 1.0332546 0.017930346 0.05892073 0.27835864 0.33744445 1.2774656 7.0694786e-14
1.6730745 0.3914044 0.759148 0.13890165 5.8022644e-05 0.05306553 0.3996154 1.5569054
0.3333686 0.740703 0.6451564 0.003930572 0.10594204 0.6233506 0.053640705 0.78712636
2.7439764 0.009945519 0.65260315 0.13175745 0.53432703 0.30271462 0.51908064 1.4086034
0.22496462 2.9302006 0.50721526 1.4324522 0.76622784 0.0 1.0013239 4.838387
6.636409e-20 0.0 0.32544157 0.030232647 0.10200418 0.0 0.30286 0.69047135
1.02119955e-07 1.8683624 1.6836351 0.01502467 1.0211463 0.05056492 0.20616303 0.63100463
0.008519793 0.1702903 3.4476218 0.00028712326 0.3992758 1.6026133 0.3831525 1.1931093
3.295411 2.2358725 8.819757e-05 0.0034718954 0.58852094 0.085433565 0.06913195 0.23902027
0.06825989 4.35569 1.2002974 0.9216077 0.09635369 0.34896076 1.8395479 0.0
0.7032727 1.5451584 0.7178073 0.5701231 0.058557436 0.9678893 3.4572134 0.040174413
0.0012288174 2.902561e-05 0.006781388 0.15675446 0.20972705 0.528276 2.6834723e-06 3.1650207
0.3326211 0.103142455 0.33436012 0.60106945 1.7887554e-11 0.8344838 0.15403259 0.20202973
1.2096748 0.61854565 0.11831505 0.2877026 0.14549603 1.1610047 0.019032903 1.5707439
2.2509758 0.014868138 0.21457517 0.6105308 0.17057621 0.0030210728 0.12630104 0.8771962
0.44935256 0.19718158 0.44466656 2.5163715 0.3518387 1.7889225 0.08198091 0.4196698
0.2762911 0.18374066 1.4762174 0.17593619 0.0062102242 0.0014184994 1.8866596 0.043278266
0.7448973 0.059630677 0.6355103 0.481497 0.107599355 0.18263732 2.5197713 1.1312807
0.58853966 0.45996648 1.2304432 0.42993295 0.8644708 1.0586737 0.15501168 0.065652534
0.0 2.7547014 0.17706981 0.6523337 0.23331966 5.4517984 0.00025161644 0.14996248
2.0242808 0.23880643 0.037630502 0.3740845 2.1090825 0.88374835 2.1612387 1.2711809
2.2473385 0.66652006 0.43317112 0.26472113 0.88264537 0.10576568 1.3516959 0.62481725
0.00096366 1.8175379 0.026725614 0.8706326 0.4272869 0.6734701 2.4795723 2.184423
4.6537485 1.1076126 3.5477479 1.8161486 2.3598928 0.0018556032 1.0566553 0.95228773
0.2517855 0.39984146 0.9093266 0.5937163 0.023074994 0.43626994 2.916682 0.536472
0.23551704 2.3825986 0.5349632 1.7170589 0.9487135 0.12450862 0.558006 0.043873396
0.014429067 1.8955953 0.31900972 3.28871 0.57345706 1.3960987 0.104862295 0.88368464
0.08210336 0.0298388 0.20728943 0.39651376 0.005827058 0.44453132 0.11692186 0.9132003
0.26434767 3.188567e-08 1.6882706 2.5150628 1.0223194 0.00035101778 1.6155242 0.06257709
0.008926875 0.75713533 0.0011806474 0.2222104 3.4324532 1.6437887e-05 0.015264165 0.10558487
0.9601612 0.034647014 0.20443444 0.27644596 0.43555075 1.0647503 1.4731519e-07 0.0029498923
0.015191495 0.23641862 0.14376663 1.0206028 2.071545 2.1203136 2.2224438 0.5230459
00000000: 43cb c13d b041 843f a9e2 923c dd56 713d
00000010: 0685 8e3e 85c5 ac3e fe83 a33f c530 9f29
00000020: 4e27 d63f 2866 c83e 8657 423f 3c3c 0e3e
00000030: 575d 7338 3e5b 593d 649a cc3e ad48 c73f
00000040: 4aaf aa3e b69e 3d3f f828 253f 07cc 803b
00000050: 24f8 d83d e893 1f3f 5bb6 5b3d 1d81 493f
00000060: 4f9d 2f40 88f2 223c 0011 273f 6deb 063e
00000070: a8c9 083f 69fd 9a3e 78e2 043f 1e4d b43f
00000080: 205d 663e 6888 3b40 dcd8 013f 985a b73f
00000090: 8227 443f 0000 0000 622b 803f 11d4 9a40
000000a0: a2b2 9c1f 0000 0000 47a0 a63e 75aa f73c
000000b0: 91e7 d03d 0000 0000 7710 9b3e bbc2 303f
000000c0: 0a4d db33 8026 ef3f 5b81 d73f 092a 763c
000000d0: ecb4 823f 291d 4f3d 671c 533e 8589 213f
000000e0: 9a96 0b3c 9560 2e3e d6a5 5c40 0889 9639
000000f0: e16d cc3e 6f22 cd3f 912c c43e ceb7 983f
00000100: 04e8 5240 8918 0f40 b6f6 b838 bd88 633b
00000110: 4fa9 163f cbf7 ae3d 0d95 8d3d bbc1 743e
00000120: d7cb 8b3d d061 8b40 58a3 993f 7bee 6b3f
00000130: 1555 c53d fcaa b23e 4e76 eb3f 0000 0000
00000140: ae09 343f c0c7 c53f 38c2 373f 96f3 113f
00000150: ecd9 6f3d 98c7 773f fc42 5d40 ed8d 243d
00000160: 4510 a13a 067c f337 6836 de3b 3e84 203e
00000170: b0c2 563e 193d 073f b415 3436 b38f 4a40
00000180: 504d aa3e 5a3c d33d 4031 ab3e b0df 193f
00000190: 3157 9d2d bba0 553f b8ba 1d3e e2e0 4e3e
000001a0: a0d6 9a3f 0259 1e3f 294f f23d c14d 933e
000001b0: e9fc 143e cd9b 943f e4ea 9b3c 230e c93f
000001c0: fd0f 1040 7e99 733c 98b9 5b3e bf4b 1c3f
000001d0: 88ab 2e3e 31fd 453b 0f55 013e ee8f 603f
000001e0: 8a11 e63e f8e9 493e 56ab e33e 3b0c 2140
000001f0: 3424 b43e 6afb e43f 9be5 a73d f6de d63e
00000200: 0776 8d3e 8326 3c3e b1f4 bc3f 9e28 343e
00000210: 237f cb3b f1ec b93a 107e f13f 8d44 313d
00000220: 97b1 3e3f 4c3f 743d ceb0 223f c686 f63e
00000230: 0d5d dc3d 4705 3b3e ef43 2140 cecd 903f
00000240: 89aa 163f ba80 eb3e 2a7f 9d3f 2c20 dc3e
00000250: f54d 5d3f 9f82 873f 62bb 1e3e d674 863d
00000260: 0000 0000 074d 3040 ca51 353e 57ff 263f
00000270: 59eb 6e3e 2275 ae40 63eb 8339 c48f 193e
00000280: d18d 0140 ac89 743e 7122 1a3d 0188 bf3e
00000290: 35fb 0640 553d 623f bc51 0a40 0eb6 a23f
000002a0: 65d4 0f40 0fa1 2a3f 9bc8 dd3e 8789 873e
000002b0: 0cf5 613f ad9b d83d 5f04 ad3f 06f4 1f3f
000002c0: 219e 7c3a 15a5 e83f adef da3c c7e1 5e3f
000002d0: 59c5 da3e 8968 2c3f 50b1 1e40 96cd 0b40
000002e0: 82eb 9440 40c6 8d3f 4d0e 6340 8f77 e83f
000002f0: 7c08 1740 b637 f33a 7b40 873f 21c9 733f
00000300: 07ea 803e 05b8 cc3e a1c9 683f cbfd 173f
00000310: c507 bd3c c65e df3e ebaa 3a40 3b56 093f
00000320: 612b 713e 7f7c 1840 59f3 083f 96c8 db3f
00000330: e3de 723f 60fe fe3d 7bd9 0e3f 97b4 333d
00000340: e567 6c3c dea2 f23f 3e55 a33e 3a7a 5240
00000350: 15ce 123f 5db3 b23f 0bc2 d63d 2839 623f
00000360: ce25 a83d 8070 f43c ae43 543e da03 cb3e
00000370: e8f0 be3b 9c99 e33e ba74 ef3d 7fc7 693f
00000380: 9458 873e aaf2 0833 4019 d83f caf6 2040
00000390: 5ddb 823f cf08 b839 7fc9 ce3f 6b28 803d
000003a0: 0742 123c 9fd3 413f f4bf 9a3a 208b 633e
000003b0: 50ad 5b40 18e4 8937 8c16 7a3c e13c d83d
000003c0: 20cd 753f 07ea 0d3d 4357 513e 538a 8d3e
000003d0: 8200 df3e bd49 883f b12d 1e34 fb52 413b
000003e0: c0e5 783c b917 723e 8f37 133e 1da3 823f
000003f0: 3194 0440 38b3 0740 853c 0e40 56e6 053f

exp_avg f4 [196]
0.005928293 -1.8117054 -4.2124467 -15.872437 2.063447 7.781948 1.9379172 2.658184
-4.267996 -1.5131632 2.5679553 4.643855 -10.113384 2.427625 2.8439248 0.0
-19.387165 -7.0466285 -27.035753 20.610018 5.0384955 -13.208113 2.484052 -17.554335
2.9165356 0.5060284 0.06639563 0.16270667 -7.2698135 -3.7515094 0.0 -11.946972
-0.8284787 4.6544533 -15.473627 4.2425995 -10.596637 -10.801831 7.786346 1.3128667
0.06975317 1.4187763 -28.7734 25.265615 -14.969112 0.0 -14.146725 12.864864
14.779942 -15.559657 1.688999 -9.809325 -12.710275 -10.164467 15.303173 0.038837485
8.080759 -4.363378 -27.090977 -3.6849444 0.0 -12.004488 -7.887668 9.337223
-1.0652933 -6.528347 -1.008919 -4.5474887 8.239534 -6.797665 2.5057454 -0.4457235
-3.374444 -7.6990814 1.2359182 0.0 -2.8696682 12.64924 -7.8547993 -25.90746
-4.349883 -2.0052009 0.07731142 -1.2678493 -12.048432 -2.078524 56.652058 12.881927
-21.425884 -1.6307759 0.0 9.063895 5.895897 15.70482 -0.46438274 1.0430298
0.31072178 -0.002525041 -0.91913843 6.4085264 -0.1566337 2.3401165 -21.67695 11.700726
-7.6404066 0.0 -2.429782 2.402394 -5.328235 2.2843575 1.9604712 0.004996726
-2.2452161 -1.9323293 0.1896966 1.667006 0.3515281 2.788206 -14.949803 3.2809522
0.0 -2.5844676 0.75661135 -0.615173 0.056156307 -0.015700944 1.870709 0.25848356
-0.17948551 1.2311033 -3.3125074 -2.77889 0.24216169 -10.122198 4.8340006 0.0
-1.5353708 5.879552 0.47084993 0.1121299 0.37936667 -1.5887208 -2.9124544 0.57163787
-4.4323344 -11.850058 -1.9064639 -2.1461086 0.3297036 -0.21926872 0.0 -2.2725353
3.678819 0.14129323 -14.138645 -0.4932676 -0.15136892 0.01383999 -1.2752075 6e-45
-0.079670176 0.017542748 1.2928399 0.22508542 0.6419243 0.0 -2.8678954 0.3888359
0.0 0.0 0.0 0.0 0.0 0.0 0.0 0.0
0.0 0.0 0.0 0.0 0.0 0.016106032 0.0 0.0
0.0 0.0 0.0 0.0 0.0 0.0 0.0 0.0
0.0 0.0 6e-45 0.0
00000000: 2042 c23b f6e5 e7bf 5dcc 86c0 80f5 7dc1
00000010: 840f 0440 b805 f940 ac0d f83f b01f 2a40
00000020: 6c93 88c0 55af c1bf 6159 2440 769a 9440
00000030: 6cd0 21c1 355e 1b40 dd02 3640 0000 0000
00000040: ea18 9bc1 fb7d e1c0 3949 d8c1 51e1 a441
00000050: 5b3b a140 6e54 53c1 b5fa 1e40 476f 8cc1
00000060: 85a8 3a40 148b 013f 6ffa 873d 949c 263e
00000070: 50a2 e8c0 bb18 70c0 0000 0000 cc26 3fc1
00000080: 2e17 54bf 48f1 9440 fa93 77c1 60c3 8740
00000090: d38b 29c1 4dd4 2cc1 bf29 f940 040c a83f
000000a0: c0da 8e3d 769a b53f ec2f e6c1 fb1f ca41
000000b0: 7c81 6fc1 0000 0000 fc58 62c1 7cd6 4d41
000000c0: a47a 6c41 5bf4 78c1 1f31 d83f fff2 1cc1
000000d0: 495d 4bc1 a8a1 22c1 ccd9 7441 0e14 1f3d
000000e0: ca4a 0141 cba0 8bc0 52ba d8c1 21d6 6bc0
000000f0: 0000 0000 6212 40c1 c767 fcc0 4465 1541
00000100: 885b 88bf 38e8 d0c0 4224 81bf 0785 91c0
00000110: 22d5 0341 7986 d9c0 225e 2040 df35 e4be
00000120: e4f6 57c0 e05e f6c0 9132 9e3f 0000 0000
00000130: a5a8 37c0 4963 4a41 845a fbc0 7a42 cfc1
00000140: 3e32 8bc0 3655 00c0 7355 9e3d e348 a2bf
00000150: 61c6 40c1 8a06 05c0 b59b 6242 5f1c 4e41
00000160: 3668 abc1 44bd d0bf 0000 0000 b705 1141
00000170: 30ab bc40 f146 7b41 93c3 edbe 0082 853f
00000180: ed16 9f3e 297b 25bb a84c 6bbf a612 cd40
00000190: 9664 20be 78c4 1540 656a adc1 2c36 3b41
000001a0: 367e f4c0 0000 0000 8c81 1bc0 d3c0 1940
000001b0: e780 aac0 ea32 1240 b8f0 fa3f 93bb a33b
000001c0: 9fb1 0fc0 9156 f7bf d33f 423e 7460 d53f
000001d0: 7efb b33e f871 3240 6532 6fc1 1ffb 5140
000001e0: 0000 0000 eb67 25c0 48b1 413f fa7b 1dbf
000001f0: 2804 663d 449f 80bc 6473 ef3f f557 843e
00000200: 0dcb 37be cb94 9d3f 1f00 54c0 55d9 31c0
00000210: 3cf9 773e 86f4 21c1 22b0 9a40 0000 0000
00000220: 0887 c4bf 4a25 bc40 3e13 f13e 5ca4 e53d
00000230: 593c c23e 345b cbbf a765 3ac0 dc56 123f
00000240: afd5 8dc0 d699 3dc1 0207 f4bf d859 09c0
00000250: e9ce a83e fb87 60be 0000 0000 3871 11c0
00000260: c571 6b40 2caf 103e e437 62c1 928d fcbe
00000270: 7400 1bbe 20c1 623c 003a a3bf 0400 0000
00000280: 1e2a a3bd cfb5 8f3c c77b a53f cb7c 663e
00000290: 2755 243f 0000 0000 998b 37c0 8015 c73e
000002a0: 0000 0000 0000 0000 0000 0000 0000 0000
000002b0: 0000 0000 0000 0000 0000 0000 0000 0000
000002c0: 0000 0000 0000 0000 0000 0000 0000 0000
000002d0: 0000 0000 ccf0 833c 0000 0000 0000 0000
000002e0: 0000 0000 0000 0000 0000 0000 0000 0000
000002f0: 0000 0000 0000 0000 0000 0000 0000 0000
00000300: 0000 0000 0000 0000 0400 0000 0000 0000

exp_avg_sq f4 [196]
0.0014403637 1393.6783 5782.8457 8229.821 2616.8176 2002.46 1016.9318 3360.6445
5555.8164 3528.3135 420.97876 822.63513 1142.3132 1598.6906 3314.8767 0.0
7373.7476 5042.046 4837.031 1687.0314 7368.038 4649.153 1088.3108 3868.9585
98.17795 83.66607 11.036975 13.395236 5043.7407 6638.043 0.0 2593.4224
4754.245 2204.165 4284.4746 2827.4607 1252.1118 1779.9119 3223.7854 34.87349
8.866008 17.46905 4275.9194 5698.662 6103.6436 0.0 1645.5135 4528.7505
2020.2054 7635.2437 930.0209 3570.4475 647.2333 1460.4392 2354.5854 20.225773
1407.1649 953.25146 1943.2773 1984.0817 0.0 2375.8608 3036.757 1114.8798
1445.8251 105.75064 279.74332 11.13556 3386.587 557.7293 1552.4937 647.89716
326.87256 1375.6913 2768.6147 0.0 1801.1584 4623.2046 283.89813 7009.483
515.89044 32.18666 2.8660998 64.92378 769.27325 379.22165 5060.006 639.23083
6144.674 6572.5083 0.0 4631.2993 372.54202 3378.356 6.6527243 12.0993805
8.103635 0.24400942 142.0762 1100.1465 11.094398 539.6633 3705.9429 1732.3809
184.71489 0.0 429.96783 245.04706 558.08356 234.19864 33.345028 0.024660025
179.3745 176.8033 216.15388 658.71515 3.8137019 153.36472 688.58655 422.6341
0.0 755.9505 2655.6777 43.654137 8.16303 1.6757112 469.44534 18.778814
5.870259 127.00552 60.90535 111.53983 70.53311 246.53716 235.80367 0.0
9.121565 1028.2378 18.712543 0.20899871 125.07125 64.22174 285.65082 20.680132
57.804478 281.3306 52.991478 115.32004 20.13395 11.96071 0.0 60.34597
946.3669 3.6055422 625.75385 4.791853 10.52195 0.26249173 21.8183 0.0017827058
35.38895 1.0900502 26.01902 0.52421016 188.60797 0.0 82.853455 26.3096
0.0 0.0 0.0 0.0 0.0 0.0 0.0 0.0
0.0 0.0 0.0 0.0 0.0 0.96513367 0.0 0.0
0.0 0.0 0.0 0.0 0.0 0.0 0.0 0.0
0.0 0.0 0.0024879687 0.0
00000000: 96ca bc3a b535 ae44 c4b6 b445 4997 0046
00000010: 158d 2345 b84e fa44 a33b 7e44 500a 5245
00000020: 889e ad45 0485 5c45 487d d243 a6a8 4d44
00000030: 06ca 8e44 19d6 c744 072e 4f45 0000 0000
00000040: fb6d e645 5e90 9d45 3f28 9745 01e1 d244
00000050: 4e40 e645 3949 9145 f209 8844 56cf 7145
00000060: 1c5b c442 0755 a742 7397 3041 e352 5641
00000070: ed9d 9d45 5870 cf45 0000 0000 c216 2245
00000080: f691 9445 a4c2 0945 cce3 8545 5fb7 3045
00000090: 9483 9c44 2e7d de44 917c 4945 747e 0b42
000000a0: 2bdb 0d41 9dc0 8b41 5b9f 8545 4c15 b245
000000b0: 26bd be45 0000 0000 6fb0 cd44 0186 8d45
000000c0: 9386 fc44 f399 ee45 5681 6844 2927 5f45
000000d0: eece 2144 0e8e b644 5e29 1345 62ce a141
000000e0: 47e5 af44 1850 6e44 e0e8 f244 9d02 f844
000000f0: 0000 0000 c67d 1445 1dcc 3d45 275c 8b44
00000100: 67ba b444 5480 d342 25df 8b43 412b 3241
00000110: 64a9 5345 ad6e 0b44 cc0f c244 6bf9 2144
00000120: b06f a343 1ff6 ab44 d609 2d45 0000 0000
00000130: 1225 e144 a379 9045 f6f2 8d43 dd0b db45
00000140: fdf8 0044 24bf 0042 2e6e 3740 fad8 8142
00000150: 7d51 4044 5f9c bd43 0c20 9e45 c6ce 1f44
00000160: 6405 c045 1164 cd45 0000 0000 65ba 9045
00000170: 6145 ba43 b225 5345 1ee3 d440 1097 4141
00000180: 7da8 0141 9bdd 793e 8213 0e43 b084 8944
00000190: a782 3141 74ea 0644 169f 6745 308c d844
000001a0: 03b7 3843 0000 0000 e2fb d643 0c0c 7543
000001b0: 5985 0b44 da32 6a43 4f61 0542 d203 ca3c
000001c0: df5f 3343 a5cd 3043 6527 5843 c5ad 2444
000001d0: b113 7440 5e5d 1943 8a25 2c44 2a51 d343
000001e0: 0000 0000 d5fc 3c44 d8fa 2545 d69d 2e42
000001f0: c59b 0241 b47d d63f 01b9 ea43 033b 9641
00000200: 29d9 bb40 d402 fe42 149f 7342 6514 df42
00000210: f410 8d42 8389 7643 bdcd 6b43 0000 0000
00000220: eef1 1141 9c87 8044 4ab3 9541 c203 563e
00000230: 7b24 fa42 8871 8042 4ed3 8e43 e970 a541
00000240: c937 6742 51aa 8c43 46f7 5342 dca3 e642
00000250: 5412 a141 115f 3f41 0000 0000 4662 7142
00000260: 7b97 6c44 34c1 6640 3f70 1c44 dc56 9940
00000270: e859 2841 5165 863e e18b ae41 aea9 e93a
00000280: 498e 0d42 c486 8b3f f426 d041 a332 063f
00000290: a49b 3c43 0000 0000 f8b4 a542 107a d241
000002a0: 0000 0000 0000 0000 0000 0000 0000 0000
000002b0: 0000 0000 0000 0000 0000 0000 0000 0000
000002c0: 0000 0000 0000 0000 0000 0000 0000 0000
000002d0: 0000 0000 0013 773f 0000 0000 0000 0000
000002e0: 0000 0000 0000 0000 0000 0000 0000 0000
000002f0: 0000 0000 0000 0000 0000 0000 0000 0000
00000300: 0000 0000 0000 0000 300d 233b 0000 0000
