models/PPOAgent/cool_reward_full_data_short_epochs.pt (torch, 697691 bytes, 15 tensors)

net.base.em.weight f4 [14, 1]
000000 00 00 00 00 f4 a7 35 bf dc 17 69 bf 29 e8 8f 3f
       0.0 -0.709594 -0.9105203 1.1242725
000010 31 05 64 bf 88 e3 3a 3f 18 86 37 bf bd 4c 47 bf
       -0.8907042 0.73003435 -0.71688986 -0.7785147
000020 4d a7 e4 3e f5 d0 f7 3e 0e d8 a7 3e b9 97 b0 be
       0.4465889 0.4840161 0.32782024 -0.34490755
000030 2f 39 09 be d5 48 de be
       -0.1340072 -0.4341494

net.out.weight f4 [196, 256]
000000 76 11 8e 3b c9 28 22 bd 9f 1c 26 bd 8a 31 9d 3c
       0.0043355776 -0.039589677 -0.04055464 0.019188661
000010 ef 53 17 3d 0a d9 93 bd 00 74 76 bc bc 1a 48 3d
       0.03694528 -0.07219131 -0.015042305 0.04885362
000020 05 6e c6 bb 7f c3 b7 3c 39 df 4b 3b 17 9b d2 3b
       -0.006055596 0.022432087 0.0031108393 0.0064271796
000030 70 fa 5e bd 44 fd ac bd 10 ba 6f bd 1f 61 46 bc
       -0.054438055 -0.08446744 -0.058527052 -0.012108116
000040 17 78 89 3d aa 0e 00 bd b7 62 08 3d a7 34 8e bd
       0.067123584 -0.031263985 0.033297267 -0.069436364
000050 fa 17 4b 3b 3e 20 9a bd 92 e0 8e bc c3 81 6c 3d
       0.0030989633 -0.07525681 -0.017441068 0.057740938
000060 85 66 49 bd 94 96 ee 3c 26 f1 9a 3c 13 7f bc bd
       -0.049170036 0.029124536 0.018913817 -0.09203925
000070 5f 9f 1e bd 22 f1 6b 3c 1d a1 99 bc 4d 9d 77 bc
       -0.038726207 0.014400752 -0.018753583 -0.015113187
000080 98 c8 9f bd d6 88 b1 bd 1e 5f 8f 3c 99 af d4 bb
       -0.07801932 -0.086686775 0.01750141 -0.0064906594
000090 64 47 38 bd 0e fe 0f bc 59 c8 b0 3c 81 e8 17 bd
       -0.04498996 -0.008788599 0.021579908 -0.037086967
0000a0 b4 c1 68 bd 24 7f 80 bd c0 48 11 3c 8a 67 f9 3c
       -0.056825355 -0.0627425 0.008867443 0.03044488
0000b0 89 0d 6b 3c 36 4e 98 3c b4 3d a8 3b 22 f3 ad bd
       0.014346489 0.018591981 0.0051343087 -0.084936395
0000c0 5a 9d 78 3c d5 06 92 bd 87 08 84 3c 58 f6 60 bd
       0.015174234 -0.07130209 0.016117347 -0.05492243
0000d0 df 0a 25 bd 2a 48 53 3c 27 6c 77 bd 00 77 ad 3c
       -0.04029357 0.012895623 -0.060405876 0.021174908
0000e0 81 63 e9 bb 2e 43 d8 bb b8 c3 96 bc c8 99 b0 bc
       -0.0071224575 -0.0065998053 -0.018403873 -0.021557704
0000f0 7e a8 48 bc 84 3c 18 bc 9e 45 af bd 4b d9 ec 3c
       -0.012247203 -0.009291772 -0.085582 0.028912207
000100 31 1b 85 bb f1 fc d9 3c 47 2c 08 3d b1 76 2a bd
       -0.0040620794 0.02660987 0.03324535 -0.0416171
000110 a9 0f 0a bd 26 88 1f 3d 21 14 24 bd f1 4f 54 3c
       -0.03370634 0.0389482 -0.04005826 0.012958513
000120 53 34 b0 bb 9a 8c aa bc 65 e6 41 bd b1 f9 91 bd
       -0.0053773313 -0.020818997 -0.047338862 -0.07127703
000130 72 11 75 bc 79 53 ad bb 77 79 94 bc 10 27 95 bd
       -0.014957773 -0.0052894917 -0.018124325 -0.07282841
000140 bc 96 a7 bd 19 86 0d 3c 5c a9 17 3c a1 b0 20 bd
       -0.08183047 0.008637928 0.009256687 -0.039230946
000150 5d 90 63 bd 1f 52 4d bb c1 4f b7 bd d6 b8 92 bd
       -0.055557597 -0.0031329466 -0.08950759 -0.07164161
000160 3a dc 8e bd d6 de 17 3d 48 b1 27 bd 00 c8 01 3d
       -0.06975599 0.037077747 -0.040940553 0.031684875
000170 87 db e4 bb 81 87 e9 bc db 72 18 bd 96 6b 85 bd
       -0.0069841775 -0.028506996 -0.03721891 -0.06514661
000180 dd 5e 00 bd b7 2d 26 3d b9 15 b9 bc d7 43 58 bc
       -0.03134047 0.04057094 -0.022593366 -0.013199768
000190 13 5d 62 bd 1b 77 10 3c 9d aa 89 3b 07 d6 45 3c
       -0.055264544 0.008817459 0.004201247 0.012074954
0001a0 76 ea a4 bd 1b 1f ab bd 53 68 d3 3b 3a 41 23 bd
       -0.080525324 -0.08355542 0.0064516454 -0.039857127
0001b0 9c 16 6c bd 30 0b e1 bc 73 27 42 bb c0 d5 ce 3c
       -0.05763875 -0.027471155 -0.0029625564 0.025248408
0001c0 e1 99 f3 bc d2 c9 c8 bd c1 68 7a bd 19 d9 7d bd
       -0.029736461 -0.09804119 -0.061135057 -0.06197462
0001d0 18 fd 1d bd 55 fc 36 bd 39 91 d3 bb 35 e5 c8 bd
       -0.038571447 -0.044674236 -0.006456521 -0.09809343
0001e0 a6 9f e5 bc 64 57 98 bd 61 08 97 3c c4 86 ea bc
       -0.028030228 -0.074385434 0.018436613 -0.028628714
0001f0 f1 f2 73 bc 43 d2 31 bc 94 4c 14 3d f3 1f f3 bc
       -0.014889465 -0.010853353 0.036205843 -0.02967832
000200 fc a0 33 bd 21 39 5a bd a7 72 54 bd 1b 0b e6 bc
       -0.0438547 -0.05327714 -0.051867153 -0.028081467
000210 72 e9 80 bc 81 c7 ae 3c 25 6c aa bc 57 f1 92 bd
       -0.015736315 0.021335365 -0.02080352 -0.07174938
000220 d7 ec a7 bc e4 33 a9 bc 18 6e 87 3c c3 09 98 3a
       -0.020498676 -0.020654626 0.016531989 0.0011599589
000230 00 66 f4 3c e4 d0 73 bc d7 a4 19 3c 53 41 a5 3d
       0.029833794 -0.014881346 0.00937768 0.080691
000240 09 74 c8 bc 69 49 1c bd cc 4c 3c bd b4 c9 c2 bb
       -0.024469392 -0.038155947 -0.045971677 -0.005944455
000250 ee 1d 85 bd 6f 58 a4 bb 54 cc 3c bc 25 da 8f bd
       -0.06499849 -0.005015425 -0.011523325 -0.0702403
000260 9f 64 01 3c ba 9d 24 bc b5 38 ca 3c b3 61 8d bd
       0.007897525 -0.010047371 0.024685243 -0.069034
000270 55 b1 ae bd bd 22 7f bd b2 c3 f7 bc f2 f8 c0 3c
       -0.08529917 -0.06228899 -0.030244682 0.023556206
000280 fe bb 27 bd 49 bf 63 bc 17 b8 f8 ba dd d1 5f 3b
       -0.040950768 -0.013900586 -0.0018975761 0.0034152188
000290 9d 10 ed bb c8 13 4a bd 09 02 db 3c 58 a5 54 bc
       -0.0072346465 -0.04933527 0.026734369 -0.012978874
0002a0 8a 4b 75 ba a4 bd e4 3b 24 39 38 bb 7b 68 af bb
       -0.00093572645 0.0069806147 -0.002811023 -0.005353031
0002b0 10 df 70 3c 01 e6 56 bd 9a 83 8d bd 74 99 4e bc
       0.01470162 -0.052465443 -0.06909867 -0.012609828
0002c0 8f b6 ab bd 27 25 c2 3c 28 b7 0e bc 6e c3 56 3b
       -0.0838443 0.023699356 -0.00871066 0.0032770294
0002d0 b2 26 62 bb dd 03 93 bc 32 45 5d bd 91 f1 e3 bc
       -0.0034507927 -0.017946178 -0.054021068 -0.027825149
0002e0 ad 85 08 b9 35 3b d5 bc 03 ca 8b bd 30 69 2d bd
       -0.00013019769 -0.026029209 -0.0682564 -0.042336643
0002f0 a5 6f c5 3c 48 33 2f bd 77 1b 8d bd 17 0b d8 3c
       0.024101088 -0.042773515 -0.06890004 0.026372476
000300 b3 49 60 bd 97 b6 66 3c 6d 2e 1d bd a4 45 a6 bc
       -0.054757785 0.014081619 -0.038374353 -0.02029688
000310 15 40 96 bc 38 d1 06 3d ae ac 57 bd 6e bb 10 3b
       -0.018341104 0.03291437 -0.052654915 0.0022084373
000320 a0 a1 0b 3b 3d e4 f5 bc ee 65 06 bd f0 89 11 bc
       0.0021306053 -0.030016059 -0.03281205 -0.0088829845
000330 e5 69 70 3c 6b 83 08 bd 2f 7e d1 3c 70 d3 a6 bd
       0.014673685 -0.033328455 0.025572864 -0.08145797
000340 f9 f0 12 3d da ad ef bb f2 d3 bf bb ab b2 70 bd
       0.03587434 -0.007314426 -0.0058541233 -0.05876414
000350 74 bc 2e 3d 78 04 10 bd 27 0d e0 3c fc 95 43 3c
       0.04266019 -0.03516051 0.027350022 0.0119376145
000360 24 65 48 bd b1 37 20 bc ce 14 73 3c 05 7a 1a bd
       -0.04892458 -0.009778903 0.014836503 -0.037714023
000370 b3 b3 a8 bd b7 27 2d bc b8 2a 53 3c f0 42 bd bb
       -0.082374 -0.010568551 0.012888603 -0.005775802
000380 62 a6 9c bd 02 34 05 bd e1 03 ab bd 17 61 bc bc
       -0.076489225 -0.0325203 -0.08350349 -0.022995515
000390 ca 0f ba 3c ec e9 6b bd 98 d0 c8 bc 96 0e 03 3d
       0.022712607 -0.057596132 -0.024513528 0.031996332
0003a0 17 dc 96 bd d3 f1 e8 3c 5e d1 ec 3c 34 00 8f bd
       -0.073661976 0.028435623 0.028908428 -0.069824606
0003b0 a8 06 ab bc 12 15 83 3d 5e a3 a3 bd 8e 65 08 3d
       -0.020877197 0.06400503 -0.07990144 0.033299975
0003c0 fd a8 7e bc ba 72 46 bb 46 aa a2 bd 97 17 bc bd
       -0.01554322 -0.0030280785 -0.07942633 -0.09184187
0003d0 3a 8b cf 3b 55 fb 11 bd e1 6a a4 bd db e6 29 3d
       0.006333736 -0.03564008 -0.08028198 0.041479927
0003e0 bb c5 54 bd c9 8d d5 3b c7 61 4d bc b1 5c 94 bd
       -0.051946383 0.0065171462 -0.012535519 -0.07244242
0003f0 e1 04 68 bd 6b c0 b8 bd a9 bd a6 bd 87 37 59 bd
       -0.056645278 -0.09021076 -0.081416436 -0.05303147

net.out.bias f4 [196]
000000 b5 c6 f6 bc 54 a7 2f 3b 8b 91 1a 3d c5 5c 47 3d
       -0.030124048 0.0026802616 0.037736457 0.048672456
000010 a0 de ce 3c 4e a8 18 3b b0 fd f7 39 f2 48 41 bc
       0.02525264 0.0023293677 0.00047300523 -0.011797177
000020 6c 8e 5f bd fa 08 56 bd 68 15 97 3c 27 b8 d4 bc
       -0.054579183 -0.052254654 0.018442824 -0.025966717
000030 0c b5 03 3d c6 13 93 bd bb 84 19 3c 42 be 88 bd
       0.03215508 -0.07181506 0.009370024 -0.06676914
000040 6b c5 80 3d 8e 88 b7 bc 5c e8 91 bc 0d 12 d7 bc
       0.062876545 -0.022403982 -0.017810993 -0.026253724
000050 23 d0 11 bd 04 02 75 bd c3 49 44 3d 19 bb 2c bd
       -0.035598885 -0.059816375 0.047921907 -0.042170618
000060 96 e5 07 bd d7 e5 50 bd 2c 0a e0 bc d3 71 98 bd
       -0.033177935 -0.051000442 -0.0273486 -0.07443585
000070 c1 d0 54 3d 8e 2d 7c bb 71 93 81 3a 43 b9 4f 3d
       0.051956896 -0.00384793 0.000988586 0.05071379
000080 03 5c 0a 3d 5f c6 5f 3b a2 a0 be ba de 43 15 bd
       0.033779155 0.0034145338 -0.0014543722 -0.036441676
000090 ce a6 44 3c ae ad 2c bd 33 89 20 3c 61 23 47 3d
       0.01200266 -0.04215782 0.009798336 0.048617724
0000a0 b6 74 1d ba 37 71 2d bc ed fa 82 3c 0a f5 0a ba
       -0.0006006466 -0.010586075 0.015988791 -0.0005300796
0000b0 83 15 19 3d 87 ca 92 bd ca 93 b8 3c 6a 00 e2 3b
       0.03737403 -0.07167535 0.022531409 0.006897022
0000c0 14 0c f0 ba 30 97 a7 bc 28 60 ec bc de 5e cc 3c
       -0.0018314146 -0.020457834 -0.028854445 0.02494758
0000d0 2f 0e 5e 3d 4a 3a d3 3c e5 24 22 bd 48 07 1a 3c
       0.054212745 0.02578463 -0.039585967 0.00940115
0000e0 ea d9 18 3b 7b 93 94 bc 04 c3 02 3d 54 f6 8c 3c
       0.0023323246 -0.01813673 0.031924263 0.017207302
0000f0 3b f6 1d bd 04 37 5a bd 14 9d 58 bc 3f ca 8d 3a
       -0.0385649 -0.053275123 -0.013221044 0.001081772
000100 6e 35 e7 bc d8 e3 53 3d 46 14 5c 3d 68 61 f8 3c
       -0.02822372 0.05173096 0.05373027 0.030319884
000110 61 3c 37 3d 2d 24 10 bd ab db 40 3c f9 32 12 bd
       0.044735316 -0.03519075 0.011771123 -0.035693143
000120 3b 80 0e 3d e4 3c 5f bd b4 20 63 3d 0c 5d 29 bd
       0.03479026 -0.05450143 0.05545111 -0.041348502
000130 16 cf 29 bb 34 c7 ab 3b 80 f0 b5 3c 0c 44 53 3d
       -0.0025910786 0.0052422527 0.022209406 0.051578566
000140 87 cc e0 3c e3 86 37 bd 78 ce 6f 3d 2b f4 5e bd
       0.027441276 -0.044806372 0.058546513 -0.054432075
000150 81 db 02 bd e7 7f a3 bc da 64 80 3c bc 5f 74 bb
       -0.031947616 -0.01995845 0.01567309 -0.0037288507
000160 8a 14 63 bd 04 0d 72 bd 58 b6 72 bd 98 bf 3e 3d
       -0.05543951 -0.059094444 -0.059255928 0.046569437
000170 e8 1f 65 bd 77 91 07 bd 48 4a 31 3d 79 c5 56 bd
       -0.05593863 -0.03309771 0.04328373 -0.05243442
000180 b2 bb bd 3c a6 a5 3a bd b2 86 34 bc 36 05 ec ba
       0.02316079 -0.04556813 -0.011018442 -0.0018006924
000190 76 36 98 bd bf 7b c9 3c 55 97 2c bd 1f 27 77 bd
       -0.074322626 0.02459514 -0.04213651 -0.060340043
0001a0 b8 25 65 bc 2e 1c a5 3c b1 95 75 bc e7 06 2e bd
       -0.013986044 0.020155039 -0.0149893025 -0.04248705
0001b0 d9 84 67 bd 91 5e e2 3c 6b 82 52 bd 48 14 bb bc
       -0.056523178 0.027632983 -0.051393908 -0.02283682
0001c0 06 fd 48 bd 86 87 78 bc 9e ab 7a 3a d9 b5 d9 bc
       -0.049069427 -0.01516903 0.0009562316 -0.02657597
0001d0 08 2a 33 3c 41 67 d7 bc d9 a7 6a bd 77 cf ce bb
       0.010935314 -0.026294352 -0.05728898 -0.006311353
0001e0 c0 9d 52 bd 35 81 f9 b9 71 af 25 3d 3a c1 9f bc
       -0.051419973 -0.00047589248 0.040450517 -0.019501317
0001f0 54 cb c9 3c d0 a9 3b bd 4e b4 32 bd b4 74 94 3c
       0.024633087 -0.045816243 -0.043628983 0.018122055
000200 c2 cd 06 bd 95 0a 5d 3d 4f 8a be bc 3b 8d 76 3c
       -0.03291107 0.05396517 -0.02325931 0.01504832
000210 ea 3f 2f 3d 88 33 b9 bb d9 bd 3a bc 7f ff c6 bd
       0.042785563 -0.005651895 -0.011397802 -0.09716701
000220 0d c9 28 bd d5 37 1f 3d 68 01 fd 3c e8 c8 25 3d
       -0.041207362 0.038871605 0.03088446 0.040474802
000230 89 7d 7d bd 59 cf 1e bd f0 f5 fa 3c 77 d6 83 ba
       -0.061887298 -0.03877196 0.03063485 -0.0010058422
000240 bb 82 83 bd d0 47 25 bd 76 f0 ef bb af a5 48 bd
       -0.06421419 -0.04035169 -0.0073223663 -0.048986133
000250 18 35 ac 3c 9f 43 f2 3c 9b a6 d0 ba 38 4b 01 bd
       0.02102141 0.02957326 -0.0015918793 -0.031565875
000260 cc b1 1d 3d 5b 1a b8 3a fb 1b 88 3c 6d 2d db bc
       0.03849964 0.001404594 0.016614905 -0.02675506
000270 49 3d 0d bc f6 65 3b bd 03 b8 48 b9 1d c7 8a bd
       -0.008620569 -0.045751534 -0.00019142036 -0.06776259
000280 7f 03 05 3c f2 79 5c 3c 47 59 59 bb d7 91 e2 bc
       0.008118509 0.013456808 -0.0033164786 -0.027657432
000290 50 60 3a bd 91 bf a8 bd 59 6f 53 bd 9e 4b a9 bd
       -0.045502007 -0.082396634 -0.05161986 -0.08266376
0002a0 f2 20 19 bd 0d 87 80 bd 19 c0 79 bd d1 07 cf bd
       -0.037384935 -0.06275759 -0.060974214 -0.10108913
0002b0 fa c4 2c bd fe 61 d9 bc a5 41 b2 bc 7e 21 f2 3b
       -0.04218004 -0.026535984 -0.021759817 0.0073892465
0002c0 da 85 66 bd 46 09 a8 bd 0b ae 79 bd 82 b3 92 bd
       -0.056279995 -0.08204894 -0.060956996 -0.07163145
0002d0 50 86 8b bd f2 9f 22 3c 08 d2 54 bc 30 eb da bc
       -0.068127275 0.009925829 -0.0129895285 -0.026723474
0002e0 a7 3b 59 bd 55 b4 f5 3a 77 0b 91 bd cb 54 ff 3b
       -0.053035405 0.001874576 -0.07082265 0.0077920905
0002f0 0a 81 88 bd aa d0 d2 bc e8 59 16 bc 4c 69 36 3c
       -0.06665237 -0.025734264 -0.009176709 0.011133503
000300 54 20 7a bd 86 24 97 bd 23 5e 5f bd 32 34 92 bd
       -0.061065987 -0.07380013 -0.054533135 -0.07138862

base.em.weight f4 [14, 1]
000000 00 00 00 00 52 7d 2f 3e e0 39 61 bf b0 99 0c 40
       0.0 0.1713765 -0.87978935 2.1968803
000010 55 2f 80 bf 2d f4 0a 3f 34 f0 f0 bf 3b af d2 bf
       -1.0014445 0.5427883 -1.8823304 -1.6459726
000020 27 3e 34 3d 67 85 12 bf 81 b4 9f 3f 11 6d ce 3e
       0.044004586 -0.57234806 1.247696 0.40317586
000030 2e 18 e8 be 99 44 98 3e
       -0.45330948 0.29739836

value_head.weight f4 [1, 256]
000000 d7 ff 0b 3d 71 88 be bc a8 cd f3 3c c6 58 0b 3c
       0.034179535 -0.02325842 0.02976115 0.008505052
000010 c6 37 69 bd a8 4f 65 3c 70 42 cc 3c 37 01 2e bd
       -0.056937955 0.013996042 0.024934024 -0.042481627
000020 d7 01 07 3d bb db be 3c 0b 9b 63 bd d5 f1 80 3c
       0.03296074 0.023298135 -0.055567782 0.015740314
000030 ef fd c4 3b 53 5e 1e 3d 92 9f 41 bd f0 c0 cd bc
       0.0060117166 0.038664173 -0.04727132 -0.025116414
000040 58 3b 40 3b 25 79 06 bc 4e bb 4f bc 48 61 80 3c
       0.0029332247 -0.008207594 -0.012678934 0.015671387
000050 d1 6c 39 bb 12 3b 71 bd b5 ed b1 bc c7 bf 52 3c
       -0.002829362 -0.058894224 -0.021719793 0.012863106
000060 e1 02 25 bd 30 64 24 3d 68 82 29 3d 2a 06 97 3c
       -0.04028595 0.04013461 0.04138413 0.018435556
000070 f9 e0 73 bd 30 fe f5 3c 09 e2 1a ba 61 4e cd 3c
       -0.059540723 0.030028433 -0.00059083157 0.025061788
000080 c4 6a 5a bd 0b 44 1c 3d 5c e8 24 bd d0 d4 2c 3d
       -0.053324476 0.03815083 -0.040260658 0.04219514
000090 01 32 18 3d 0b d6 cb bc 6e 56 1a bd 6c 20 92 3d
       0.037157062 -0.024882337 -0.037680082 0.0713509
0000a0 c5 51 19 3c 9c 78 c9 bc 94 f2 e1 3c d5 c3 49 3c
       0.009357874 -0.024593644 0.02758149 0.012314756
0000b0 f6 b7 0c bd 82 32 0c bd 1a ac 78 3d aa 34 50 3c
       -0.034355126 -0.034227856 0.060711004 0.012707869
0000c0 2e 47 35 bd f5 12 4c bc 57 a5 38 3c fe fe dd 3c
       -0.044257335 -0.012455692 0.011269889 0.027099129
0000d0 84 59 63 3d 0e fa b6 3c 4b d4 37 bd 2a 44 74 3d
       0.05550529 0.022336032 -0.044880193 0.05963532
0000e0 8d 15 84 3d 62 4d 6a bb cb 99 a3 b9 f0 4a 19 bc
       0.06449423 -0.003575169 -0.00031204367 -0.009356245
0000f0 48 9b 30 3c 89 7e 19 b7 60 b8 89 3d 73 75 da 3c
       0.010779209 -9.148972e-06 0.0672462 0.026667332
000100 81 d4 0c bd 8a e6 ef bc 6b a7 00 ba 85 5e 0f bd
       -0.034382347 -0.029284734 -0.000490776 -0.03500225
000110 28 50 1e bd 4f a2 a1 3c 5c 25 30 3d 0a d2 81 3c
       -0.03865066 0.019730715 0.04300438 0.015847225
000120 94 66 de 3a 0a 2c aa 3c 6e 5b 21 3d 17 00 cf 3c
       0.0016967827 0.020772953 0.039393835 0.025268598
000130 ee 5d d6 3c 87 f6 c8 3b 9c 70 a3 bc a0 3d 5b bd
       0.026167836 0.006132904 -0.019951157 -0.053525567
000140 0a ae 0c bd 8e 32 20 3d a4 50 21 bd 34 52 95 3c
       -0.034345664 0.039110713 -0.039383546 0.018227674
000150 dc b6 65 3d 3d 67 7f bc 41 e2 32 bb a3 fa 97 3b
       0.05608259 -0.015588579 -0.0027295502 0.0046380325
000160 b4 ae ad 3c a1 1f 25 3d 68 5a b6 bc 7b 62 63 3d
       0.021201469 0.040313367 -0.022259906 0.05551384
000170 cc f6 28 3c f6 24 11 bd f9 03 24 bc 1f c3 cc 3c
       0.010312747 -0.03543564 -0.010010713 0.024995385
000180 bb 3d 6d 3d bf 5a 05 bd 5d 67 00 3c 21 51 1d 3d
       0.0579202 -0.032557245 0.007837144 0.03840745
000190 0f 9f 1f 3d 96 99 19 bd 04 a4 50 bd 6b 27 0f 3d
       0.03897005 -0.037499987 -0.050937667 0.0349497
0001a0 5c fa 95 39 82 dc 7a 3d 01 71 6a 3c 7e 22 12 3d
       0.00028606027 0.06124545 0.014309169 0.035677426
0001b0 41 fd 0d 3d 81 52 73 bd 55 c5 fc 3c 1c 31 7c bc
       0.03466535 -0.059404854 0.030855814 -0.015392568
0001c0 a1 f6 3e bd 50 de 22 3d 7e d4 17 3d 18 ee 0e 3d
       -0.046621922 0.039762795 0.037067883 0.034895033
0001d0 f5 cd 20 bd 46 03 3c bd 6c 28 72 3d 50 38 14 3d
       -0.039258916 -0.04590156 0.05912058 0.036186516
0001e0 b3 3d 87 bc a2 52 20 3d a9 bb 59 3c e1 79 28 bd
       -0.016508913 0.039141305 0.013289371 -0.041131858
0001f0 e9 c4 43 3d 1b 43 2e 3d 4e 15 fb 3c 6a b4 23 3b
       0.04779521 0.042544466 0.030649807 0.0024979361
000200 02 bd 63 bd 7f c8 4d 3d 8a 1a 6f 3d 6e 45 5a 3d
       -0.055600174 0.050240036 0.05837492 0.05328887
000210 23 49 05 bd cb 2c b5 bc df 5e 5a 3d 82 6a c9 ba
       -0.03254045 -0.022116086 0.053313132 -0.0015366825
000220 02 94 08 3d 79 af 54 3c c5 a0 20 bd fa e8 7c 3c
       0.033344276 0.012981289 -0.03921582 0.015436405
000230 91 b8 76 3d 42 55 ee ba 42 54 d7 bc 18 4d 23 bb
       0.06023461 -0.0018183368 -0.026285294 -0.0024917778
000240 56 df 7d bd d5 72 1f 3d 20 66 9d 3c 14 6a 62 3d
       -0.061980568 0.03892787 0.019213736 0.055276945
000250 59 88 ec bc 70 ed 68 bd 9e 06 16 bd 6d de 6a 3c
       -0.02887361 -0.056867063 -0.036627404 0.014335257
000260 12 11 2c bc 01 1b 20 3d 94 b5 18 bd 8c 14 f2 3c
       -0.010502117 0.039088253 -0.03728254 0.029550813
000270 1a f2 31 bd 39 6e 5f 3d e9 4f 86 bc d3 f5 15 bd
       -0.043443777 0.054548476 -0.016395526 -0.03661139
000280 dd 79 3d 3d ea 73 d8 bc e8 b7 82 3d ee a9 cb bc
       0.046258796 -0.02642246 0.063827336 -0.024861302
000290 b6 6e 2c 3d 05 18 63 3d a8 56 41 3c 46 bb 47 bd
       0.04209777 0.05544283 0.011800446 -0.048762582
0002a0 3e 34 ff 3c 7d c5 80 3d 65 0d 35 3d 12 e9 18 bd
       0.03115284 0.06287668 0.044202227 -0.03733165
0002b0 a9 ca 2a bd 7b de 4e 3d 67 c0 84 bc 1b 7b 88 3c
       -0.041697178 0.050505143 -0.016205026 0.016660264
0002c0 e4 b5 0c bd 37 e6 a5 bc df 8f 15 3d ec d1 98 3c
       -0.034353152 -0.020251377 0.03651416 0.018654786
0002d0 01 f2 05 3d b9 fe c8 3b f2 2d 9f bc cf 25 ad 3c
       0.032701496 0.006133881 -0.019431088 0.021136193
0002e0 27 ec 5a 3d 41 a8 55 3d ad 20 68 3d 08 2e 2b bd
       0.05344787 0.052162413 0.056671787 -0.041791946
0002f0 35 34 03 3d eb 8d 86 3c d0 84 fc 3b 70 fe e9 3c
       0.03203221 0.016425094 0.007706262 0.028563708
000300 c2 c9 2b 3d 8a f4 5d bd b2 70 59 3d 64 f1 42 3b
       0.041940458 -0.05418829 0.05308599 0.002974593
000310 26 d8 86 3d 4a eb 47 3d 85 c4 f3 3c 34 64 60 3b
       0.06584196 0.048808374 0.029756794 0.0034239413
000320 09 9c 19 bc 6c 6d 39 bd 9d 84 12 bd 41 3e 3b 3b
       -0.009375581 -0.04527037 -0.035771 0.0028571042
000330 84 1b 11 bd 33 d0 f1 3b d5 65 2c 3d 3e 74 78 3d
       -0.03542663 0.0073795556 0.042089302 0.060657732
000340 e2 5e 2b bd cf 34 e7 3c c6 60 2c bd 72 3c 3f 3c
       -0.041838534 0.028223423 -0.042084478 0.011672126
000350 bb 39 91 3d 7c a5 fb bc 66 4a 1d 3d 92 f5 05 3d
       0.07091089 -0.030718558 0.03840103 0.032704897
000360 c1 93 92 3d 1c 37 9d bc 5f fb 5e bc 62 05 6a bb
       0.07157088 -0.019191317 -0.013609736 -0.0035708775
000370 24 9f 31 3d 47 cd 02 3d 53 59 45 3d af 1d 53 3d
       0.04336466 0.03193405 0.04818089 0.05154198
000380 98 57 4a bb 9a d5 87 3c 06 bd b0 3c ed db e5 3c
       -0.0030874964 0.016581345 0.021574508 0.02805897
000390 64 19 6e bc 6a 7c 3b bd df 5e 9c 3c 5b 83 39 bc
       -0.014532421 -0.045772947 0.019088207 -0.0113228215
0003a0 45 34 46 bc 71 12 27 bd 07 7f 86 3b 8b 04 d1 3c
       -0.012097423 -0.04078907 0.0041044983 0.025514862
0003b0 74 ce 24 bc f2 36 11 3d dc 63 3d bd 64 33 4b bd
       -0.010058988 0.03545279 -0.04623781 -0.049609557
0003c0 35 ec 30 3d 08 25 67 bd b7 50 ee bc bc de 0f 3d
       0.043194015 -0.0564318 -0.029091222 0.035124525
0003d0 bf 89 4c bc a2 bc 7c 3d 22 69 6e 3d c2 c8 f7 bc
       -0.012484013 0.06170333 0.05820573 -0.030247096
0003e0 91 23 be 3c 5e b7 59 3d 14 e4 96 3d 0a 33 3d bd
       0.023210319 0.05315339 0.07367721 -0.046191253
0003f0 bb 6a 0a 3d 28 5f 21 bd 12 34 e6 3c ca 25 48 bd
       0.033793192 -0.03939739 0.028101001 -0.048864163

exp_avg f4 [14, 1]
000000 00 00 00 00 56 81 f5 38 ce a7 95 38 c3 2d ab b8
       0.0 0.00011706601 7.13613e-05 -8.162439e-05
000010 4d 97 a9 38 85 fb 8c b8 5e b0 bd 38 63 27 ca 38
       8.08673e-05 -6.7225694e-05 9.045073e-05 9.639447e-05
000020 10 67 75 b8 a9 c3 9a b7 3a 28 38 b7 dc be 9d 37
       -5.8508536e-05 -1.8449342e-05 -1.0976621e-05 1.8804734e-05
000030 96 76 42 38 7b 3c 3c 36
       4.6363646e-05 2.8049387e-06

exp_avg_sq f4 [14, 1]
000000 00 00 00 00 4d 68 96 33 01 63 24 33 c8 c0 30 33
       0.0 7.0038915e-08 3.827427e-08 4.1153527e-08
000010 04 6a 94 33 29 1e bb 32 12 f7 46 33 a6 66 00 33
       6.911071e-08 2.178338e-08 4.6325177e-08 2.989568e-08
000020 fa fa e3 31 43 df a5 32 de 50 1b 32 ac 9b 7e 32
       6.6351022e-09 1.9310056e-08 9.0405745e-09 1.4820142e-08
000030 37 24 12 32 f6 25 1f 32
       8.506553e-09 9.263649e-09

exp_avg f4 [196, 256]
000000 52 9f 5f 36 4e 65 5f 35 10 8a 98 34 e3 29 88 33
       3.3322326e-06 8.322139e-07 2.841266e-07 6.340613e-08
000010 a3 6b a3 b3 97 07 d5 34 ce 1d 0f b3 22 96 e9 34
       -7.609858e-08 3.9679864e-07 -3.332189e-08 4.3508868e-07
000020 0e 81 8a 36 4a 58 85 36 47 fd 1d 36 59 a8 52 b3
       4.1277444e-06 3.973987e-06 2.354225e-06 -4.9047546e-08
000030 4b 4d b9 35 9b ec e9 32 52 cb 75 36 13 06 3a 34
       1.3806069e-06 2.7232366e-08 3.6626193e-06 1.732481e-07
000040 61 c6 98 b3 c3 78 eb 36 cf 0b 61 35 7c 9d 79 35
       -7.1141365e-08 7.0176043e-06 8.3836215e-07 9.29889e-07
000050 82 49 27 35 76 ee de 36 0e f8 9b b2 35 39 da b2
       6.2319316e-07 6.643876e-06 -1.8157177e-08 -2.5404555e-08
000060 18 98 6b 34 a2 2d de 34 5e 59 b0 35 23 6d 98 35
       2.1941412e-07 4.1383925e-07 1.3139031e-06 1.1356645e-06
000070 42 ac e5 36 e0 19 bd 35 99 c4 a8 35 df 84 cd 35
       6.8447853e-06 1.4089128e-06 1.2574193e-06 1.5312361e-06
000080 c1 97 52 35 7e cb 90 36 b2 54 a1 36 33 f7 13 36
       7.845193e-07 4.315224e-06 4.8080337e-06 2.2048596e-06
000090 ad ec 8e 34 2c b3 55 34 b0 ce 0d 36 b3 ba 24 36
       2.6621765e-07 1.9902353e-07 2.1130945e-06 2.4546578e-06
0000a0 0d 7f b9 36 fa ae 08 b3 4c 6b 42 b3 c2 51 48 35
       5.5282203e-06 -3.1824108e-08 -4.526673e-08 7.462478e-07
0000b0 1a 46 42 35 bf d5 59 34 ba e6 e5 35 98 9e 76 36
       7.2372643e-07 2.028746e-07 1.712898e-06 3.674917e-06
0000c0 da 11 4c 36 fe 94 0e 36 f4 a0 95 b3 0f 11 29 34
       3.040876e-06 2.1246374e-06 -6.9676304e-08 1.5745557e-07
0000d0 0c e4 f2 33 bf 99 6a 36 a4 2e 61 35 89 a0 9c 36
       1.13104846e-07 3.495821e-06 8.38869e-07 4.667851e-06
0000e0 2c 7c e6 35 74 96 a9 36 00 a7 ed 34 e8 a9 a6 b3
       1.7172474e-06 5.0541075e-06 4.4266199e-07 -7.760883e-08
0000f0 2f e6 50 36 26 31 a8 34 a7 e3 7d 35 d0 77 bd 34
       3.11284e-06 3.13282e-07 9.458112e-07 3.5291168e-07
000100 97 03 db 36 7f 6b 2a 36 5c bf 7d b3 de 80 91 33
       6.5271265e-06 2.5394545e-06 -5.9080193e-08 6.7755295e-08
000110 51 55 7c 35 d3 ee 83 34 3b b1 0e 36 8d 36 b6 b3
       9.400147e-07 2.457442e-07 2.126281e-06 -8.484958e-08
000120 09 1d 69 36 92 5d 91 34 4d 37 a3 b3 a1 7e 2b 36
       3.4736606e-06 2.7076436e-07 -7.600338e-08 2.5554693e-06
000130 69 f4 42 35 6c d0 e6 35 8d cc 84 b3 19 90 5a 35
       7.2626295e-07 1.7196994e-06 -6.1839366e-08 8.142102e-07
000140 07 95 a3 34 cb 65 a5 36 3a bc 3f 34 de 5c 57 35
       3.0469548e-07 4.9292335e-06 1.7856738e-07 8.022888e-07
000150 e4 36 b1 34 33 f4 f1 35 39 65 97 35 f0 02 80 33
       3.3008757e-07 1.802697e-06 1.1279836e-06 5.960999e-08
000160 4b 72 d7 34 50 74 33 b3 8e 3b 62 36 a3 bd 2e 33
       4.013003e-07 -4.178247e-08 3.371129e-06 4.0685006e-08
000170 89 63 44 33 aa 9a 3c 33 62 a5 d8 33 57 2f 9f 36
       4.5725333e-08 4.3912827e-08 1.0088367e-07 4.7440803e-06
000180 7e a1 41 34 f4 96 6e 34 95 a6 e8 35 20 12 4f 36
       1.8033276e-07 2.2220394e-07 1.7333829e-06 3.0855954e-06
000190 61 c0 c5 36 90 d7 d8 35 47 c6 45 35 99 53 03 36
       5.8934534e-06 1.6155991e-06 7.367675e-07 1.9569181e-06
0001a0 8a ca 0b b2 94 c9 90 34 0b 93 eb 35 d3 78 cb b2
       -8.136917e-09 2.6968758e-07 1.755166e-06 -2.3687255e-08
0001b0 bd 6f bb 36 cc 1f 95 36 1a 1b ea 34 30 d7 a8 36
       5.5860423e-06 4.4442477e-06 4.3605615e-07 5.0318413e-06
0001c0 a0 dc 03 36 77 f2 4e 36 10 a7 fd 33 4b 90 25 35
       1.9648942e-06 3.0837525e-06 1.1811619e-07 6.1677264e-07
0001d0 5c 10 c6 34 2b 70 20 35 f4 1e 90 b2 20 8d ca 36
       3.6892277e-07 5.976787e-07 -1.6777882e-08 6.0364982e-06
0001e0 8c 80 36 33 03 95 3e 36 59 9e a6 36 a7 f8 00 35
       4.249209e-08 2.8398943e-06 4.9656196e-06 4.804555e-07
0001f0 f8 9e b7 35 24 7f bc 33 dd 21 dd 33 7b 0e 87 b2
       1.3680828e-06 8.777559e-08 1.0297274e-07 -1.5722653e-08
000200 c8 26 33 36 27 90 05 37 70 38 99 35 a3 49 4a 36
       2.6695652e-06 7.960981e-06 1.1415814e-06 3.0143208e-06
000210 e8 c4 fc 34 01 2f cf 34 a3 d4 89 b3 e3 d3 25 36
       4.7081926e-07 3.8590954e-07 -6.418238e-08 2.471025e-06
000220 64 da 5e 36 c3 d4 2e b1 3f e4 0c b3 9d fa d0 b2
       3.3207698e-06 -2.5441274e-09 -3.280388e-08 -2.4328353e-08
000230 ea c1 96 34 3a df 9a 35 97 7d 9e 36 35 be 41 b3
       2.8080768e-07 1.1538862e-06 4.7233875e-06 -4.5109307e-08
000240 e0 a1 bf b2 a0 0e 15 35 71 fe 7b 36 dd 62 28 35
       -2.2308939e-08 5.552811e-07 3.755002e-06 6.272874e-07
000250 8d 2f a1 32 bb ec 90 35 ee 1d 11 36 32 2c 72 36
       1.876449e-08 1.0797734e-06 2.1624105e-06 3.6086535e-06
000260 cf fa 3d 36 dd ac 60 35 4a b9 60 b3 83 86 3a 35
       2.8309184e-06 8.369805e-07 -5.2322584e-08 6.948614e-07
000270 1b 6e 93 36 39 c1 ea 35 c9 df 98 36 ba b1 c2 36
       4.3937594e-06 1.7490594e-06 4.556005e-06 5.8023406e-06
000280 da f3 22 32 51 2a f7 35 7d 2b 0e 36 03 bb f2 34
       9.4850865e-09 1.841525e-06 2.1184962e-06 4.5212082e-07
000290 61 97 16 b3 6a 76 e6 35 9f c3 f1 35 0f 2e 8d 33
       -3.5062275e-08 1.7170798e-06 1.8012832e-06 6.574202e-08
0002a0 29 25 8f 32 3e 62 33 b3 ed e0 18 b3 84 6f a6 35
       1.666429e-08 -4.1766036e-08 -3.5594827e-08 1.2400419e-06
0002b0 bd ea 2c 34 0c bc 8e 36 80 7b 60 34 40 9b 8a 34
       1.6104146e-07 4.2538213e-06 2.0906555e-07 2.5817462e-07
0002c0 0b 23 ea 35 16 f1 ec 35 8e 54 f8 34 c8 b1 2f 32
       1.7444557e-06 1.7653535e-06 4.625512e-07 1.0226763e-08
0002d0 e9 a3 55 b3 8f 5c 38 34 c7 2e 71 35 0f 5e 85 35
       -4.9742003e-08 1.7170008e-07 8.9847566e-07 9.936647e-07
0002e0 84 cc 26 37 25 9f 8e 35 d4 17 97 35 05 5c 09 35
       9.9419885e-06 1.0626142e-06 1.1257312e-06 5.1170383e-07
0002f0 91 e4 96 35 ac 07 01 b3 2e 74 7a 36 f8 12 08 35
       1.1242392e-06 -3.004213e-08 3.7320528e-06 5.069155e-07
000300 89 9f 1b 34 ac 47 9e 34 ed 8f 03 35 a9 e0 8c 35
       1.4493538e-07 2.9481942e-07 4.901074e-07 1.0496198e-06
000310 47 6e 7d 36 78 8b 6d 33 bc db 29 36 02 28 1a 36
       3.7764128e-06 5.530771e-08 2.5310865e-06 2.2971076e-06
000320 59 8a be b2 15 4b 19 36 18 08 4e 36 10 c1 8b 36
       -2.2181824e-08 2.284248e-06 3.0701103e-06 4.1649982e-06
000330 bf dc 60 36 f3 b0 ba 31 d9 36 9e 36 92 49 80 34
       3.3507092e-06 5.4334293e-09 4.715152e-06 2.3895387e-07
000340 02 60 f7 35 57 11 09 36 5f e8 5f 36 0b 17 aa 35
       1.8430876e-06 2.0424684e-06 3.3364847e-06 1.2672693e-06
000350 da db 7f 34 cf dc 5b 36 dc b6 71 36 3e fc f3 35
       2.3828707e-07 3.276207e-06 3.6018237e-06 1.8178323e-06
000360 63 2a 5c 36 ae 23 bf b2 fd d7 c6 35 96 38 06 36
       3.2807227e-06 -2.2251552e-08 1.481501e-06 2.0000493e-06
000370 06 df 23 36 0c 3e c4 34 02 8c 36 b3 f3 c7 07 36
       2.441871e-06 3.655299e-07 -4.2502514e-08 2.0232953e-06
000380 4d 30 b2 35 3e 26 24 b3 17 c2 3f 36 48 46 ae 35
       1.3276091e-06 -3.8219007e-08 2.8574193e-06 1.2984465e-06
000390 05 a3 ec 35 f6 0b 86 36 44 e4 ef 36 b6 58 5a b3
       1.7630815e-06 3.9949036e-06 7.1493287e-06 -5.0837762e-08
0003a0 9a cf c0 35 04 04 4c b3 e4 3f 26 36 1c 87 44 34
       1.4365535e-06 -4.7501103e-08 2.4773117e-06 1.8303075e-07
0003b0 c7 91 e2 35 00 74 2c b3 63 c2 93 36 4a cb 9b 36
       1.6880739e-06 -4.0152372e-08 4.403571e-06 4.643026e-06
0003c0 31 db 7c b3 f6 75 6b 36 52 ed b8 35 31 f7 74 36
       -5.8872676e-08 3.508639e-06 1.3778138e-06 3.6502718e-06
0003d0 6f 17 11 36 54 d1 9e 34 1c 79 c5 35 3a 38 a0 b3
       2.1620324e-06 2.95821e-07 1.4712891e-06 -7.460808e-08
0003e0 7b d2 74 34 64 7f 36 36 ef 38 72 b2 1b c0 dd 34
       2.2800843e-07 2.7194264e-06 -1.4099199e-08 4.1304233e-07
0003f0 30 5d ce 35 20 ce 08 36 be 92 06 35 d1 5f 1b 34
       1.5375317e-06 2.038556e-06 5.013243e-07 1.4470358e-07

exp_avg_sq f4 [196, 256]
000000 88 0d 10 2e cf 76 30 2b ce c0 ce 2c 22 2b 5d 2b
       3.2753827e-11 6.269264e-13 5.8762778e-12 7.857483e-13
000010 32 8c 1b 28 9e 08 0c 2c 29 17 26 2c ff f2 83 2a
       8.6346285e-15 1.989998e-12 2.3602875e-12 2.3438887e-13
000020 94 2c 14 2d 4e a1 82 2c 36 17 79 2c b0 0f 3f 29
       8.422724e-12 3.7127306e-12 3.5397913e-12 4.2424126e-14
000030 a1 93 07 2c ff fc a8 2c 6d cc 84 2d 71 22 cb 2a
       1.9266604e-12 4.8029354e-12 1.5097446e-11 3.6083942e-13
000040 90 fb 15 28 86 e5 03 2f 7f 7d 6a 2b a4 f3 d7 2c
       8.3257105e-15 1.1995924e-10 8.330766e-13 6.137717e-12
000050 69 d7 cf 2c 96 b4 7f 2e 15 33 09 2a ee 71 bd 27
       5.907209e-12 5.814068e-11 1.2185767e-13 5.258156e-15
000060 dc 2d b8 2c af 0c 9a 2b 61 5f a7 2b c6 1c 4f 2d
       5.234686e-12 1.0945879e-12 1.1892537e-12 1.1772977e-11
000070 89 7a a8 2d c3 34 22 2d 16 5b 0e 2d ad e1 95 2c
       1.9153805e-11 9.220349e-12 8.091991e-12 4.2598897e-12
000080 9e 21 11 2c d1 d4 9d 2d 83 21 39 2e 1c 11 a1 2d
       2.06244e-12 1.7943343e-11 4.2093894e-11 1.8311179e-11
000090 12 e2 71 2d 07 22 53 2d d3 b6 4e 2d 53 17 af 2c
       1.3749462e-11 1.2001517e-11 1.1750339e-11 4.9763887e-12
0000a0 c9 e2 cf 2e 05 b7 fa 2b 07 93 0c 2b d1 d2 a4 2c
       9.453555e-11 1.7814367e-12 4.9942033e-13 4.6845657e-12
0000b0 5d c8 b3 2c 7f 94 fc 2c e6 af d3 2b 94 8e 30 2e
       5.1097308e-12 7.178757e-12 1.5041273e-12 4.01444e-11
0000c0 60 7f a4 2b a5 3b 58 2e 36 4a a4 28 71 b2 57 2a
       1.1688255e-12 4.916569e-11 1.8239841e-14 1.9157745e-13
0000d0 84 70 9e 2b 99 f1 24 2d 2c 52 da 2c 26 4a 20 2e
       1.1257805e-12 9.375966e-12 6.2050556e-12 3.6445645e-11
0000e0 a4 56 60 2d b1 f5 70 2d 00 bb 08 2d 36 45 1d 28
       1.2752164e-11 1.3696975e-11 7.772227e-12 8.7302585e-15
0000f0 4c 62 82 2d 72 b6 58 2b 47 8c 90 2d 19 15 b3 2d
       1.4822941e-11 7.699181e-13 1.64332e-11 2.0359313e-11
000100 e0 56 09 2e ee 59 4f 2d a2 ec 93 28 5d 89 c1 2c
       3.1227354e-11 1.1786556e-11 1.6422902e-14 5.5006403e-12
000110 07 5e bb 2c 14 f8 8f 2b b0 ab 8e 2d 6f 73 0e 2a
       5.325299e-12 1.0229617e-12 1.6219776e-11 1.2652183e-13
000120 f7 e1 22 2d 70 e8 a8 2b 46 c8 3b 2a 9b 5a 25 2e
       9.258808e-12 1.2001632e-12 1.667842e-13 3.759713e-11
000130 48 13 44 2c fc aa 83 2c 9c 92 8f 29 50 66 d5 2b
       2.7863978e-12 3.742227e-12 6.3759084e-14 1.5162958e-12
000140 21 f5 62 2c 32 a1 88 2e fc db 1e 2d 03 ad 0f 2c
       3.2252606e-12 6.213198e-11 9.0301065e-12 2.0417563e-12
000150 3d 51 a3 2b 08 09 4c 2d f7 fd 23 2d ef 1b 85 2c
       1.1604395e-12 1.1598063e-11 9.321869e-12 3.7831886e-12
000160 99 e2 f5 2b 77 84 33 2b 40 42 61 2e 5d 0e bb 2b
       1.747119e-12 6.3777407e-13 5.121792e-11 1.3291136e-12
000170 39 d8 9d 2c 1e c9 b2 2c f1 19 e6 2b 05 b9 8a 2d
       4.486214e-12 5.0813928e-12 1.6349683e-12 1.5770949e-11
000180 51 fc f2 29 e0 a9 af 2b 1e b0 5c 2c 59 5b 88 2e
       1.0790729e-13 1.2481648e-12 3.1361645e-12 6.2007906e-11
000190 ee 6b 21 2e 77 ee c6 2d fd d1 cf 2d e3 30 1c 2c
       3.6703023e-11 2.2615894e-11 2.3626429e-11 2.219607e-12
0001a0 78 f8 00 2d 9c 35 df 2b 36 d4 31 2b e3 ad db 2c
       7.331129e-12 1.5859983e-12 6.3177534e-13 6.2436597e-12
0001b0 a4 a2 27 2e f4 fc 38 2d 85 ef 91 2a 4f 52 62 2d
       3.8115858e-11 1.0515356e-11 2.5923374e-13 1.2864889e-11
0001c0 7a 34 ea 2d a5 d8 3e 2d 9d df b1 2b dd 7a e5 2c
       2.6626024e-11 1.0848354e-11 1.2638672e-12 6.522212e-12
0001d0 52 76 0c 2c 2e 13 e6 2a 05 ae 53 2c af 16 87 2e
       1.9960878e-12 4.0869516e-13 3.0081504e-12 6.1431187e-11
0001e0 63 15 3d 2c 9c dd 24 2d b5 e8 31 2d e1 44 10 2c
       2.6870387e-12 9.371528e-12 1.01129565e-11 2.0501866e-12
0001f0 70 39 8f 2d 7b d0 a9 2b 86 70 1d 2a be c7 8d 2c
       1.6282725e-11 1.2066037e-12 1.398344e-13 4.029637e-12
000200 c9 26 2c 2d bd c0 af 2e 56 23 23 2c 2f 7f 84 2d
       9.78568e-12 7.992316e-11 2.3183309e-12 1.5063143e-11
000210 8c c4 8c 2b d1 44 da 2c 10 06 32 28 45 20 0b 2c
       1.0002151e-12 6.203573e-12 9.8822995e-15 1.9771001e-12
000220 91 a1 b3 2d 60 90 3f 2b 82 09 ce 2a 4d dd 60 29
       2.0421694e-11 6.805719e-13 3.6599548e-13 4.992994e-14
000230 ab 00 f8 2c 1d e0 88 2d 62 24 6e 2c 6f 4f 64 28
       7.048658e-12 1.5560936e-11 3.384203e-12 1.2673767e-14
000240 f3 ad e6 2a e4 85 54 2c 6b 3a 06 2d b0 04 17 2c
       4.097691e-13 3.0201336e-12 7.6299895e-12 2.1460993e-12
000250 b6 53 82 2b d9 54 85 2d ca 75 81 2d 4f 28 e1 2d
       9.26029e-13 1.515803e-11 1.4717911e-11 2.5597439e-11
000260 64 51 02 2d 5b 9e c6 2c 8b 3e 24 29 43 86 6c 2c
       7.407717e-12 5.6450795e-12 3.6469563e-14 3.3612147e-12
000270 6c 0a 9e 2d 91 d3 f6 2c 9c 17 db 2c dc 2a f0 2d
       1.7967149e-11 7.015229e-12 6.2269755e-12 2.7303874e-11
000280 ed 06 26 2b b0 92 00 2e 07 c6 5c 2d 5c bd 8d 2a
       5.898466e-13 2.9234115e-11 1.2549523e-11 2.5178026e-13
000290 0c d5 c2 2b cc 8c 11 2d f6 b2 8a 2d 9b 36 91 2c
       1.3843661e-12 8.273559e-12 1.5768258e-11 4.1272103e-12
0002a0 6b 25 e6 2b 26 4f 22 2a f6 8e 01 2c ed 1e 2c 2d
       1.6352868e-12 1.441595e-13 1.8411362e-12 9.783935e-12
0002b0 01 f7 34 2b 65 b4 83 2d 37 6a 41 2c fe 94 f0 2c
       6.4291633e-13 1.4973087e-11 2.748591e-12 6.8377517e-12
0002c0 8f ca 6b 2d f8 a2 df 2b 7f e8 4f 2c f9 0e b9 2b
       1.34031805e-11 1.5890336e-12 2.954553e-12 1.3149196e-12
0002d0 33 8b 18 2a 8a 51 bb 2b 03 95 ad 2c 97 55 93 2d
       1.3548606e-13 1.3309781e-12 4.9334994e-12 1.6749975e-11
0002e0 71 1f ea 2e aa c2 11 2d 6a d7 5b 2d b1 2c 3d 2c
       1.0646673e-10 8.28552e-12 1.249654e-11 2.6883324e-12
0002f0 47 13 4b 2b f5 a1 04 2a 00 f1 b3 2d fd aa 16 2c
       7.214684e-13 1.1780145e-13 2.045697e-11 2.14112e-12
000300 d4 48 89 2b 61 61 7c 2c 36 4f 3e 2c d6 c2 05 2d
       9.754649e-13 3.586541e-12 2.7044595e-12 7.603437e-12
000310 04 ab 84 2e d8 86 af 2c ac 54 28 2d b1 a0 1d 2c
       6.0330435e-11 4.98877e-12 9.568495e-12 2.2400244e-12
000320 8d 1d 77 29 a0 09 2c 2d 61 f4 0f 2e 90 12 61 2e
       5.487065e-14 9.779205e-12 3.2731488e-11 5.1175564e-11
000330 e1 aa b4 2d 11 4f 34 2d ed 2b ad 2e 72 18 9d 2b
       2.0539516e-11 1.0249372e-11 7.874932e-11 1.1162306e-12
000340 21 38 05 2d 4d f5 01 2d 1c 5d b5 2d 7c 44 1f 2d
       7.572638e-12 7.387269e-12 2.0618666e-11 9.05331e-12
000350 8b 71 2b 2d 64 7d 81 2e b3 12 74 2d 09 71 91 2d
       9.745436e-12 5.888515e-11 1.3873946e-11 1.653479e-11
000360 4a ef 83 2d 42 d8 18 29 a1 f8 31 2d 24 00 81 2c
       1.4999241e-11 3.3938354e-14 1.0116492e-11 3.666416e-12
000370 97 0e 8c 2d 6d 15 1b 2d e7 da 56 2c 31 82 0a 2d
       1.5922636e-11 8.815487e-12 3.0532744e-12 7.8733e-12
000380 23 84 6d 2c aa c9 4f 2c 32 a7 b2 2d 91 5c 26 2d
       3.3753076e-12 2.9528415e-12 2.0310507e-11 9.456561e-12
000390 8a 99 f0 2b fb 89 b2 2d d2 16 83 2e e8 07 17 2b
       1.7095641e-12 2.0297533e-11 5.961244e-11 5.365695e-13
0003a0 cf 06 4a 2d 35 22 f5 2b 8c 7f c6 2d b1 c1 3e 2c
       1.1483882e-11 1.7417791e-12 2.2566636e-11 2.7108144e-12
0003b0 a3 37 12 2d a8 ec b5 28 4c 05 b2 2d 15 d3 ef 2d
       8.311493e-12 2.019767e-14 2.023861e-11 2.7264893e-11
0003c0 99 c1 55 28 72 38 0c 2d 79 18 0f 2c d0 d6 9f 2c
       1.1865855e-14 7.970612e-12 2.0335107e-12 4.5429008e-12
0003d0 db fe 09 2d 74 4d 64 2b 6a 28 6e 2c 9f 3a 8f 29
       7.844138e-12 8.110936e-13 3.3844269e-12 6.360645e-14
0003e0 6e 33 c5 2c df 58 55 2d 7f 00 32 2c dd 9d 6d 2b
       5.6047866e-12 1.21273816e-11 2.5295597e-12 8.4418393e-13
0003f0 a1 06 ac 2c e9 20 36 2d 82 4a 70 2c a3 42 48 2d
       4.88927e-12 1.035281e-11 3.4147411e-12 1.138348e-11

exp_avg f4 [196]
000000 78 f6 2b 38 b0 c9 71 38 91 85 7c 38 a0 0b 80 38
       4.099912e-05 5.7646714e-05 6.0205875e-05 6.105681e-05
000010 a8 c4 83 b9 70 80 39 b9 0c 44 76 38 2b 5f c9 b8
       -0.00025132787 -0.00017690822 5.8714344e-05 -9.602153e-05
000020 e2 7a 57 38 d5 98 ff b8 52 a8 53 38 cd c1 59 38
       5.1374438e-05 -0.00012187815 5.046308e-05 5.1917323e-05
000030 5b bb ab b7 2d 13 27 38 15 01 11 ba a1 cf 1d 38
       -2.0472033e-05 3.983376e-05 -0.0005531472 3.7625086e-05
000040 08 4c 8f b9 96 b5 78 38 2e f4 3d 38 cb 55 79 38
       -0.00027331733 5.9296923e-05 4.528852e-05 5.9446127e-05
000050 53 d6 5f 38 b7 91 55 38 00 45 00 ba a7 f7 61 38
       5.3366948e-05 5.0918865e-05 -0.00048930943 5.3874825e-05
000060 31 4d 5b 38 9b 9f 13 b8 56 0d 4e b7 62 dc c2 b9
       5.228556e-05 -3.5196175e-05 -1.2281662e-05 -0.00037166761
000070 c2 df 84 38 3f 3e 75 38 de bd 21 38 44 6e 71 38
       6.3359286e-05 5.8470523e-05 3.856222e-05 5.756157e-05
000080 ae a6 7d 38 6d 06 75 38 c0 e9 66 38 24 9c 64 38
       6.0475133e-05 5.8418536e-05 5.505397e-05 5.4504853e-05
000090 b3 33 76 38 81 b6 65 38 7d 96 1a 38 9b 97 0a 38
       5.869912e-05 5.4767825e-05 3.6856614e-05 3.3042958e-05
0000a0 c3 5d 4e 38 06 14 48 38 65 18 61 38 3d 04 57 38
       4.920155e-05 4.7702364e-05 5.36669e-05 5.126394e-05
0000b0 75 d4 7f 38 e6 9a 21 38 0e e1 68 38 6e 57 ec b9
       6.0994604e-05 3.852965e-05 5.552271e-05 -0.00045078568
0000c0 29 74 86 b9 68 d4 66 38 ff 53 72 38 00 1d 6f 38
       -0.00025645018 5.5034092e-05 5.7775524e-05 5.700905e-05
0000d0 60 91 59 38 0c 05 56 38 64 d4 3d 38 47 78 4b 38
       5.1872223e-05 5.1026276e-05 4.5258916e-05 4.851099e-05
0000e0 68 8e 7e 38 e1 4a e5 37 1d 42 7c 38 41 06 70 38
       6.0690945e-05 2.7333796e-05 6.0143055e-05 5.7226283e-05
0000f0 5d e3 1a 38 33 e4 6a 38 71 4c 83 b9 ba c9 73 38
       3.692821e-05 5.6002475e-05 -0.0002504322 5.8123587e-05
000100 49 22 63 38 bb 14 61 38 ec 3d 00 38 ba 9e 10 ba
       5.4152948e-05 5.3663487e-05 3.0575247e-05 -0.0005516816
000110 0c c4 5f 38 2f 20 55 38 ef ae 51 38 73 30 2f 38
       5.3349926e-05 5.081313e-05 4.9992403e-05 4.1768373e-05
000120 b3 65 69 38 a5 cb 56 38 ad 11 03 37 54 e5 1b 38
       5.5646244e-05 5.1211235e-05 7.812324e-06 3.716846e-05
000130 b6 27 74 38 a8 a3 7a 38 80 b8 7a 38 2e 85 68 38
       5.8211117e-05 5.975706e-05 5.9776474e-05 5.5437144e-05
000140 9a 2b 72 b9 0c eb 53 38 24 c7 61 38 43 64 26 38
       -0.00023095161 5.0525225e-05 5.3829644e-05 3.967086e-05
000150 9b 72 0e 38 ea 95 3e 38 d8 aa 66 38 ce bb 6d 38
       3.3962173e-05 4.543915e-05 5.4995384e-05 5.668011e-05
000160 4c ba 6e 38 31 d5 42 38 36 4c 28 38 74 79 7b 38
       5.6917124e-05 4.6451754e-05 4.01253e-05 5.9956175e-05
000170 2a be 33 b9 a4 e5 0b ba dc 80 68 38 35 cf 64 38
       -0.00017141612 -0.00053366483 5.543312e-05 5.4552413e-05
000180 b5 ee 5e 38 51 fe 46 38 96 8f 59 38 27 69 64 38
       5.3151238e-05 4.744373e-05 5.1870556e-05 5.4457367e-05
000190 52 cb 33 38 af e0 86 b9 45 4e 39 38 9d 4d 44 38
       4.2866282e-05 -0.00025725874 4.418033e-05 4.6802325e-05
0001a0 9d 02 95 37 f4 f3 2a 38 69 82 5a 38 34 66 4d 38
       1.7763401e-05 4.0758357e-05 5.2096704e-05 4.8970993e-05
0001b0 80 e3 51 38 0e 26 5e 38 60 33 43 38 41 33 40 38
       5.004136e-05 5.2964366e-05 4.653947e-05 4.58241e-05
0001c0 b5 e9 2a 38 c9 50 8b 37 81 13 ab ba 32 55 41 38
       4.0748815e-05 1.660771e-05 -0.0013052077 4.609413e-05
0001d0 28 8c 61 38 60 c0 73 38 15 ce 2d 38 62 d2 58 38
       5.377471e-05 5.8114878e-05 4.1438343e-05 5.1694347e-05
0001e0 79 b5 21 38 83 77 4a 38 aa c0 48 38 37 9a 16 38
       3.85544e-05 4.8271857e-05 4.786315e-05 3.590641e-05
0001f0 20 f2 55 b9 57 9e 27 38 37 2f 37 38 68 34 c3 b9
       -0.00020403462 3.9963368e-05 4.3674572e-05 -0.00037232344
000200 16 b7 4b 38 e4 0f 5f 38 a2 a6 4e 38 23 c2 3c 38
       4.8569484e-05 5.3182142e-05 4.9269416e-05 4.5003497e-05
000210 71 65 5d 38 bd 32 66 38 00 e7 2b 38 8e c0 12 38
       5.278498e-05 5.4883527e-05 4.0984713e-05 3.4988443e-05
000220 cf 8f 66 38 36 ee 77 38 e2 37 d1 37 da 76 4a 38
       5.4970205e-05 5.911124e-05 2.4940764e-05 4.8271242e-05
000230 97 1b 23 38 52 f6 3e 38 ea 98 46 38 bc 81 43 38
       3.8887923e-05 4.5528934e-05 4.734929e-05 4.6612447e-05
000240 03 da 2a 38 cd c6 32 38 14 83 24 38 6e 45 89 ba
       4.0734198e-05 4.2623655e-05 3.9222723e-05 -0.0010472962
000250 fc 05 1c 38 92 50 64 38 90 a4 34 38 1a 3e 56 38
       3.719887e-05 5.4434473e-05 4.3068605e-05 5.1079413e-05
000260 77 af 59 38 4a ea 40 38 b8 8c 2d 38 2d 6d 2f 38
       5.1900246e-05 4.5994566e-05 4.137747e-05 4.182493e-05
000270 3b 59 25 38 19 86 1e 38 7f 51 4f 38 68 35 1c 38
       3.9422168e-05 3.7795024e-05 4.9428545e-05 3.7243037e-05
000280 7e c8 3a 38 b1 e7 21 38 44 d5 2d 38 15 f0 20 38
       4.453258e-05 3.860117e-05 4.1445033e-05 3.8370566e-05
000290 8f 5e 1f 38 85 b3 1c 38 de 1a 40 38 c2 bf 28 38
       3.799662e-05 3.736049e-05 4.580139e-05 4.023291e-05
0002a0 0d 7d 23 38 23 c1 2b 38 91 1e 48 38 2f 99 15 38
       3.897869e-05 4.094945e-05 4.7712183e-05 3.566703e-05
0002b0 4b f9 21 38 cf 3c 24 38 62 a0 21 38 91 4b 20 38
       3.8617563e-05 3.915728e-05 3.853476e-05 3.821735e-05
0002c0 55 ff 1b 38 43 9a 1b 38 5d 66 25 38 33 4b 1d 38
       3.7192676e-05 3.7098547e-05 3.94344e-05 3.750175e-05
0002d0 11 03 1f 38 8c 7a 26 38 d1 14 1c 38 6b 00 23 38
       3.791141e-05 3.9691615e-05 3.7212685e-05 3.8862618e-05
0002e0 c6 53 20 38 85 ff 2a 38 a6 c3 22 38 95 e0 31 38
       3.8224993e-05 4.076913e-05 3.880602e-05 4.2409247e-05
0002f0 60 23 1c 38 a5 44 26 38 a1 53 29 38 46 6b 21 38
       3.7226244e-05 3.9641414e-05 4.0370625e-05 3.8485297e-05
000300 95 50 29 38 62 e4 16 38 7f cd 20 38 58 d0 18 38
       4.0367788e-05 3.5975485e-05 3.8338356e-05 3.643366e-05

exp_avg_sq f4 [196]
000000 00 62 b0 30 86 e6 10 34 8d 16 06 34 ca ea 26 33
       1.2833539e-09 1.3494909e-07 1.2487926e-07 3.8863426e-08
000010 00 ab 09 34 dc e7 26 33 08 5c f2 33 16 a9 14 34
       1.2821329e-07 3.886076e-08 1.12857435e-07 1.3845087e-07
000020 b7 e7 80 32 4a d8 5c 35 e4 9e 91 35 ea 6d 09 33
       1.5006533e-08 8.227113e-07 1.0849585e-06 3.1997764e-08
000030 90 1c a0 34 da 27 ed 30 9c a4 e0 32 bc a9 8a 30
       2.9823104e-07 1.7255346e-09 2.6151888e-08 1.0089063e-09
000040 91 86 43 34 c9 59 a8 33 d9 d3 be 35 c3 35 b8 33
       1.8209745e-07 7.8394415e-08 1.4217759e-06 8.577947e-08
000050 9b c8 70 33 43 0c d2 32 03 6a 12 34 c6 ac f4 34
       5.6061804e-08 2.4452794e-08 1.3635876e-07 4.557425e-07
000060 9a a2 78 34 03 71 e4 33 de fa 2b 34 62 a5 b2 32
       2.3155954e-07 1.0637634e-07 1.6016881e-07 2.0797135e-08
000070 f3 b7 a3 33 b4 d5 a7 34 48 0f 9a 30 df c0 61 33
       7.623739e-08 3.1261663e-07 1.1209318e-09 5.256231e-08
000080 fe a5 1e 34 59 21 d9 32 41 33 b5 33 99 0b e1 32
       1.4775284e-07 2.527729e-08 8.437792e-08 2.6198721e-08
000090 8b cb 5f 33 81 f0 2f 35 96 74 67 35 4d 10 d4 33
       5.2106355e-08 6.554256e-07 8.622386e-07 9.8749844e-08
0000a0 ee 1b a3 32 0c 41 54 34 c8 64 57 33 30 d0 b0 33
       1.8988398e-08 1.9767702e-07 5.015025e-08 8.233508e-08
0000b0 0e d5 81 33 f1 af a8 30 a1 0e 13 33 57 6d 81 34
       6.045785e-08 1.2273614e-09 3.423941e-08 2.4107678e-07
0000c0 d6 59 a9 33 c8 b4 45 37 41 ca 5a 34 f7 ef 14 34
       7.886017e-08 1.1784206e-05 2.0376412e-07 1.3870873e-07
0000d0 56 4d d6 32 9c 34 f8 33 c6 f6 52 33 40 7a 5a 32
       2.4948047e-08 1.15579695e-07 4.9118874e-08 1.27170665e-08
0000e0 0e 03 e8 33 95 5a 70 34 ab fb 7e 34 c8 c6 d0 33
       1.08038975e-07 2.2384695e-07 2.374715e-07 9.721913e-08
0000f0 23 0a 8a 30 dc d1 25 33 55 85 9b 33 0c 98 10 34
       1.0043703e-09 3.8607922e-08 7.242003e-08 1.346636e-07
000100 cb 8e 56 33 8f 0a c3 32 ff 68 d9 33 2d c3 73 34
       4.9955627e-08 2.270579e-08 1.01239486e-07 2.2702143e-07
000110 da 31 d5 34 76 b4 59 34 83 63 09 33 78 0d c8 35
       3.9710613e-07 2.0275351e-07 3.1988304e-08 1.4905081e-06
000120 f3 ea bc 32 a3 e6 c5 33 4a 4d c2 33 e1 7c 84 30
       2.1992923e-08 9.21548e-08 9.047888e-08 9.639757e-10
000130 b6 d0 26 33 1d 39 95 33 b0 a6 c2 33 8b 7b e8 33
       3.883971e-08 6.948742e-08 9.064149e-08 1.0825814e-07
000140 84 29 ba 35 fa 66 ad 34 f6 96 0e 34 90 0c 47 33
       1.3870163e-06 3.2298686e-07 1.32797e-07 4.6344724e-08
000150 e9 3e cb 33 e9 c9 73 32 5f 6c 17 33 0f b0 2b 33
       9.4643674e-08 1.4190371e-08 3.525599e-08 3.9974164e-08
000160 12 b7 97 33 3f 10 35 33 1e eb a7 30 e2 4a 20 33
       7.064786e-08 4.2157122e-08 1.2217674e-09 3.732101e-08
000170 62 6b 00 34 93 6b 32 33 5a 60 14 34 3f 79 1c 35
       1.1959995e-07 4.1541693e-08 1.3818627e-07 5.8290965e-07
000180 ce d9 4d 32 36 ae dd 35 de ea 89 32 d8 f3 49 33
       1.19820935e-08 1.6516485e-06 1.6055704e-08 4.7020734e-08
000190 9a 2b 57 32 6a 6c b0 34 8c b8 8b 32 12 c1 28 33
       1.2524561e-08 3.2861436e-07 1.6265652e-08 3.9291145e-08
0001a0 33 c6 88 33 45 df a3 30 79 ee 4e 34 28 1a 63 32
       6.369046e-08 1.1923268e-09 1.9272001e-07 1.3219086e-08
0001b0 b2 40 a0 33 2a 99 11 33 3f 64 a9 31 e9 d8 41 32
       7.4623486e-08 3.3899745e-08 4.929944e-09 1.1283398e-08
0001c0 26 bf 90 31 7a 70 35 33 ea fa b8 33 6c a1 e4 31
       4.2126826e-09 4.2244643e-08 8.613809e-08 6.654025e-09
0001d0 ef 1c 38 33 e5 4d 46 33 f4 d5 75 36 76 8a 11 32
       4.2867153e-08 4.6171312e-08 3.6632382e-06 8.471593e-09
0001e0 f8 37 95 30 f7 71 ac 31 16 a1 1e 33 02 bd 38 33
       1.0857084e-09 5.018815e-09 3.693375e-08 4.301274e-08
0001f0 70 54 4e 34 63 9b a8 30 73 71 4f 32 25 9c 0f 32
       1.9215963e-07 1.2267772e-09 1.2074781e-08 8.359199e-09
000200 8c 39 81 33 5a 52 be 32 1b bb 32 32 20 8e 0a 31
       6.017498e-08 2.215636e-08 1.04035065e-08 2.0162432e-09
000210 cc 0f 8f 32 e9 40 da 32 a5 53 da 33 5e 47 84 30
       1.6654575e-08 2.5408058e-08 1.0166631e-07 9.624548e-10
000220 5e ff bb 33 ec d2 60 34 8d c5 9b 33 13 82 9f 32
       8.754317e-08 2.0938359e-07 7.253684e-08 1.8569187e-08
000230 e0 f1 a1 30 f0 ad 62 32 80 57 d7 31 6c cd b9 31
       1.1783037e-09 1.319448e-08 6.267271e-09 5.4075624e-09
000240 2e 77 05 32 c8 a2 df 30 c3 78 4d 31 c5 1b 9b 33
       7.768717e-09 1.6271651e-09 2.9900071e-09 7.222801e-08
000250 96 1d 86 30 ff e1 20 33 8f 44 d4 30 fd 1c 83 33
       9.758192e-10 3.7458445e-08 1.5444516e-09 6.105436e-08
000260 a9 5c 23 33 1e 56 7f 32 1d de b5 30 cb 32 c4 31
       3.803567e-08 1.4862534e-08 1.3232612e-09 5.7101253e-09
000270 cf f6 ac 30 72 01 90 30 b1 ef e0 33 3d 97 ca 30
       1.2584794e-09 1.047779e-09 1.04744124e-07 1.4740419e-09
000280 8f 91 27 33 34 f4 95 30 e6 57 d2 30 2f 76 9c 30
       3.9015102e-08 1.0910584e-09 1.5304493e-09 1.1384084e-09
000290 1b bf 97 30 47 10 80 30 e1 03 25 35 e2 11 e6 31
       1.1041011e-09 9.317852e-10 6.1472934e-07 6.695914e-09
0002a0 7e 46 96 30 ac a6 b3 30 ee 42 b1 34 3f cf 80 30
       1.0933972e-09 1.3071335e-09 3.3017517e-07 9.372129e-10
0002b0 c4 94 a2 30 a9 da ab 30 f7 61 98 30 7b 86 95 30
       1.1829333e-09 1.2504034e-09 1.1087299e-09 1.0879398e-09
0002c0 26 45 8c 30 8a ce 86 30 1e f3 9d 30 d4 82 8f 30
       1.0205994e-09 9.808485e-10 1.1492352e-09 1.0441803e-09
0002d0 29 14 92 30 e2 4b a3 30 13 ca 86 30 a2 6a 8f 30
       1.0628628e-09 1.1881378e-09 9.807216e-10 1.0434926e-09
0002e0 2a 46 8c 30 c0 61 aa 30 d4 62 98 30 c2 99 01 31
       1.0206282e-09 1.239691e-09 1.1087544e-09 1.8859372e-09
0002f0 81 d3 93 30 9c ed aa 30 ac ff a6 30 32 73 96 30
       1.0755771e-09 1.2436661e-09 1.2150756e-09 1.0946677e-09
000300 f2 ff c1 30 6d 43 82 30 85 cc 65 31 8e c0 86 30
       1.4115342e-09 9.477908e-10 3.3440142e-09 9.80451e-10

exp_avg f4 [14, 1]
000000 00 00 00 00 c0 03 23 3b 77 ee b0 37 6d 65 b6 ba
       0.0 0.0024874061 2.1091879e-05 -0.0013915725
000010 8d f4 f4 b9 22 88 0c bb 92 26 fd 39 21 09 04 3b
       -0.0004672151 -0.0021443446 0.00048284658 0.0020147043
000020 37 d5 0b bb be 63 b2 ba e4 1a e9 ba b7 d8 bc ba
       -0.0021336803 -0.0013610048 -0.0017784503 -0.0014407848
000030 c9 11 ae 3a f1 81 d7 ba
       0.0013280447 -0.0016441924

exp_avg_sq f4 [14, 1]
000000 00 00 00 00 13 ca 1c 38 ab 6b be 37 f7 e5 fc 37
       0.0 3.7381495e-05 2.2699902e-05 3.0147827e-05
000010 5f 54 b7 37 dc ae cd 37 ca de f4 37 76 25 e1 37
       2.1854588e-05 2.451933e-05 2.919081e-05 2.6839534e-05
000020 be ba c5 37 e2 8f b1 37 c7 d2 cd 37 30 d5 62 37
       2.3571189e-05 2.1167045e-05 2.4536055e-05 1.3520286e-05
000030 5a 48 b7 36 f2 cd 4f 35
       5.462248e-06 7.74132e-07
