models/PPOAgent/reward_for_end_state_all_data.pt (torch, 665753 bytes, 15 tensors)

net.base.em.weight f4 [14, 1]
000000 00 00 00 00 1b 21 a5 3f 21 7d 29 bf ee 47 77 be
       0.0 1.2900728 -0.66206557 -0.24148533
000010 0a ed bd 3f a5 e8 b2 bf e8 21 a8 3f 73 e1 f4 be
       1.4837964 -1.3977247 1.3135347 -0.47828254
000020 5b 17 8b 3e ff d0 45 3f 0d f3 8e 3e e4 5b c7 bd
       0.27166256 0.7727203 0.27919808 -0.097343236
000030 49 e8 b0 bb ab ca 0a bd
       -0.0053987843 -0.033884685

net.out.weight f4 [196, 256]
000000 53 4d 6d 3d 6a c8 76 bd d2 45 76 bd f5 ca 22 3d
       0.05793507 -0.060249723 -0.06012518 0.039744336
000010 8c c2 29 3d 74 df f9 bc a9 ff 60 3d b4 e5 16 bd
       0.0414453 -0.030502059 0.054931317 -0.036840156
000020 77 be 2a 3c 9a 56 4c bd 4d 41 00 bd 5a 4a 14 bd
       0.010421387 -0.049887277 -0.031312276 -0.03620372
000030 26 20 47 bd 45 6f 40 39 9c db dd 3b 3f d3 24 3d
       -0.048614644 0.00018351998 0.0067705642 0.040240522
000040 41 89 75 3d 40 6f b3 bc 54 d8 6e bd 7a d2 25 3d
       0.05994535 -0.021903634 -0.058311775 0.04048393
000050 0b 60 61 bd 0a e7 47 3d 96 bb 0d bc b2 c5 48 bd
       -0.055023234 0.04880432 -0.008650681 -0.049016662
000060 d4 78 2c bd ef 3a 0b 3c dd 26 6e 3c b6 b9 3c 3d
       -0.04210742 0.008497938 0.014535633 0.046075545
000070 74 d2 be 3b 34 79 c2 3c cb b4 24 3d 22 42 73 3d
       0.005823428 0.023739435 0.04021148 0.05938924
000080 cd 4f 08 bd 74 e9 78 bd 4c 37 f2 3c c5 ed 0b 3d
       -0.03327923 -0.060769513 0.029567383 0.0341623
000090 20 b2 cd 3c 60 fb 69 bd ec 52 0a bd b8 b6 17 3d
       0.02510935 -0.057124496 -0.033770487 0.03703949
0000a0 26 ab 71 3d bc 8c 00 bd 78 94 0d b9 cf 0c f8 3c
       0.05900111 -0.031384215 -0.00013502117 0.030279545
0000b0 8d 04 65 3d 1c 91 a5 bc d9 91 9a bb 4c 3c 20 3d
       0.055912543 -0.020210795 -0.0047170934 0.039120004
0000c0 a9 3b c5 3b 8b 95 69 bd c1 d5 f5 bc 7e b4 5d 3d
       0.006019075 -0.05702738 -0.030009152 0.05412721
0000d0 cf 04 1c 3d 0a dd 25 3d 1e 21 d5 bb a9 2b 4b 3c
       0.038090523 0.040494002 -0.006504192 0.012400546
0000e0 11 7d 5a bd a2 83 e7 bc dc 20 23 bd a7 6e 53 bd
       -0.05334193 -0.02826101 -0.03982626 -0.0516192
0000f0 cb 88 4b 3d a7 78 ac bc 17 4a e7 3c c6 6c 00 3c
       0.049691003 -0.021053625 0.028233571 0.007838434
000100 1b ec d3 bc a0 00 3d bc c3 2d 4b bd 68 ba 40 3d
       -0.02586942 -0.011535794 -0.04960419 0.04705277
000110 dd ae 49 3d 98 62 f6 3c 21 fc a7 bc fe a6 31 bd
       0.04923903 0.03007631 -0.020505967 -0.043372147
000120 5a d5 58 bc c8 a3 75 bb ce 75 02 3d 4d b8 4d bd
       -0.013234461 -0.0037481654 0.03185063 -0.05022459
000130 92 90 24 bd 3b e9 0d 3d ef 53 1f 3d fd 16 2a 3c
       -0.040176935 0.034646254 0.038898405 0.010381457
000140 21 65 ef 3c 94 65 bc bb 63 b9 37 bd 67 7c f2 bc
       0.029223027 -0.0057494137 -0.044854533 -0.029600335
000150 e3 03 46 3c d9 6b 11 3d 95 83 5e bd 6d 31 dd bc
       0.012085888 0.035503242 -0.054324705 -0.027001107
000160 54 20 44 3d 8b 32 20 3d 13 c6 90 3c 32 c8 49 bd
       0.047882393 0.0391107 0.017672574 -0.049263187
000170 ec 7d 77 3d 32 fa 52 3c 59 ef 49 bd 9f 9a c3 bc
       0.060422823 0.012877034 -0.049300525 -0.02387744
000180 4e 95 ae 39 0e 94 a5 bc 7c 41 a9 bc eb a4 99 bc
       0.00033299107 -0.0202122 -0.020661108 -0.018755397
000190 59 11 6c bd d9 b3 25 3d eb 8b 42 3d af 38 11 3c
       -0.05763373 0.04045472 0.047496717 0.008863612
0001a0 78 f8 5d 3d 09 fb 76 bc 50 93 4c bc 6f 10 6b bd
       0.054192036 -0.0150745 -0.012486294 -0.05738872
0001b0 de 9f c4 bc f0 43 05 bd d2 bd 54 bd 98 7a 5a 3d
       -0.024002012 -0.032535493 -0.05193884 0.05333957
0001c0 4d 0c 7b bc 9f ce 66 3d e8 87 1a bd f0 1c 54 3d
       -0.015322757 0.056349393 -0.037727267 0.05178541
0001d0 19 fe dc 3c 6c 35 01 3d 68 60 80 bd 6a fe 0b 3d
       0.026976632 0.031545088 -0.06268388 0.034178175
0001e0 29 b4 00 bb 3d 15 16 bd 11 4c 80 bd 54 77 41 bc
       -0.0019638634 -0.03664135 -0.062645085 -0.011808235
0001f0 13 13 0b 3d 21 78 5b ba 79 68 4e 3c 2e 3d 4f bd
       0.033953737 -0.00083720876 0.01259815 -0.050595455
000200 5a 69 11 3d ae fa ba bc cf ea 64 3a 82 9e e6 3c
       0.03550086 -0.022824612 0.0008732499 0.028151754
000210 94 f7 4b 3d fd de e2 3b 7b 1e 77 3d 38 f8 92 bc
       0.049796656 0.006923555 0.060331803 -0.017940626
000220 3d 24 2e 3d 8c 2a 24 bd 50 80 ce bc 34 b8 bc bc
       0.04251503 -0.04007964 -0.025207669 -0.023037054
000230 17 d6 29 bd 2a a7 d6 3b 1f 93 56 bd 1f 05 4a 3c
       -0.041463938 0.006550689 -0.0523864 0.0123303225
000240 82 3f 40 bd fc 35 a9 3a 4a 58 45 bd c5 9f 8b 3b
       -0.046935566 0.0012909765 -0.048179902 0.0042609894
000250 6f 83 ae 3c ec b9 24 3c ae 4c fb 3c e7 87 81 bd
       0.021302907 0.010054093 0.030676212 -0.063247494
000260 4d e0 26 3c 42 5e 72 bd 9d c8 69 bd 1b 29 69 bd
       0.010185313 -0.059171923 -0.057076085 -0.056923967
000270 b1 e6 ca 3b 6c 89 77 bc 89 be 2d bd aa c9 91 bc
       0.0061920513 -0.0151084475 -0.042418037 -0.017796356
000280 50 7b 8a 3b b8 bd d8 bc 82 c0 03 bd a9 ea 6c bd
       0.004226126 -0.026457652 -0.03216601 -0.057840977
000290 a4 3c fc 3c 82 44 21 bd 1e ab 1a bc e9 1b 22 3d
       0.030790634 -0.039371975 -0.009440212 0.0395774
0002a0 bf 59 22 3d d1 01 cc bc 5d fb 46 bb 2f d9 8e 3c
       0.03963637 -0.02490321 -0.0030362227 0.017437546
0002b0 29 b4 4f 3d 2b cf 1b 3d c3 25 d6 3a 0e 74 a3 3b
       0.050708923 0.038039368 0.0016338158 0.0049882
0002c0 88 29 a0 bc 06 7b 19 3d 39 7b f1 3c 8c 0d d3 bc
       -0.019551054 0.03747084 0.029477702 -0.025763296
0002d0 91 86 12 3d 55 0b 06 bd a2 45 59 bd e9 f4 6d bd
       0.035772864 -0.03272565 -0.053044923 -0.058094893
0002e0 ba 40 55 3d e8 75 3f 3d c4 8d 59 3c e4 e3 83 bc
       0.05206368 0.046743304 0.013278428 -0.016099878
0002f0 03 d3 1a 3d 88 02 4b bd 1f a2 61 3d a5 fb 34 3d
       0.037798893 -0.04956296 0.05508625 0.0441853
000300 31 2c 3a bd d6 cf 7e bd 0c 39 d6 bc 6d 04 79 3d
       -0.0454523 -0.062209927 -0.026150249 0.060795236
000310 0e bd a2 3c b0 e9 1b bc 04 94 f5 3c 2a f2 58 3d
       0.019865539 -0.009516165 0.029977806 0.05296532
000320 53 7c 8b bc 8a 9b 48 3d 52 ce 64 3d e9 9e 50 bc
       -0.017027056 0.04897646 0.055860825 -0.0127332
000330 ed 58 8e bc 81 1c b2 bb 7f 0d 02 3c 6f 70 4f 3d
       -0.017376387 -0.005435527 0.007937788 0.050644334
000340 ee 54 f6 3b a4 c3 5e ba 4f f7 d4 bc 41 d3 3c 3d
       0.0075174486 -0.00084977807 -0.025996832 0.046099905
000350 4f 47 6f 3d 63 58 b1 3c 21 8b 4f 3d 94 03 10 3c
       0.058417615 0.021648591 0.050669793 0.008789916
000360 04 e2 11 3d 29 d5 5e 3d c8 3d 0c bd c7 d3 42 bd
       0.035615936 0.054402504 -0.034238607 -0.047565248
000370 b8 5c 6a 3d bf 53 2d 3d 9d c4 16 3c 80 11 93 3b
       0.05721733 0.042316195 0.00920215 0.00448817
000380 a8 b2 82 bc 8a 19 0c bd 7c 1f f6 bc d1 a5 42 3d
       -0.01595433 -0.034204043 -0.03004431 0.047521416
000390 22 32 01 bd 14 ee 2f 3c 34 3f 35 3d 71 36 d6 3c
       -0.03154195 0.010737915 0.04424973 0.026149007
0003a0 94 33 17 3d e8 26 18 bd 49 aa cc 3b 32 0f 65 3d
       0.036914423 -0.03714648 0.0062458855 0.055922695
0003b0 b0 d1 33 bd 6f 02 64 bd 81 38 a6 ba 84 5a 5e 3c
       -0.043901145 -0.055666383 -0.0012681634 0.013571385
0003c0 3b 48 ab bc 6d 3e b2 3c 43 7e ff bc 0d df c5 3c
       -0.020908466 0.021758283 -0.031188136 0.02415421
0003d0 a1 c3 80 bc b0 cd 73 3d 17 44 4b 3d 56 e2 a2 3c
       -0.015718283 0.05952233 0.049625482 0.019883316
0003e0 47 21 3e bd b2 b7 64 3c 6c ec 2e bd f2 16 6e 3d
       -0.046418454 0.013959812 -0.04270594 0.05812735
0003f0 c5 de d7 3c 86 4b 78 3d e0 e0 e7 bc ae 72 4d 3d
       0.026351342 0.0606189 -0.028305471 0.050158195

net.out.bias f4 [196]
000000 6d 91 01 bd e0 a3 70 3d 8c b3 92 ba 34 ca 58 3d
       -0.03163283 0.058750033 -0.0011192425 0.05292721
000010 3d a6 38 3d 7b 0e 54 bd 9a 73 3c bd 9a 17 37 3d
       0.045080412 -0.051771622 -0.046008684 0.044700243
000020 bb c0 2a 3d b4 4b 02 bd 5b b1 65 bc 66 2b 71 bd
       0.04168771 -0.031810477 -0.014019336 -0.05887928
000030 c6 a5 72 3d d6 8b 62 bd 18 4a d3 bc ee f0 48 bc
       0.059240125 -0.05530914 -0.025792167 -0.012264473
000040 c2 2a 31 bc ff b1 84 3c 29 74 e7 3c 30 e6 0a 3b
       -0.010813417 0.016198156 0.028253632 0.0021194331
000050 4f a9 0a 3d b8 3c 54 bc 46 09 1e bd 36 0b 44 3d
       0.03385287 -0.01295393 -0.038583063 0.047862254
000060 f7 15 1b bd 4d 33 d5 3c a0 a9 5e 3d 02 db 9c 3a
       -0.037862744 0.026025439 0.054360986 0.0011967125
000070 be 03 0a 3d c1 25 23 bc 47 fc 65 bd 9a 1c 49 3d
       0.033694975 -0.009957732 -0.056148794 0.049099542
000080 8a 6e 77 bd 01 af bc 3c e2 27 63 3d c1 f0 26 3d
       -0.060408153 0.023032667 0.055457957 0.040756945
000090 d4 83 1b 3d de 48 6c 3d fe f4 60 bd 8a 88 59 3d
       0.037967518 0.05768668 -0.054921143 0.05310873
0000a0 8e 8b 91 bc 17 2d 2a bd 80 40 e5 bc 26 4f 09 bd
       -0.01776674 -0.041546907 -0.027984858 -0.033522747
0000b0 93 c8 2f bc 8d 42 39 bd 44 32 2e bc ff 79 06 3d
       -0.010728973 -0.045229483 -0.010632101 0.03283119
0000c0 5c 71 4a 3d 92 17 ce bc be c4 98 ba 2f 1d 80 bd
       0.049424514 -0.025157724 -0.0011655313 -0.06255566
0000d0 b1 87 4a 3d 06 40 35 ba 84 25 89 ba 60 24 8d bb
       0.04944581 -0.0006914142 -0.0010463451 -0.0043073148
0000e0 d5 c7 45 3d 05 84 6e 3c 22 fc 58 3d 39 f3 82 3c
       0.048286278 0.014557843 0.052974828 0.015985118
0000f0 c9 18 d1 3c 60 a8 0f bd c7 da 87 3c 02 16 20 bd
       0.025524514 -0.035072684 0.016583813 -0.03908349
000100 2e 3f 33 3d a9 88 55 3d 3f 4c c0 3c aa 99 7b 3d
       0.043761425 0.052132282 0.023473857 0.061425842
000110 dd 78 de bb 73 18 1f 3d 44 d6 c3 3b 6a c9 63 3d
       -0.0067893104 0.038841676 0.00597647 0.055612005
000120 d9 f5 af bc d8 64 22 3b 95 b9 dd 3c 2d 93 b1 bc
       -0.021479534 0.0024779346 0.027066031 -0.021676624
000130 96 53 32 3d 44 73 1e 3c b9 41 50 bc 5a ff 1c bd
       0.043536745 0.009671036 -0.012710982 -0.03832946
000140 9d 46 52 3d 41 d0 40 3d f9 bf 36 3d 0a 51 1a bd
       0.051336873 0.047073606 0.044616673 -0.03767494
000150 26 3f 7f bc b7 5c 9c 3c 67 24 7f bd 45 26 9f bb
       -0.015579021 0.019087179 -0.062290575 -0.004856857
000160 48 25 fe 3a ce a2 7a 3c 61 f5 de 3c 61 0d 22 bd
       0.0019389773 0.015297605 0.027216615 -0.03956354
000170 2d db ae bc e2 0f 72 3d b4 79 4f 3c e3 22 0f 3c
       -0.021344746 0.05909718 0.012663294 0.008736345
000180 40 7b e5 bc 85 c2 5a 3d e5 65 03 3d 7c d1 1f 3d
       -0.028012872 0.053408165 0.032079596 0.03901814
000190 0f 88 81 bc bf de 5c bb 9c d1 07 bd d3 71 a8 3c
       -0.015811948 -0.0033702103 -0.033158883 0.020562088
0001a0 60 85 5e bd 0c e8 1f bd c0 e3 e9 3b 20 2f c7 3c
       -0.054326415 -0.039039657 0.0071377456 0.024314463
0001b0 fe d1 9d bc 1a bb 2f bd 46 2d 1d 3d c4 d7 40 3d
       -0.019265171 -0.042903043 0.038373254 0.04708077
0001c0 e9 63 d9 3c b9 60 7f 3c ac 9b 15 3d 1e 41 fc bb
       0.026536899 0.015587025 0.036525413 -0.0076981923
0001d0 d0 a8 05 3d 62 79 8c bc f0 2b 1d 3c a8 c0 2d 3d
       0.032631695 -0.017147724 0.009592995 0.04242006
0001e0 54 b4 a6 3c 93 ea f8 bc 1f fb f6 3c 03 f3 9f bc
       0.020349659 -0.030385291 0.03014904 -0.019525057
0001f0 55 0e 50 3c 96 f2 06 bd 1c f9 c8 bc f0 9a 69 3d
       0.0126987295 -0.03294619 -0.024532847 0.057032526
000200 92 b9 23 bd 8f 88 54 3d 9e 86 3e 3d da 9d 63 bd
       -0.039971896 0.051888045 0.0465151 -0.05557046
000210 2a ae 54 3d 0f ac 22 3d 05 ed f7 bc 3c 4c 08 bc
       0.05192391 0.03971487 -0.030264387 -0.008318957
000220 fb 84 d7 bc 06 cc 4c bd 11 6a 01 3d b9 63 4b bd
       -0.026308527 -0.04999926 0.031595293 -0.04965565
000230 4e b4 27 3d b8 43 14 bc c2 34 0c bd 69 33 37 3c
       0.040943436 -0.0090493485 -0.03423 0.011181691
000240 fe 3c bf 3b 12 39 39 3d 39 89 41 bd b9 ea e0 bc
       0.0058361283 0.045220442 -0.047250006 -0.027455674
000250 b0 b6 31 bc 6b 1c 54 bd 9f 43 42 3d cc dd 5c 3d
       -0.010846779 -0.051784914 0.04742777 0.05392246
000260 90 b5 d4 3c bd 3f 8a bc 4b 28 07 3d 5a dd bf 3c
       0.025965482 -0.016876096 0.03299741 0.023420978
000270 b7 f0 6f 3d ef c3 d4 bc e6 22 c3 bc dd 8a 07 bd
       0.058579173 -0.025972335 -0.023820352 -0.033091415
000280 00 c8 62 3d 31 b7 53 bd e2 24 79 bd c0 78 82 3c
       0.055366516 -0.051688377 -0.06082619 0.015926719
000290 6e c4 c2 bb 9b 8d 0b bc 96 85 2c 3d 7d b0 ae 3c
       -0.0059438264 -0.008517648 0.042119585 0.02132439
0002a0 82 80 ff 3a 03 87 55 bd 82 55 c3 3c 44 df 63 3d
       0.0019493254 -0.05213071 0.023844484 0.055632845
0002b0 42 04 77 bd 21 8f 17 3d fd e6 2b bb 2a 5c 17 3d
       -0.060306795 0.037001733 -0.002623021 0.03695313
0002c0 48 a4 53 bd 90 96 44 3d 81 c4 ee 3c 5b 8b 2f bd
       -0.051670343 0.04799515 0.029146435 -0.04285751
0002d0 1e 18 a6 bc bd e5 41 3d e2 45 28 bd 9f 24 a2 ba
       -0.020275172 0.047338236 -0.04108227 -0.0012370533
0002e0 a8 87 7d bc 50 19 d7 3c 9e 92 59 bd cb 21 8f 3c
       -0.0154742375 0.026257187 -0.05311834 0.017472168
0002f0 01 d0 ba bc 46 db 4c bd 92 67 34 bd cd 10 6e bd
       -0.022804262 -0.050013803 -0.044044085 -0.05812149
000300 1b 22 2d b9 1c 86 24 bc 88 a8 0a bd f4 7d 4a 3d
       -0.00016511271 -0.01004174 -0.03385213 0.049436525

base.em.weight f4 [14, 1]
000000 00 00 00 00 3f 49 e4 bf f6 cd 8c be 21 71 1a 3f
       0.0 -1.7834853 -0.27500886 0.6032887
000010 04 db bd be 71 58 c4 bf 3f aa 92 3e fd 0e 90 3f
       -0.37081158 -1.533949 0.28645512 1.1254574
000020 e4 5f 21 c0 8d c9 47 bd ad 4b 1d 3f 82 50 81 bf
       -2.5214777 -0.0487762 0.614436 -1.0102694
000030 91 03 ee be 15 bc ab 3e
       -0.46487096 0.33541933

value_head.weight f4 [1, 256]
000000 9c 75 c0 3c ee 46 95 3b 8e 24 84 bd 6e bd 2d bc
       0.02349358 0.0045555746 -0.06452285 -0.010604246
000010 af 03 b8 3b ee d0 25 3d 75 8e 81 bd 3e b2 66 3d
       0.0056156735 0.040482454 -0.06326 0.05632233
000020 31 c3 0f bd ab c7 72 3c 17 c4 10 bd df 6a 82 bd
       -0.03509826 0.014818112 -0.035343256 -0.0636804
000030 0b 1b 08 bc 29 02 5f bd 34 19 43 bb 7d 62 24 3b
       -0.008307229 -0.05444542 -0.002976966 0.0025083118
000040 25 3e 6d bd d5 c6 26 3d 27 98 31 bd b0 8f db 3c
       -0.057920594 0.040716965 -0.043357994 0.026801914
000050 86 00 43 bc 65 d5 48 bd 9e 6a b9 bc 39 30 3d bd
       -0.01190198 -0.049031634 -0.022633847 -0.046188567
000060 a2 ec 3a 3d aa 05 13 3d 56 42 f6 bc 9d d5 d0 3c
       0.045635827 0.035894074 -0.030060928 0.025492484
000070 79 0d bb bb 2f dd 89 3c d6 20 44 3b a6 bb 53 bc
       -0.005708393 0.016829101 0.0029926798 -0.012923157
000080 e5 43 47 3c 21 58 00 bd 1a ce 69 bd 6b 2f 15 bb
       0.012162183 -0.031334046 -0.05708132 -0.002276386
000090 8a a2 6d 3c c3 24 85 3c 37 68 a4 3c 04 13 bf 3c
       0.014504084 0.01625288 0.020069225 0.023324497
0000a0 06 ff ef 3c 3c f0 58 3d 82 38 64 bd 96 c7 2f 3d
       0.02929641 0.05296348 -0.055717953 0.04291495
0000b0 c7 fb 19 3d 2c 8c 08 bc e5 50 07 bd 1d 26 c2 bc
       0.03759363 -0.008334201 -0.03303613 -0.023699814
0000c0 db c6 81 3c ca 1d b4 3c 98 db 31 bd b3 3b 6c 3d
       0.015841892 0.02198686 -0.04342231 0.05767412
0000d0 04 9e 87 bb ad fd 12 3d ed 4f 7b 3c 42 29 eb bc
       -0.00413871 0.035886455 0.01533888 -0.028706197
0000e0 8b 22 29 bd 0a 6c 28 bd 5f bd 49 bd 3a d0 13 bd
       -0.04129271 -0.04111866 -0.049252864 -0.036087252
0000f0 fe 41 77 bd e4 2c 4b 3d 63 5d 3a 3c 05 4e 82 bd
       -0.06036567 0.049603358 0.011374804 -0.06362537
000100 d7 1a 3d 3d 4f 04 0f 3d 5b bc 31 3d 4d 9e 31 3d
       0.046168175 0.03491622 0.04339252 0.043363858
000110 da 74 4a 3d e6 71 68 bd ce 86 25 3c 1e 68 f4 3a
       0.049427845 -0.056749247 0.010102941 0.0018646752
000120 aa c3 29 3d 07 4f 5f bd 01 c6 52 3c 47 a8 a7 bc
       0.041446365 -0.054518726 0.012864591 -0.020465983
000130 e0 2e 64 3d d3 89 2c bd 8c 74 5c 3d 97 a2 e6 bc
       0.055708766 -0.042123627 0.053822085 -0.0281537
000140 8a 16 5e bd 46 16 71 3b 71 58 22 3d ec fe aa bc
       -0.054220714 0.0036786958 0.039635126 -0.02087351
000150 cc d4 4b bc 2e 08 1c bc 55 4d 03 bd 6a 7d 2a bd
       -0.012440871 -0.009523435 -0.03205617 -0.04162351
000160 91 e1 23 3d 3b 3c 09 bd 12 84 2c bd 8d 12 1f 3d
       0.04001004 -0.033504706 -0.04211814 0.03883605
000170 9a 30 55 bc e3 d0 af bb 8a ee 30 bc cf e3 8e bc
       -0.013012076 -0.0053654774 -0.01079906 -0.017442612
000180 27 5f c9 bc ab 82 9a 3c b0 c4 65 3c 9f 44 85 3b
       -0.024581505 0.018861135 0.014023945 0.004067018
000190 4f 9d e5 bc 3c b1 f6 3c 83 17 e3 3c f5 10 0d 3d
       -0.028029112 0.030113809 0.027721172 0.03444
0001a0 d4 c2 34 3c e9 af 49 bd 7a ef c4 3c 37 a9 73 3d
       0.011032779 -0.049240027 0.024039973 0.059487548
0001b0 cd 96 f1 bc 80 f6 0f 3b b4 bc 14 3d ba 24 5a ba
       -0.029490853 0.0021966994 0.036312774 -0.0008321513
0001c0 83 4d cf bc 6e 37 21 bd 33 ef 56 bc e4 79 70 3b
       -0.025305515 -0.039359502 -0.013118553 0.0036693746
0001d0 23 43 ac 3c 06 ab 80 3c 74 6e 46 bd 7e ce 70 bd
       0.021028107 0.01570655 -0.04844518 -0.058790676
0001e0 09 f2 58 3d 20 38 46 3d 08 f8 21 bd 96 2e a9 3c
       0.052965198 0.04839337 -0.03954318 0.020652097
0001f0 38 4b 88 bc c5 a5 17 bd ab 0c 6d bb fb 90 18 3d
       -0.01663743 -0.037023325 -0.003617088 0.03724764
000200 c1 98 4a bb a5 40 25 bd 8c d7 2f bd 7d d0 2b 3d
       -0.0030913802 -0.040344853 -0.04293017 0.041946877
000210 bf 00 c6 3c 52 17 c4 bc bd 92 77 3b 2f 40 1b 3c
       0.024170278 -0.023936901 0.0037776672 0.009475752
000220 3e b6 37 3d 80 38 29 bd ac b2 10 bb 32 11 65 3d
       0.044851534 -0.04131365 -0.0022079153 0.0559246
000230 d1 47 77 bd 9e 64 20 3d d0 e7 3e 3d 0f dd 45 bc
       -0.060371224 0.039158456 0.046607792 -0.01207663
000240 5f c2 a2 3c bf 57 58 bd c1 41 41 bc b8 8f 56 3d
       0.019868074 -0.052818056 -0.011795462 0.052383155
000250 2d 9e 3d 3c c6 fb 01 3c c9 c9 01 bc 7b 4a c2 bc
       0.011573357 0.007933563 -0.0079216445 -0.023717156
000260 cb be 85 bd 8f 04 6e 3d 37 0c 86 ba 64 ce 93 3c
       -0.065305315 0.058109816 -0.0010227029 0.01804275
000270 2d 81 24 bd d5 58 08 bd 63 34 1d 3d dd 0e 69 3c
       -0.040162254 -0.03328784 0.038380038 0.014224735
000280 e3 76 83 bc f4 19 4d bc 3c 76 60 3d 72 7c 68 3d
       -0.0160479 -0.012518395 0.054800257 0.056759305
000290 bf 08 f7 bc 3a e3 2b 3d 08 d5 23 bd 76 46 43 bc
       -0.030155538 0.041964747 -0.039998084 -0.011918655
0002a0 6c 14 1d 3d 2d c5 24 3c 12 ae 4c 3d 79 94 08 3d
       0.038349554 0.010056776 0.049970694 0.03334472
0002b0 a5 2d 85 3c 3e af 77 bc a8 c4 43 bd 94 fd 40 bd
       0.016257117 -0.015117465 -0.047794968 -0.04711683
0002c0 0a de 3c 3d 88 95 58 3b b7 11 4a 3c f0 52 3b 3c
       0.04611019 0.0033048112 0.012333325 0.011433348
0002d0 c4 db 3e bc 49 1e 3f bd 75 52 13 3c 7b c1 52 3d
       -0.011649076 -0.04665974 0.008991827 0.05145405
0002e0 c3 f8 08 3c e2 8c 77 3b 9d 7e 34 3c 6f 52 11 bd
       0.008360091 0.0037773182 0.011016515 -0.035479005
0002f0 eb 10 53 bd 6e 21 f8 bc fc 68 c5 bc 92 6d d0 b9
       -0.051529806 -0.030289378 -0.024097912 -0.00039754488
000300 6f 31 d7 bc ae 9e 51 bd 56 59 62 3b ef bf f3 3b
       -0.026268689 -0.05117672 0.0034538112 0.0074386518
000310 ba d7 2b bd 15 0a 13 bd ba 45 f0 3c 1f 65 79 bd
       -0.04195378 -0.035898287 0.029330123 -0.060887452
000320 82 a5 19 bd 40 38 32 3d fa f3 8e 3c 0f 5f 1f bd
       -0.037511356 0.043510675 0.017450321 -0.038909014
000330 28 51 80 bb 42 28 1c ba 2f 19 4e 3d 6f 75 a5 bc
       -0.0039159246 -0.00059569266 0.050316986 -0.020197598
000340 94 1d 00 bd 92 e9 2a ba ae 87 d1 3b ab 0c 06 bc
       -0.031278208 -0.000651979 0.006394348 -0.008181731
000350 29 82 51 3d 9f fe c9 3c 75 ae 6b bd 1c a8 92 3c
       0.05114952 0.024657546 -0.057539422 0.017902426
000360 5d 33 44 3d 34 30 a9 bc c3 8a 6f bd d8 76 55 3d
       0.047900546 -0.020652868 -0.058481943 0.05211529
000370 38 da c4 bc 2f ef 8c 3c a8 29 0a 3d af 11 9d 3c
       -0.024029836 0.017203895 0.033731133 0.019173471
000380 00 19 1a 3d c8 59 67 bd a4 cb 04 bd c3 01 b4 3c
       0.037621498 -0.056482106 -0.03242077 0.021973496
000390 ae e2 01 bd cd 08 59 3c 83 bf ec bb 9a 24 3c bd
       -0.03171032 0.013246727 -0.0072249784 -0.045933343
0003a0 2c 21 34 3c c8 c1 34 3d 77 56 12 3d 19 a0 2e bd
       0.010994237 0.044130117 0.03572699 -0.04263315
0003b0 5b 3a 34 3d 73 cf 35 bb 85 ca 19 3d f4 f1 30 bb
       0.044000965 -0.0027742058 0.037546653 -0.0026999684
0003c0 02 7b 13 3d 68 f8 6e bc 0e 2d fd bc 1c 49 4f bd
       0.03600598 -0.014585592 -0.030905273 -0.050606832
0003d0 4a 89 6d 3d 1a e1 b3 bb 3e 5b 38 3c 23 fe 2f bd
       0.057992257 -0.0054894807 0.011252223 -0.042966973
0003e0 6e 9f 58 bd 24 7a 43 3d f4 f2 09 bd 91 57 64 3d
       -0.05288642 0.047723904 -0.033678964 0.055747572
0003f0 62 04 d7 bc 6d e4 69 3c 33 71 3c bd ed 16 cd 3c
       -0.026247207 0.014275652 -0.046006393 0.025035346

exp_avg f4 [14, 1]
000000 00 00 00 00 78 ca 39 b5 10 ab 99 35 0a 34 b5 35
       0.0 -6.92125e-07 1.1449174e-06 1.3500696e-06
000010 2d 05 97 36 c0 3b 3f 36 60 c5 ed 35 f7 53 46 b6
       4.500753e-06 2.8495997e-06 1.771532e-06 -2.9553173e-06
000020 12 3f d3 36 d5 a0 ed 35 45 a8 1a 36 2d 7a a1 36
       6.2956324e-06 1.7704684e-06 2.3045734e-06 4.812397e-06
000030 da d4 da 36 ea 27 52 27
       6.5216855e-06 2.9164992e-15

exp_avg_sq f4 [14, 1]
000000 00 00 00 00 78 26 af 2f f9 67 36 2f 41 ac 67 2f
       0.0 3.1859648e-10 1.6589742e-10 2.1070524e-10
000010 c3 a6 a9 2f 0e 10 54 2f 08 fd 2d 2f 67 26 14 2f
       3.0859412e-10 1.9286991e-10 1.5824153e-10 1.3474165e-10
000020 7a ae e9 2e c8 96 8b 2e 0b 66 3b 2e 29 8b b5 2e
       1.06266065e-10 6.347772e-11 4.260951e-11 8.255647e-11
000030 56 f3 77 2e f8 d4 b5 2c
       5.6377424e-11 5.1679737e-12

exp_avg f4 [196, 256]
000000 ce 4b 19 34 e6 6a a8 33 0b d8 e1 33 ca 4d cc 33
       1.4276813e-07 7.842554e-08 1.0516677e-07 9.51364e-08
000010 70 af 99 33 5e ad 79 b1 08 91 82 34 64 21 b5 34
       7.1565296e-08 -3.6332817e-09 2.431991e-07 3.3738172e-07
000020 30 fe 45 33 49 ce d6 34 13 80 98 34 74 29 61 b1
       4.609882e-08 4.0010698e-07 2.8405393e-07 -3.2765373e-09
000030 b3 0c df 34 8f 31 9a 33 9e 6b 0b 34 dd 5a 46 32
       4.1546227e-07 7.1801985e-08 1.2984535e-07 1.1545777e-08
000040 e4 e3 aa 33 ce 78 7d 33 bf e6 91 32 94 70 19 34
       7.957695e-08 5.9016024e-08 1.6985153e-08 1.4290191e-07
000050 ce 5e 44 b1 b4 32 9c b0 60 84 14 2f 78 d0 05 35
       -2.8575644e-09 -1.1364905e-09 1.350755e-10 4.9849723e-07
000060 9a 73 6e 33 99 ba 96 34 cf 04 fe 33 cd a4 09 33
       5.5518832e-08 2.8075445e-07 1.18286714e-07 3.2047684e-08
000070 af d6 36 34 55 15 b2 34 b9 35 7c 34 81 2e 0a 34
       1.7028172e-07 3.3170605e-07 2.3488873e-07 1.286917e-07
000080 00 51 83 34 12 48 ec b0 e7 93 8a 32 80 b1 9d b1
       2.4459587e-07 -1.7191744e-09 1.6132573e-08 -4.589481e-09
000090 d0 e9 97 32 4b f5 91 33 a6 a3 13 b1 f6 89 42 34
       1.768504e-08 6.796707e-08 -2.1484339e-09 1.8117848e-07
0000a0 b6 15 4a 33 ae a2 b4 33 17 ae ce 31 4e 7e 84 33
       4.7051536e-08 8.4114944e-08 6.015181e-09 6.169704e-08
0000b0 bd 25 a3 34 ec 27 10 33 c2 eb d8 33 4b 46 19 b1
       3.0388574e-07 3.356392e-08 1.0101168e-07 -2.2304387e-09
0000c0 0b 73 cd 33 82 2b a0 33 63 e2 91 32 e8 66 9f 32
       9.5669826e-08 7.4584946e-08 1.698317e-08 1.8556833e-08
0000d0 a2 23 4e 34 86 f7 c8 33 25 2f 75 34 33 2a 3a b0
       1.9198208e-07 9.35825e-08 2.2834554e-07 -6.7726375e-10
0000e0 92 0e 33 34 91 a6 8a b1 5f fc 9b 34 c0 7f d2 33
       1.6675975e-07 -4.035265e-09 2.9054624e-07 9.8021246e-08
0000f0 fe ff 88 b0 eb 61 6b b1 00 4e 28 33 fc 9c 02 33
       -9.96806e-10 -3.425266e-09 3.918649e-08 3.041076e-08
000100 de 16 1d b1 11 16 80 33 82 37 81 33 a3 27 f9 34
       -2.2859505e-09 5.964478e-08 6.0171274e-08 4.6408704e-07
000110 9b b5 cb 33 3a 70 99 31 c2 08 1c b1 de 65 bb 31
       9.485958e-08 4.4656447e-09 -2.2705966e-09 5.4539973e-09
000120 b2 a2 d2 33 38 0c 4f 33 70 a5 7c 34 3c 38 2d b1
       9.808481e-08 4.8207056e-08 2.3529515e-07 -2.5206779e-09
000130 1c 77 ad 33 7a c1 5c b1 1b f8 98 31 5a f6 10 34
       8.077606e-08 -3.2124192e-09 4.4519886e-09 1.3500667e-07
000140 49 4c 3f 31 60 b5 90 32 aa 45 fe 33 43 e0 db 34
       2.7837521e-09 1.6846286e-08 1.18404685e-07 4.09551e-07
000150 31 32 44 b1 ae 9e 1e 34 59 7b 1d 33 aa 9a e5 32
       -2.8550284e-09 1.4772624e-07 3.6666595e-08 2.6729442e-08
000160 c1 2a 2b 34 f3 8a a7 33 b5 f6 1b 34 77 83 08 34
       1.594117e-07 7.801818e-08 1.4525251e-07 1.2713814e-07
000170 61 f3 5b 34 86 f2 77 32 6d ab 5e b1 ae 9a a7 33
       2.0484505e-07 1.4432436e-08 -3.2402696e-09 7.8046796e-08
000180 d5 02 cc 34 20 ba f4 33 b8 02 be 32 d3 d3 86 b1
       3.8000022e-07 1.1395991e-07 2.2120147e-08 -3.923995e-09
000190 7e b9 9b b0 f4 8b d5 34 fb 01 62 34 35 52 83 b0
       -1.1330454e-09 3.977617e-07 2.104861e-07 -9.554869e-10
0001a0 b5 0e 54 34 6f f3 7a 32 c8 d9 f7 32 df 3a 29 b1
       1.9749389e-07 1.4607266e-08 2.885362e-08 -2.46262e-09
0001b0 8a bf 6e b1 06 27 95 33 94 08 9a 34 7e ba 0a 2f
       -3.4742436e-09 6.9454515e-08 2.8690977e-07 1.2617282e-10
0001c0 86 c2 b4 30 df b2 03 35 9a f0 a6 34 2c da db 33
       1.3152011e-09 4.9061595e-07 3.109497e-07 1.02376674e-07
0001d0 ea 67 a2 b1 f9 a2 6f 33 f6 48 b0 34 66 ff a4 33
       -4.726634e-09 5.5794747e-08 3.283564e-07 7.683302e-08
0001e0 57 36 14 31 00 1f b9 b1 62 91 21 33 52 73 01 33
       2.1567723e-09 -5.387733e-09 3.761796e-08 3.0140036e-08
0001f0 a9 d6 38 34 33 b3 28 33 bf a9 f1 33 d0 77 55 b0
       1.7214428e-07 3.927853e-08 1.1253314e-07 -7.765921e-10
000200 eb 7b 6d 34 07 fa 4b 34 9f 18 01 35 2d 92 72 b1
       2.2117426e-07 1.8996808e-07 4.8092073e-07 -3.5298726e-09
000210 3b 32 31 32 ef 17 e0 33 72 12 47 32 18 43 31 b1
       1.0314177e-08 1.0435166e-07 1.15875185e-08 -2.5795028e-09
000220 ec 35 95 34 13 53 4c 34 1f 3c 23 32 02 c0 5c b1
       2.7792646e-07 1.9029203e-07 9.501519e-09 -3.2123357e-09
000230 8d d3 42 33 75 eb a0 33 10 8c 62 34 87 93 d3 31
       4.536155e-08 7.49341e-08 2.1098845e-07 6.15768e-09
000240 f7 21 34 31 2a d7 ec 34 33 ba 22 34 b3 ea 22 32
       2.6212754e-09 4.4114978e-07 1.5155165e-07 9.4830055e-09
000250 88 23 4d 32 2c e6 58 b1 86 08 17 33 ef 0f 74 b1
       1.1940649e-08 -3.1562974e-09 3.516518e-08 -3.551573e-09
000260 41 97 9a b1 a4 5f 91 33 ba c4 24 34 ce 90 f7 2f
       -4.4991855e-09 6.7694856e-08 1.5345259e-07 4.5031928e-10
000270 b7 6a 2e b1 d2 cf 39 33 23 1c 8e 31 4d 40 2c 32
       -2.5380993e-09 4.326268e-08 4.1359427e-09 1.0026338e-08
000280 08 ca ac 32 5c 19 62 34 b8 33 ad 33 1d f2 9a 2f
       2.0115309e-08 2.1057116e-07 8.065348e-08 2.818447e-10
000290 21 66 01 b1 54 e8 6e 34 76 9b 50 34 70 ea b0 34
       -1.8830024e-09 2.2249998e-07 1.9428066e-07 3.295313e-07
0002a0 43 a6 1c 32 f0 1a 39 32 f6 8f e9 33 1d 37 ef 33
       9.118199e-09 1.0774542e-08 1.0876094e-07 1.113933e-07
0002b0 ac f8 34 34 08 a7 8b b1 44 68 e9 34 02 a0 f3 32
       1.6854273e-07 -4.0644217e-09 4.3475495e-07 2.8361686e-08
0002c0 00 63 33 32 a6 21 f1 32 12 06 0f 34 8f 80 69 b1
       1.0441681e-08 2.8071394e-08 1.3320121e-07 -3.397904e-09
0002d0 d8 36 b1 33 ec a3 bb 34 16 5f 59 33 1e a1 0d 35
       8.252181e-08 3.4950733e-07 5.061073e-08 5.276105e-07
0002e0 0e 61 83 30 a8 03 b3 34 9f 4d 9b 34 3d 25 2b 34
       9.559089e-10 3.3344008e-07 2.8927477e-07 1.5939163e-07
0002f0 fc 55 47 34 88 ed ba 34 56 ff 19 34 fb 63 ef 33
       1.85646e-07 3.4818027e-07 1.4342126e-07 1.1147491e-07
000300 48 f1 61 34 03 de 2f 34 7a 37 4a 33 b4 cd 9b b1
       2.1042536e-07 1.6378912e-07 4.7082246e-08 -4.5344795e-09
000310 f2 3e a2 32 a1 be 02 34 0e ce 98 32 75 2f 6f 32
       1.8887906e-08 1.2176544e-07 1.7788832e-08 1.3922421e-08
000320 cd d5 b9 31 ae e1 46 33 bd 07 2d b1 10 25 ec 33
       5.408515e-09 4.6305722e-08 -2.5179212e-09 1.0996348e-07
000330 89 27 83 b1 db 25 60 34 42 4d 63 b1 05 9b 2b 34
       -3.8170964e-09 2.0875397e-07 -3.3076764e-09 1.5982012e-07
000340 f1 b8 07 34 ed d5 46 33 f4 5b 30 b1 d2 ca c3 34
       1.2640136e-07 4.6295032e-08 -2.566364e-09 3.6469152e-07
000350 c1 d3 99 33 fe 86 29 34 ad 2a 8f 31 82 d0 de 30
       7.1631355e-08 1.5788461e-07 4.1666994e-09 1.6211887e-09
000360 3f de 7a 34 06 cd fd ae d6 30 c0 33 6f 40 73 33
       2.3363917e-07 -1.15415275e-10 8.94958e-08 5.663645e-08
000370 da 8a c0 33 d7 6e 20 b1 79 bb 1f 32 3b 12 f1 33
       8.965954e-08 -2.334607e-09 9.297644e-09 1.1225753e-07
000380 82 c8 0c 33 38 2d ec 32 9b 54 f4 34 8d fb dd 33
       3.277865e-08 2.7494579e-08 4.55101e-07 1.0336871e-07
000390 6e fc bd b1 5c b6 b4 32 1a 74 35 b1 b4 4e 34 34
       -5.529322e-09 2.1037685e-08 -2.6404963e-09 1.6792438e-07
0003a0 08 d3 e2 31 3b 51 fe 33 0a 79 25 34 01 bd 9b 33
       6.601457e-09 1.18425724e-07 1.5410856e-07 7.2521296e-08
0003b0 b7 d0 35 33 c9 da e2 b0 87 91 4d 34 22 be 0e 34
       4.233217e-08 -1.6505847e-09 1.9145055e-07 1.329395e-07
0003c0 6c 68 30 33 2c 77 0e 34 0c 4b 67 32 c2 15 9e b1
       4.1073164e-08 1.3268135e-07 1.3463033e-08 -4.600879e-09
0003d0 45 44 cb 32 ec da 5d 32 b9 8c 6d 34 e1 a8 b6 2f
       2.3663356e-08 1.291367e-08 2.212354e-07 3.3225603e-10
0003e0 48 56 ff b0 5c f1 95 33 0c 49 29 33 f6 78 0b 34
       -1.8578215e-09 6.982256e-08 3.9414815e-08 1.2989389e-07
0003f0 46 e2 ba 32 2b 94 a1 b0 73 1d 92 34 05 bc 0b b1
       2.1756147e-08 -1.1756404e-09 2.7216046e-07 -2.033404e-09

exp_avg_sq f4 [196, 256]
000000 73 60 05 2a 92 92 88 2a cb 11 df 29 46 e5 27 29
       1.1846236e-13 2.4260157e-13 9.906276e-14 3.7280312e-14
000010 6d d2 34 29 31 1b a3 29 34 4e 9d 2a 23 d0 4e 2b
       4.0150544e-14 7.243371e-14 2.7943067e-13 7.347475e-13
000020 3c 14 33 2a df 56 e5 2a 71 91 7c 2a 77 36 01 28
       1.5905414e-13 4.073885e-13 2.2432556e-13 7.172749e-15
000030 96 c6 5d 2b 71 04 b5 2a 3c c5 84 2a 2c 0c 8b 29
       7.8790566e-13 3.215514e-13 2.358477e-13 6.1749515e-14
000040 9e 99 85 2a 95 d7 3c 29 b9 45 b3 27 6c d7 d9 2a
       2.373214e-13 4.1931373e-14 4.9758074e-15 3.8696422e-13
000050 f3 de 2f 26 3c 21 20 27 ad 98 a8 29 08 91 c6 2b
       6.1017474e-16 2.2222477e-15 7.487184e-14 1.4109e-12
000060 c7 7e 08 2b f1 0b 96 2a f1 09 02 2b f0 9a 39 2a
       4.8492845e-13 2.6653639e-13 4.6199074e-13 1.6485056e-13
000070 04 f1 a4 2a f8 1f 1c 2b fb a3 64 2a fa f8 07 2a
       2.929949e-13 5.54667e-13 2.030736e-13 1.207679e-13
000080 ff 84 59 2a 74 53 67 28 dd 8a 88 28 6a 5d a7 27
       1.9319614e-13 1.2841172e-14 1.5159255e-14 4.645309e-15
000090 0a 2f 5b 28 bb f4 d4 2a 2e 92 cf 28 a0 93 77 29
       1.2167142e-14 3.782858e-13 2.3045012e-14 5.497306e-14
0000a0 f5 d8 46 29 83 9a d2 2a de 90 50 29 ae d3 c0 28
       4.4153012e-14 3.7410708e-13 4.631093e-14 2.1408084e-14
0000b0 9a c4 3e 2b 1f 43 e4 28 72 b7 8f 29 fc 21 ae 28
       6.77744e-13 2.5342194e-14 6.3822984e-14 1.9332619e-14
0000c0 1b 86 39 2b 6a 48 a1 29 38 48 c8 25 97 fa 4f 29
       6.591131e-13 7.162398e-14 3.4743407e-16 4.6180585e-14
0000d0 83 31 2e 29 74 5b d6 2b f5 68 be 2b df 78 dc 28
       3.8678706e-14 1.5230998e-12 1.3529443e-12 2.4477326e-14
0000e0 a8 9d 70 2a cf ce d7 2a a1 a4 37 2b bf 62 b9 29
       2.137098e-13 3.8335174e-13 6.524313e-13 8.23278e-14
0000f0 ba fd a2 28 53 0d 91 27 2d 07 a7 28 09 81 1e 27
       1.809565e-14 4.026003e-15 1.8543837e-14 2.1996855e-15
000100 d6 53 72 29 ab 2a 28 28 dd 7c 94 29 4f f4 a0 2b
       5.380751e-14 9.3351255e-15 6.5941806e-14 1.1436493e-12
000110 eb b5 46 28 11 13 c9 28 35 2c 4c 29 9c c7 bd 29
       1.1030655e-14 2.2323752e-14 4.5335443e-14 8.427913e-14
000120 fa 3b cb 29 07 e4 84 29 57 9c 7d 2a 51 be 83 29
       9.025415e-14 5.901534e-14 2.2525155e-13 5.850583e-14
000130 a4 99 5e 2a 92 89 e4 26 73 28 80 26 07 48 2a 2b
       1.9770866e-13 1.5857967e-15 8.892748e-16 6.049609e-13
000140 6e cf 13 2a ae 7d 31 27 f7 3a 73 2b d9 4a c6 2b
       1.312819e-13 2.4631816e-15 8.641277e-13 1.4089521e-12
000150 0b 14 3c 2a 2c b1 f2 2a 18 c9 4d 2a 56 0f 15 2a
       1.6704708e-13 4.3110773e-13 1.8277426e-13 1.3239179e-13
000160 3d 51 0d 2b 40 57 93 2a 22 c2 75 2a 48 77 68 2a
       5.0206004e-13 2.6172987e-13 2.1827725e-13 2.0647123e-13
000170 6b 65 a5 2a 22 4b 66 2a 9f 68 4a 28 b5 11 a8 29
       2.938026e-13 2.045417e-13 1.1235939e-14 7.4637704e-14
000180 c1 3a 5b 2b ad 8b df 29 f9 fb 33 28 ee d2 8c 28
       7.7885967e-13 9.927419e-14 9.991134e-15 1.5634599e-14
000190 30 2e 38 28 4c fa 64 2b e2 7e de 2a e7 b9 0b 29
       1.0224067e-14 8.134923e-13 3.9523164e-13 3.1025445e-14
0001a0 93 e7 41 2a d0 99 40 27 cd cb e5 26 33 a5 4e 29
       1.7222187e-13 2.6728735e-15 1.5945307e-15 4.5884476e-14
0001b0 05 a8 8c 27 60 2b bd 2a 03 64 da 2a 97 ed 49 26
       3.9039973e-15 3.3603242e-13 3.8793976e-13 7.005788e-16
0001c0 41 ab a8 26 e9 93 c4 2a b9 2b 54 2b 2d 83 58 2a
       1.170376e-15 3.4919227e-13 7.537821e-13 1.9230165e-13
0001d0 58 97 01 29 a3 dd 9a 29 1d 7c 7b 2b 06 5f 12 28
       2.8775024e-14 6.877422e-14 8.9345355e-13 8.125233e-15
0001e0 9f 4f a1 2a cd d5 00 28 ee 05 c3 2a 8f f3 0a 27
       2.8654593e-13 7.151788e-15 3.4643073e-13 1.928338e-15
0001f0 d4 75 6b 2a 74 45 df 29 d8 e5 ab 29 d0 e3 44 29
       2.0913073e-13 9.9152376e-14 7.633797e-14 4.371834e-14
000200 b7 6f e3 2a b0 25 62 29 d8 d9 98 2b a8 82 c2 28
       4.0400818e-13 5.021477e-14 1.0860713e-12 2.159499e-14
000210 56 b9 6d 29 b7 a2 06 2a 40 39 16 2b a6 0d 25 28
       5.2785325e-14 1.1958044e-13 5.3370156e-13 9.1622995e-15
000220 f9 00 4b 2b e7 f6 89 29 b5 9f 90 27 83 bd 20 26
       7.212144e-13 6.126853e-14 4.0141184e-15 5.576799e-16
000230 b2 35 ea 28 04 65 bb 2a ed af b0 2a f9 35 99 29
       2.6002505e-14 3.3287967e-13 3.1385953e-13 6.803928e-14
000240 60 3a 83 2a ad f2 08 2c 17 d4 01 2b a8 a6 28 29
       2.331078e-13 1.9461475e-12 4.612434e-13 3.7448045e-14
000250 43 a9 8d 26 cb b6 da 28 ab 92 ec 29 dc 06 84 28
       9.829719e-16 2.4282136e-14 1.0505948e-13 1.4657919e-14
000260 67 1f 82 27 57 b9 dd 29 f6 66 61 29 bd 58 c5 2a
       3.6116295e-15 9.846523e-14 5.004934e-14 3.5055804e-13
000270 46 73 3e 27 27 bb 5b 29 e6 d3 08 28 d2 43 76 2a
       2.6430287e-15 4.8790097e-14 7.595465e-15 2.1872719e-13
000280 8e 08 17 29 bc 6d 91 2a 17 92 ae 29 58 7d b7 28
       3.3536155e-14 2.5833318e-13 7.752495e-14 2.037144e-14
000290 09 aa 14 29 da 5c f4 29 8a f9 a8 29 57 f3 a6 2a
       3.3010084e-14 1.0851884e-13 7.503987e-14 2.9656374e-13
0002a0 f1 6c 8c 2a a0 42 ac 29 fe 63 93 2a 86 9c 6a 2a
       2.494459e-13 7.649892e-14 2.618183e-13 2.083768e-13
0002b0 77 ae b3 2a 26 98 3c 28 31 68 2a 2b cd 43 99 2a
       3.1917847e-13 1.0469088e-14 6.0540727e-13 2.7225306e-13
0002c0 c9 e0 7d 28 49 09 2f 29 ca a3 d6 29 33 35 d4 25
       1.4093064e-14 3.886586e-14 9.531922e-14 3.6812187e-16
0002d0 8e 8c 53 2a 79 c7 64 2b 9e e1 cb 2a 16 ab 94 2b
       1.878933e-13 8.1278696e-13 3.6216597e-13 1.0563518e-12
0002e0 02 99 f0 29 57 06 b6 2b 51 be 7b 2b c4 9c 50 29
       1.06846837e-13 1.2933637e-12 8.943723e-13 4.632125e-14
0002f0 6c a2 d9 29 e6 79 bb 2a bc 87 84 2a 4b 0b 8b 29
       9.6649116e-14 3.3302457e-13 2.3542095e-13 6.174799e-14
000300 f9 77 af 2a 16 f1 ff 2a 7e 4f 93 28 07 ce ac 25
       3.1169492e-13 4.5464386e-13 1.6354753e-14 2.9976853e-16
000310 ac 07 53 29 fe 45 ee 2a 57 8b 54 2a 66 2d 59 2a
       4.6858066e-14 4.232586e-13 1.8877726e-13 1.9289222e-13
000320 44 25 cc 28 7c 4c d0 29 23 51 04 29 8d 4a 82 2a
       2.2664711e-14 9.2503235e-14 2.9380263e-14 2.314437e-13
000330 d1 ac 33 26 c6 39 51 2a 36 a4 f7 26 f5 54 40 2a
       6.233731e-16 1.8582973e-13 1.7183577e-15 1.7082501e-13
000340 85 4f 28 29 54 f3 d7 2a 3e 20 c8 29 43 94 92 2b
       3.7372466e-14 3.8360515e-13 8.887377e-14 1.0415075e-12
000350 ba cb 05 2a 3d 33 8a 29 00 60 42 29 ab a1 ce 28
       1.1883455e-13 6.1373195e-14 4.315992e-14 2.2940707e-14
000360 69 79 b3 29 1f 93 f4 28 76 35 4e 2b e9 58 ba 29
       7.970258e-14 2.7153245e-14 7.3260094e-13 8.275483e-14
000370 5f 35 24 2a 8e fb bc 28 d7 3c 93 28 49 ba 1b 2a
       1.4584643e-13 2.0981287e-14 1.6346664e-14 1.3831396e-13
000380 89 d7 bc 2a 68 51 06 27 6c 71 77 2b 7d 83 7f 2a
       3.3545066e-13 1.8640366e-15 8.790943e-13 2.2694169e-13
000390 7e ae bc 28 53 71 31 2a bb a8 62 29 81 a5 11 2a
       2.0947867e-14 1.5760075e-13 5.032843e-14 1.2936008e-13
0003a0 45 13 94 29 78 d0 d6 2a 39 e5 3d 2b 41 9c b2 29
       6.575863e-14 3.815869e-13 6.74644e-13 7.931894e-14
0003b0 65 b8 92 29 50 1d d0 29 81 14 61 2a 78 29 03 2a
       6.51569e-14 9.2421405e-14 1.9991128e-13 1.1649525e-13
0003c0 39 80 69 28 1a b4 ac 2a b5 cf 9c 26 14 9f 70 28
       1.2961902e-14 3.0678308e-13 1.0880974e-15 1.3357171e-14
0003d0 91 df 2b 29 10 3e a6 26 c9 21 95 2a 00 17 6c 27
       3.816354e-14 1.1535386e-15 2.649116e-13 3.2764048e-15
0003e0 b7 74 42 28 43 f7 19 2a fa a0 98 29 91 53 67 29
       1.0794472e-14 1.3674916e-13 6.778081e-14 5.1364786e-14
0003f0 5f d2 13 29 d6 13 29 2a 74 29 bd 2b 5f 3e 54 26
       3.2823025e-14 1.5017097e-13 1.3440763e-12 7.3636804e-16

exp_avg f4 [196]
000000 22 1a a2 35 21 90 b6 35 f9 d5 9d 35 87 c5 af 35
       1.2077546e-06 1.3602004e-06 1.1759686e-06 1.3096004e-06
000010 ca 8a b2 35 93 d1 a6 35 3c a3 97 35 98 1d a2 35
       1.3302426e-06 1.2428958e-06 1.1297884e-06 1.2078553e-06
000020 ad f4 8e 35 8e 0f a8 35 d2 5d 9c 35 2f cc 93 35
       1.0651034e-06 1.2521502e-06 1.1650211e-06 1.1011779e-06
000030 09 d6 b0 35 ca 40 8f 35 df c6 b1 35 22 66 95 35
       1.3175314e-06 1.0673186e-06 1.3245407e-06 1.113109e-06
000040 40 ac b0 35 4c a9 a7 35 0a 5a a1 35 ed ec ab 35
       1.3163153e-06 1.2491741e-06 1.202164e-06 1.2809447e-06
000050 78 63 b4 35 f0 5e 9f 35 23 cf a5 35 11 77 a6 35
       1.3439994e-06 1.1874054e-06 1.2353743e-06 1.2402617e-06
000060 e9 eb 8c 35 13 f8 9d 35 d9 d4 a5 35 bd f3 94 35
       1.0499472e-06 1.1769611e-06 1.2355405e-06 1.1097796e-06
000070 8e 62 b7 35 0f da ad 35 4f a3 ab 35 b5 9c 9f 35
       1.3663246e-06 1.2952968e-06 1.2788022e-06 1.1892031e-06
000080 58 3e 95 35 c4 f8 aa 35 1a 57 bf 35 54 76 b7 35
       1.111951e-06 1.2738387e-06 1.4255959e-06 1.3669e-06
000090 9a ee b5 35 10 a5 b7 35 df 7e a2 35 06 8e a5 35
       1.3554993e-06 1.3682602e-06 1.2106865e-06 1.2334792e-06
0000a0 43 c0 76 b9 d1 9c 9c 35 21 fb 92 35 38 4c 8e 35
       -0.00023532011 1.1668545e-06 1.0950936e-06 1.0602007e-06
0000b0 1a 10 98 35 9f 29 a5 35 fa 43 a8 35 f6 47 8d 35
       1.1329569e-06 1.2305571e-06 1.2536759e-06 1.0526262e-06
0000c0 d0 3d bb 35 cf cc 9a 35 60 ed a2 35 15 82 95 35
       1.3950576e-06 1.1533501e-06 1.2139026e-06 1.1139224e-06
0000d0 40 73 ac 35 7a cd c1 35 58 76 a5 35 ad 71 97 35
       1.2848541e-06 1.4439422e-06 1.23279e-06 1.1283461e-06
0000e0 87 52 a3 35 54 2e ab 35 33 d3 b2 35 09 3b a1 35
       1.2168465e-06 1.2753976e-06 1.33235e-06 1.2012616e-06
0000f0 c9 f6 a6 35 17 99 9e 35 91 40 ad 35 ce 7e a4 35
       1.2439788e-06 1.1816472e-06 1.2908296e-06 1.2255857e-06
000100 24 b1 9c 35 cf ec b2 35 c6 ee a5 35 ea 59 b6 35
       1.167446e-06 1.3330954e-06 1.236295e-06 1.3586225e-06
000110 6c 4f a2 35 76 3c 9d 35 74 fc b0 35 92 81 b0 35
       1.2093055e-06 1.1715008e-06 1.3186495e-06 1.3150732e-06
000120 f1 2d a9 35 a6 31 99 35 a6 65 a9 35 15 25 9e 35
       1.2604852e-06 1.1413838e-06 1.2621065e-06 1.178271e-06
000130 1c 26 af 35 2e 1b a0 35 d6 7a 93 35 7d 8e 94 35
       1.3049607e-06 1.1928839e-06 1.0988103e-06 1.1068329e-06
000140 5b 48 a0 35 2d 27 94 35 e5 5e b2 35 06 e5 8f 35
       1.1941987e-06 1.1038261e-06 1.3289651e-06 1.0720985e-06
000150 1e d0 a3 35 7c 10 9d 35 a7 c0 97 35 09 1e 90 35
       1.2205016e-06 1.1702209e-06 1.1306446e-06 1.0737577e-06
000160 3a 5e b7 35 f3 56 ac 35 04 40 84 35 d3 ab b4 35
       1.3661986e-06 1.2840304e-06 9.853397e-07 1.3461053e-06
000170 11 b7 99 35 a3 87 9d 35 5f 06 a7 35 d9 33 aa 35
       1.1452668e-06 1.1736887e-06 1.2444324e-06 1.2681077e-06
000180 06 81 89 35 8e ac 8f 35 0c 37 aa 35 62 eb a0 35
       1.0244846e-06 1.070455e-06 1.2682008e-06 1.1989434e-06
000190 00 07 a0 35 ef 87 93 35 09 4a 91 35 07 d5 97 35
       1.1922966e-06 1.0991915e-06 1.0824889e-06 1.1312376e-06
0001a0 96 a6 95 35 2c e4 9f 35 6e 80 a4 35 aa 86 a6 35
       1.1149848e-06 1.191283e-06 1.225633e-06 1.2407156e-06
0001b0 1f 83 6d 35 2c 4e a6 35 66 bb b1 35 f0 40 8b 35
       8.8480186e-07 1.2390715e-06 1.3242068e-06 1.0375206e-06
0001c0 15 25 a0 35 57 06 a4 35 8a 5f 9f 35 27 78 a2 35
       1.1931721e-06 1.2220797e-06 1.1874229e-06 1.210491e-06
0001d0 45 3b a2 35 6a 92 9d 35 17 6c a5 35 26 2d a2 35
       1.208719e-06 1.1740024e-06 1.2324916e-06 1.208308e-06
0001e0 07 55 9d 35 55 c9 5a 35 95 9f c0 35 14 61 9b 35
       1.1722158e-06 8.1504305e-07 1.4351559e-06 1.1576653e-06
0001f0 a1 ab b0 35 15 ff a1 35 e2 f9 8b 35 02 7d 95 35
       1.3162972e-06 1.2069673e-06 1.0429032e-06 1.1137747e-06
000200 ff 94 8c 35 dc a1 c6 35 e2 8a ba 35 59 ee 90 35
       1.0474176e-06 1.4799257e-06 1.38985e-06 1.0798204e-06
000210 83 bb a5 35 27 bb 9e 35 2f ec 9c 35 00 af 9d 35
       1.2348031e-06 1.1826386e-06 1.1691644e-06 1.1748343e-06
000220 c9 62 b3 35 ad f0 9c 35 73 64 b9 35 e7 1f a8 35
       1.336529e-06 1.1692952e-06 1.3812809e-06 1.252626e-06
000230 9e 38 bb 35 a4 b8 98 35 84 e2 9c 35 ef d2 b1 35
       1.3949063e-06 1.137862e-06 1.168883e-06 1.3248917e-06
000240 7b 2a a2 35 6b e8 96 35 2d c5 94 35 ec cf a2 35
       1.2082304e-06 1.1243513e-06 1.1084245e-06 1.2130454e-06
000250 cf 66 91 35 c9 f2 a7 35 78 6f af 35 5d 77 c0 35
       1.0833263e-06 1.2513129e-06 1.3070958e-06 1.4339854e-06
000260 68 d4 b1 35 21 38 97 35 a9 f7 9f 35 1a 39 a1 35
       1.3249346e-06 1.1266712e-06 1.1918502e-06 1.2012054e-06
000270 3c b8 be 35 41 8f b3 35 ae 3b b2 35 19 05 8f 35
       1.4209722e-06 1.3378232e-06 1.3279403e-06 1.0655814e-06
000280 a5 78 9f 35 46 a5 95 35 8a 81 8e 35 3d c5 93 35
       1.1881535e-06 1.1149466e-06 1.0617525e-06 1.1009757e-06
000290 25 9b 9c 35 d8 06 9b 35 5f 28 ad 35 9c ec a0 35
       1.1668059e-06 1.1550392e-06 1.2901254e-06 1.1989791e-06
0002a0 38 3e 9e 35 f6 59 93 35 5c 4d 96 35 92 82 a1 35
       1.1790025e-06 1.0978536e-06 1.1198385e-06 1.2033436e-06
0002b0 61 37 83 35 fa d6 b4 35 71 1e ac 35 0e bc a5 35
       9.776378e-07 1.3473611e-06 1.2823858e-06 1.2348189e-06
0002c0 d0 b2 a6 35 93 53 a2 35 1e 49 aa 35 3a f0 95 35
       1.2420005e-06 1.2094264e-06 1.2687267e-06 1.117128e-06
0002d0 d1 38 9f 35 b2 e4 bd 35 7d 3f 94 35 b3 86 a1 35
       1.1862959e-06 1.4148156e-06 1.1045337e-06 1.2034637e-06
0002e0 73 b7 a6 35 dc 82 90 35 9a fb a4 35 3f 8e a1 35
       1.2421355e-06 1.0766921e-06 1.2292178e-06 1.2036834e-06
0002f0 27 54 98 35 20 10 9c 35 d4 15 87 35 b8 33 94 35
       1.1349374e-06 1.1627599e-06 1.0064637e-06 1.1041911e-06
000300 ee aa 9b 35 28 32 87 35 e5 ed ae 35 b9 5e 9f 35
       1.1598147e-06 1.0072881e-06 1.3033247e-06 1.1873991e-06

exp_avg_sq f4 [196]
000000 14 97 d8 2d 38 0f 01 33 1c 28 df 2d 35 ac ba 31
       2.4623449e-11 3.0048994e-08 2.5369977e-11 5.43289e-09
000010 42 ab 1b 2f b6 89 38 34 7e 41 05 2e 58 24 e2 2d
       1.4158011e-10 1.7186434e-07 3.0298868e-11 2.5709365e-11
000020 a4 05 f8 2d 42 d7 4d 33 aa 02 da 2d 7b 55 d0 2d
       2.819684e-11 4.7926058e-08 2.4784914e-11 2.3684823e-11
000030 6e c9 08 2e d3 4c d7 2d a9 69 fc 2d 80 a5 cf 2d
       3.1101725e-11 2.4476787e-11 2.8696006e-11 2.3606672e-11
000040 6b b0 20 32 97 4b 0c 33 7e d6 08 2e 92 59 e9 31
       9.3533385e-09 3.266504e-08 3.1113327e-11 6.7913755e-09
000050 40 f2 05 2e 17 20 07 33 3c c1 22 33 f4 3a 83 32
       3.045586e-11 3.1461322e-08 3.789431e-08 1.5277216e-08
000060 9f cf e9 30 ca cd d2 2d 1c 1d f8 2d 71 b4 c7 2d
       1.7011991e-09 2.3965625e-11 2.8207263e-11 2.2703813e-11
000070 46 fb 56 32 d0 db e8 2d bc 35 f5 2d 46 ae 40 32
       1.2513572e-08 2.6472963e-11 2.7877138e-11 1.1215496e-08
000080 dd 80 bf 2d 60 5d 1a 33 94 4a c9 32 bb 77 30 2e
       2.1771413e-11 3.5940843e-08 2.3433394e-08 4.012411e-11
000090 37 31 85 2e 8e 96 40 33 31 9d d6 2d 2d fe f7 2d
       6.056882e-11 4.4840412e-08 2.439879e-11 2.8193526e-11
0000a0 f4 a8 39 33 43 d5 cf 2d 12 78 65 32 3d b3 f6 2d
       4.322733e-08 2.3627883e-11 1.3356855e-08 2.804656e-11
0000b0 d9 d5 b7 31 fd 90 f7 2d 21 a8 e7 2d e2 13 e6 33
       5.3503126e-09 2.8145037e-11 2.6336324e-11 1.0713826e-07
0000c0 cd 05 08 32 31 3b 10 2e aa 11 df 2d 58 06 27 2e
       7.917561e-09 3.2794382e-11 2.536001e-11 3.7977038e-11
0000d0 c9 91 fa 2d 74 db 0c 2e 25 8f a1 30 ca 01 ce 2d
       2.8486451e-11 3.2027228e-11 1.1754976e-09 2.3420283e-11
0000e0 23 78 04 2e 33 6e 2d 32 63 cd 18 33 0f 55 0a 33
       3.0120028e-11 1.0094982e-08 3.5577056e-08 3.220799e-08
0000f0 93 88 f0 2d a3 5a 5d 31 6e 17 09 2e 4b db e0 32
       2.7345492e-11 3.2211254e-09 3.1171003e-11 2.6176755e-08
000100 cf bd 0c 2e 7d c4 97 2e db 7a 00 2e 72 8a 07 2e
       3.20009e-11 6.901588e-11 2.9212948e-11 3.081841e-11
000110 b6 b8 09 2e 22 47 f6 2d f0 93 00 2e 61 4a 24 2e
       3.131425e-11 2.7998551e-11 2.9235225e-11 3.7355345e-11
000120 32 4e eb 31 3a 22 65 32 df 36 a9 2e c0 a8 e7 2d
       6.84829e-09 1.3337337e-08 7.694977e-11 2.63366e-11
000130 30 c9 49 2e 90 d2 f7 2d c6 c3 f2 2e 66 0d cc 2d
       4.58808e-11 2.8174157e-11 1.1039662e-10 2.3198065e-11
000140 5b 1f f1 2d bc 94 c9 32 d2 da f7 2d 02 aa cd 2d
       2.7412453e-11 2.3467116e-08 2.8177825e-11 2.33813e-11
000150 e9 49 f2 2d 0b 88 f2 2d 00 1f 08 2f 6a 35 8a 2e
       2.7545037e-11 2.757263e-11 1.2380141e-10 6.285002e-11
000160 9f e9 01 2e 09 b8 01 2e 18 70 bd 2d f7 8a c6 32
       2.95387e-11 2.949466e-11 2.1536592e-11 2.3113428e-08
000170 ac a5 d5 2d 18 b2 09 2f ee 00 ef 2d 5f 10 00 2e
       2.428887e-11 1.2523349e-10 2.7171567e-11 2.911837e-11
000180 2b 68 c1 2d 67 3a dc 2d 63 55 f3 2d 67 e4 eb 2d
       2.198782e-11 2.503704e-11 2.7663821e-11 2.6817838e-11
000190 28 d7 06 33 62 fb 15 2e 70 97 99 32 4f 67 d3 2d
       3.139499e-08 3.410195e-11 1.788041e-08 2.4033801e-11
0001a0 0c ab 93 31 95 a6 e5 2d 82 d3 ff 2d 72 a8 7b 30
       4.297709e-09 2.6108263e-11 2.9084072e-11 9.1552643e-10
0001b0 0a 87 3f 2e 13 1b 03 2f 9d 20 51 2e 18 67 d1 2d
       4.354831e-11 1.1923999e-10 4.7550065e-11 2.3806332e-11
0001c0 90 69 51 2e cc eb fb 2d 6d ca 00 2e 36 75 cd 2d
       4.7614857e-11 2.8640111e-11 2.928362e-11 2.3357854e-11
0001d0 e8 58 00 2e 3f 80 71 2e cc ba e4 32 d4 0f 05 2e
       2.9182795e-11 5.491096e-11 2.6627639e-08 3.0254757e-11
0001e0 f5 65 e2 2d 1e d3 49 32 4d 3a 09 2e c5 79 f1 2d
       2.5738503e-11 1.1747742e-08 3.1201975e-11 2.7452604e-11
0001f0 16 b8 f9 2d f6 7c 17 2e 6d 38 b4 2d ea 6f d5 2d
       2.8389773e-11 3.4444413e-11 2.0488689e-11 2.4264996e-11
000200 8d 0b c2 2d 4f 1e 69 2e e3 73 43 2e 20 d2 25 32
       2.2060376e-11 5.3004986e-11 4.4440795e-11 9.652041e-09
000210 90 09 e9 2d bb 94 08 30 1d 12 d3 2d b1 53 e3 2d
       2.649328e-11 4.968787e-10 2.3995967e-11 2.5844079e-11
000220 7f a6 f9 2d 51 d4 ed 2d a5 70 1c 2e bd 17 d0 2d
       2.8381962e-11 2.7038068e-11 3.5570342e-11 2.3657404e-11
000230 8d 4a 07 2e 8c ff e2 2d a8 b0 cf 2d 71 2c 04 2e
       3.076166e-11 2.5806711e-11 2.3611627e-11 3.0052797e-11
000240 52 11 bd 32 91 51 d6 2d 0f d7 d1 2d de bb ef 2d
       2.2010372e-08 2.4365206e-11 2.3856054e-11 2.7254584e-11
000250 d8 8a d5 2d 09 a3 e8 2d c9 da 02 2e 04 61 20 2e
       2.4276955e-11 2.6447749e-11 2.9752898e-11 3.6465955e-11
000260 d1 e7 02 2e 5a 81 ca 2d f1 5b f4 2d c6 62 f3 2d
       2.9764472e-11 2.3022185e-11 2.7780419e-11 2.7669766e-11
000270 f9 a0 13 2e d7 01 ee 2d 90 e4 08 2e ae 0f c9 2d
       3.3566903e-11 2.7058284e-11 3.1125824e-11 2.2858018e-11
000280 62 6e 02 2e 2e f1 81 32 e0 ac e0 2d c7 ef e0 2d
       2.9656617e-11 1.5127252e-08 2.5542624e-11 2.5572334e-11
000290 b9 a9 e3 2d 57 a3 d3 2d 6d 2a fb 2d 2c 62 ee 2d
       2.5882284e-11 2.406046e-11 2.8554237e-11 2.7101064e-11
0002a0 fe 0d de 2d 5c 93 d1 2d db fc c7 2d 4e b7 00 2e
       2.5244692e-11 2.382599e-11 2.2735971e-11 2.9266638e-11
0002b0 26 61 b1 2d 28 bc 08 2e f4 72 db 2d d2 0a f2 2d
       2.0165713e-11 3.1089936e-11 2.4948467e-11 2.751702e-11
0002c0 28 06 e2 2d 6f e2 e7 2d 7b 38 fb 2d 10 97 c9 2d
       2.569596e-11 2.6362216e-11 2.8560479e-11 2.291814e-11
0002d0 fd 28 db 2d 24 c5 0f 2e 91 60 c7 2d 2e f2 e1 2d
       2.491562e-11 3.268953e-11 2.2666565e-11 2.5687088e-11
0002e0 76 34 e8 2d a3 6b c3 2d d3 4b dd 2d 03 8c ed 2d
       2.6398644e-11 2.2216734e-11 2.5158464e-11 2.7005958e-11
0002f0 2f b3 cb 2d 49 b9 cc 2d 23 0e b8 2d 75 94 b3 2d
       2.3158002e-11 2.3274398e-11 2.0924656e-11 2.0415872e-11
000300 ba 60 d0 2d 3b b6 b6 2d 96 1c e7 2d 6e fd eb 2d
       2.3689817e-11 2.0771931e-11 2.6274354e-11 2.6828952e-11

exp_avg f4 [14, 1]
000000 00 00 00 00 1f 14 d3 3a 95 24 13 3a f1 f2 2b bb
       0.0 0.0016104019 0.0005613056 -0.0026237334
000010 1b bf 1e 3b 07 00 0e 3b 54 f4 36 ba 01 71 a1 b8
       0.0024222794 0.0021667497 -0.0006979157 -7.698127e-05
000020 d0 ec db 39 ee 80 9c 39 8e 62 44 3a bf b5 98 b9
       0.00041947374 0.000298507 0.00074914924 -0.0002912711
000030 ca 76 7d b9 f7 f8 d7 ab
       -0.00024172213 -1.534577e-12

exp_avg_sq f4 [14, 1]
000000 00 00 00 00 41 ef bd 36 ae dd 99 35 63 23 b3 35
       0.0 5.6604918e-06 1.1463906e-06 1.3346838e-06
000010 2d fb aa 35 27 4c 05 36 1c 9b 9b 35 71 2e 91 35
       1.2739089e-06 1.986287e-06 1.1593543e-06 1.0816858e-06
000020 e5 4c 1e 36 5e 49 c7 34 8a 21 e4 34 09 ae ec 34
       2.3588593e-06 3.712002e-07 4.2492712e-07 4.4085053e-07
000030 81 c9 61 34 bb 98 ee 32
       2.1028065e-07 2.77763e-08
