models/ActorCritic/cool_reward_full_data_short_epochs.pt (torch, 275375 bytes, 5 tensors)

base.em.weight f4 [14, 1]
0.0 0.77077717 0.8540561 0.7307046 -0.41718507 0.6381013 0.2621617 0.33008942
0.4262778 -1.9290729 0.50438935 -1.021007 -0.60299706 -0.8469067
00000000: 0000 0000 a751 453f 6ca3 5a3f 750f 3b3f
00000010: 4899 d5be 9b5a 233f 0f3a 863e 7b01 a93e
00000020: 1541 da3e dceb f6bf a91f 013f 5bb0 82bf
00000030: 045e 1abf e1ce 58bf

value_head.weight f4 [1, 256]
-0.022959463 0.018640883 0.019437395 -0.01801826 -0.04127509 -0.030580252 -0.022688769 -0.012849368
0.039980486 -0.048244625 -0.03248862 -0.042007618 0.059896283 -0.01722879 -0.05028504 -0.017292142
0.03410741 -0.044660702 -0.0069227368 0.028243817 0.052946262 -0.0525465 -0.05898509 -0.04697933
-0.008802392 0.046184883 0.03154674 -0.060266785 0.056712978 0.026713945 0.0060382336 -0.053414837
-0.0046379715 0.053312063 -0.029596508 0.054733157 -0.009288751 0.062409997 0.059144393 -0.0601293
0.0498972 -0.03174012 0.012085803 0.007720031 -0.00033364445 0.013699308 0.0077206865 0.0584263
-0.038253404 0.03136743 -0.023295037 0.0029522702 -0.040289246 -0.018385239 -0.04791441 0.011483096
-0.035520345 0.05633679 -0.03889042 -0.0025338903 -0.04442124 -0.059982046 -0.04089108 0.03990756
-0.023171641 0.008544259 0.00019863993 -0.039253265 0.007659979 -0.021636657 0.017831922 -0.0057530478
0.006976515 -0.009252533 -0.05888839 0.0068531632 0.034766696 0.03658799 0.053158082 0.043854028
-0.048834175 -0.062068105 0.0097624585 -0.02706337 0.017449893 0.019812614 -0.038444348 -0.058605433
0.048854545 -0.055672318 -0.019613385 0.0026803687 0.019645877 -0.021368302 0.013558164 0.022403307
-0.030068465 -0.030048013 -0.00011307001 0.027347185 0.011574149 0.045320354 0.055614196 0.030663878
0.020446278 0.029729448 0.040930234 -0.011122197 -0.04386746 -0.062457852 0.03881552 0.011447698
-0.026134446 0.049798995 0.044160254 0.0322866 0.01929862 0.035542905 0.039417706 0.020630896
0.043344475 0.0015992299 -0.023992434 -0.05902352 0.053576857 -0.011157721 0.06205506 -0.032292247
0.060782015 0.0012470484 -0.011842601 -0.033654027 0.05187597 0.03222046 -0.031739287 -0.01723741
0.029875398 -0.039183453 -0.024473913 -0.00053310394 0.045870923 -0.012976602 0.014660589 -0.051295467
-0.020952865 -0.052749544 0.030916221 0.044915058 -0.046686374 -0.04641366 0.030476913 -0.052230306
-0.008855559 0.019028537 -0.034768544 0.0620078 0.048909098 -0.0126139745 0.050758474 0.060604624
-0.0430545 -0.052617185 -0.048016243 0.048769914 0.012988374 0.009196483 0.04617019 -0.038288742
0.033558674 0.015288003 -0.0052817613 -0.05015111 -0.0015595481 -0.048860393 0.053397126 -0.026958771
-0.034705825 -0.022044428 0.017824337 0.02318383 0.016816154 -0.02544669 -0.048892416 -0.05262471
0.025344767 -0.016606987 0.043557234 -0.0029940382 0.05958558 -0.05166401 0.0063650534 -0.018740483
-0.04219599 -0.004083194 0.038819067 0.013173252 0.0245725 -0.05283104 -0.013793491 0.016162366
-0.0483597 0.046373002 -0.05234213 -0.009909406 0.005900711 -0.0394509 -0.030675977 0.023052752
0.06248956 0.045869388 0.035857074 -0.018968962 -0.029104479 0.019168764 -0.013729721 0.058553934
-0.04811103 -0.057327896 -0.03740616 0.041002586 -0.014279 0.037783705 -0.014051482 0.034289666
-0.026225418 -0.035701387 0.055304244 -0.02936209 -0.026710704 -0.009310968 0.018612206 0.047283024
-0.042706788 0.03954465 -0.05645019 -0.0042774975 0.012995794 0.057316072 -0.05533962 0.047829717
0.043836318 -0.05216457 -0.05983088 -0.043946333 -0.020468429 0.0148631185 0.054889694 0.05250541
0.022570752 -0.021858633 -0.032190785 0.041516155 0.009828672 -0.048258476 -0.019768067 0.014075719
00000000: 7c15 bcbc c4b4 983c 2c3b 9f3c 089b 93bc
00000010: 1210 29bd 7083 fabc ccdd b9bc 2886 52bc
00000020: 94c2 233d 289c 45bd ca12 05bd 2e10 2cbd
00000030: ce55 753d 6423 8dbc b0f7 4dbd 40a8 8dbc
00000040: 36b4 0b3d 24ee 36bd 20d8 e2bb 945f e73c
00000050: 2ede 583d 003b 57bd 5a9a 71bd 666d 40bd
00000060: e837 10bc 5c2c 3d3d 2837 013d 4eda 76bd
00000070: de4b 683d 34d7 da3c 60dc c53b 84c9 5abd
00000080: 20fa 97bb c05d 5a3d 6074 f2bc e02f 603d
00000090: d82f 18bc a0a1 7f3d 6441 723d 244a 76bd
000000a0: 0261 4c3d ee01 02bd 8803 463c 50f8 fc3b
000000b0: 00ed aeb9 1073 603c d0fd fc3b 6a50 6f3d
000000c0: 9aaf 1cbd 227b 003d 3cd5 bebc e07a 413b
000000d0: 5606 25bd a49c 96bc e641 44bd 9823 3c3c
000000e0: c87d 11bd 68c1 663d 904b 1fbd a00f 26bb
000000f0: 0cf3 35bd bcaf 75bd 687d 27bd 1c76 233d
00000100: 74d2 bdbc 38fd 0b3c 004a 5039 08c8 20bd
00000110: 9000 fb3b 5c3f b1bc 4014 923c 1084 bcbb
00000120: 409b e43b f097 17bc f434 71bd 8090 e03b
00000130: 8667 0e3d 4add 153d 4abc 593d 48a0 333d
00000140: 5806 48bd 203b 7ebd b8f2 1f3c 00b4 ddbc
00000150: 14f3 8e3c 104e a23c d277 1dbd 400c 70bd
00000160: b41b 483d a808 64bd 40ac a0bc 20a9 2f3b
00000170: 64f0 a03c 940c afbc 1023 5e3c 2487 b73c
00000180: 2452 f6bc 4027 f6bc 0020 edb8 3407 e03c
00000190: 80a1 3d3c d6a1 393d b6cb 633d d032 fb3c
000001a0: f47e a73c 2c8b f33c 76a6 273d e039 36bc
000001b0: 5eae 33bd ced3 7fbd 06fd 1e3d 208f 3b3c
000001c0: e817 d6bc 08fa 4b3d 62e1 343d f43e 043d
000001d0: 2418 9e3c 7095 113d 7674 213d 2002 a93c
000001e0: fa89 313d 409d d13a c88b c4bc a6c2 71bd
000001f0: 6873 5b3d e0ce 36bc 722d 7e3d e044 04bd
00000200: 90f6 783d 0074 a33a 7807 42bc ced8 09bd
00000210: e67b 543d 9af9 033d 0e01 02bd 7835 8dbc
00000220: 40bd f43c d47e 20bd 847d c8bc 00c0 0bba
00000230: 26e3 3b3d d09b 54bc f832 703c 321b 52bd
00000240: 58a5 abbc e80f 58bd 0444 fd3c daf8 373d
00000250: 363a 3fbd 401c 3ebd b8aa f93c 72ef 55bd
00000260: e816 11bc bce1 9b3c 7669 0ebd e4fb 7d3d
00000270: e854 483d d8aa 4ebc 1ee8 4f3d 8e3c 783d
00000280: ea59 30bd 1e85 57bd aeac 44bd f6c2 473d
00000290: 30cd 543c d8ac 163c f41c 3d3d a8d4 1cbd
000002a0: d274 093d 887a 7a3c a012 adbb 406b 4dbd
000002b0: c069 ccba d621 48bd f2b6 5a3d a4d8 dcbc
000002c0: b227 0ebd 8496 b4bc 5804 923c 04ec bd3c
000002d0: 08c2 893c 9475 d0bc 6a43 48bd 028d 57bd
000002e0: d49f cf3c 600b 88bc 1269 323d a037 44bb
000002f0: 0210 743d a49d 53bd f091 d03b a485 99bc
00000300: b4d5 2cbd 50cc 85bb be00 1f3d a0d4 573c
00000310: 444c c93c 5c65 58bd 18fe 61bc f066 843c
00000320: d214 46bd 9ef1 3d3d b464 56bd 105b 22bc
00000330: c05a c13b 4497 21bd 304c fbbc 20d9 bc3c
00000340: 0ef5 7f3d 8ae1 3b3d dede 123d cc64 9bbc
00000350: 846c eebc d007 9d3c a0f2 60bc 40d6 6f3d
00000360: 1210 45bd a8d0 6abd 3437 19bd 54f2 273d
00000370: 78f2 69bc 16c3 1a3d 3038 66bc 5273 0c3d
00000380: b0d6 d6bc 9e3b 12bd b486 623d c488 f0bc
00000390: 68d0 dabc 088d 18bc a078 983c d8ab 413d
000003a0: 50ed 2ebd 92f9 213d 5038 67bd 402a 8cbb
000003b0: 50ec 543c 42c4 6a3d ccab 62bd 18e9 433d
000003c0: b68d 333d 84aa 55bd 3a11 75bd 1201 34bd
000003d0: 68ad a7bc 7084 733c 04d4 603d ea0f 573d
000003e0: 4ce6 b83c e010 b3bc 7cda 03bd d80c 2a3d
000003f0: 7008 213c aeaa 45bd a4f0 a1bc d89d 663c

action_head.net.base.em.weight f4 [14, 1]
0.0 -1.2599615 0.017774934 1.3629746 -1.4106121 0.83771753 -0.11280882 0.8339623
0.46738896 -0.5510545 0.43243963 0.65778315 0.11983877 -0.020763341
00000000: 0000 0000 6b46 a1bf bd9c 913c f475 ae3f
00000010: f08e b4bf a874 563f 5008 e7bd 8e7e 553f
00000020: 9b4d ef3e e811 0dbf ba68 dd3e 7a64 283f
00000030: 076e f53d e217 aabc

action_head.net.out.weight f4 [196, 256]
0.029644586 0.029288262 0.052030407 -0.021430574 0.00064629316 -0.02333428 -0.05010707 0.019008264
-0.02963952 0.03475835 -0.055241704 0.042427145 0.058458075 0.04279723 0.027911484 0.026813984
0.0209729 -0.0053703636 0.013969637 0.028178379 0.0036009997 -0.03163103 0.058896534 0.025028408
0.0453327 0.027120143 -0.058772355 0.018229522 0.03612443 -0.013444051 -0.04595326 0.03915014
0.010646321 0.04507892 -0.0043212473 0.036351047 0.010655634 -0.028852537 -0.046305522 0.04535821
-0.028173074 -0.019831225 0.009532027 0.059452087 0.015405662 -0.02422744 -0.056021422 0.0047104433
0.03729464 0.011742733 0.017565303 0.03618308 -0.03887394 0.009642132 0.04966285 0.012439817
0.049140573 0.05684039 -0.012758635 0.016257606 -0.036956616 0.011387154 0.025040485 0.046557672
-0.008278184 0.00034978986 -0.017574713 -0.059990145 -0.015477367 0.053565495 0.058564052 -0.008037381
-0.052278005 0.0018765107 0.056391954 -0.047948547 -0.05529678 0.04281552 -0.023642391 -0.013147503
-0.056326635 -0.031992324 0.016274013 -0.051478088 -0.028805375 -0.034570187 0.053907022 -0.048042737
-0.01840838 0.04251244 -0.011993758 -0.0037870184 0.011348575 -0.057445906 0.028532296 0.016252294
0.058755763 -0.037877068 -0.016264193 0.053190418 -0.0005276054 -0.040575035 -0.005702913 -0.023337886
0.019893646 -0.022672348 0.044898406 0.010008812 -0.014531046 -0.06103906 -0.0009431988 -0.060146123
0.012398548 0.018247284 0.05383254 0.019940518 -0.05024942 -0.06211581 0.008184381 0.03555326
-0.030810677 0.0064384937 0.021029048 -0.021251865 -0.054979093 0.01151257 -0.024704508 -0.0054668337
0.011715308 0.0509594 -0.00681068 -0.05796226 -0.028100312 0.009301811 -0.0008150339 0.018708415
-0.029926464 -0.04072047 0.014878333 -0.043251894 -0.051274568 -0.037720278 0.0022958145 -0.021276169
-0.030293524 0.04727175 -0.009337291 0.023451805 0.045962073 0.062127307 -0.0127443 -0.04391218
-0.025044113 -0.03387326 0.016284592 -0.026348643 0.00702969 -0.008023262 0.032460816 0.027828999
-0.025737055 0.061045296 0.04421807 0.007664107 0.041041784 -0.036071233 -0.046885327 -0.027008034
0.033300824 0.056583226 0.047976643 0.048798084 -0.056567572 0.016976222 0.026821375 0.025185138
0.040272854 0.021562554 -0.016649738 0.03986747 -0.041292675 0.06218031 0.035428785 0.047191463
0.060566008 -0.031335637 0.045231566 -0.0047286972 -0.03780449 -0.018400535 -0.020964414 0.030189268
0.048284702 0.061249703 -0.027763255 -0.05816385 0.03423614 0.025334679 -0.030131586 0.044717237
-0.030816503 0.022467509 -0.03256063 -0.002172649 -0.040531717 -0.05105287 0.06073705 0.022637092
0.019801907 0.05374743 -0.028949693 0.008050837 0.0012767017 -0.040890962 -0.055558108 -0.010529287
-0.010504425 -0.027094401 -0.054659 -0.028886162 0.004143551 -0.031698987 -0.044145145 0.032622084
0.012267552 -0.010731235 -0.012268946 0.060571 -0.04668802 -0.010186754 -0.035496965 0.021726891
0.018332325 0.008929722 -0.015048757 -0.0012000278 0.0070319623 0.0570923 -0.01223173 0.05839145
0.038134597 -0.054532826 -0.020410359 0.02865421 0.05107764 -0.03517761 0.051857874 -0.038454175
-0.0463323 0.013234921 -0.05913131 0.0020283237 0.0061768442 0.033626236 0.041145623 -0.043440245
00000000: 34d9 f23c f0ed ef3c d61d 553d 2c8f afbc
00000010: 006c 293a 8827 bfbc 123d 4dbd 38b7 9b3c
00000020: 94ce f2bc c65e 0e3d 2045 62bd 16c8 2d3d
00000030: bc71 6f3d 264c 2f3d a0a6 e43c 00a9 db3c
00000040: 5ccf ab3c e0f9 afbb e8e0 643c 58d6 e63c
00000050: c0fe 6b3b 8a8f 01bd 7e3d 713d 6008 cd3c
00000060: c8ae 393d 102b de3c 48bb 70bd 1456 953c
00000070: 36f7 133d 7044 5cbc 7c39 3cbd e65b 203d
00000080: e86d 2e3c aca4 383d 4099 8dbb d6e4 143d
00000090: f894 2e3c 285c ecbc dcaa 3dbd 88c9 393d
000000a0: 38cb e6bc 1875 a2bc 382c 1c3c 0884 733d
000000b0: 0868 7c3c a078 c6bc b876 65bd 105a 9a3b
000000c0: 44c2 183d 9864 403c 1ce5 8f3c b634 143d
000000d0: 483a 1fbd 08fa 1d3c 466b 4b3d 60d0 4b3c
000000e0: a047 493d 78d1 683d 9809 51bc ac2e 853c
000000f0: d25f 17bd 3091 3a3c b421 cd3c 42b3 3e3d
00000100: 38a1 07bc 0064 b739 d8f8 8fbc 3ab8 75bd
00000110: c894 7dbc 7e67 5b3d dce0 6f3d 38af 03bc
00000120: 7621 56bd 40f5 f53a 40fb 663d b265 44bd
00000130: e07e 62bd 545f 2f3d b0ad c1bc a068 57bc
00000140: c2b6 66bd 620a 03bd 1451 853c b0da 52bd
00000150: 40f9 ebbc 7899 0dbd 9ccd 5c3d 76c8 44bd
00000160: 2ccd 96bc 8621 2e3d 7881 44bc a02f 78bb
00000170: 60ef 393c 664c 6bbd 90bc e93c 8823 853c
00000180: e2a9 703d fc24 1bbd 7c3c 85bc 32de 593d
00000190: 004f 0aba 0232 26bd 80df babb 182f bfbc
000001a0: 00f8 a23c 5cbb b9bc 64e7 373d 00fc 233c
000001b0: a013 6ebc 1804 7abd 0041 77ba c85b 76bd
000001c0: 4823 4b3c 547b 953c 827f 5c3d 4c5a a33c
000001d0: 56d2 4dbd 266d 7ebd c817 063c 4ca0 113d
000001e0: ac66 fcbc 00fa d23b 1c45 ac3c 6418 aebc
000001f0: c231 61bd 389f 3c3c 1c61 cabc 2023 b3bb
00000200: 90f1 3f3c ceba 503d 202c dfbb d669 6dbd
00000210: a032 e6bc a066 183c 00a8 55ba 6442 993c
00000220: 5828 f5bc 82ca 26bd 40c4 733c e628 31bd
00000230: 4805 52bd 9480 1abd 6075 163b 5c4b aebc
00000240: 202a f8bc 06a0 413d 70fb 18bc 001e c03c
00000250: ba42 3c3d 3479 7e3d 78cd 50bc 42dd 33bd
00000260: 5029 cdbc b0be 0abd 4467 853c 1cd9 d7bc
00000270: 5059 e63b 0074 03bc a2f5 043d a4f9 e33c
00000280: 84d6 d2bc a20a 7a3d 021e 353d 3023 fb3b
00000290: 6e1b 283d 6ebf 13bd d40a 40bd f43f ddbc
000002a0: 7266 083d d0c3 673d 2883 443d 80e0 473d
000002b0: 66b3 67bd b811 8b3c 80b8 db3c 1051 ce3c
000002c0: 26f5 243d f4a3 b03c 0865 88bc 124c 233d
000002d0: 8222 29bd c8b0 7e3d c61d 113d d64b 413d
000002e0: 1014 783d cc59 00bd bc44 393d 30f3 9abb
000002f0: e2d8 1abd b8bc 96bc 90bd abbc 7c4f f73c
00000300: 2ec6 453d f8e0 7a3d c46f e3bc 383d 6ebd
00000310: 323b 0c3d ac8a cf3c 84d6 f6bc 6c29 373d
00000320: e472 fcbc c80d b83c 4c5e 05bd 0063 0ebb
00000330: 9604 26bd d01c 51bd 6ac7 783d 6c71 b93c
00000340: 9c37 a23c 4426 5c3d e827 edbc a8e7 033c
00000350: 0057 a73a 487d 27bd e690 63bd 0883 2cbc
00000360: c01a 2cbc 14f5 ddbc 1ee2 5fbd aca2 ecbc
00000370: a0c6 873b ccd6 01bd 8ad1 34bd bc9e 053d
00000380: d8fd 483c 10d2 2fbc b003 49bc 4c19 783d
00000390: f03b 3fbd 58e6 26bc 4465 11bd 98fc b13c
000003a0: ac2d 963c f84d 123c 108f 76bc 404a 9dba
000003b0: 606c e63b 9ed9 693d 9867 48bc e02b 6f3d
000003c0: 0633 1c3d d05d 5fbd a033 a7bc 3cbc ea3c
000003d0: ca36 513d 6616 10bd ec68 543d 2082 1dbd
000003e0: f0c6 3dbd 48d7 583c ac33 72bd a0ed 043b
000003f0: 2067 ca3b aabb 093d 5088 283d 66ee 31bd

action_head.net.out.bias f4 [196]
0.059121706 -0.052868627 -0.009016648 0.0069681555 0.016292766 -0.008961156 -0.020181768 0.034920096
-0.004472144 -0.0035004169 -0.040275007 -0.033085182 -0.031567894 -0.01543501 -0.024397425 -0.060789272
-0.037469745 0.022374287 0.0071709976 0.019064486 -0.0134807825 0.042348847 -0.05119524 0.018701978
-0.02382432 0.024151534 -0.001655966 0.022648327 -0.047386102 0.024190545 0.008623548 0.008734174
0.036305927 0.026062518 -0.048779026 0.048977412 -0.0375778 0.01712533 0.008683346 0.0184981
-0.026726246 -0.05195909 0.027910382 -0.047575057 0.0015838891 0.010493241 0.015011974 -0.018824719
0.024063483 -0.054857492 -0.028610334 0.05102922 -0.007846311 0.03604074 -0.027309932 0.056834303
-0.019102097 0.047198594 -0.02915638 0.056334518 -0.018072471 0.0078000575 -0.02308233 -0.048348673
-0.052982233 0.026265807 0.0606836 0.052983202 0.025626868 -0.06221409 0.004815422 0.015304118
0.030167244 -0.039070062 0.014935039 0.0041774213 -0.03142883 0.019257732 0.03863003 -0.014040954
-0.04157044 0.053943485 0.0071162805 0.030951537 -0.055972293 -0.037096754 -0.023541167 -0.0022325218
-0.02607651 -0.008556075 0.037395976 -0.014658913 0.029438242 -0.031363085 -0.019267067 -0.036992215
-0.05649572 -0.02977869 0.04138603 0.04048069 0.035099283 -0.008498602 0.061302662 0.017108724
0.045645952 0.0009063706 0.037004165 0.057255924 -0.049426995 0.060767554 -0.02330169 0.009464771
0.022750214 0.012405753 -0.049208097 -0.04550699 -0.008941263 0.023754545 -0.05608371 -0.02562511
0.009282164 0.03622897 -0.043067724 0.05957208 -0.05500099 0.03132371 0.025763229 0.05796989
0.043759376 0.0054817647 0.030212566 -0.040941983 0.037276275 0.0087174475 -0.023733713 -0.033956997
-0.058651507 -0.03854142 0.010351501 0.027082369 0.052536942 -0.026769549 0.011694953 0.061035506
0.008230865 0.047395863 -0.048867926 -0.003667757 -0.03298953 0.05553945 0.057145953 0.056730233
-0.03149096 -0.01198177 0.025551744 -0.019202955 -0.05293048 -0.027707689 0.05412554 -0.053717054
0.022585131 0.018968582 0.062390678 -0.06033732 -0.05416456 -0.03706474 -0.04938268 0.016939737
-0.004143022 -0.015887044 0.0072795823 0.022226438 0.05142711 -0.0102918595 0.028357603 0.055553146
0.05935897 0.033733472 -0.024555638 0.04552596 0.053218007 -0.0021764562 0.01675465 -0.018504843
-0.04627645 0.036875106 -0.036533244 0.004769869 -0.03458733 0.009277418 0.049368463 -0.04775379
0.025837727 -0.061957613 -0.0043315887 0.05212433
00000000: 9a29 723d c68c 58bd 90ba 13bc 2055 e43b
00000010: 6878 853c d0d1 12bc 3c54 a5bc 6008 0f3d
00000020: 108b 92bb 4067 65bb 68f7 24bd 5484 07bd
00000030: 564d 01bd 20e3 7cbc 1cdd c7bc 2cfe 78bd
00000040: e079 19bd 484a b73c b0fa ea3b 202d 9c3c
00000050: 80de 5cbc fc75 2d3d 1ab2 51bd e434 993c
00000060: 382b c3bc 70d9 c53c 000d d9ba fc88 b93c
00000070: ee17 42bd 402b c63c c849 0d3c c819 0f3c
00000080: 86b5 143d 1081 d53c 84cc 47bd 8a9c 483d
00000090: 2eeb 19bd 6c4a 8c3c 9844 0e3c 5489 973c
000000a0: 00f1 dabc 0ed3 54bd 50a4 e43c 10de 42bd
000000b0: 809a cf3a d8eb 2b3c c8f4 753c 4c36 9abc
000000c0: c820 c53c 40b2 60bd 3860 eabc 0404 513d
000000d0: d08d 00bc 749f 133d 14b9 dfbc 16cb 683d
000000e0: 007c 9cbc 5053 413d 5cd9 eebc 06bf 663d
000000f0: b80c 94bc a097 ff3b 2817 bdbc 4209 46bd
00000100: e603 59bd 642b d73c 5e8f 783d ea04 593d
00000110: 70ef d13c 34d4 7ebd b0ca 9d3b 20be 7a3c
00000120: 4c21 f73c ee07 20bd 18b2 743c c0e2 883b
00000130: 84bb 00bd 64c2 9d3c 863a 1e3d 080c 66bc
00000140: c445 2abd d8f3 5c3d b02f e93b 148e fd3c
00000150: 3443 65bd c4f2 17bd 68d9 c0bc 804f 12bb
00000160: 689e d5bc c82e 0cbc 862c 193d f02b 70bc
00000170: 7828 f13c 9476 00bd f8d5 9dbc 2685 17bd
00000180: 0e68 67bd 70f2 f3bc 6684 293d 14cf 253d
00000190: 44c4 0f3d b83d 0bbc 8018 7b3d 9827 8c3c
000001a0: 40f7 3a3d 8099 6d3a ae91 173d 3085 6a3d
000001b0: f673 4abd 66e7 783d 30e3 bebc 2012 1b3c
000001c0: a85e ba3c 8041 4b3c 6e8e 49bd 8a65 3abd
000001d0: 607e 12bc e498 c23c 08b8 65bd c0eb d1bc
000001e0: 3814 183c d464 143d c867 30bd da01 743d
000001f0: b848 61bd 4a4d 003d 680d d33c d671 6d3d
00000200: 083d 333d 60a0 b33b 5880 f73c c8b2 27bd
00000210: 02af 183d a0d3 0e3c 346d c2bc 7e16 0bbd
00000220: 903c 70bd 9cdd 1dbd 5899 293c d8db dd3c
00000230: fa30 573d d04b dbbc 309c 3f3c 5e00 7a3d
00000240: c0da 063c 2a22 423d bc29 48bd c05e 70bb
00000250: 0820 07bd 567d 633d e011 6a3d f65d 683d
00000260: aafc 00bd 304f 44bc e451 d13c 844f 9dbc
00000270: a2cd 58bd 3cfb e2bc beb2 5d3d 6a06 5cbd
00000280: 7404 b93c 0064 9b3c 5e8d 7f3d 4424 77bd
00000290: a8db 5dbd 32d1 17bd 7e45 4abd 34c5 8a3c
000002a0: 30c2 87bb 8c25 82bc 9089 ee3b 3814 b63c
000002b0: 3ca5 523d 309f 28bc 344e e83c b28b 633d
000002c0: 6422 733d 1c2c 0a3d e828 c9bc 6e79 3a3d
000002d0: 20fb 593d e0a2 0ebb 0c41 893c 7897 97bc
000002e0: 608c 3dbd 5a0a 173d e2a3 15bd 904c 9c3b
000002f0: 72ab 0dbd 5000 183c 9636 4a3d 7a99 43bd
00000300: a4a9 d33c 44c7 7dbd 00f0 8dbb 5280 553d
