models/ActorCritic/working_full_data.pt (torch, 378407 bytes, 5 tensors)

base.em.weight f4 [14, 1]
00000000: 0000 0000 5576 c7bf 3ce9 06c0 d907 be3f
00000010: 2e1e 04c0 8c26 24be 5ff0 983f 2a87 9b3d
00000020: 7ac1 a9bf f8a5 a0bf 8d47 573f d4e0 7ebc
00000030: 2772 ccbf 5c98 cf3f
0.0 -1.5582987 -2.1079855 1.4846145 -2.064342 -0.1603033 1.1948355 0.0759414
-1.3262169 -1.255065 0.8409355 -0.015556533 -1.5972337 1.6218371

value_head.weight f4 [1, 256]
00000000: ce1c 05bd 6078 72bc a609 063d 581a 0ebd
00000010: 7c0a ae3c 38d0 e3bc d888 7ebc dc9a 9d3c
00000020: 8063 32bd 04b9 dabc e02f 95bb 7625 17bd
00000030: 405b c43a f0d6 5bbd 8410 b23c 4e0c 793d
00000040: 7898 6f3c 206a 613d c288 273d e882 563d
00000050: b803 51bd 4c63 c73c f0c4 5bbc 3cca bc3c
00000060: 8843 0c3c a081 2f3b 34e6 e93c b057 0fbc
00000070: f07b edbc 98b7 68bd f2bf 21bd 8c01 923c
00000080: fce5 cd3c f8d6 4b3d a07c 9fbb 7095 d73c
00000090: 5a52 62bd 96e6 673d e628 7c3d b850 f0bc
000000a0: 942d 56bd c268 1e3d 343a 003d fee0 40bd
000000b0: 74db 883c 1421 3a3d a835 f0bc 5866 b1bc
000000c0: f6fc 543d 3ea7 0c3d 76b2 363d 1469 4f3d
000000d0: f06d b03c 1092 3bbd 7c3e 94bc c087 77bd
000000e0: 4057 febc 1655 623d 6c54 8bbc f80b 2f3d
000000f0: c2f2 27bd 346e 413d 88fa 88bc 9ee1 49bd
00000100: 069f 59bd 5089 b3bb 28e5 5fbd 00f8 8dbc
00000110: c6ff 36bd 94b2 033d 986e 153d c009 87bb
00000120: e035 bc3c e0de 4ebb 5a49 4a3d 4ce8 743d
00000130: c69b 523d a022 233b c8a1 6ebc 785c 2c3c
00000140: 8852 5b3d fac4 4fbd c09e 5dbc bab8 653d
00000150: a89c 9abc 2059 eabc 84a8 f2bc 8082 5ebc
00000160: 62dd 5ebd 0245 0bbd e0e0 97bc d029 b83c
00000170: 80d8 ac3c 6eea 78bd 9659 64bd 8aac 2b3d
00000180: 0c34 7bbd 5c44 5b3d 0487 163d b048 77bd
00000190: 20de 493d 48bf 213c 1ec6 49bd 56a5 723d
000001a0: d435 75bd 4012 7abc 7e17 023d a8be efbc
000001b0: 385a a6bc 68d7 013d 9efd 143d 3c01 5f3d
000001c0: 3047 f8bb 20d3 2ebd 4a7d 5f3d 4071 a0bb
000001d0: 3819 68bd 38aa 283c 7ee5 0abd 80a3 31bb
000001e0: 0afd 29bd 7a59 5fbd 50fe 163c f016 383c
000001f0: 2668 2a3d 84ba 7abd ae67 173d d8fc 29bc
00000200: 0074 163b 34bf cf3c 886e 7b3c da7e 173d
00000210: dc64 edbc 608b 543b 00d4 ecb9 7ec9 013d
00000220: 2628 0b3d c017 acbb 5a07 7abd 1001 a2bb
00000230: 4c4f ad3c 98c1 6f3c 3268 33bd c074 5e3d
00000240: 8026 053d f818 393d 282d 9b3c 8079 b8ba
00000250: b4a7 50bd 6aa8 2f3d 80c9 e33a c0c4 793b
00000260: 5cd2 19bd 9eca 16bd 1ca0 4b3d 3861 3cbd
00000270: ae72 023d c8aa 6dbd f43d b4bc 344d c73c
00000280: 0671 35bd 68de 77bd a8f9 fa3c 2893 403c
00000290: 7099 4d3c 6488 833c a845 59bd 0c24 cb3c
000002a0: b478 55bd 8876 0b3d 3628 253d 842e 02bd
000002b0: 6879 70bd fadb 453d 2050 cebc 749c f73c
000002c0: e06d f7bb 2698 2abd 52b7 4c3d 5ec1 01bd
000002d0: 689f fd3c b6ee 7a3d 70ef d0bc 3024 8f3c
000002e0: d0e8 70bd a0a0 a43b 08f7 563c 0410 ccbc
000002f0: fe28 1ebd 0069 f83a f62b 4f3d 501d 6c3d
00000300: 04c9 96bc 94eb 3e3d 8038 cebc a09f 73bd
00000310: 4043 7d3c 742a 2f3d 0072 88b9 a08a 2bbb
00000320: 4005 7ebc 7a37 193d b807 0dbc 3c68 273d
00000330: d4e3 04bd 1e06 3fbd b8dc 523c 286c e1bc
00000340: 3625 64bd 5056 c6bb 0231 48bd 149d da3c
00000350: 844e 7dbd 4e75 65bd 2056 ba3b ec31 f4bc
00000360: 50a3 c83b 5c70 71bd a6e6 4fbd e4c4 653d
00000370: c0a9 4a3b 8849 683c bc05 f4bc 1011 09bd
00000380: 0042 a5bb 1a42 7bbd d29d 083d 909a 4e3d
00000390: a07b 983b dc3c e8bc 78cf 0c3c 14c3 ab3c
000003a0: f823 e43c c00c 56bc 406c 39bd e0e8 733d
000003b0: e821 6ebd 28fa e0bc 161d 43bd f49e ed3c
000003c0: ae4b 01bd e83b 3cbc 683d 3bbc ac9b 043d
000003d0: d0e9 a8bb 505f 3a3c 0a28 22bd 90f3 c2bb
000003e0: 349d 9a3c 5659 5d3d 008c ad38 0015 7fbc
000003f0: 2073 013b 0001 5c3b 68de 8f3c 041d 02bd
-0.032498173 -0.014799207 0.032724045 -0.034693092 0.021245234 -0.027809247 -0.015535556 0.019238882
-0.04355192 -0.02669955 -0.0045528263 -0.03690096 0.0014980808 -0.053671777 0.02173639 0.06080275
0.014623754 0.05503285 0.040901907 0.052370936 -0.051028937 0.02433934 -0.013413653 0.023045652
0.008561023 0.0026780143 0.028552152 -0.008748934 -0.028989762 -0.056815714 -0.039489694 0.017823003
0.02513408 0.049765557 -0.0048671514 0.026316375 -0.055254318 0.05661639 0.06156244 -0.029335365
-0.05228956 0.038674124 0.031305507 -0.04708957 0.016706206 0.045441702 -0.02932246 -0.021655247
0.051999055 0.034339182 0.044603787 0.05063732 0.021536797 -0.045793593 -0.018096201 -0.060432196
-0.031047463 0.055256926 -0.017008029 0.042736024 -0.041002996 0.04722424 -0.016721025 -0.04928743
-0.053130172 -0.0054790154 -0.0546619 -0.01733017 -0.04467752 0.032152727 0.036482424 -0.0041210353
0.022974908 -0.003156595 0.04938636 0.059791848 0.05141809 0.0024892464 -0.014564939 0.010520093
0.053545505 -0.05072496 -0.0135266185 0.056084372 -0.018873528 -0.028606951 -0.02962137 -0.013580918
-0.054410346 -0.034001358 -0.018539846 0.022480875 0.021099329 -0.060770445 -0.0557495 0.041912593
-0.061328933 0.05353199 0.036749855 -0.060372055 0.0492841 0.009872265 -0.049261205 0.059239708
-0.059865788 -0.01526314 0.031760685 -0.029265717 -0.020306692 0.031699568 0.03637468 0.054444537
-0.0075768456 -0.042681813 0.054562844 -0.004896313 -0.056664675 0.01029449 -0.033910267 -0.002710551
-0.041501082 -0.05452869 0.009215906 0.0112359375 0.04160323 -0.06121303 0.03696411 -0.010375224
0.0022957325 0.025359727 0.015346177 0.03698621 -0.028978758 0.0032431707 -0.0004517138 0.0316863
0.033973835 -0.0052518547 -0.061042167 -0.0049439743 0.021155976 0.014633559 -0.04380054 0.05431056
0.03250742 0.045189828 0.01894243 -0.0014074296 -0.050941184 0.04288522 0.0017378777 0.0038111657
-0.03755413 -0.036814325 0.04971324 -0.045991153 0.03184765 -0.058024198 -0.022002198 0.024328806
-0.04429724 -0.060514838 0.030636624 0.011753835 0.012548789 0.016056247 -0.053044945 0.024797462
-0.052117065 0.034048587 0.04032155 -0.031782642 -0.058709532 0.04830549 -0.025184691 0.03022597
-0.00755094 -0.041649006 0.049979515 -0.03167855 0.0309598 0.06126281 -0.025504798 0.01747331
-0.058815777 0.005024031 0.01312042 -0.02490998 -0.038613312 0.0018952191 0.050579034 0.057645142
-0.018406399 0.046611384 -0.025173426 -0.059478402 0.015457928 0.042765096 -0.00026024878 -0.0026175156
-0.015504181 0.037406422 -0.008607797 0.04087089 -0.032443836 -0.046636693 0.012870006 -0.027517393
-0.05569955 -0.0060527697 -0.048874862 0.026686229 -0.061842456 -0.056020074 0.0056865364 -0.02980896
0.006122984 -0.058945045 -0.050757073 0.056095973 0.0030923933 0.0141776875 -0.02978789 -0.033463538
-0.005043268 -0.061342336 0.033353634 0.05044037 0.004653409 -0.028349333 0.008594386 0.020967044
0.027849182 -0.013064563 -0.04526925 0.05954826 -0.058137804 -0.027463034 -0.04763516 0.029006459
-0.031566314 -0.011488892 -0.011428215 0.032375023 -0.0051548257 0.011375263 -0.039588965 -0.005949445
0.018873788 0.054040276 8.27536e-05 -0.015568972 0.0019752458 0.0033569932 0.017562106 -0.031765953

action_head.net.base.em.weight f4 [14, 1]
00000000: 0000 0000 8b25 0fbf 344b 9c3e 41cf 69bc
00000010: 4b41 45be ff3c e33d 9c1d bdbf a05c 5bbf
00000020: 0185 17bd c24b 453f 7c4a 0d40 6dfc 973f
00000030: 713d d43e 063a 9bbe
0.0 -0.5591666 0.30526125 -0.014270605 -0.19263189 0.110956185 -1.4774661 -0.8568821
-0.036992077 0.7706872 2.2076712 1.1873909 0.41453126 -0.30317706

action_head.net.out.weight f4 [196, 256]
00000000: b02b 493c 54fe a8bc 946a 80bc 5423 833c
00000010: 840f 20bd a868 56bc 48a0 c53c 8801 33bd
00000020: 6006 44bb 80b2 8c3c 26a6 00bd 803a 343b
00000030: 6e2e 303d 18ba 31bd b00a bebb 5ccb 013d
00000040: 7ea4 073d 028d 4a3d 3c1b b0bc 2228 75bd
00000050: 74e6 7abd b8b8 05bc 168f 3abd b00b 0bbd
00000060: 101a 84bb 46f9 2bbd f009 90bb b85e 5f3d
00000070: 3cd1 803c 3eff 08bd 5c72 03bd 60f3 073d
00000080: 0048 933c 74f1 ef3c b8ad 7bbd 24ac 59bd
00000090: 9ce8 efbc b0f8 e4bb f0d6 fe3b 4858 733c
000000a0: 0004 72bb 7c80 3ebd c43d fc3c 3e8a 4f3d
000000b0: e0b3 663c 7e12 31bd d802 76bc c050 8bba
000000c0: 4881 58bd 186e 2ebc d89b 76bd 9015 903c
000000d0: 20b2 50bd c0e4 a43c 80d3 a93a 7cea b13c
000000e0: 28f7 eb3c 80c2 0dbd 8849 7ebd a4e6 e23c
000000f0: 24b0 483d 7e6c 77bd 04f2 b8bc 9e2e 463d
00000100: a078 40bd 3a0f 7e3d d8a5 763c f40e 9ebc
00000110: 2097 c43c 3620 76bd c0f1 e73b b2f7 4cbd
00000120: e664 0fbd d092 d03c 90ab 8b3c 208e c23c
00000130: 2223 1bbd 00c8 fbbb a8c7 f9bc d4c9 eb3c
00000140: 00f4 553c 48a5 913c 60db ef3c d018 623c
00000150: 603e d3bc c02f c63a 8056 40bb ecd1 183d
00000160: a606 32bd 1eb8 09bd 28ec 383d 3aa7 3abd
00000170: 8052 99ba cee9 483d 528e 7b3d 6ed9 3bbd
00000180: 8acc 3bbd c6ae 533d f09f 0fbc 0063 263d
00000190: 3c4c d13c e460 c7bc 8424 61bd 6c8c c7bc
000001a0: 82fb 1c3d a079 18bd f8fa 203d a017 163d
000001b0: f07a 6dbd 04b6 eebc 08d5 72bc 9c10 4abd
000001c0: ae86 12bd 3241 213d 403a a8ba c0e9 6e3b
000001d0: 7098 fbbb 24a5 3dbd 8049 55bb 40c7 a83a
000001e0: 22d3 493d 3819 623c f484 903c c0c8 7fbc
000001f0: 2823 19bc de19 60bd b825 0bbd 7e0d 633d
00000200: bcca fd3c 80bb 113c a408 823c 1852 10bc
00000210: ba68 4bbd 3c72 883c 20a5 893b 4646 1c3d
00000220: 8ca6 513d 92fb 1abd 4033 73bc 3439 a33c
00000230: 401a 45bd f047 b23b 38b9 1abd 3483 74bd
00000240: d8c6 0d3c 7839 21bc d006 923c 2a28 223d
00000250: 80f1 43bd 7c5d 2abd 2cf1 80bc 80fc 1abb
00000260: b868 e23c 98ab c8bc d867 b83c ee5c 48bd
00000270: ac6e fabc f4b8 49bd 728e 2bbd e424 cbbc
00000280: 8a7e 543d f2dd 0bbd f486 82bc 94d0 4f3d
00000290: 4038 47bb d89d f6bc 1c5a 363d 0009 753c
000002a0: 9831 65bc ce8f 6b3d 6afb 253d e087 27bc
000002b0: be0b 303d ee54 0d3d d2e6 7c3d 660e 62bd
000002c0: 9449 6cbd 28ff 553c 00d6 ef3c dee1 20bd
000002d0: 866c 6bbd 7aa7 0abd 7068 d83c fe1f 3ebd
000002e0: 7080 073c 9806 ee3c 78d7 bebc 64c7 e93c
000002f0: 6c9c 27bd aa2f 493d c843 513c 8079 a13a
00000300: 32d6 543d 745c 6b3d 88cb 77bc 7042 123d
00000310: 8296 063d 243f 353d c815 4abd b439 cf3c
00000320: 3861 9c3c 70f1 5e3d 0086 35ba 2ed2 54bd
00000330: b0be 343c 6068 883c e2bf 40bd 4461 59bd
00000340: 50d6 5bbc 881b 92bc 80f0 b6bb ea81 59bd
00000350: d8cf 5b3d a24f 543d b036 e53b 4880 7ebc
00000360: 80ed 25bc 20ac 853c 38ad 653c a2a7 063d
00000370: 12f8 743d 4c88 853c cc71 533d ce3a 143d
00000380: f6e6 49bd 74f8 8c3c 6e85 4c3d e887 7c3c
00000390: a65a 09bd 94ca e13c e462 e5bc 980c 73bc
000003a0: f407 50bd 7883 983c 4e73 7d3d e458 ccbc
000003b0: f8c7 54bd 84f7 c13c 000f 14bd 3e01 0abd
000003c0: f4a6 093d b89a 83bc 6016 273d a8ab 64bd
000003d0: e00f 98bc e8dd 7d3d ca50 053d 88d6 46bd
000003e0: 342f e23c b4f5 a83c c87b 59bd 66a9 63bd
000003f0: 8053 a1bc 7a2c 7a3d a8b6 d73c dcfa 663d
0.012278482 -0.020629086 -0.01567582 0.016008057 -0.039077297 -0.013086475 0.02412428 -0.043702632
-0.0029911026 0.01717496 -0.03140845 0.002750069 0.04301303 -0.043390363 -0.005799614 0.03168808
0.033115856 0.04945088 -0.021497361 -0.059852727 -0.061254933 -0.008161716 -0.045546614 -0.033946693
-0.004031427 -0.041985773 -0.004395716 0.05453369 0.01572477 -0.033446543 -0.032091483 0.033191085
0.017978668 0.029289939 -0.061444968 -0.05314268 -0.029285721 -0.0069876537 0.0077770874 0.014852591
-0.0036928654 -0.04650925 0.03079117 0.050668947 0.0140809715 -0.043230526 -0.015015326 -0.0010628924
-0.052857667 -0.010646366 -0.060207218 0.017588407 -0.050951123 0.020128608 0.0012956709 0.021718256
0.028804377 -0.034609318 -0.062081844 0.027697869 0.048996106 -0.0604062 -0.02257634 0.0483843
-0.046990037 0.06202624 0.015054189 -0.01929424 0.023997843 -0.060089312 0.0070783794 -0.05004091
-0.035008334 0.02546063 0.01704958 0.023749411 -0.037875302 -0.007683754 -0.030490711 0.028782763
0.013058662 0.017779008 0.02927941 0.013799861 -0.025786579 0.0015120432 -0.0029348433 0.037309572
-0.04346337 -0.033622853 0.04514709 -0.045569636 -0.001169756 0.0490511 0.061415024 -0.045861654
-0.04584936 0.05168035 -0.008766159 0.040621758 0.025549047 -0.024338193 -0.054966465 -0.02435895
0.038325794 -0.037225366 0.039301842 0.036643624 -0.05797857 -0.029139526 -0.014821298 -0.049332246
-0.03577297 0.039368816 -0.0012834743 0.0036455244 -0.007678084 -0.04630007 -0.003254503 0.0012876764
0.049273618 0.013799958 0.017641522 -0.015611827 -0.009346761 -0.05471217 -0.03397152 0.05543279
0.03098046 0.008894801 0.01587326 -0.008808635 -0.049660422 0.016656034 0.0042005926 0.038152955
0.051184222 -0.037837572 -0.014843762 0.019924738 -0.048120737 0.0054407045 -0.037774295 -0.059695438
0.008653365 -0.009840362 0.017825514 0.039589085 -0.047837734 -0.04159306 -0.01574 -0.0023649037
0.027637824 -0.024495885 0.022510454 -0.04891675 -0.03057035 -0.04924865 -0.041883893 -0.024797864
0.05187849 -0.03414721 -0.015933491 0.050736025 -0.0030398518 -0.030104563 0.04451953 0.014955759
-0.013988875 0.05751019 0.04052297 -0.010225266 0.04297995 0.034504823 0.061743565 -0.055189513
-0.057687357 0.013061322 0.029276848 -0.039277904 -0.057476543 -0.033851124 0.026416987 -0.04641723
0.008270368 0.029055879 -0.023296103 0.02853746 -0.04092066 0.04911772 0.012772508 0.0012319535
0.051962085 0.057461217 -0.015124209 0.03570789 0.03285838 0.04424967 -0.04933718 0.02529607
0.019089326 0.05442947 -0.00069245696 -0.051958255 0.011031792 0.016651332 -0.047057994 -0.053071275
-0.013417795 -0.017835394 -0.005582869 -0.05310241 0.053665012 0.051833756 0.0069950446 -0.015533514
-0.010127425 0.016317427 0.014018349 0.03287471 0.05980689 0.016300343 0.051622197 0.036188893
-0.049292527 0.017208315 0.049931936 0.015413262 -0.033533715 0.027562417 -0.028001256 -0.014834546
-0.050788835 0.018617377 0.06187754 -0.02494473 -0.051948518 0.023677595 -0.036147118 -0.03369259
0.033606485 -0.016064987 0.040792823 -0.055827767 -0.018562257 0.061979204 0.03254775 -0.048544437
0.027610399 0.020624973 -0.053096563 -0.055581473 -0.019693136 0.061077572 0.026332214 0.056391582

action_head.net.out.bias f4 [196]
00000000: 50d4 4d3c c080 eabb 4c91 b2bc 48ce a7bc
00000010: 922a 7d3d 02da 0dbd 3ccd fe3c b882 03bd
00000020: c629 63bd 586b 713c 3413 86bc 5c7d 633d
00000030: 8802 1dbd 82b3 043d a081 003b cc2a f83c
00000040: 90cb e1bb 74aa d0bc 6ae2 373d a431 62bd
00000050: d4a1 5f3d c67f 643d 82c0 65bd 18ba 243c
00000060: 3e49 49bd b8f6 e73c 00d6 7d3c b8e6 7c3c
00000070: 2ab4 1a3d e8c4 b5bc 30da 293c 5400 663d
00000080: 503c 02bc 90d8 f43c 3401 45bd 2c39 233d
00000090: f2c1 2ebd f012 493c 9236 623d a4c4 9e3c
000000a0: 800e dd3a 82d3 6dbd 3c79 e83c 42f0 4f3d
000000b0: 5e7c 57bd 167e 2f3d 000f b33a 00e0 093c
000000c0: 9a27 213d a07a 043d 88db 123c 0c16 afbc
000000d0: fc70 a1bc b80e 583c 9cab a03c 201a 583c
000000e0: c479 f9bc 8478 453d 58dd 4d3c bc80 e83c
000000f0: 107e 2ebd 7cd5 ebbc 806c 51bd 1689 7abd
00000100: 0070 97b7 64b5 e2bc 2cfa f3bc e0d3 83bc
00000110: 1c45 e43c 02e5 0d3d 80b2 5d3b 5ca2 3dbd
00000120: b05e 1b3c dc23 b9bc 00c6 b53c 70d5 2dbc
00000130: 06e4 423d bc83 c6bc 6c7f 153d 809f f7bc
00000140: f8d7 7c3c 3a6d 7fbd d025 f13b 7089 60bd
00000150: a866 d43c e415 203d 60e8 c8bb bab5 3a3d
00000160: 90b8 babc 808f 92bb 1c98 413d 40ff 623c
00000170: 0020 1eb9 aa52 3ebd 2099 1e3b 58c2 9c3c
00000180: 4cc1 d53c 72ec 243d e892 2d3c 5a11 4abd
00000190: ea5a 4e3d e2f0 76bd c6d2 59bd e005 463d
000001a0: 844a 54bd 2e05 5c3d 40d5 46bc a8ef 503d
000001b0: 04de 23bd 18ec d23c 709a 35bc 1ae7 753d
000001c0: c45c c63c 8863 40bd e6e1 21bd 9cdd f63c
000001d0: 84f1 0fbd 6abc 66bd eaf5 073d 58bd 67bd
000001e0: fecf 693d 5c99 1b3d 5892 8fbc 4855 d8bc
000001f0: 724d 6bbd 1e53 2d3d b045 1b3c e4f1 7c3d
00000200: 4455 503d 3aad 54bd 38c7 e0bc b88d 673d
00000210: 409d b1bc a0a0 fd3b 56bd 4e3d 4898 953c
00000220: c4c9 773d 3837 9abc 6212 3d3d 44e2 9d3c
00000230: 2cdc 35bd 78da 02bd 00c9 c8b9 203f 2abc
00000240: f853 f5bc c055 873b c45f 8bbc 1424 a7bc
00000250: 4c66 c73c 8abe 0abd 7812 5e3d 8097 9f3b
00000260: 825c 20bd 58af 0bbc 883c 1b3d b03b 153c
00000270: e0f9 063c 1e6b 4ebd 5814 25bc 585e 193d
00000280: 32e6 563d b0f3 d83b 7840 cd3c 3cb3 27bd
00000290: 7e50 39bd 6073 873b 1203 7dbd dca6 9ebc
000002a0: 9485 3f3d 1057 46bd ae51 623d b8c3 c8bc
000002b0: 601b 0b3b 28f8 143c 305c 2d3c b05a 5cbd
000002c0: 54b7 f13c cef2 2b3d 1c8b 0bbd 6a4d 0bbd
000002d0: 5cae dc3c b861 373c 40a8 46bc 9864 60bd
000002e0: 00a4 b33b 2c9a 8dbc 7802 7d3c 1c43 32bd
000002f0: 04a3 30bd 4824 003c 7eb4 723d d8fe 033c
00000300: 9437 70bd 5adf 54bd bc0a 273d 0e84 2ebd
0.012562826 -0.0071564615 -0.021797799 -0.020484105 0.061808176 -0.034631737 0.031103723 -0.032107085
-0.05545976 0.014735065 -0.016366579 0.055539474 -0.038332492 0.032397754 0.0019608513 0.030293845
-0.0068907216 -0.025471903 0.04489366 -0.055223122 0.05459769 0.055785917 -0.056091793 0.010054134
-0.049142115 0.028315887 0.015492916 0.015435867 0.037769474 -0.022188619 0.010366961 0.056152657
-0.00794895 0.029888421 -0.04809685 0.039849445 -0.04266543 0.012272581 0.055227824 0.019380875
0.0016865283 -0.058063038 0.028378122 0.050766237 -0.05260884 0.042844854 0.0013661087 0.008415222
0.039344408 0.032343507 0.008963473 -0.021372817 -0.019707195 0.013187103 0.01961308 0.013189822
-0.03045357 0.048210636 0.0125649795 0.028381698 -0.04260069 -0.02878832 -0.051128864 -0.06116589
-1.8052757e-05 -0.027674384 -0.029782377 -0.01609224 0.027864985 0.034642227 0.0033828318 -0.046297416
0.0094830245 -0.022600107 0.02218914 -0.0106099695 0.04758074 -0.024232738 0.036498472 -0.030227423
0.01543235 -0.062360026 0.007359244 -0.05481857 0.025927857 0.039083377 -0.006131217 0.045583464
-0.022793084 -0.004472673 0.047264203 0.013854802 -0.00015079975 -0.046465553 0.0024200156 0.01913564
0.026093148 0.040264554 0.010594107 -0.049332954 0.05037967 -0.060288318 -0.053179525 0.048345447
-0.051828876 0.053715877 -0.012135804 0.051009804 -0.040006652 0.025747344 -0.011084184 0.06003485
0.024214156 -0.04696992 -0.039522074 0.030134968 -0.035142437 -0.05633203 0.033193506 -0.056577057
0.057083122 0.03798805 -0.017525837 -0.026407853 -0.057446904 0.042315595 0.009477064 0.061754122
0.050862566 -0.051923014 -0.027438745 0.056531638 -0.021681428 0.0077400953 0.050473534 0.01826109
0.060495153 -0.018825158 0.04616011 0.01927293 -0.044399425 -0.03194663 -0.0003829673 -0.010391027
-0.029947266 0.0041300952 -0.017013438 -0.020402946 0.024340771 -0.03387312 0.054216832 0.004870355
-0.039150722 -0.008525692 0.037899524 0.009108469 0.008238286 -0.050395124 -0.010075651 0.03744349
0.052465625 0.0066208467 0.025055155 -0.040942416 -0.04524278 0.004133627 -0.061770506 -0.019366674
0.04675825 -0.048422873 0.055253677 -0.024507388 0.0021226034 0.009092368 0.010581061 -0.053797424
0.029506363 0.041979603 -0.034068212 -0.034009375 0.02693861 0.011192732 -0.012125075 -0.054783434
0.005482197 -0.017285429 0.015442483 -0.04352103 -0.043124214 0.00782115 0.059254162 0.008056365
-0.058646753 -0.051970817 0.04078172 -0.042606406
