models/ActorCritic/working_full_data_C>0, 6>L>3.pt (torch, 256639 bytes, 5 tensors)

base.em.weight f4 [14, 1]
000000 00 00 00 00 34 9d 6d 3e b6 ec b1 bf 10 31 b7 3f
       0.0 0.232045 -1.3900363 1.4311848
000010 f3 dd 61 3e db 76 ee 3f b2 39 81 3e dc 37 4c be
       0.22057323 1.8630022 0.2523933 -0.19943184
000020 17 16 82 3d 31 fb 09 be 2f f4 c0 3e 90 8a a9 3f
       0.063518696 -0.13474728 0.37686297 1.3245411
000030 a8 7f 08 3f 2b 18 90 3e
       0.5331979 0.2814344

value_head.weight f4 [1, 256]
000000 26 89 4e 3d 2e 52 18 bd de 14 4b bd 60 9c 70 3d
       0.050423764 -0.037187748 -0.049580447 0.05874288
000010 5e d0 48 3d 3c 3f 95 3c 74 8d 3e 3d 8e 4f 6b bd
       0.04902684 0.018218629 0.04652162 -0.057448916
000020 78 72 13 3c a0 8d 57 3c b8 5f 62 bc 9e c4 6d bd
       0.008999459 0.013156325 -0.013816766 -0.058048837
000030 48 96 49 bd 64 9d 04 bd 82 73 7d 3d 48 40 76 bc
       -0.049215585 -0.032376662 0.061877735 -0.015029974
000040 40 f6 87 3c 08 60 86 3c 7c 09 ac 3c 0a 59 66 3d
       0.016596913 0.016403213 0.021000616 0.056237258
000050 70 20 e8 3c dc 10 01 3d 4c 7c 35 3d b2 5a 1d bd
       0.02833578 0.03151022 0.04430799 -0.038416572
000060 0c d4 9b 3c 54 01 cc 3c 74 ec 17 bd c0 aa 98 bc
       0.01902201 0.024902977 -0.037090734 -0.018636107
000070 40 82 87 bc 94 d8 a4 bc f8 3d 13 bd ec a1 f3 bc
       -0.0165416 -0.020122804 -0.03594777 -0.029740296
000080 34 c1 63 3d 60 c9 06 3c 5e c4 4f 3d dc 37 23 bd
       0.055604175 0.0082267225 0.05072438 -0.039848194
000090 18 5e 37 3c 7c d5 53 3d 8e 7c 15 bd 78 d7 7e 3d
       0.011191867 0.051717266 -0.036495738 0.062217206
0000a0 7e b6 43 3d 5a cd 3a bd 78 54 7a 3c 30 b5 c9 bc
       0.04778146 -0.045605995 0.015278928 -0.02462253
0000b0 d0 12 3e bc d4 de a4 bc f4 6b 7d bd b4 4f 06 bd
       -0.011601165 -0.020125784 -0.06187053 -0.032790855
0000c0 b8 5c 49 3c 6c bc fe 3c 10 10 2b 3c 6e c0 74 3d
       0.012290172 0.031095706 0.010440841 0.059753828
0000d0 d0 1b 31 3c 60 97 ac bc d0 7c 3b 3c e6 cf 77 bd
       0.010809854 -0.021068275 0.011443332 -0.060501
0000e0 d8 18 2d 3d 0c 48 2a bd 18 84 5e 3c 98 ed d3 3c
       0.04226002 -0.041572616 0.013581298 0.02587013
0000f0 6c 4f 0b 3d a8 ef 69 bc 34 a3 4c 3d ec 32 25 3d
       0.03401129 -0.01427833 0.04996033 0.040331766
000100 20 b5 7c 3c 66 06 40 bd e8 5b 67 bc 80 70 e8 bc
       0.015424043 -0.046881102 -0.014121033 -0.028373957
000110 e4 8f e6 3c fc 53 0d bd fe 75 48 bd 00 77 1c bd
       0.028144784 -0.034503922 -0.04894065 -0.038199425
000120 00 22 5c bd e0 95 4e bb 40 ce d3 3a 24 b3 be bc
       -0.053743362 -0.0031522438 0.001615949 -0.02327878
000130 e8 29 46 3d d0 5c 8e 3c 60 7c 4e bb 10 4c d8 3b
       0.04837981 0.01737824 -0.0031507239 0.006600864
000140 04 8d e8 3c cc 9f da 3c b0 06 d4 bb e4 e8 dc bc
       0.028387554 0.026687525 -0.006470524 -0.02696652
000150 90 6a a4 3c ee 91 7a 3d ec e0 f4 bc fc fa ea 3c
       0.020070344 0.061174326 -0.029892407 0.028684132
000160 f8 44 0e bc be f2 2a bd 36 95 0e 3d 2a b1 7f bd
       -0.008683436 -0.041735403 0.034810267 -0.062424816
000170 d4 05 60 3d 70 d4 de 3b 48 eb 37 bc c4 97 d9 bc
       0.054693058 0.006800227 -0.011225529 -0.026561625
000180 a8 1b c9 3c 84 26 29 bd 88 7b 49 bc 1a 01 48 bd
       0.02454932 -0.041296497 -0.012297519 -0.048829176
000190 bc 44 cd 3c d2 e0 4d 3d a8 6a 64 bd ce e1 22 3d
       0.02505719 0.050263233 -0.055765778 0.039766125
0001a0 5c 12 5b 3d 8c 7c 56 3d 60 c4 44 bd 50 56 02 3d
       0.053484306 0.05236487 -0.04803884 0.031820595
0001b0 dc bc c0 bc b8 d7 ae bc ec 23 11 3d 6e 45 0a bd
       -0.023527555 -0.021343097 0.03543465 -0.03375762
0001c0 72 24 3b bd fc e1 68 3d 06 10 28 bd 28 45 7d bd
       -0.045689054 0.05685614 -0.041030906 -0.06183353
0001d0 a0 e1 44 3d 6c 7d 53 3d b8 63 06 3c a8 f7 0d bc
       0.048066735 0.051633283 0.008202486 -0.008665003
0001e0 f0 04 89 bc 80 0e 60 bc 70 de b6 3c 94 41 49 3d
       -0.016725987 -0.013675332 0.022322863 0.049134806
0001f0 fc 1c b2 3c 68 63 6d 3c 28 92 ae 3c 18 1b 1c 3d
       0.021742336 0.014489032 0.021309927 0.038111776
000200 82 6c 4f bd 80 4a 1f 3b 64 a7 46 3d f8 8e 53 bc
       -0.05064059 0.002430588 0.04849948 -0.012912504
000210 6c 13 01 3d f8 9e 2c 3d dc 12 97 bc 1c 9e ce 3c
       0.031512663 0.042143792 -0.01844161 0.025221877
000220 72 5d 06 3d 80 e2 d8 ba c2 95 7f bd 9a 20 68 3d
       0.03280396 -0.0016546994 -0.06239868 0.056671716
000230 a0 68 e5 bb 88 97 36 bc 10 93 4c 3c 38 98 cb bc
       -0.0070009977 -0.011144526 0.012486234 -0.024852857
000240 e4 08 aa bc 68 f4 6c 3d 74 bb 7c 3d e4 18 c6 bc
       -0.020756193 0.05785027 0.061702207 -0.02418179
000250 24 b4 10 3d 08 f4 d3 3c d8 8c d0 3c fc 62 79 bd
       0.035328045 0.0258732 0.025457785 -0.060885414
000260 42 a7 70 3d a0 05 98 3c 98 70 4b 3c 08 c9 11 bd
       0.05875326 0.01855737 0.012416981 -0.03559211
000270 ee 0a 7a 3d 18 2f e0 3c 60 6c 85 bb 4c 10 cd 3c
       0.06104558 0.027366206 -0.004071757 0.025032185
000280 b0 fa e9 3b 0c 4e 18 3d 80 f0 13 bb ce 9f 4f bd
       0.00714048 0.037183806 -0.002257377 -0.05068951
000290 04 ed f4 bc d6 cd 17 bd 88 59 11 3c 34 1f d1 3c
       -0.029898174 -0.037061535 0.008871444 0.025527574
0002a0 dc 20 e7 bc 3e 31 17 3d 8c e8 a5 bc 20 9a ee 3c
       -0.02821391 0.036912195 -0.020252489 0.029126227
0002b0 0c 91 0e bd 14 93 55 bd 00 ec 8d 3b b4 07 ba bc
       -0.034806296 -0.052142218 0.004331112 -0.022708751
0002c0 80 17 74 3a 90 9b 5b 3d a4 24 33 3d a8 ce 35 3d
       0.0009311363 0.053615153 0.043736115 0.044386536
0002d0 86 b3 28 bd 80 08 4b bc a8 5d 77 bc 0c d9 9a 3c
       -0.041186832 -0.012392163 -0.015098013 0.018902324
0002e0 f8 13 05 bc c4 12 4f bd 3c eb d5 3c ee 64 49 bd
       -0.008122437 -0.050555006 0.026113145 -0.04916852
0002f0 b2 bc 72 3d 40 6b 52 3c 10 0f 69 3d f6 1d 69 3d
       0.059261985 0.012842953 0.05689913 0.05691334
000300 be b5 4f bd 8c c9 65 3d 4a d6 2d bd 98 28 b4 bc
       -0.050710432 0.056100413 -0.04244069 -0.021992013
000310 2c 7e ae 3c c0 01 7c 3d d2 56 25 3d 94 6b 6a bd
       0.021300398 0.061525106 0.040366 -0.0572315
000320 aa 75 26 3d d0 09 09 bc 7c dd 34 bd 70 1f 7c bc
       0.040639557 -0.008364156 -0.044156536 -0.015388355
000330 14 19 dd bc ac 88 fd 3c 58 06 3f 3c a4 3f c1 3c
       -0.026989497 0.03094896 0.011659227 0.023589917
000340 d0 3c a1 3b 40 fd d7 ba b8 da 05 bc 40 b6 b8 ba
       0.0049205795 -0.0016478673 -0.008169822 -0.0014092401
000350 10 d6 0b bc 00 f8 89 b8 00 90 da 37 ce 2d 3e bd
       -0.008534923 -6.578863e-05 2.605468e-05 -0.0464304
000360 d8 92 aa 3c 7c e2 95 bc 48 01 2c 3c 40 30 d0 bb
       0.020821974 -0.018296473 0.010498352 -0.006353408
000370 00 c8 92 39 0e a9 14 3d ec 83 1f 3d 20 f2 32 3c
       0.00027996302 0.036294036 0.03894417 0.010921985
000380 b8 b8 81 3c c0 01 38 3d fe 03 79 bd 90 09 7d 3c
       0.015835151 0.044923544 -0.060794823 0.015444174
000390 d8 af 3b 3d d0 19 cc 3b e8 7f 4b 3d 00 54 54 b9
       0.045821995 0.006228663 0.049682528 -0.00020249188
0003a0 8e ed 28 bd ee 92 63 bd 7e 2b 04 bd 54 fd 64 3d
       -0.041242175 -0.055560045 -0.03226804 0.055905655
0003b0 00 5c 12 bc 80 ed 4d 3c 6e 38 25 bd e0 ab 4b 3b
       -0.008933067 0.012568831 -0.04033702 0.0031077787
0003c0 86 d2 1c bd ca 46 28 bd 32 21 09 bd ca 57 73 3d
       -0.03828671 -0.041083135 -0.033478923 0.059409894
0003d0 5a 54 14 3d 00 51 0a 3d c8 e2 d3 bc 44 d5 19 3d
       0.036213256 0.033768654 -0.025864974 0.0375569
0003e0 40 07 f3 3c 48 f5 4b 3d c0 38 14 3d a0 76 18 bd
       0.029666543 0.049794465 0.036186934 -0.037222505
0003f0 c0 95 9d ba b0 bc 22 bd 08 da aa bc 80 22 7e bc
       -0.0012022778 -0.039730728 -0.020855919 -0.015511155

action_head.net.base.em.weight f4 [14, 1]
000000 00 00 00 00 59 d5 8a 3f e6 1f 77 3d 40 06 7e bf
       0.0 1.0846359 0.060333155 -0.99228287
000010 c1 f9 a3 3f f1 94 d8 3f 80 ef 03 bf f1 92 1a 40
       1.2810594 1.6920453 -0.51537323 2.4152186
000020 a7 a2 9b 3f b6 18 1b 3f 0c 55 d7 3e 81 e6 a6 3f
       1.2159013 0.6058458 0.42057073 1.3039094
000030 39 49 b5 3d 2e 2c bf 3d
       0.08851857 0.093345985

action_head.net.out.weight f4 [196, 256]
000000 c8 45 20 bc 68 7b 1d 3c 80 5f c1 ba 5a b1 28 3d
       -0.009782262 0.009611942 -0.0014753193 0.04118476
000010 20 fe be bc 30 e9 90 bc 40 b5 2d 3d f2 7b 79 bd
       -0.023314536 -0.017689317 0.04240918 -0.06090922
000020 80 12 e3 bb 24 29 d8 bc 50 74 d5 3b fc 46 cd bc
       -0.0069296956 -0.026386805 0.0065141097 -0.025058262
000030 0c 2a 1e bd 7c 64 ea 3c 02 e3 06 bd 44 cc 2d bd
       -0.038614318 0.028612368 -0.032931335 -0.04243113
000040 d0 73 04 3c 68 74 47 3c e4 7c 0f 3d 1c 8f d3 3c
       0.0080842525 0.0121737495 0.035031214 0.025825076
000050 d8 d2 02 bc 20 a9 76 3b 8c 1f 48 bd b8 76 83 bc
       -0.007984839 0.0037637427 -0.04885821 -0.01604782
000060 18 b6 00 3c c2 5e 70 3d 4c 45 ac bc 5a 3e 7d 3d
       0.0078559145 0.058684118 -0.021029137 0.06182704
000070 68 5c 9b 3c e8 39 0d bc 10 91 16 bc 92 22 5d 3d
       0.018964961 -0.008619763 -0.009189859 0.053988047
000080 20 66 4c 3b f0 84 40 3d b6 08 12 3d e4 a3 90 3c
       0.00311888 0.04700178 0.03565284 0.017656274
000090 c0 5d 5b 3b c8 c5 28 3c 58 c2 c2 3c 38 79 23 3d
       0.0033472627 0.010301061 0.023774311 0.039910525
0000a0 14 26 23 3d b8 26 2e 3d 80 d3 e5 3c 78 c4 3c bc
       0.039831236 0.042517394 0.028054953 -0.011521451
0000b0 e0 63 dc bb c8 e8 2d 3d 4a 49 71 bd f8 1e 0e bd
       -0.006725773 0.042458326 -0.058907785 -0.034697503
0000c0 d8 e2 2b 3d 2e 5f 24 bd ac 34 75 3d d4 5d 30 bd
       0.041964382 -0.040129833 0.059864685 -0.04305823
0000d0 50 46 72 3d f0 87 2c bd 0e 46 52 3d 20 b5 e4 bb
       0.059149086 -0.042121828 0.05133634 -0.0069795996
0000e0 2e d2 13 3d 90 00 58 bc 60 d3 20 bb 3e 55 2a bd
       0.036089115 -0.013183728 -0.0024540052 -0.0415852
0000f0 a0 92 bc bb c0 a7 e1 3c ea 28 4d bd ec af 4e 3d
       -0.0057547837 0.02754581 -0.050087847 0.05046074
000100 26 34 59 3d 80 32 18 bc ac de 31 3d ac ee c6 3c
       0.05302825 -0.009289384 0.043425247 0.02428373
000110 b4 10 f2 bc f0 ce 77 bc e0 74 50 3d 00 6f e3 3c
       -0.02954898 -0.015125021 0.05089271 0.02776289
000120 56 e8 30 bd 78 0d 78 3c 44 8c 5c 3d 5e 58 3f 3d
       -0.043190323 0.01513993 0.053844705 0.046715133
000130 00 18 2e b9 00 dc f4 39 88 0b 7d bd 96 a8 52 bd
       -0.00016602874 0.0004670322 -0.061778575 -0.051430307
000140 00 62 3d 3d 74 03 09 bd ce 97 5c bd c0 e0 04 3c
       0.04623604 -0.03345056 -0.05385571 0.008110225
000150 20 43 67 3c 66 57 13 3d c4 b2 10 3d 80 66 99 3a
       0.014115125 0.03597202 0.035326734 0.0011703521
000160 4e 58 2b bd 60 c3 66 bc 64 80 fc 3c 2c 96 7a 3d
       -0.04183226 -0.014084667 0.03082294 0.06117837
000170 58 56 3e 3c 8c 8f b7 3c 48 8a 00 bd 68 a1 ee 3c
       0.011617266 0.022407316 -0.031381875 0.029129699
000180 c0 93 b0 bb ea 06 18 3d 40 c7 9b 3b 34 48 2b 3d
       -0.005388707 0.03711597 0.004753977 0.041816905
000190 ac ee 5b bd dc fa b8 bc 24 0b 94 bc f8 02 f9 bc
       -0.053694412 -0.022580557 -0.018071719 -0.030396923
0001a0 08 b9 b5 bc c4 82 ba 3c 70 45 2f bc b0 77 2b 3d
       -0.022182956 0.022767432 -0.0106977075 0.04186219
0001b0 20 a0 67 3b 04 7f 1f bd a0 df ac 3c ec b1 e4 bc
       0.0035343245 -0.03893949 0.021102726 -0.027916871
0001c0 6a 4d 1f 3d fc db 55 3d 78 12 ee 3c 5e 09 05 3d
       0.038892187 0.052211747 0.029061541 0.032479636
0001d0 5c 9c ed 3c 34 df 54 3d 20 c2 c4 3b 6c 39 fd bc
       0.029005222 0.051970676 0.006004587 -0.03091117
0001e0 94 7a e3 3c 72 e8 56 bd 08 68 75 3c 40 39 f1 3b
       0.02776841 -0.05246777 0.014978416 0.007361561
0001f0 5c ae b0 3c c0 ad d5 bb 48 ce 15 bd fe a6 1c bd
       0.021567516 -0.0065209568 -0.03657368 -0.038245194
000200 78 5b 0f 3d a4 ef 18 3d d0 08 a7 3b fc 65 0a 3d
       0.03499934 0.037337914 0.005097486 0.033788666
000210 ac 25 18 3d cc 14 2f 3d da 29 7e 3d 88 f4 17 3d
       0.0371453 0.042744443 0.06205163 0.037098438
000220 60 13 e5 3c 20 f1 a0 bc dc 9d e5 bc ca c2 45 bd
       0.02796334 -0.019646227 -0.028029375 -0.04828147
000230 50 a7 57 3d c0 11 cf bb 74 2c 21 bd 50 84 8d bc
       0.052649796 -0.0063192546 -0.039349034 -0.017275006
000240 38 ab cd bc 80 6c 43 3d 96 a1 34 3d 7e a8 7a 3d
       -0.025106058 0.047710896 0.044099413 0.061195843
000250 50 38 be bc f8 a6 3f bd 9c f8 77 3d 18 e2 fb 3c
       -0.023220211 -0.046790093 0.060539827 0.030747458
000260 80 3d 4f 3d e8 4c fe 3c f4 f6 03 3d b0 50 63 bc
       0.05059576 0.031042531 0.032217935 -0.013874218
000270 88 33 4d bd 2c 70 0f bd 92 df 64 bd 78 e1 3c bd
       -0.050097972 -0.035019085 -0.055877276 -0.04611346
000280 48 3a 8d 3c a2 f1 7e bd a8 b4 4a 3c e0 20 9d bb
       0.017239705 -0.062242158 0.012372173 -0.004795179
000290 b4 ba 7b 3d 2c 1c 0b bd 50 c7 70 bc 50 ba 1c 3d
       0.06145735 -0.033962414 -0.014695957 0.03826362
0002a0 68 bd 74 3c f8 e9 23 3c 18 05 61 bc 40 08 f0 bb
       0.014937736 0.010004513 -0.013734125 -0.007325202
0002b0 e4 4a 0f 3d c8 28 48 3d 3c 8c b8 3c be 05 59 3d
       0.03498353 0.048867017 0.022527806 0.05298399
0002c0 88 f3 51 3d e8 65 db 3c 30 ea f4 bc 62 6b 20 bd
       0.05125764 0.026781991 -0.029896826 -0.03916491
0002d0 b0 fe da 3c 8c f5 86 3c a4 2f 76 3d 0e 24 35 bd
       0.026732773 0.016474508 0.060104027 -0.044223838
0002e0 78 03 b9 bc a4 de 03 3d 48 98 01 bd 3c 22 f0 3c
       -0.022584662 0.03219475 -0.031639367 0.0293132
0002f0 70 11 6a bc 00 b7 99 b9 e8 18 3b bc 6e 43 53 bd
       -0.014286384 -0.0002931878 -0.011419512 -0.051577978
000300 14 73 86 bc 80 51 65 3d 80 48 9f bb fc 9e 1e bd
       -0.016412295 0.055985928 -0.0048609376 -0.038725838
000310 36 67 74 bd 62 f3 3b 3d 4a ae 69 3d 20 67 56 3d
       -0.059668742 0.045886405 0.05705098 0.05234444
000320 b6 64 2c 3d e4 2f 65 bd e8 05 5c 3d 98 f2 b8 3c
       0.042088233 -0.055953875 0.05371657 0.022576615
000330 00 5f 12 bc 70 f8 33 bd a6 e6 15 bd b6 91 51 bd
       -0.008933783 -0.0439381 -0.036596917 -0.05116435
000340 60 94 3e 3d b0 90 56 3d 44 5c 4e bd 40 2f 4c bd
       0.04652822 0.05238408 -0.05038096 -0.04984975
000350 e0 73 4e 3d 0c ac e3 bc 58 12 5a 3c c8 3c 54 3c
       0.050403476 -0.027792 0.013310038 0.0129539445
000360 fa 46 31 3d 90 e4 68 bd 64 ec 3d 3d cc a8 c9 3c
       0.04328058 -0.0568586 0.046368018 0.024616621
000370 38 43 ac 3c b0 fd d2 bc 62 6b 58 bd 68 8c ef bc
       0.021028146 -0.025755733 -0.052836783 -0.029241756
000380 7c 54 fc bc 14 25 6d bd 5e d4 59 3d 30 9a 37 bd
       -0.030802004 -0.05789669 0.053181045 -0.04482478
000390 10 15 b0 3c a4 50 9b 3c 74 52 59 3d d0 57 20 bd
       0.021494418 0.01895935 0.05305715 -0.039146245
0003a0 80 9d 3c bd f8 86 76 3c 60 f2 47 bc 16 67 03 bd
       -0.04604864 0.0150468275 -0.012203783 -0.032080732
0003b0 7e 28 00 bd 28 e5 3b bd 08 c0 d2 bc 40 c8 a1 3c
       -0.031288616 -0.045872837 -0.025726333 0.019748807
0003c0 60 c3 4c bc d6 87 5b bd 50 4b f6 bc f0 f1 36 bc
       -0.012497753 -0.05359634 -0.030065209 -0.011166081
0003d0 72 2c 23 3d 96 2f 13 bd ba 24 07 3d c0 12 f3 bc
       0.03983731 -0.035934053 0.03299401 -0.029672027
0003e0 ec 53 e4 bc 54 86 6a bd 90 34 b9 bc 00 cc 22 b9
       -0.027872048 -0.05725701 -0.022608072 -0.0001552552
0003f0 cc af a6 bc e8 47 f8 3c 4a 98 7e bd 0a bf 58 bd
       -0.020347498 0.030307725 -0.062156953 -0.052916564

action_head.net.out.bias f4 [196]
000000 ca 0c 1e 3d 1c 39 4f 3d 54 fa 26 bd 10 43 06 bd
       0.038586415 0.050591573 -0.040766075 -0.0327788
000010 84 63 9c 3c 90 8e 86 3c 40 23 76 3c a4 24 ac bc
       0.019090421 0.016425401 0.015023053 -0.021013565
000020 58 b1 0d bc 8c dc 8c 3c f6 0b 5c bd c2 ff 50 3d
       -0.008648239 0.017195009 -0.053722344 0.05102516
000030 e8 83 5f bd ae ec 44 bd 36 b0 54 bd c8 6b bb bc
       -0.054569155 -0.048077278 -0.05192586 -0.022878543
000040 aa b2 54 bd 20 a9 86 3c 28 71 af bc 5c ed a7 bc
       -0.0519282 0.016438067 -0.021416262 -0.020498924
000050 58 f0 75 bd 54 5a 56 bd f8 2e 4f bc da 2d 1a bd
       -0.060043663 -0.052332237 -0.012645476 -0.037641384
000060 00 ae 4d ba 18 a4 92 3c 36 36 7a bd 58 1d 12 bd
       -0.00078460574 0.017900512 -0.061086856 -0.035672516
000070 a0 28 a7 bb 50 ff 19 bc 74 b9 c2 3c 18 7a 9f bc
       -0.0051012784 -0.00939925 0.023770072 -0.019467399
000080 a2 23 20 3d 98 e6 a6 bc 10 09 45 bd b0 38 3c bc
       0.039096482 -0.020373628 -0.048104346 -0.011488125
000090 ac 0c 62 bd 4c 27 d9 3c b0 20 07 bc ae 4c 11 bd
       -0.055187866 0.026507996 -0.008247539 -0.035473518
0000a0 98 cf 65 3d 42 83 76 3d dc b9 88 bc fc 10 03 bd
       0.05610618 0.06018377 -0.016690187 -0.03199862
0000b0 a0 e2 db 3b 0a a2 5d bd aa 4a 18 3d 56 ac 05 3d
       0.0067103654 -0.05410961 0.03718058 0.032635055
0000c0 3a 7d 55 bd 04 99 c1 bc 4c 1b 14 3d f6 85 50 3d
       -0.05212138 -0.023632534 0.036158845 0.050909005
0000d0 d4 2a d6 bc 20 f0 28 bb a8 81 c5 3c 38 6e f7 bc
       -0.026143469 -0.0025777891 0.024109676 -0.030203924
0000e0 c4 29 56 bd 48 5e 2a 3c 20 4f ac bc dc d8 16 3d
       -0.052285925 0.010398455 -0.021033823 0.036827907
0000f0 a6 60 0e bd d6 e0 3f bd 06 d2 06 3d 94 7e 72 bd
       -0.03476014 -0.04684528 0.032915138 -0.059202746
000100 80 58 d8 3c 76 04 62 3d 10 b8 5c bd 50 ea 7c bd
       0.026409388 0.055180036 -0.053886473 -0.061746895
000110 9c 85 0e bd f8 93 5b bc e0 eb 2b 3d 90 6f 1b 3d
       -0.03479539 -0.013401978 0.041972995 0.03794819
000120 e0 30 56 3c 18 79 40 bd 30 57 19 bc a4 85 72 bd
       0.013073176 -0.046990484 -0.009359166 -0.05920948
000130 40 95 c0 3a 74 27 8e 3c dc 85 95 bc d4 57 85 bc
       0.0014692917 0.017352797 -0.018252306 -0.016277231
000140 04 bb c2 bc b8 ae 4b bc d0 7c 4a bd 00 71 42 bc
       -0.023770817 -0.012431793 -0.049435437 -0.011867762
000150 5a 70 25 bd 24 56 40 bd 26 b1 6c 3d a8 77 18 3c
       -0.04039035 -0.04695715 0.05778613 0.009305872
000160 4c d3 76 bd 9c f4 fb bc b0 22 d9 3b 3a 94 4b 3d
       -0.060260102 -0.030756287 0.0066264495 0.049701907
000170 90 42 88 3c a8 af bc bc b6 09 18 bd cc 0b 24 3d
       0.016633302 -0.023032978 -0.037118636 0.040050313
000180 56 5e 12 3d ca 36 29 3d b4 cf e3 3c dc 05 7e bd
       0.035734497 0.041312017 0.027809002 -0.062017307
000190 e6 f8 10 bd 60 6e ef bb 3a 78 41 bd ae df 3c bd
       -0.035393618 -0.007306859 -0.047233798 -0.046111755
0001a0 70 77 dc 3c c0 9b 93 3a 4a 5b 1f bd f0 09 9c bb
       0.026912421 0.0011261627 -0.03890542 -0.004761927
0001b0 80 fa 6a 3b 5c 39 97 bc 00 ed 0f bc 3a e0 5e 3d
       0.0035854876 -0.018459968 -0.008784533 0.054413058
0001c0 e0 85 65 bb 96 3c 2c 3d 22 95 4c 3d 60 d4 72 bd
       -0.0035022423 0.042049967 0.04994691 -0.059284568
0001d0 7c d2 44 3d b8 16 7a bd 7e dd 19 3d 88 8e be bc
       0.048052296 -0.061056823 0.037564747 -0.023261324
0001e0 2a c0 28 bd 00 42 64 ba 18 6b 67 bd 8c 30 6d 3d
       -0.041198887 -0.00087073445 -0.056498617 0.057907626
0001f0 e6 72 57 3d d8 2f 61 3d 2c 4f 5c bd 00 80 3f 3b
       0.05259981 0.054977268 -0.05378644 0.002922058
000200 a4 2b 7b bd 1c 2c b4 bc 18 be d6 3c e2 54 42 3d
       -0.061320916 -0.02199369 0.02621369 0.04744423
000210 c0 30 ca 3b 7e 81 7e 3d 80 28 3f bd 98 f2 88 bc
       0.0061703622 0.062135212 -0.046669483 -0.01671724
000220 70 aa 86 bc b6 09 3d bd b4 73 d3 bc 3e 05 70 3d
       -0.016438693 -0.04615184 -0.025812007 0.05859875
000230 b0 b3 df bb 18 c7 64 3d c0 75 6c bc 2c c2 c6 bc
       -0.0068268403 0.055853933 -0.014432371 -0.02426251
000240 14 46 06 bd cc cb cb bc 48 af 54 3d c0 aa 47 3b
       -0.032781675 -0.024877451 0.051924974 0.0030466765
000250 9c 1f 95 3c c8 c7 fa 3c 4e e5 70 bd 2a c5 6e 3d
       0.01820355 0.030612841 -0.058812432 0.0582935
000260 c8 f2 2e 3c 00 34 0b bc 84 7b 4a 3d 80 79 53 ba
       0.010678001 -0.0084962845 0.0494342 -0.0008067116
000270 78 1b 14 bc 18 10 7f 3c 40 18 19 bc 92 c7 17 bd
       -0.009039752 0.015567802 -0.009344161 -0.03705556
000280 90 fd 00 bc 94 42 95 bc 30 d3 a6 bc 38 64 55 3d
       -0.007872954 -0.018220223 -0.020364374 0.05209753
000290 96 22 64 bd f0 65 95 3c 00 a5 46 ba a4 db 38 bd
       -0.055697046 0.018237084 -0.00075776875 -0.04513134
0002a0 30 ab 81 3b 20 c3 09 bb f0 1d ad 3b 20 18 98 3b
       0.0039571747 -0.0021020845 0.00528311 0.004641548
0002b0 70 a0 d8 3c e0 24 4d bc c8 a2 5b bc ac 0c b8 3c
       0.02644369 -0.012520999 -0.013405509 0.02246698
0002c0 ba 0e 4e 3d f4 bf 96 bc da b0 63 3d 9a 08 02 3d
       0.050307013 -0.018402077 0.05558858 0.031746484
0002d0 b4 fe 9e bc 00 ad f8 3a c4 a4 7d bd c0 27 f2 ba
       -0.019408561 0.0018972456 -0.06192471 -0.0018474981
0002e0 98 64 94 bc be 32 01 3d 00 59 e8 bc 00 d0 9c 39
       -0.018114373 0.031542532 -0.028362751 0.0002990961
0002f0 c8 62 31 bc 38 32 56 bd 60 b4 e1 3b 20 25 b2 bc
       -0.010826774 -0.052293986 0.0068879575 -0.021746218
000300 dc 6e 01 3d 80 c6 b8 3b e0 64 21 3d 6c cf e1 bc
       0.031599864 0.0056388974 0.039402843 -0.027564727
