models/pdqn/working.pt (torch, 814136 bytes, 12 tensors)

base.em.weight f4 [14, 1]
0.0 174.24663 145.59474 171.50928 -174.55882 -180.31506 -163.38628 -165.06487
-171.48409 -169.8481 -163.90945 -131.5992 165.267 140.98273
00000000: 0000 0000 233f 2e43 4198 1143 6082 2b43
00000010: 0f8f 2ec3 a850 34c3 e362 23c3 9b10 25c3
00000020: ed7b 2bc3 1dd9 29c3 d2e8 23c3 6599 03c3
00000030: 5a44 2543 94fb 0c43

out.weight f4 [196, 256]
0.45181122 0.012064009 0.028414343 0.43339762 0.009208161 0.29760218 -0.29679635 0.28969783
0.45573026 -0.03438907 0.62345773 0.6641938 0.067892134 -0.12393432 0.0235612 0.6616911
-0.17053808 0.59947485 0.50228834 -0.5167759 -0.1796576 0.060233746 0.19456424 0.17282301
-0.00015937528 -0.32820445 -0.2780597 -0.31584626 0.11851692 -0.17871809 0.534251 0.25365025
0.054555543 -0.3652784 -0.15509652 -0.565106 0.04847137 -0.17934942 0.594216 0.09116887
-0.20493397 -0.27176043 -0.34992915 0.05062071 -0.24414255 -0.024586946 0.1258055 -0.10833871
-0.07446893 -0.08591865 -0.5763507 0.19991295 0.16818908 -0.3296471 0.09949436 0.001146971
0.35420296 0.099606484 0.42929786 -0.0060871462 -0.073921956 0.06280741 -0.41190132 -0.27125856
0.37045425 0.065375656 0.29629016 -0.03609104 0.29602882 0.6965463 0.18758707 0.09238746
0.20808002 -0.5302519 -0.4122147 -0.53719187 0.2900315 -0.30349633 0.00597313 0.28252795
0.16197039 0.07642191 0.36630666 -0.018348321 1.8352611 -0.21675403 0.49960998 0.27018383
-0.1733616 -0.25501707 0.25674662 0.2155822 -0.19547378 0.12421961 -0.27221885 -0.105063066
-0.031407803 -0.06369711 0.20002404 -0.4880899 0.14719667 -0.1003826 0.2081541 0.3778759
-0.12174035 -0.39527878 -0.19626366 -0.20325771 -0.18886937 -0.088745214 0.11181604 -0.28054816
-0.36713576 -0.53210783 0.63076866 0.06998396 0.08634522 -0.12405551 -0.07238117 0.40865907
-0.31043848 -0.3183817 -0.16902098 -0.1463635 -0.018891692 -0.41237614 -0.0066952556 -0.66096556
0.56491065 -0.28707746 0.275107 -0.30497977 0.5774132 0.19819193 -0.08721423 0.09658388
-0.36455947 -0.005483613 -0.07407472 -0.15117005 0.49947348 -0.11488829 -0.17921093 -0.4944141
-0.19919121 -0.28643167 0.00018758138 -0.20384452 0.44316587 0.16236384 0.16956201 -0.10157627
0.092339374 -0.32151958 0.06647404 0.445857 -0.052686878 0.21497022 -0.32963666 -0.00487933
-0.016730243 0.5975014 -0.020013168 0.30655265 0.4067826 0.3441842 0.72344846 -0.69464636
-0.32445425 1.1092312 -0.81056106 0.2430845 0.4303775 0.06648876 0.8305731 0.9553608
-0.04604192 0.16487217 0.25601062 0.44477916 -0.14451836 -0.50308156 0.27149206 -0.23476548
0.2796586 0.025984704 0.20248976 0.44692364 0.16120696 0.13260175 0.14271916 0.07236089
-0.5045014 -0.17364596 0.1808367 -0.046068806 0.11484302 -0.25930253 0.58691126 0.3737013
0.009850637 0.096138805 0.54351014 0.5825929 0.286935 -0.0014375668 0.33799112 0.29428205
0.40033025 0.16996576 -0.32714942 0.4803698 -0.094041474 0.22217612 -0.5831214 -0.55049473
-0.06548645 0.079004556 0.06168821 -0.20724857 -0.05895694 0.10922443 -0.41509756 0.1902052
-0.015604847 -0.014763502 0.4613664 0.7255576 -0.40024534 -0.20838058 0.080337375 0.35003507
-0.1873906 -0.24341603 0.72676384 0.115039974 -0.41112554 -0.08693782 -0.053856455 -0.14783964
-0.16149719 0.2786384 0.085060775 0.14591074 0.08880742 0.51256835 -0.10184722 -0.099470675
0.6377198 -0.12847757 -0.25062886 -0.2417761 -0.21949579 0.11612711 0.14339681 -0.5574175
00000000: cd53 e73e 1fa8 453c 32c5 e83c 4be6 dd3e
00000010: d4dd 163c 505f 983e b1f5 97be 4653 943e
00000020: 7a55 e93e 8edb 0cbd ed9a 1f3f 9b08 2a3f
00000030: 080b 8b3d 47d1 fdbd 6b03 c13c 9764 293f
00000040: 89a1 2ebe 2f77 193f f895 003f 6d4b 04bf
00000050: 29f8 37be a9b7 763d d93b 473e 84f8 303e
00000060: fa1d 27b9 6a0a a8be d75d 8ebe 9ab6 a1be
00000070: 00b9 f23d e001 37be acc4 083f 72de 813e
00000080: a275 5f3d c505 bbbe 9fd1 1ebe c9aa 10bf
00000090: ea89 463d 60a7 37be 8a1e 183f bfb6 ba3d
000000a0: 36da 51be 2f24 8bbe ea29 b3be a957 4f3d
000000b0: 8100 7abe 906a c9bc 28d3 003e b0e0 ddbd
000000c0: 2b83 98bd 1ef6 afbd b88b 13bf fbb5 4c3e
000000d0: c239 2c3e 81c7 a8be b3c3 cb3d f655 963a
000000e0: 175a b53e 7cfe cb3d eecc db3e af76 c7bb
000000f0: 6564 97bd 2ca1 803d bbe4 d2be 67e2 8abe
00000100: 2eac bd3e ace3 853d 58b3 973e 33d4 13bd
00000110: 1791 973e dc50 323f d316 403e a335 bd3d
00000120: ee12 553e 97be 07bf ce0d d3be 6885 09bf
00000130: 027f 943e df63 9bbe 3fba c33b 81a7 903e
00000140: 91db 253e 1783 9c3d 8c8c bb3e 384f 96bc
00000150: d6e9 ea3f c5f4 5dbe e1cc ff3e 8955 8a3e
00000160: b485 31be 9991 82be 4b74 833e 95c1 5c3e
00000170: 472a 48be da66 fe3d 4560 8bbe 4e2b d7bd
00000180: 78a5 00bd a173 82bd 1ad3 4c3e ebe6 f9be
00000190: b9ba 163e 6595 cdbd 5926 553e f378 c13e
000001a0: 0153 f9bd fb61 cabe 57f9 48be ca22 50be
000001b0: f966 41be 0dc0 b5bd cfff e43d 02a4 8fbe
000001c0: 38f9 bbbe 3838 08bf 0e7a 213f c053 8f3d
000001d0: c3d5 b03d d110 febd 943c 94bd c33b d13e
000001e0: cbf1 9ebe ed02 a3be d613 2dbe 50e0 15be
000001f0: c0c2 9abc f722 d3be e063 dbbb 0a35 29bf
00000200: fc9d 103f d1fb 92be d3da 8c3e 4f26 9cbe
00000210: 5ad1 133f d3f2 4a3e 609d b2bd c5cd c53d
00000220: 8aa7 babe e1af b3bb 7db4 97bd 52cc 1abe
00000230: fdba ff3e 8d4a ebbd 1283 37be d823 fdbe
00000240: c8f8 4bbe 2ca7 92be 7eb1 4439 9ebc 50be
00000250: a3e6 e23e b542 263e aaa1 2d3e 3807 d0bd
00000260: 6d1c bd3d 379e a4be 8b23 883d 5e47 e43e
00000270: 32ce 57bd 2721 5c3e 23c6 a8be c9e2 9fbb
00000280: dd0d 89bc daf5 183f a8f2 a3bc 78f4 9c3e
00000290: cf45 d03e e938 b03e eb33 393f 58d4 31bf
000002a0: de1e a6be 4afb 8d3f ee80 4fbf 25eb 783e
000002b0: 715a dc3e 422b 883d 70a0 543f 8692 743f
000002c0: 7496 3cbd 40d4 283e d313 833e 18ba e33e
000002d0: 9ffc 13be f4c9 00bf 0201 8b3e 5d66 70be
000002e0: 692f 8f3e e0dd d43c 7a59 4f3e 2dd3 e43e
000002f0: 7013 253e c1c8 073e f924 123e f231 943d
00000300: 0127 01bf 3fd0 31be 422d 393e a5b2 3cbd
00000310: d132 eb3d 4dc3 84be d13f 163f c755 bf3e
00000320: 9164 213c 6ce4 c43d 7b23 0b3f cf24 153f
00000330: 25e9 923e bd6c bcba 2c0d ad3e 23ac 963e
00000340: 16f8 cc3e 810b 2e3e 2180 a7be 08f3 f53e
00000350: d198 c0bd 2382 633e 7247 15bf 39ed 0cbf
00000360: c31d 86bd 24cd a13d c7ac 7c3d f838 54be
00000370: d57c 71bd 0fb1 df3d ab87 d4be 27c5 423e
00000380: 79ab 7fbc 9ee2 71bc 3738 ec3e 25be 393f
00000390: f5ec ccbe b861 55be ec87 a43d cc37 b33e
000003a0: 52e3 3fbe 0d42 79be 320d 3a3f 149a eb3d
000003b0: 0c7f d2be 750c b2bd 9698 5cbd 4663 17be
000003c0: 855f 25be b1a9 8e3e 5834 ae3d a069 153e
000003d0: aae0 b53d ae37 033f 4695 d0bd 48b7 cbbd
000003e0: 9b41 233f a08f 03be 6d52 80be 2794 77be
000003f0: 81c3 60be 0dd4 ed3d 9dd6 123e eab2 0ebf

out.bias f4 [196]
-0.71696764 46.01669 53.08975 48.374416 43.959763 34.179028 32.92623 32.36684
26.923964 38.611046 42.44834 20.100157 30.068775 33.731567 36.16583 -0.06207931
57.283535 44.849537 41.599407 44.615334 58.649025 37.21398 41.684917 31.29145
33.326935 24.621885 29.295538 30.245712 44.05119 40.87106 0.0145997405 48.550777
48.586006 49.86489 40.333168 35.210266 32.069115 37.54705 31.030785 41.83774
31.191456 31.656416 50.680058 51.27751 51.75335 0.008078359 37.77115 40.985565
34.97415 44.74356 36.883495 24.976496 32.853935 30.661871 36.849354 34.836075
38.758125 37.793697 47.37755 45.034092 -0.033630505 38.02475 40.24372 32.75132
36.536964 32.96341 27.323586 33.9619 29.70715 29.652699 36.78427 38.564087
45.215435 43.268845 49.08911 -0.06148161 39.411224 47.266693 37.040157 37.943977
32.191326 28.592615 33.2739 28.223818 44.742516 49.353977 41.389378 35.358616
31.411137 39.48933 0.0317431 30.28207 27.05769 34.400806 28.6315 21.876434
27.42343 30.912361 42.020874 36.445988 29.865553 37.121124 26.513649 40.628788
27.392502 -0.004925221 36.503246 35.484734 36.156307 27.56979 29.215338 29.027916
34.3438 35.819767 34.182884 36.56883 28.245926 29.92496 32.16917 34.25292
0.05679372 33.05201 35.688892 37.65886 27.32018 30.755371 32.59855 28.064299
31.764177 29.030615 25.833727 28.669867 20.605865 27.96672 32.77684 0.021416262
31.384176 37.651894 33.950165 31.767246 29.628368 29.688004 28.317135 30.062975
32.540543 28.083874 31.212362 27.616987 33.629684 30.540707 0.048590675 32.369488
28.789509 20.431213 22.44105 38.284744 24.385656 26.413542 27.053957 18.62915
26.976591 26.443401 24.720856 25.30049 26.143097 0.060228013 28.67443 31.045723
-0.017823048 -0.0412744 -0.030063972 0.030233204 -0.04443302 -0.035868317 -0.0004723817 0.038502865
0.029512137 -0.00029381365 -0.04930698 0.005912602 0.018502802 28.458696 0.009585053 -0.011664659
-0.060861222 0.0098379105 0.018720686 0.0099925175 0.016749904 0.04432843 -0.0028317273 0.018080436
-0.043729305 0.019649483 18.63727 -0.019970417
00000000: 318b 37bf 1711 3842 e75b 5442 677f 4142
00000010: ccd6 2f42 53b7 0842 76b4 0342 a577 0142
00000020: 4764 d741 b671 1a42 1acb 2942 1fcd a041
00000030: da8c f041 20ed 0642 cfa9 1042 e046 7ebd
00000040: 5722 6542 ed65 3342 cb65 2642 1a76 3242
00000050: 9a98 6a42 1edb 1442 5bbd 2642 e454 fa41
00000060: c84e 0542 9ff9 c441 435d ea41 38f7 f141
00000070: 6b34 3042 f77b 2342 c033 6f3c ff33 4242
00000080: 1258 4242 a675 4742 2a55 2142 50d7 0c42
00000090: c646 0042 2e30 1642 0c3f f841 d959 2742
000000a0: 1a88 f941 5740 fd41 61b8 4a42 2c1c 4d42
000000b0: 6e03 4f42 185b 043c a815 1742 38f1 2342
000000c0: 88e5 0b42 68f9 3242 b388 1342 ddcf c741
000000d0: 6e6a 0342 834b f541 bd65 1342 2458 0b42
000000e0: 5208 1b42 bf2c 1742 9c82 3d42 e922 3442
000000f0: 24c0 09bd 5819 1842 92f9 2042 5a01 0342
00000100: da25 1242 88da 0342 b496 da41 fcd8 0742
00000110: 3ea8 ed41 ba38 ed41 1823 1342 a041 1a42
00000120: 9bdc 3442 4c13 2d42 405b 4442 24d4 7bbd
00000130: 18a5 1d42 1811 3d42 1f29 1442 a2c6 1742
00000140: ebc3 0042 adbd e441 7918 0542 61ca e141
00000150: 56f8 3242 796a 4542 b98e 2542 396f 0d42
00000160: 024a fb41 13f5 1d42 0e05 023d ae41 f241
00000170: 2676 d841 6d9a 0942 500d e541 f002 af41
00000180: 2f63 db41 844c f741 6015 2842 b1c8 1142
00000190: a7ec ee41 087c 1442 f41b d441 e183 2242
000001a0: d823 db41 c063 a1bb 5303 1242 5ef0 0d42
000001b0: 0fa0 1042 ee8e dc41 03b9 e941 2c39 e841
000001c0: 0d60 0942 7147 0f42 46bb 0842 7b46 1242
000001d0: a8f7 e141 5166 ef41 3bad 0042 fd02 0942
000001e0: 88a0 683d 4235 0442 6dc1 0e42 aca2 1642
000001f0: bb8f da41 000b f641 ea64 0242 af83 e041
00000200: 091d fe41 b33e e841 79ab ce41 e35b e541
00000210: d0d8 a441 d8bb df41 7c1b 0342 2871 af3c
00000220: cb12 fb41 8a9b 1642 f8cc 0742 5223 fe41
00000230: e606 ed41 0881 ed41 7e89 e241 f980 f041
00000240: 8429 0242 c6ab e041 ebb2 f941 97ef dc41
00000250: cc84 0642 5e53 f441 0407 473d 5b7a 0142
00000260: ea50 e641 2073 a341 4587 b341 9423 1942
00000270: d315 c341 ef4e d341 816e d841 8008 9541
00000280: 0fd0 d741 168c d341 50c4 c541 6767 ca41
00000290: 1025 d141 a6b1 763d 3c65 e541 a45d f841
000002a0: a401 92bc 580f 29bd b848 f6bc a0ab f73c
000002b0: 66ff 35bd a8ea 12bd 00aa f7b9 2eb5 1d3d
000002c0: 70c3 f13c 000b 9ab9 1ef6 49bd 80be c13b
000002d0: 3093 973c 69ab e341 a00a 1d3c 201d 3fbc
000002e0: 9e49 79bd 302f 213c 205c 993c a8b7 233c
000002f0: 1837 893c ba91 353d 8094 39bb 6c1d 943c
00000300: 801d 33bd f4f7 a03c 2119 9541 0099 a3bc

base.em.weight f4 [14, 1]
0.0 173.98444 145.39532 171.24544 -174.31541 -180.05313 -163.10287 -164.85315
-171.30197 -169.60718 -163.70665 -131.43365 165.03926 140.80241
00000000: 0000 0000 04fc 2d43 3465 1143 d53e 2b43
00000010: bf50 2ec3 9a0d 34c3 561a 23c3 68da 24c3
00000020: 4e4d 2bc3 709b 29c3 e7b4 23c3 046f 03c3
00000030: 0d0a 2543 6bcd 0c43

out.weight f4 [196, 256]
0.38409358 -0.034460936 0.028414343 0.36154118 0.009208161 0.27173313 -0.3345468 0.28969783
0.45573026 -0.03438907 0.62345773 0.57949287 0.015902938 -0.17907985 0.0235612 0.6741181
-0.15629332 0.6090258 0.46179003 -0.5369272 -0.22864346 0.060233746 0.15053307 0.119738504
-0.02874108 -0.31860387 -0.30924448 -0.31584626 0.107133664 -0.20161533 0.534251 0.20272928
0.019615792 -0.44417703 -0.20348091 -0.565106 -0.0007415894 -0.21672496 0.594216 0.00407057
-0.20493397 -0.26008734 -0.34525278 0.05062071 -0.27992025 -0.10968863 0.099462 -0.11557643
-0.11210027 -0.097892195 -0.5763507 0.15211882 0.16818908 -0.41288126 0.09960519 0.001146971
0.35420296 0.099606484 0.40088955 -0.0030227466 -0.07935642 -0.026685743 -0.47344473 -0.33476162
0.37045425 -0.02362608 0.29629016 -0.03609104 0.21720414 0.6965463 0.18758707 0.084227614
0.117231265 -0.5291468 -0.40316236 -0.53719187 0.2900315 -0.3370112 -0.060420964 0.28252795
0.1445424 0.0059734443 0.3855515 -0.018348321 1.8352611 -0.28194284 0.49960998 0.27018383
-0.1733616 -0.32508034 0.23543002 0.22512388 -0.22957633 0.08437756 -0.34047234 -0.105063066
-0.031405617 -0.13712072 0.145234 -0.4880899 0.06580837 -0.1003826 0.2081541 0.3462764
-0.1169715 -0.39527878 -0.18555728 -0.25344104 -0.21318665 -0.088745214 0.043291125 -0.31174752
-0.35358208 -0.5269934 0.6353675 0.016380493 0.052021164 -0.12405551 -0.07238117 0.4142291
-0.35924914 -0.3183817 -0.19810131 -0.1463635 -0.018891692 -0.40784577 -0.064133115 -0.7277499
0.56491065 -0.28707746 0.21777299 -0.2873441 0.49720827 0.19819193 -0.0811249 0.09658388
-0.37310448 -0.014055078 -0.05751901 -0.22620541 0.49947348 -0.11488829 -0.21603519 -0.5501372
-0.18088698 -0.30820087 0.0080154305 -0.24314314 0.44316587 0.14653988 0.1659178 -0.15011603
0.092339374 -0.3106838 0.06647404 0.39566818 -0.052686878 0.21497022 -0.32941633 -0.08177549
-0.07268211 0.5371168 -0.010675144 0.22593679 0.4067826 0.3441842 0.6580426 -0.6758217
-0.34331897 1.1092312 -0.81056106 0.24871385 0.39472687 0.06803247 0.77431834 0.9553608
-0.11491833 0.09354242 0.1969257 0.44477916 -0.14856134 -0.55460113 0.27149206 -0.23231557
0.20648013 0.016967492 0.1802386 0.4330197 0.16120696 0.13260175 0.11515018 0.047380503
-0.49088183 -0.22310351 0.18883155 -0.08727962 0.11484302 -0.324624 0.58691126 0.30898267
0.009850637 0.054704037 0.54351014 0.54459715 0.30548808 -0.06035932 0.3022074 0.29428205
0.40033025 0.16996576 -0.4082366 0.4803698 -0.11465742 0.19973688 -0.5793049 -0.55049473
-0.10059733 0.079004556 0.009944502 -0.2848693 -0.114284 0.10922443 -0.41775474 0.18956035
-0.015604847 -0.06485393 0.47895744 0.7255576 -0.40024534 -0.20838058 0.080337375 0.2868094
-0.17083977 -0.33229074 0.72676384 0.115039974 -0.4316318 -0.07517835 -0.11928074 -0.21565479
-0.18567306 0.2786384 0.08781345 0.16154091 0.107274026 0.5189052 -0.18865366 -0.08116381
0.6377198 -0.12847757 -0.25228116 -0.23694508 -0.21949579 0.07029991 0.10112048 -0.60764366
00000000: eaa7 c43e e926 0dbd 32c5 e83c ed1b b93e
00000010: d4dd 163c 9b20 8b3e b849 abbe 4653 943e
00000020: 7a55 e93e 8edb 0cbd ed9a 1f3f a559 143f
00000030: e146 823c b560 37be 6b03 c13c 0193 2c3f
00000040: 5b0b 20be 1de9 1b3f be6f ec3e 1074 09bf
00000050: 8321 6abe a9b7 763d 5725 1a3e 7639 f53d
00000060: 6a72 ebbc 0c20 a3be 4b55 9ebe 9ab6 a1be
00000070: e568 db3d 4074 4ebe acc4 083f 4498 4f3e
00000080: 4cb1 a03c 2c6b e3be 4d5d 50be c9aa 10bf
00000090: 3967 42ba 26ed 5dbe 8a1e 183f 6b62 853b
000000a0: 36da 51be 2b2a 85be f9c4 b0be a957 4f3d
000000b0: b551 8fbe 6fa4 e0bd bcb2 cb3d 56b3 ecbd
000000c0: d494 e5bd b47b c8bd b88b 13bf 09c5 1b3e
000000d0: c239 2c3e 2c65 d3be cefd cb3d f655 963a
000000e0: 175a b53e 7cfe cb3d 6541 cd3e 4619 46bb
000000f0: 9e85 a2bd 0f9c dabc 5967 f2be e065 abbe
00000100: 2eac bd3e 7b8b c1bc 58b3 973e 33d4 13bd
00000110: c36a 5e3e dc50 323f d316 403e 877f ac3d
00000120: f216 f03d 2a76 07bf 4c6b cebe 6885 09bf
00000130: 027f 943e bb8c acbe f97b 77bd 81a7 903e
00000140: ec02 143e e2bc c33b 0267 c53e 384f 96bc
00000150: d6e9 ea3f d05a 90be e1cc ff3e 8955 8a3e
00000160: b485 31be ee70 a6be 9114 713e e086 663e
00000170: 0f16 6bbe 24ce ac3d 6452 aebe 4e2b d7bd
00000180: 2da3 00bd 6069 0cbe 39b8 143e ebe6 f9be
00000190: 8ac6 863d 6595 cdbd 5926 553e 244b b13e
000001a0: c18e efbd fb61 cabe ba02 3ebe 06c3 81be
000001b0: 9a4d 5abe 0dc0 b5bd 0952 313d 5f9d 9fbe
000001c0: b608 b5be 0ae9 06bf 72a7 223f 6230 863c
000001d0: 2514 553d d110 febd 943c 94bd d615 d43e
000001e0: 81ef b7be ed02 a3be 12db 4abe 50e0 15be
000001f0: c0c2 9abc 29d1 d0be 3958 83bd d14d 3abf
00000200: fc9d 103f d1fb 92be e2ff 5e3e c41e 93be
00000210: 1592 fe3e d3f2 4a3e d024 a6bd c5cd c53d
00000220: 8d07 bfbe 4547 66bc 0e99 6bbd 64a2 67be
00000230: fdba ff3e 8d4a ebbd 5438 5dbe cbd5 0cbf
00000240: 703a 39be 81cc 9dbe 2753 033c 84fa 78be
00000250: a3e6 e23e 8d0e 163e 5be6 293e 04b8 19be
00000260: 6d1c bd3d f211 9fbe 8b23 883d 0595 ca3e
00000270: 32ce 57bd 2721 5c3e 42a9 a8be e879 a7bd
00000280: 5cda 94bd 7d80 093f cde6 2ebc f95b 673e
00000290: cf45 d03e e938 b03e 7b75 283f a702 2dbf
000002a0: 81c7 afbe 4afb 8d3f ee80 4fbf d8ae 7e3e
000002b0: a419 ca3e 9c54 8b3d ba39 463f 8692 743f
000002c0: 4d5a ebbd 2b93 bf3d e4a6 493e 18ba e33e
000002d0: 7720 18be 57fa 0dbf 0201 8b3e 22e4 6dbe
000002e0: 876f 533e 69ff 8a3c 7890 383e c2b4 dd3e
000002f0: 7013 253e c1c8 073e dcd3 eb3d 0f12 423d
00000300: dd54 fbbe 3f75 64be 0f5d 413e a8bf b2bd
00000310: d132 eb3d 1e35 a6be d13f 163f fa32 9e3e
00000320: 9164 213c 5711 603d 7b23 0b3f b86a 0b3f
00000330: ef68 9c3e 563b 77bd eeba 9a3e 23ac 963e
00000340: 16f8 cc3e 810b 2e3e 6304 d1be 08f3 f53e
00000350: 82d1 eabd d387 4c3e 534d 14bf 39ed 0cbf
00000360: f905 cebd 24cd a13d 44ee 223c 64da 91be
00000370: bb0d eabd 0fb1 df3d f3e3 d5be 1c1c 423e
00000380: 79ab 7fbc 23d2 84bd e939 f53e 25be 393f
00000390: f5ec ccbe b861 55be ec87 a43d afd8 923e
000003a0: 9ff0 2ebe 0322 aabe 320d 3a3f 149a eb3d
000003b0: d8fe dcbe 1bf7 99bd 7649 f4bd 9cd4 5cbe
000003c0: 1421 3ebe b1a9 8e3e 8ad7 b33d fb6a 253e
000003d0: 7cb2 db3d f9d6 043f 6d2e 41be 3639 a6bd
000003e0: 9b41 233f a08f 03be ff2a 81be bba1 72be
000003f0: 81c3 60be 66f9 8f3d 4118 cf3d 898e 1bbf

out.bias f4 [196]
-0.7538339 45.940403 53.07841 48.33852 43.86045 34.14756 32.90901 32.4346
26.97306 38.47707 42.40488 20.074173 30.025867 33.609665 36.12431 -0.06207931
57.159653 44.81224 41.66268 44.4733 58.62064 37.161537 41.62322 31.291866
33.29273 24.488556 29.203 30.245667 44.008747 40.815434 0.0145997405 48.563274
48.46779 49.797028 40.36392 35.100735 32.036476 37.43431 30.99098 41.77265
31.116478 31.690893 50.690025 51.152824 51.668343 0.008078359 37.720737 40.94181
34.921432 44.692684 36.872437 24.934837 32.852943 30.877102 36.803467 34.75927
38.670563 37.64634 47.271523 44.939907 -0.033630505 38.005764 40.358227 32.687885
36.709854 32.916397 27.2504 33.90307 29.69889 29.588465 36.714905 38.46758
45.312576 43.22464 49.103508 -0.06148161 39.51949 47.226448 37.056107 37.903946
32.190716 28.52639 33.201614 28.22371 44.687523 49.243298 41.39034 35.382893
31.476274 39.64522 0.0317431 30.288603 27.06635 34.418983 28.66949 21.811895
27.34437 30.91116 41.956547 36.412987 29.834135 37.131966 26.486622 40.617336
27.38169 -0.004925221 36.380352 35.50496 36.187645 27.466076 29.140985 29.058092
34.275345 35.775204 34.117435 36.648426 28.232203 29.901312 31.98588 34.186558
0.05679372 32.868206 35.741814 37.633488 27.302797 30.7449 32.545162 28.064299
31.603313 29.052414 25.833727 28.674122 20.557535 27.968077 32.655704 0.021416262
31.380932 37.703 33.91983 31.75964 29.628368 29.639044 28.305517 30.028862
32.401684 28.05742 31.242315 27.55774 33.77349 30.47162 0.048590675 32.33128
28.737091 20.423286 22.439718 38.284744 24.305761 26.416166 27.053957 18.62915
26.890257 26.409367 24.665113 25.300158 26.143097 0.060228013 28.673937 31.04307
-0.017823048 -0.0412744 -0.030063972 0.030233204 -0.04443302 -0.035868317 -0.0004723817 0.038502865
0.029512137 -0.00029381365 -0.04930698 0.005912602 0.018502802 28.458696 0.009585053 -0.011664659
-0.060861222 0.0098379105 0.018720686 0.0099925175 0.016749904 0.04432843 -0.0028317273 0.018080436
-0.043729305 0.019649483 18.63727 -0.019970417
00000000: 42fb 40bf f9c2 3742 4b50 5442 a55a 4142
00000010: 1a71 2f42 1a97 0842 d4a2 0342 08bd 0142
00000020: d4c8 d741 85e8 1942 999e 2942 e897 a041
00000030: fa34 f041 4c70 0642 4b7f 1042 e046 7ebd
00000040: 7ca3 6442 bc3f 3342 96a6 2642 a9e4 3142
00000050: 897b 6a42 6aa5 1442 2d7e 2642 be55 fa41
00000060: c12b 0542 90e8 c341 be9f e941 20f7 f141
00000070: f508 3042 0143 2342 c033 6f3c cb40 4242
00000080: 04df 4142 2830 4742 a774 2142 2767 0c42
00000090: 5a25 0042 bcbc 1542 87ed f741 3217 2742
000000a0: 8cee f841 f386 fd41 96c2 4a42 7e9c 4c42
000000b0: 62ac 4e42 185b 043c 09e2 1642 6ac4 2342
000000c0: 8caf 0b42 4fc5 3242 607d 1342 8c7a c741
000000d0: 6a69 0342 4e04 f741 c036 1342 7e09 0b42
000000e0: a8ae 1a42 da95 1642 0a16 3d42 77c2 3342
000000f0: 24c0 09bd e705 1842 d36e 2142 65c0 0242
00000100: e4d6 1242 64aa 0342 d200 da41 be9c 0742
00000110: 5497 ed41 2db5 ec41 10dc 1242 cdde 1942
00000120: 1440 3542 08e6 2c42 fe69 4442 24d4 7bbd
00000130: f513 1e42 e2e7 3c42 7439 1442 a49d 1742
00000140: 4bc3 0042 0c36 e441 74ce 0442 28ca e141
00000150: 06c0 3242 23f9 4442 b58f 2542 1588 0d42
00000160: 69cf fb41 b594 1e42 0e05 023d 0f4f f241
00000170: e387 d841 0aad 0942 1e5b e541 c37e ae41
00000180: 45c1 da41 0e4a f741 81d3 2742 e6a6 1142
00000190: 4fac ee41 2287 1442 9ae4 d341 2778 2242
000001a0: b30d db41 c063 a1bb 7b85 1142 1405 0e42
000001b0: 26c0 1042 86ba db41 bd20 e941 f976 e841
000001c0: f419 0942 cf19 0f42 4178 0842 fd97 1242
000001d0: 8ddb e141 e335 ef41 15e3 ff41 09bf 0842
000001e0: 88a0 683d 0b79 0342 9ef7 0e42 b188 1642
000001f0: 216c da41 8ef5 f541 3f2e 0242 af83 e041
00000200: 96d3 fc41 586b e841 79ab ce41 9a64 e541
00000210: d575 a441 9fbe df41 719f 0242 2871 af3c
00000220: 260c fb41 dfcf 1642 e8ad 0742 be13 fe41
00000230: e606 ed41 c31c ed41 b371 e241 1c3b f041
00000240: 539b 0142 9975 e041 43f0 f941 4076 dc41
00000250: 0e18 0742 e1c5 f341 0407 473d 3b53 0142
00000260: 90e5 e541 e462 a341 8b84 b341 9423 1942
00000270: 3372 c241 4f54 d341 816e d841 8008 9541
00000280: 3f1f d741 6246 d341 2752 c541 b966 ca41
00000290: 1025 d141 a6b1 763d 3964 e541 3558 f841
000002a0: a401 92bc 580f 29bd b848 f6bc a0ab f73c
000002b0: 66ff 35bd a8ea 12bd 00aa f7b9 2eb5 1d3d
000002c0: 70c3 f13c 000b 9ab9 1ef6 49bd 80be c13b
000002d0: 3093 973c 69ab e341 a00a 1d3c 201d 3fbc
000002e0: 9e49 79bd 302f 213c 205c 993c a8b7 233c
000002f0: 1837 893c ba91 353d 8094 39bb 6c1d 943c
00000300: 801d 33bd f4f7 a03c 2119 9541 0099 a3bc

exp_avg f4 [14, 1]
0.0 -698.0514 -162.09314 -383.64203 354.60214 436.25253 423.54465 228.2606
223.50926 275.51962 215.07845 135.49225 -176.06114 -78.69375
00000000: 0000 0000 4a83 2ec4 d817 22c3 2ed2 bfc3
00000010: 134d b143 5320 da43 b7c5 d343 b742 6443
00000020: 5f82 5f43 83c2 8943 1514 5743 047e 0743
00000030: a70f 30c3 3363 9dc2

exp_avg_sq f4 [14, 1]
0.0 696828.6 68253.016 176265.45 205471.38 268280.4 227297.84 112855.76
138507.8 117404.375 95320.71 38550.406 51146.668 14433.472
00000000: 0000 0000 ca1f 2a49 824e 8547 5d22 2c48
00000010: d8a7 4848 0dff 8248 76f8 5d48 e16b dc47
00000020: f342 0748 304e e547 5b2c ba47 6896 1647
00000030: abca 4747 e385 6146

exp_avg f4 [196, 256]
-0.18207131 -0.05387871 1.3547192e-22 -0.3326704 2.5765909e-22 -0.13261822 -0.112011954 6e-45
-6e-45 9.321338e-22 6e-45 -0.124802336 -0.2004501 -0.34521553 1.0626961e-21 -0.013444211
-0.0034259232 -0.017867155 -0.08296159 -0.09656623 -0.06871118 1.8e-44 -0.36012307 -0.16291764
-0.110809535 -0.020891221 -0.29223996 4.8e-44 -0.17696683 -0.27106652 -6e-45 -0.20178083
-0.40975586 -0.123059906 -0.58161217 6e-45 -0.19356784 -0.05759557 6e-45 -0.14089094
-6e-45 -0.04540951 -0.0025749092 4e-44 -0.068830356 -0.3413406 -0.23405224 -0.07624824
-0.115833595 -0.08730472 2.2e-44 -0.17467985 6e-45 -0.18669179 -7.1494986e-05 1.1860468e-21
5.015869e-22 3.5254434e-22 -0.035873964 -0.03981146 -0.045995448 -0.09905144 -0.24415734 -0.37010598
1.2595148e-22 -0.25924867 1.7893741e-22 -6e-45 -0.20049246 1.9942383e-22 5.3409463e-22 -0.015549986
-0.056116436 -0.0012189136 -0.03033421 1.1618338e-22 -6e-45 -0.039803654 -0.3442199 3.9908486e-22
-0.26384026 -0.09049337 -0.019340122 0.0 6e-45 -0.1745964 -6e-45 6e-45
-6e-45 -0.21166977 -0.14744137 -0.004579889 -0.15021916 -0.35063174 -0.07306786 1.5e-44
-8.76923e-06 -0.14353225 -0.19316144 1.6581004e-22 -0.09024102 -6e-45 9.558936e-22 -0.1510068
-0.0120114945 6e-45 -0.015064131 -0.42778662 -0.3327528 6e-45 -0.057989646 -0.15850842
-0.017959153 -0.00852851 -0.006586571 -0.43022698 -0.42398593 1.3e-44 6e-45 -0.008924899
-0.11832287 3.164632e-22 -0.22789319 5.128289e-22 8.026714e-22 -0.007880302 -0.061345976 -0.35762832
-6e-45 1.5693874e-22 -0.08875464 -0.042939037 -0.29776025 6e-45 -0.065178275 6e-45
-0.12888572 -0.020706557 -0.024011075 -0.06675411 6e-45 6e-45 -0.25029203 -0.25478303
-0.011159509 -0.08237891 -0.012622801 -0.15524411 -6e-45 -0.030976875 -0.03198156 -0.2367746
6e-45 -0.055933908 6e-45 -0.2513426 -6e-45 -6e-45 -0.05153396 -0.13928084
-0.23033819 -0.20821129 -0.010163341 -0.31145877 -6e-45 2.6779067e-23 -0.10409604 -0.0118885515
-0.053530898 7e-45 6e-45 -0.005406668 -0.16466331 -0.00053063314 -0.31267697 -6e-45
-0.21305309 -0.24578449 -0.25100243 -6e-45 -0.06088558 -0.19653164 -6e-45 -0.0028312013
-0.31880927 -0.03682553 -0.0127593605 -0.11931419 6e-45 1.0240063e-21 -0.0541829 -0.07712773
-0.05593533 -0.19113357 -0.05475441 -0.06761752 -6e-45 -0.2131506 -6e-45 -0.37518448
-6e-45 -0.06789451 -6e-45 -0.15227295 -0.005211121 -0.16739258 -0.07659494 -6e-45
-6e-45 1.5e-44 -0.53994167 1.3482279e-21 -0.043304063 -0.013539309 -0.00954508 4.609412e-22
-0.23652159 5.753472e-22 -0.3805444 -0.053832557 -0.46307403 2.5e-44 -0.042520847 -0.04806169
1.3613448e-21 -0.21888034 -0.02499202 -6e-45 3.1e-44 3.1e-44 2.422172e-22 -0.28827587
-0.016826862 -0.2233307 -6e-45 1.0696245e-22 -0.12387908 -0.010470319 -0.27410465 -0.25383314
-0.18464199 6.101266e-22 -0.00506744 -0.0016965605 -0.014646335 -0.00987051 -0.040796313 -0.01215252
-6e-45 4.6634564e-22 -0.09606615 -0.008599021 -6e-45 -0.18356198 -0.08456024 -0.25095168
00000000: e770 3abe ecaf 5cbd 87c6 231b c653 aabe
00000010: d0be 9b1b 12cd 07be 8666 e5bd 0400 0000
00000020: 0400 0080 2edc 8c1c 0400 0000 5e98 ffbd
00000030: ca42 4dbe 17c0 b0be 1097 a01c 1c45 5cbc
00000040: 7485 60bb 245e 92bc c4e7 a9bd 84c4 c5bd
00000050: 72b8 8cbd 0d00 0000 0d62 b8be e2d3 26be
00000060: 1cf0 e2bd 1124 abbc 7aa0 95be 2200 0000
00000070: cb36 35be 3bc9 8abe 0400 0080 a29f 4ebe
00000080: 85cb d1be d506 fcbd 89e4 14bf 0400 0000
00000090: a636 46be 55e9 6bbd 0400 0000 b745 10be
000000a0: 0400 0080 53ff 39bd cfbf 28bb 1d00 0000
000000b0: eef6 8cbd 32c4 aebe 64ab 6fbe 0a28 9cbd
000000c0: 2a3a edbd d1cc b2bd 1000 0000 46df 32be
000000d0: 0400 0000 222c 3fbe 94ef 95b8 f73a b31c
000000e0: 6898 171c 9819 d51b 94f0 12bd 5711 23bd
000000f0: b965 3cbd 7bdb cabd 6204 7abe 887e bdbe
00000100: 1844 181b 3ebc 84be 7252 581b 0400 0080
00000110: e54d 4dbe b016 711b 926b 211c 5ec5 7ebc
00000120: 59da 65bd f4c3 9fba 737f f8bc 0475 0c1b
00000130: 0400 0080 2809 23bd 973d b0be 643b f11b
00000140: 1216 87be 9754 b9bd 2d6f 9ebc 0000 0000
00000150: 0400 0000 66c9 32be 0400 0080 0400 0000
00000160: 0400 0080 f6bf 58be dffa 16be e512 96bb
00000170: 0dd3 19be 0186 b3be 9aa4 95bd 0b00 0000
00000180: 8e1f 13b7 1efa 12be 1dcc 45be b973 481b
00000190: 49d0 b8bd 0400 0080 5873 901c 87a1 1abe
000001a0: dccb 44bc 0400 0000 8bcf 76bc d906 dbbe
000001b0: 935e aabe 0400 0000 8d86 6dbd 0850 22be
000001c0: 131f 93bc 2abb 0bbc 2ad4 d7bb b646 dcbe
000001d0: af14 d9be 0900 0000 0400 0000 bd39 12bc
000001e0: 4353 f2bd 4f4a bf1b d55c 69be 37fe 1a1c
000001f0: b197 721c 621c 01bc eb45 7bbd 0f1b b7be
00000200: 0400 0080 30ba 3d1b fec4 b5bd d8e0 2fbd
00000210: 0874 98be 0400 0000 307c 85bd 0400 0000
00000220: 9efa 03be cca0 a9bc e0b2 c4bc 61b6 88bd
00000230: 0400 0000 0400 0000 4726 80be ec72 82be
00000240: 60d6 36bc 46b6 a8bd ddcf 4ebc 50f8 1ebe
00000250: 0400 0080 37c3 fdbc 19ff 02bd 0a75 72be
00000260: 0400 0000 f41a 65bd 0400 0000 faaf 80be
00000270: 0400 0080 0400 0080 4615 53bd a39f 0ebe
00000280: c6dd 6bbe 5735 55be 2484 26bc 8677 9fbe
00000290: 0400 0080 e17e 011a 4e30 d5bd 33c8 42bc
000002a0: 3743 5bbd 0500 0000 0400 0000 6b2a b1bb
000002b0: 809d 28be 301a 0bba 3217 a0be 0400 0080
000002c0: 972a 5abe eeae 7bbe 6483 80be 0400 0080
000002d0: 2863 79bd 973f 49be 0400 0080 ad8b 39bb
000002e0: f83a a3be 5ed6 16bd a30c 51bc ff5a f4bd
000002f0: 0400 0000 53be 9a1c e3ee 5dbd 25f5 9dbd
00000300: 721c 65bd 85b8 43be 2946 60bd 0e7b 8abd
00000310: 0400 0080 2744 5abe 0400 0080 2e18 c0be
00000320: 0400 0080 470c 8bbd 0400 0080 71ed 1bbe
00000330: 0dc2 aabb f668 2bbe cfdd 9cbd 0400 0080
00000340: 0400 0080 0b00 0000 9e39 0abf 0abd cb1c
00000350: 9a5f 31bd fad3 5dbc f862 1cbc 994f 0b1c
00000360: b732 72be 55e3 2d1c b7d6 c2be 877f 5cbd
00000370: 0a18 edbe 1200 0000 572a 2ebd 56dc 44bd
00000380: 7ab8 cd1c 2b22 60be 11bc ccbc 0400 0080
00000390: 1600 0000 1600 0000 4c69 921b e598 93be
000003a0: 7dd8 89bc ceb0 64be 0400 0080 464f 011b
000003b0: 51b4 fdbd b38b 2bbc 7257 8cbe 6bf6 81be
000003c0: ca12 3dbe 4266 381c c50c a6bb 205f deba
000003d0: 2ef7 6fbc ebb7 21bc 091a 27bd 5d1b 47bc
000003e0: 0400 0080 bff1 0c1c 54be c4bd e8e2 0cbc
000003f0: 0400 0080 acf7 3bbe eb2d adbd bd7c 80be

exp_avg_sq f4 [196, 256]
0.13691056 0.023958936 0.046389 0.32964662 0.048188664 0.13586716 0.10077175 2.0365842e-07
0.001181922 0.12855281 0.015143056 0.043348595 0.29700255 0.45796445 0.015963454 0.044909675
0.0022418455 0.13423254 0.083849296 0.27322632 0.039308555 0.14926805 0.6652167 0.18817805
0.13000458 0.18136004 0.75910497 0.024908887 0.50518215 0.62290555 0.00041869274 0.17498825
1.0118223 0.048580237 1.5615132 1.3231584e-05 0.21919267 0.04745 8.137614e-09 0.05224204
1.2863265e-13 0.5801486 0.0115715675 0.060111046 0.07172522 0.32121512 0.36906767 0.2705644
0.1893293 0.26081902 0.016350182 0.12451998 5.6759163e-11 0.10045362 0.014988353 0.018646697
0.025489224 0.0033056934 0.031866293 0.15271814 0.20172726 0.024456372 0.1912335 0.67851794
0.06465895 0.16938701 0.0054492448 0.016330225 0.11395319 0.32110825 0.15073039 0.07258577
0.0076167816 0.045699485 0.43102357 0.0012214473 4.0680837e-23 0.024383489 0.34347373 0.0013353764
0.9115587 0.032955844 0.038813904 0.0 0.0074613905 0.14328928 0.0063958666 9.504415e-10
0.008302157 0.14842075 0.37678918 0.008876659 0.3617687 0.63654995 0.022890948 0.11187614
0.16288014 0.07632071 0.17831653 0.00027676654 0.024548665 0.0430546 0.011117918 0.4563442
0.2421771 1.115802e-06 0.075976014 0.74476486 1.0772196 7.362685e-22 0.014304562 0.1586445
0.067339845 0.10665152 0.01316914 0.7295507 1.4401674 0.030895779 1.1781771e-10 0.098183975
0.117408745 0.15847364 0.4792124 0.18600546 0.059877045 0.11595892 0.02278771 0.43552652
1.6290304e-08 0.08062857 0.047873806 0.22758597 0.2223639 0.05590561 0.20009285 0.097373575
0.3591029 0.11662207 0.080804095 0.012809926 0.04418524 1.7594601e-09 0.36813098 0.40204707
0.014289357 0.16194457 0.099858604 0.2744072 0.0039274096 0.07658322 0.12083086 0.21898583
9.15252e-09 0.19515674 1.370278e-07 0.28233448 0.0152983945 0.02037366 0.10212908 0.065517336
0.21142174 0.16124704 0.045353018 0.26693356 3.594632e-10 6.286883e-06 0.050596435 0.012590591
0.11699448 0.09108112 3.3068784e-05 0.035472404 0.13842757 0.0041065 0.40037945 0.000817722
0.13372566 0.23713873 0.36052573 6.530513e-05 0.124253325 0.19314262 0.00015381096 0.050927464
0.37906498 0.071704276 0.0065717883 0.1462646 0.01170463 0.20576814 0.07657122 0.19050545
0.4121748 0.19793293 0.14904295 0.0537922 3.124236e-12 0.21268614 3.516707e-05 0.41203618
0.000808253 0.05364961 0.0045682867 0.11619259 0.0030087396 0.16123374 0.04268996 0.00078657386
1.3713792e-09 0.00012928624 0.79968065 0.1102103 0.083714664 0.0072755152 0.2407935 0.15650894
0.41794354 0.024860604 1.001967 0.008609622 0.95171386 0.016478427 0.317914 0.18822506
0.016579175 0.22960407 0.07750205 0.0012236893 0.018506013 0.014927415 0.027836196 0.33308768
0.039663736 0.12606551 0.0001770128 0.030915288 0.22726178 0.030387808 0.35062256 0.24199656
0.3971363 0.010608031 0.13128576 0.00045235726 0.024168136 0.09293426 0.004409686 0.0169533
0.0028623235 0.02161879 0.38809448 0.12148954 1.9747634e-07 0.28475782 0.07994175 0.2645717
00000000: 4832 0c3e 8845 c43c 6402 3e3d 71c7 a83e
00000010: 7a61 453d c320 0b3e 6b61 ce3d 33ad 5a34
00000020: b9ea 9a3a 59a3 033e 951a 783c 4c8e 313d
00000030: b810 983e 517a ea3e cac5 823c 35f3 373d
00000040: edeb 123b 4174 093e 2eb9 ab3d 52e4 8b3e
00000050: 0202 213d b9d9 183e a44b 2a3f bfb1 403e
00000060: ec1f 053e 72b6 393e b454 423f b90d cc3c
00000070: 9e53 013f bd76 1f3f fd83 db39 1f30 333e
00000080: 6583 813f 12fc 463d aadf c73f 38fd 5d37
00000090: 0b74 603e ee5a 423d 9bcd 0b32 c0fb 553d
000000a0: d6d3 102a 9e84 143f ac96 3d3c 0037 763d
000000b0: ace4 923d 4f76 a43e 70f6 bc3e 6b87 8a3e
000000c0: 8adf 413e 128a 853e d1f0 853c 5504 ff3d
000000d0: 23a1 792e a1ba cd3d b591 753c f5c0 983c
000000e0: c7ce d03c 55a4 583b 3b86 023d 2562 1c3e
000000f0: 9791 4e3e bb58 c83c b7d2 433e 5ab3 2d3f
00000100: e96b 843d ca73 2d3e 948f b23b f7c6 853c
00000110: 4a60 e93d 4d68 a43e 1159 1a3e d9a7 943d
00000120: 3296 f93b 622f 3b3d 1faf dc3e f818 a03a
00000130: 70b8 441a e2bf c73c cadb af3e cc07 af3a
00000140: e95b 693f b5fc 063d 54fb 1e3d 0000 0000
00000150: ae7e f43b 6dba 123e 6b94 d13b b0a0 8230
00000160: c505 083c 9cfb 173e 83ea c03e 686f 113c
00000170: bf39 b93e f0f4 223f cc85 bb3c 511f e53d
00000180: 0dca 263e 084e 9c3d 9c98 363e fa1a 9139
00000190: 481a c93c 055a 303d ee27 363c f2a5 e93e
000001a0: 46fd 773e aac2 9535 5099 9b3d e9a8 3e3f
000001b0: 55e2 893f 0486 5e1c ae5d 6a3c b473 223e
000001c0: 79e9 893d 1d6c da3d 60c3 573c d6c3 3a3f
000001d0: 6857 b83f 2519 fd3c bd8a 012f ae14 c93d
000001e0: ff73 f03d ea46 223e 545b f53e 3778 3e3e
000001f0: a241 753d df7b ed3d 4bad ba3c 55fd de3e
00000200: c2ee 8b32 9720 a53d 5317 443d 4c0c 693e
00000210: 5db3 633e 48fd 643d 24e5 4c3e cc6b c73d
00000220: 56dc b73e 8dd7 ee3d 9e7c a53d b9e0 513c
00000230: 95fb 343d 80d1 f130 aa7b bc3e 1dd9 cd3e
00000240: e81d 6a3c ccd4 253e ab82 cc3d 1a7f 8c3e
00000250: 80b1 803b aad7 9c3d 2c76 f73d d23d 603e
00000260: 353d 1d32 2bd7 473e ea21 1334 258e 903e
00000270: 1ea6 7a3c a9e6 a63c 0d29 d13d f42d 863d
00000280: f17e 583e f21d 253e 16c4 393d 84ab 883e
00000290: f39d c52f eaf3 d236 353e 4f3d c448 4e3c
000002a0: cd9a ef3d bd88 ba3d 56b3 0a38 834b 113d
000002b0: f5bf 0d3e d28f 863b 89fe cc3e 655c 563a
000002c0: 61ef 083e 7fd4 723e d496 b83e 6df4 8838
000002d0: 8778 fe3d 2ec7 453e 5148 2139 5199 503d
000002e0: ce14 c23e b1d9 923d 2858 d73b 63c6 153e
000002f0: c7c4 3f3c e2b4 523e 5fd1 9c3d dc13 433e
00000300: 9308 d33e eeae 4a3e b79e 183e 3655 5c3d
00000310: 3bd9 5b2c 65ca 593e 5b80 1338 68f6 d23e
00000320: f1e0 533a b2bf 5b3d 91b1 953b 61f6 ed3d
00000330: 462e 453b 751a 253e abdb 2e3d 1432 4e3a
00000340: 1e7b bc30 0391 0739 dfb7 4c3f f0b5 e13d
00000350: 9872 ab3d 7267 ee3b 9292 763e e143 203e
00000360: b2fc d53e 77a8 cb3c 7440 803f 5f0f 0d3c
00000370: 85a3 733f c4fd 863c a0c5 a23e 12be 403e
00000380: 0dd1 873c 541d 6b3e 65b9 9e3d 3364 a03a
00000390: ec99 973c 1e92 743c bc08 e43c 788a aa3e
000003a0: 7176 223d 5117 013e 839c 3939 0f42 fd3c
000003b0: 50b7 683e daef f83c cd84 b33e f2cd 773e
000003c0: 7355 cb3e 4fcd 2d3c c66f 063e 5d2a ed39
000003d0: 41fc c53c 5154 be3d 217f 903b a6e1 8a3c
000003e0: d295 3b3b e419 b13c 52b4 c63e 82cf f83d
000003f0: e209 5434 c7cb 913e 80b8 a33d f175 873e

exp_avg f4 [196]
-0.0063663973 -0.13599148 -0.087857634 -0.034382965 -0.3183906 -0.008447877 -0.15485299 0.13320243
0.032479875 -0.23238456 -0.013997207 -0.07055011 -0.011647114 -0.008375296 -0.057597157 0.0
-0.36475283 -0.1694511 0.21615033 -0.2805647 -0.19584662 -0.0010988157 -0.08635907 -0.07576285
0.009674461 -0.20283017 -0.1075343 -5.067792e-06 -0.3260549 -0.0029108408 0.0 -0.043268636
-0.18185729 -0.2420313 0.09877864 -0.23680034 -0.048251048 -0.07232491 0.002114031 -0.05638596
0.011330563 0.06854888 0.10092633 -0.36667016 -0.10401489 0.0 0.05970496 -0.07136485
-0.13135558 0.17529245 -0.02946832 -0.1267699 -0.0009678008 0.24260046 -0.026318246 -0.059288513
-0.033407837 -0.18997161 -0.3676979 -0.13320178 0.0 0.07885718 0.2476263 -0.06448587
0.20681806 -0.04580946 -0.08299683 -0.027144905 -0.0048825843 -0.021191573 -0.26654404 -0.14461103
0.11780717 -0.07345894 0.015259871 0.0 0.22270311 -0.059495833 -0.012169861 -0.012248839
-0.0004351363 -0.042191606 -0.015782466 -6.603782e-06 0.018052086 -0.30630308 -0.07507035 -0.120200515
0.18838786 0.24133271 0.0 -0.033318643 -0.011426714 0.030219806 0.03863333 -0.021583136
-0.044437423 -0.0035073461 -0.04293626 -0.040986214 -0.017928194 -0.0021038875 -0.05354966 0.004381819
-0.090256535 0.0 -0.10209968 -0.030530585 0.058883686 -0.035225715 -0.089828305 0.0061739804
-0.07439781 -0.040527653 -0.07234099 0.1314903 -0.04559185 -0.040053092 -0.10034478 -0.04833717
0.0 -0.17610559 0.033472277 -0.011225788 -0.036319233 -0.017516507 -0.09662029 -1.757045e-34
-0.18798907 0.028629888 -6e-45 0.041550655 -0.05313308 -0.021026235 -0.08038199 0.0
-0.063763484 0.014833265 -0.026927901 -0.0043884637 -1.9335965e-35 -0.019835547 -0.018907407 -0.019217536
-0.06372758 -0.005611527 -0.013718169 -0.038419355 0.0007685061 -0.034684185 0.0 -0.0049182093
-0.023196932 -0.015395518 -0.001336879 -4.89e-43 -0.047960293 0.00048883486 6e-45 -6e-45
-0.033751573 -0.0076546664 -0.11321489 -0.01099447 1.7344558e-17 0.0 0.0048157224 -0.0063732825
0.0 0.0 0.0 0.0 0.0 0.0 0.0 0.0
0.0 0.0 0.0 0.0 0.0 -1.0987068e-37 0.0 0.0
0.0 0.0 0.0 0.0 0.0 0.0 0.0 0.0
0.0 0.0 6e-45 0.0
00000000: 369d d0bb 5a41 0bbe b4ee b3bd 27d5 0cbd
00000010: 1804 a3be f768 0abc c891 1ebe 3866 083e
00000020: 9e09 053d 38f6 6dbe 8b54 65bc 937c 90bd
00000030: 89d3 3ebc 8a38 09bc ffea 6bbd 0000 0000
00000040: e2c0 babe 9784 2dbe 8356 5d3e 2da6 8fbe
00000050: 048c 48be 2306 90ba 06dd b0bd 8e29 9bbd
00000060: a181 1e3c b6b2 4fbe f13a dcbd 000c aab6
00000070: abf0 a6be cec3 3ebb 0000 0000 743a 31bd
00000080: cc38 3abe 0ed7 77be 754c ca3d ca7b 72be
00000090: e4a2 45bd 151f 94bd 8e8b 0a3b f7f4 66bd
000000a0: d3a3 393c 5b63 8c3d 77b2 ce3d 31bc bbbe
000000b0: c205 d5bd 0000 0000 308d 743d bc27 92bd
000000c0: 1482 06be dd7f 333e 8c67 f1bc f8cf 01be
000000d0: 03b4 7dba 416c 783e 5d99 d7bc 83d8 72bd
000000e0: a8d6 08bd eb87 42be e642 bcbe 0c66 08be
000000f0: 0000 0000 e07f a13d c091 7d3e 2b11 84bd
00000100: 1dc8 533e b3a2 3bbd 3efa a9bd fe5e debc
00000110: 16fe 9fbb f399 adbc 7678 88be ea14 14be
00000120: e344 f13d a471 96bd 8a04 7a3c 0000 0000
00000130: 490c 643e e7b1 73bd 1964 47bc 5baf 48bc
00000140: 0123 e4b9 1bd1 2cbd 3b4a 81bc 0e96 ddb6
00000150: f8e1 933c c2d3 9cbe 7cbe 99bd b02b f6bd
00000160: bfe8 403e ec1f 773e 0000 0000 2179 08bd
00000170: 1d37 3bbc 878f f73c fc3d 1e3d 1ecf b0bc
00000180: 0404 36bd 81db 65bb efdd 2fbd 29e1 27bd
00000190: 26de 92bc 60e1 09bb e356 5bbd 5d95 8f3b
000001a0: 6bd8 b8bd 0000 0000 a319 d1bd 471b fabc
000001b0: 0530 713d d748 10bd e7f7 b7bd 1a4f ca3b
000001c0: e15d 98bd 5300 26bd 8327 94bd 65a5 063e
000001d0: 85be 3abd b60e 24bd 9081 cdbd 32fd 45bd
000001e0: 0000 0000 0655 34be 3a1a 093d 5eec 37bc
000001f0: 7ac3 14bd c77e 8fbc dce0 c5bd 258d 6987
00000200: 3580 40be 3a89 ea3c 0400 0080 0531 2a3d
00000210: 13a2 59bd 363f acbc 509f a4bd 0000 0000
00000220: 6e96 82bd 3907 733c e797 dcbc 1acd 8fbb
00000230: 819d cd85 287e a2bc b5e3 9abc 186e 9dbc
00000240: 9b83 82bd e6e0 b7bb 2cc2 60bc 9d5d 1dbd
00000250: 9275 493a 0111 0ebd 0000 0000 ee28 a1bb
00000260: 7e07 bebc 7c3d 7cbc 373a afba 5d01 0080
00000270: 0372 44bd 2725 003a 0400 0000 0400 0080
00000280: 173f 0abd ffd3 fabb 35dd e7bd 2622 34bc
00000290: aef9 9f23 0000 0000 35cd 9d3b f8d6 d0bb
000002a0: 0000 0000 0000 0000 0000 0000 0000 0000
000002b0: 0000 0000 0000 0000 0000 0000 0000 0000
000002c0: 0000 0000 0000 0000 0000 0000 0000 0000
000002d0: 0000 0000 588c 1582 0000 0000 0000 0000
000002e0: 0000 0000 0000 0000 0000 0000 0000 0000
000002f0: 0000 0000 0000 0000 0000 0000 0000 0000
00000300: 0000 0000 0000 0000 0400 0000 0000 0000

exp_avg_sq f4 [196]
0.0002993762 0.426259 0.57165015 0.52227974 0.6137411 0.3745851 0.32153675 0.08637713
0.3647281 0.37089846 0.16719908 0.20771077 0.0062610554 0.0020609533 0.19634266 0.0
0.6939046 0.5658752 0.18077557 0.3854103 0.65918154 0.09441121 0.07180598 0.28925788
0.00990596 0.18917818 0.17321308 0.007957736 0.335137 0.42174026 0.0 0.31199515
0.64764434 0.33806086 0.42048794 0.28830978 0.14952683 0.11091583 0.05501202 0.024358762
0.010553019 0.024757715 0.3663368 0.5325576 0.27563182 0.0 0.31094527 0.33557767
0.3481324 0.25011393 0.07941597 0.1629237 0.008198898 0.07288823 0.04222399 0.03248413
0.45476624 0.3246502 0.55537844 0.16235939 0.0 0.68774354 0.25058547 0.2890066
0.09670766 0.0789026 0.10046935 0.028032042 0.010264472 0.00942407 0.43992397 0.30116963
0.1687014 0.2532506 0.3204797 0.0 0.17424534 0.10218393 0.04182381 0.24569695
0.0031829725 0.03230236 0.01039948 0.0024649021 0.13117161 0.56724584 0.1354373 0.49388745
0.15780279 0.14589587 0.0 0.050359868 0.11308859 0.24425046 0.3127873 0.0046671373
0.01212968 0.005536612 0.098140664 0.08141278 0.00669869 0.038400028 0.1641072 0.061377827
0.064985484 0.0 0.32305047 0.27285177 0.15960583 0.0067176265 0.14303386 0.004963434
0.23581488 0.06403213 0.11958222 0.09644324 0.09846273 0.03871781 0.068681456 0.14034812
0.0 0.09618166 0.023172174 0.032254793 0.020539332 0.008977099 0.12798847 0.0008335948
0.054038536 0.037245154 0.00019624566 0.08904625 0.025367301 0.044558205 0.047691293 0.0
0.083280906 0.12585199 0.042749614 0.0045582154 0.013036558 0.00853694 0.07746957 0.024343373
0.12522943 0.0028777446 0.10029048 0.12784547 0.05449866 0.033324532 0.0 0.028018454
0.08772196 0.028870512 0.004768468 0.00021676031 0.036657065 0.023183506 5.8918075e-05 1.2152067e-06
0.013151267 0.019349348 0.10663352 0.06310603 0.0013886094 0.0 0.0039862925 0.0039667264
0.0 0.0 0.0 0.0 0.0 0.0 0.0 0.0
0.0 0.0 0.0 0.0 0.0 0.0006205056 0.0 0.0
0.0 0.0 0.0 0.0 0.0 0.0 0.0 0.0
0.0 0.0 8.724626e-09 0.0
00000000: 98f5 9c39 9f3e da3e aa57 123f 20b4 053f
00000010: 231e 1d3f 9ec9 bf3e 77a0 a43e 7ee6 b03d
00000020: a4bd ba3e 67e6 bd3e 3c36 2b3e 22b2 543e
00000030: 8a29 cd3b 0f11 073b 0d0e 493e 0000 0000
00000040: bba3 313f 32dd 103f 3b1d 393e 8054 c53e
00000050: 1fc0 283f aa5a c13d 030f 933d 9c19 943e
00000060: 9c4c 223c edb7 413e c55e 313e 2a61 023c
00000070: 1497 ab3e 57ee d73e 0000 0000 d4bd 9f3e
00000080: 05cc 253f 5016 ad3e 324a d73e 579d 933e
00000090: 901d 193e d727 e33d 4954 613d 078c c73c
000000a0: 92e6 2c3c b1d0 ca3c 7f90 bb3e b255 083f
000000b0: 9d1f 8d3e 0000 0000 3834 9f3e d6d0 ab3e
000000c0: 693e b23e ef0e 803e d7a4 a23d 78d5 263e
000000d0: ac54 063c 6d46 953d 10f3 2c3d 140e 053d
000000e0: 1fd7 e83e 8d38 a63e 482d 0e3f 8a41 263e
000000f0: 0000 0000 f60f 303f bd4c 803e acf8 933e
00000100: aa0e c63d b097 a13d e0c2 cd3d 74a3 e53c
00000110: 512c 283c 6a67 1a3c b73d e13e e832 9a3e
00000120: 0fc0 2c3e 10aa 813e ea15 a43e 0000 0000
00000130: 5f6d 323e cf45 d13d 724f 2b3d fb97 7b3e
00000140: 6b99 503b 7b4f 043d 9562 2a3c 328a 213b
00000150: da51 063e 0637 113f 13b0 0a3e d1de fc3e
00000160: 0e97 213e ba65 153e 0000 0000 2646 4e3d
00000170: fe9a e73d cb1c 7a3e a825 a03e c9ee 983b
00000180: 91bb 463c 786c b53b f9fd c83d bebb a63d
00000190: af80 db3b 5949 1d3d b80b 283e 5167 7b3d
000001a0: 1c17 853d 0000 0000 df66 a53e 3ab3 8b3e
000001b0: b66f 233e 891f dc3b 7877 123e 4da4 a23b
000001c0: 7579 713e 4723 833d 86e7 f43d 0984 c53d
000001d0: d4a6 c93d 9196 1e3d dda8 8c3d 6bb7 0f3e
000001e0: 0000 0000 e4fa c43d 92d3 bd3c 9a1d 043d
000001f0: 1a42 a83c af14 133c 690f 033e 9a85 5a3a
00000200: 8357 5d3d 608e 183d 4bc7 4d39 e15d b63d
00000210: 16cf cf3c aa82 363d f257 433d 0000 0000
00000220: 2e8f aa3d 58df 003e 381a 2f3d 155d 953b
00000230: 4a97 553c 86de 0b3c 5ea8 9e3d c16b c73c
00000240: 253c 003e 8b98 3c3b 1865 cd3d ece9 023e
00000250: fd39 5f3d 4e7f 083d 0000 0000 f586 e53c
00000260: 92a7 b33d da81 ec3c cf40 9c3b 274a 6339
00000270: b825 163d 56eb bd3c cd1e 7738 2f1a a335
00000280: 6978 573c 8682 9e3c ad62 da3d bc3d 813d
00000290: 0002 b63a 0000 0000 729f 823b 50fb 813b
000002a0: 0000 0000 0000 0000 0000 0000 0000 0000
000002b0: 0000 0000 0000 0000 0000 0000 0000 0000
000002c0: 0000 0000 0000 0000 0000 0000 0000 0000
000002d0: 0000 0000 6da9 223a 0000 0000 0000 0000
000002e0: 0000 0000 0000 0000 0000 0000 0000 0000
000002f0: 0000 0000 0000 0000 0000 0000 0000 0000
00000300: 0000 0000 0000 0000 50e3 1532 0000 0000
