models/PolicyGradientAgent/cool_reward_full_data_short_epochs.pt (torch, 273002 bytes, 3 tensors)

net.base.em.weight f4 [14, 1]
000000 00 00 00 00 68 c7 ea 3e 2e a1 4e 3e f6 ce 66 3f
       0.0 0.4585526 0.20178673 0.9015955
000010 c0 d2 ee 3e 86 1b 1e c0 cf 75 ee bf ba 24 7e 3f
       0.46645164 -2.47043 -1.8629702 0.9927479
000020 84 19 12 be 07 da 8d 3f a0 9d f3 bf 1e 8c 8d be
       -0.14267546 1.1082162 -1.9032478 -0.27645963
000030 42 aa 30 be 7b 87 96 bd
       -0.17252448 -0.073500596

net.out.weight f4 [196, 256]
000000 48 20 1f 3c c8 38 16 bc 92 19 4f bd 18 32 64 3c
       0.009712286 -0.009168811 -0.050561495 0.013927959
000010 10 6b bc bc 08 d5 e5 bc 70 a8 d8 bc 74 3d 52 bd
       -0.02300027 -0.028055683 -0.026447505 -0.051328138
000020 ec d8 43 3d fc ea 21 3d 24 67 54 3d b0 00 b4 3b
       0.047814295 0.03953074 0.051856175 0.005493246
000030 38 1a e3 3c 1e 1b 3d bd b4 95 61 bd 28 c0 a4 3c
       0.027722463 -0.04616844 -0.05507441 0.020111158
000040 e4 b3 54 3d 38 00 3e bd 80 28 5f bc f0 ec a2 bc
       0.05192937 -0.046386927 -0.013620496 -0.019888371
000050 b6 50 0b 3d 18 e9 51 bd 20 4c 93 3b 14 22 ff bc
       0.03401252 -0.051247686 0.004495159 -0.03114418
000060 60 eb 55 3b 64 10 d6 3c 4a 8c 18 bd ec 68 6a 3d
       0.0032641515 0.026130863 -0.037243165 0.057228968
000070 40 fc 1c bb 9c 1c 43 3d 3c 92 19 bd 48 c8 4d 3c
       -0.0023954064 0.047634706 -0.037492976 0.012559958
000080 74 da 06 3d 30 d6 2d bc c0 4d 22 bc 00 c8 6d 38
       0.032923177 -0.010610148 -0.009906232 5.6691468e-05
000090 2e f6 08 bd c0 09 cf 3b d4 fc 32 3d 7a 29 43 bd
       -0.0334379 0.006318301 0.043698147 -0.047646977
0000a0 94 ae 06 bd 18 79 8a 3c 38 ba 69 bc 3a 9d 15 bd
       -0.032881334 0.016903445 -0.014265589 -0.036526896
0000b0 06 eb 7c bd 64 22 fd bc b8 01 b7 3c 60 98 5c 3b
       -0.061747573 -0.030900188 0.022339687 0.0033660159
0000c0 e4 07 20 3d cc 94 36 bd 8a f1 04 bd 34 af 26 3d
       0.039070025 -0.044575498 -0.032456912 0.04069443
0000d0 f8 a7 3e 3d 6e 91 5a bd 7c 2f 7a 3d 10 f4 2e bc
       0.046546906 -0.05336135 0.06108044 -0.010678306
0000e0 cc 91 df bc a8 70 ef bc d0 ea e8 3c dc 4b c1 3c
       -0.027291201 -0.029228523 0.02843228 0.023595743
0000f0 86 d5 0f bd f4 20 f4 3c c4 20 4b bd 68 0b 5f 3c
       -0.03511574 0.02980087 -0.049591795 0.013613559
000100 98 a9 20 bc 24 1e 8b bc 7c 37 77 3d 40 50 7e 3b
       -0.009806059 -0.016982146 0.06035565 0.0038805157
000110 04 7a 70 bd 2a a9 27 3d cc ac 9e bc d8 39 74 3d
       -0.058710113 0.04093281 -0.019369505 0.059625477
000120 00 0b 27 3a 18 26 0c 3d 32 96 01 3d c8 d0 84 bc
       0.00063721836 0.034216017 0.031637378 -0.016212836
000130 d4 d8 b2 bc 18 da 03 bd d8 28 f7 3c 72 10 7a 3d
       -0.021831907 -0.032190412 0.030170843 0.06105084
000140 00 72 56 bd 80 7c 8d bb 48 b8 d8 3c 30 51 d0 bc
       -0.052354813 -0.00431782 0.02645506 -0.025429338
000150 68 8c 11 bc 3c 44 a5 bc 6c f2 bb 3c 40 48 3f 3d
       -0.008883573 -0.020174138 0.022942744 0.046699762
000160 66 3d 43 3d c0 f8 b2 3c 58 81 f5 bc ac ba e9 bc
       0.047665976 0.021847129 -0.029968902 -0.028531395
000170 80 c9 86 3c 5e 76 3e bd b8 e4 83 bc 0c 9b a9 bc
       0.016453505 -0.046499602 -0.016100273 -0.020703815
000180 e2 24 74 bd e4 62 35 bd d0 60 94 bc e0 03 83 bc
       -0.059605487 -0.044283763 -0.01811257 -0.015993059
000190 d8 b2 bf bc ca 2f 26 bd ee a2 2d 3d 06 4f 19 3d
       -0.023400709 -0.04057292 0.04239171 0.03742888
0001a0 d8 51 05 bd c0 76 9f bc f0 68 30 3d 10 4a 6b 3c
       -0.032548755 -0.019465804 0.043068826 0.01436092
0001b0 20 5f a9 bb a0 02 da bb c0 9b a9 bb f8 cf 5f bd
       -0.0051688105 -0.006653145 -0.0051760375 -0.054641694
0001c0 6c de f4 3c e8 17 9d bc e0 62 a2 3b 30 50 4c 3d
       0.029891215 -0.019176438 0.0049556345 0.04988116
0001d0 a0 c0 55 3d 10 5d 55 3c f8 da 1c bc a0 91 5e 3c
       0.052185655 0.013022676 -0.009573691 0.013584524
0001e0 86 b6 4d 3d f4 06 4e bd 44 5d 99 bc 88 51 2c 3c
       0.050222896 -0.0502996 -0.01872123 0.010517485
0001f0 bc 24 6f 3d e0 f0 1a bc 34 e7 42 3d 72 02 4f 3d
       0.058384642 -0.009456843 0.047583774 0.05053944
000200 58 d1 f3 3c 2e fa 3f bd aa 9d 35 3d e8 7b 24 3c
       0.029762909 -0.04686945 0.044339813 0.010039307
000210 56 ae 4a bd 32 9d 1a 3d 04 78 d4 bc d0 0f 4a bd
       -0.049482666 0.03774757 -0.025936134 -0.049331486
000220 34 fc 80 bc 70 6a a8 bc 84 ae f9 3c 64 e9 f1 bc
       -0.01574526 -0.020558566 0.030478723 -0.029530235
000230 e4 42 12 3d 40 19 69 bb 84 21 16 3d 10 cb 69 3c
       0.035708323 -0.0035568029 0.036653057 0.014269605
000240 80 61 b3 3a 7c b9 f0 3c ee 2f 67 3d d8 ea 14 3c
       0.0013685673 0.02938532 0.056442194 0.009089194
000250 80 04 a8 ba a2 65 56 bd 4e 6b 70 bd 16 e0 3e 3d
       -0.0012818724 -0.05234302 -0.058696084 0.046600424
000260 c4 65 f9 bc 88 92 53 bc 74 ca c6 bc 10 30 ed 3b
       -0.030444033 -0.012913354 -0.024266459 0.0072383955
000270 10 e5 cc bc 9c 41 e9 bc 4e 5f 49 bd b2 e0 48 bd
       -0.02501157 -0.028473668 -0.049163155 -0.04904241
000280 00 26 c3 bc 80 98 cb 3b 80 02 69 3d 94 41 a3 bc
       -0.02382183 0.006213248 0.05688715 -0.019928731
000290 00 df 17 bd f8 3c 4d bd 90 0b 23 bd 98 a9 30 bc
       -0.037077904 -0.050106972 -0.03980595 -0.010782622
0002a0 76 c4 3e bd d0 04 34 3d 7e 7c 41 bd b2 59 35 3d
       -0.04657408 0.043949902 -0.047237866 0.044274993
0002b0 b0 a8 d0 bc 18 1f 30 bc 00 7d 30 3b 4a b4 6a 3d
       -0.025471061 -0.010749601 0.0026929975 0.057300843
0002c0 b8 6e 36 3c e0 1f f2 bc b4 2a 86 bc 54 5d e0 3c
       0.011134796 -0.029556215 -0.016377784 0.027388252
0002d0 a8 e7 06 3d 06 64 63 3d 10 51 f7 bb 58 da 11 3c
       0.03293577 0.05551531 -0.007547505 0.008902155
0002e0 00 d8 af 39 80 4c d7 3a 92 c7 40 bd b0 98 df 3b
       0.00033539534 0.0016425997 -0.047065325 0.0068236217
0002f0 f6 d5 67 bd ec 76 fd bc 20 0a 04 3c c8 c8 4f bc
       -0.056600533 -0.030940495 0.008059055 -0.012682147
000300 48 e6 63 bd 82 30 6e bd 84 b6 eb bc e0 d4 de bc
       -0.055639535 -0.05815173 -0.028773554 -0.027201116
000310 3e 5d 0f 3d 1a 83 35 bd c0 07 d2 bc 20 a5 2f bd
       0.035001032 -0.04431448 -0.025638461 -0.042882085
000320 98 7a 2c bd 58 15 eb 3c 84 4d 67 3d a8 df e7 bc
       -0.042109102 0.0286967 0.05647041 -0.02830489
000330 b0 d1 55 bd 68 92 c8 3c 58 02 2a 3d 7c bf 79 bd
       -0.052201927 0.024483874 0.04150614 -0.06097363
000340 94 7c c2 bc 30 65 a0 bb b4 4c 6c bd 40 26 a7 bb
       -0.023741044 -0.004894875 -0.057690337 -0.0051009953
000350 80 14 44 ba 60 60 17 3c 7c f1 8c bc a0 92 c1 3b
       -0.00074798614 0.009239286 -0.017204992 0.0059073716
000360 90 8b c5 3b d0 a2 7f bd f4 bb ea bc 94 c3 5d 3d
       0.0060286 -0.06241113 -0.028654076 0.054141596
000370 12 f4 0a 3d 18 5c 0e bd 80 8d c0 3c f4 f1 82 3c
       0.03392417 -0.034755796 0.023504972 0.015984513
000380 e4 aa 8c bc f8 b8 71 3c 98 9f cb 3c 70 2b dc bc
       -0.01717133 0.014753573 0.024856374 -0.026876181
000390 f8 89 48 bd ec 7e aa bc 50 9e 12 bc be ea 56 bd
       -0.048959702 -0.020812474 -0.008948877 -0.05246996
0003a0 00 dd 6a bb 52 c5 7b 3d f0 3e 38 3c 80 c0 fa bc
       -0.0035837293 0.061467476 0.011245474 -0.03060937
0003b0 f4 01 21 3d 20 eb 66 bb f8 c4 c4 3c 00 1b aa 3c
       0.039308503 -0.003523536 0.024019703 0.020764828
0003c0 f6 2f 36 3d 60 85 1a bd 68 b4 aa bc 04 3b c6 bc
       0.044479333 -0.037724853 -0.020837978 -0.024198063
0003d0 68 7e c9 3c 9c 7d 3e bd b4 97 28 3d e0 f1 f7 bc
       0.024596408 -0.04650651 0.0411603 -0.030266702
0003e0 28 b6 2d 3d ea 69 5b 3d 02 ee 53 bd 16 b0 2e bd
       0.042410046 0.053567804 -0.051740654 -0.042648397
0003f0 5c 48 a5 3c 5c df d3 bc e6 b6 3b bd 56 23 2b 3d
       0.020176105 -0.025863342 -0.045828722 0.041781746

net.out.bias f4 [196]
000000 a8 6f 54 3c 0a c4 49 3d 0e 4f 5d bd 88 b7 1e 3c
       0.012966074 0.049259223 -0.05403047 0.009687312
000010 66 1d 61 3d 9a bd 74 3d a6 88 12 bd 14 b2 8f 3c
       0.054959677 0.05975113 -0.03577485 0.017540969
000020 a0 8c 4d 3b 14 fe 1e 3d 80 f1 12 3c 2a c6 25 3d
       0.0031364337 0.038816527 0.008968711 0.040472187
000030 14 eb c9 3c a0 0b f3 3c a2 1b 67 3d 20 5d 7f 3d
       0.024648227 0.02966863 0.056422837 0.06234467
000040 e0 05 b1 3b 68 9c 8e bc 18 20 50 3d f8 12 5f bc
       0.0054023117 -0.017408565 0.050811857 -0.013615362
000050 54 3d 90 bc 60 df 3d bb 14 bf ad bc 6e e2 03 bd
       -0.017607369 -0.0028972253 -0.021209277 -0.032198362
000060 30 d5 32 bd 2c d2 d6 bc 90 db 80 bb 1c 41 1c bd
       -0.043660343 -0.026223265 -0.003932424 -0.03814803
000070 d2 64 40 3d d0 13 71 bd 00 76 08 3b 88 18 81 bc
       0.04697115 -0.058856785 0.0020822287 -0.015758768
000080 2c c2 a5 bc 40 54 43 3c 08 22 9b 3c 40 a1 f0 bb
       -0.02023419 0.011921942 0.018937126 -0.0073434412
000090 46 26 04 3d 74 ee e3 3c b4 79 d5 3c 78 c6 14 3c
       0.032263063 0.027823664 0.02605901 0.009080522
0000a0 38 ed 15 3c a8 15 7c bc 6e d4 5c bd f8 21 1d 3c
       0.009150796 -0.015386023 -0.053913526 0.009590618
0000b0 40 be b8 3c c0 64 61 3b 98 c4 66 3d 58 c3 f8 bc
       0.022551656 0.0034392327 0.05633983 -0.030366585
0000c0 2a 2e 44 3d 9c 95 35 3d 44 18 33 bd 70 8e a7 bb
       0.047895588 0.04433213 -0.043724313 -0.0051134154
0000d0 d2 a3 65 3d 22 a3 3d bd 2a d7 1b bd 70 f4 75 bc
       0.056064434 -0.046298154 -0.038046993 -0.015011892
0000e0 b0 1b a0 3b 30 9c 92 bc 30 ba b7 bb 52 2d 23 3d
       0.004886113 -0.017896742 -0.005606912 0.039838143
0000f0 4e 45 0f bd a6 21 0e 3d 68 4f 50 bc 1c df 39 bd
       -0.034978203 0.03470006 -0.012714244 -0.04537879
000100 32 07 26 3d 1a bf 3d bd a0 8a aa 3c 46 d2 5f 3d
       0.040534206 -0.046324827 0.020818055 0.05464389
000110 24 44 c2 3c 48 45 21 bc 80 82 3b 3b 68 b0 90 bc
       0.023714133 -0.009843178 0.002861172 -0.017662242
000120 64 8d ee 3c da e9 60 3d b0 67 16 bd 00 60 44 bd
       0.029120155 0.05491052 -0.036719978 -0.047943115
000130 16 34 5f 3d 88 ac 39 bc a0 33 66 bd 9c d1 ba 3c
       0.054493032 -0.011332639 -0.056201577 0.022805028
000140 88 27 10 3d ee 40 0d bd 60 11 ba 3b 48 31 2d 3c
       0.03519395 -0.03448575 0.005678341 0.010570832
000150 58 f3 62 3c 30 75 f0 3b fc 8b 4d bd 20 45 67 bd
       0.013851963 0.0073381886 -0.050182328 -0.056462407
000160 88 09 21 3c 00 77 d7 39 5e 77 38 bd 60 91 f1 3b
       0.009828933 0.00041096658 -0.045035712 0.0073720664
000170 20 4e 19 3d 68 f2 a3 3c e8 76 da 3c 90 35 f2 bc
       0.03742802 0.02001305 0.026668027 -0.029566556
000180 8c 6b 59 bd 04 e8 34 3d 54 6b 76 3d 60 2d 9f 3c
       -0.05308108 0.04416658 0.06016095 0.019430816
000190 c0 38 80 3a 42 12 78 3d 14 ba 94 bc 84 a5 e2 3c
       0.0009782538 0.060564287 -0.018155135 0.027666815
0001a0 88 0a ea 3c c4 98 70 bd 8c f8 5a 3d d0 59 74 3d
       0.028569475 -0.05873944 0.05345969 0.059655964
0001b0 40 b2 89 bb c0 c9 c0 3c e4 eb 2c bd 00 fe 84 39
       -0.0042021573 0.023533702 -0.04221715 0.00025366247
0001c0 86 60 59 3d ac 18 b4 bc 04 6d 36 bd 4a 23 2c bd
       0.053070568 -0.02198442 -0.04453756 -0.04202584
0001d0 3c 30 fb bc 98 1f 5f bc e4 9e 57 3d f0 10 08 3c
       -0.030662648 -0.013618372 0.052641764 0.008304819
0001e0 76 21 7a bd 70 ad 09 bc a2 10 6f 3d 40 1e 7d bb
       -0.061067067 -0.008403167 0.05836547 -0.0038622767
0001f0 c0 e4 c2 3a f0 be ca bb 64 85 4e 3d 50 68 59 bd
       0.0014869198 -0.0061873123 0.05042018 -0.053077996
000200 0c 79 bc bc 40 2a 6e 3b 52 5d 5a bd 2c 5e dd 3c
       -0.023006938 0.00363411 -0.053311653 0.027022444
000210 7a 00 6f 3d 54 a7 7f bd 24 69 7c bd 10 b2 79 bd
       0.058350064 -0.062415436 -0.061623707 -0.06096083
000220 fa 8e 42 bd 20 dd 4d bd 2a d9 56 bd aa f0 6d 3d
       -0.047499634 -0.05025971 -0.052453198 0.058090843
000230 e0 a5 2c 3c 1a cb 77 3d 96 7d 22 3d e4 2b cf bc
       0.010537595 0.060496427 0.03967055 -0.025289483
000240 74 9e b6 3c 30 f9 06 3d 60 96 c1 bc c0 2b 44 bb
       0.022292353 0.032952487 -0.023631275 -0.0029933304
000250 60 9f 60 bd b0 d1 71 3d 00 4e bd 3c 10 ad 32 3d
       -0.05483949 0.059037864 0.023108482 0.043622077
000260 c4 9a 81 bc 00 b9 a8 b9 5e ef 1c 3d dc 31 a9 3c
       -0.015820868 -0.00032181293 0.038314216 0.020653658
000270 70 6b 75 3d 80 37 ad bb 80 54 db 3c 48 1f e6 bc
       0.059916914 -0.005286157 0.026773691 -0.028091088
000280 0c 05 64 3d 60 f8 10 bc b4 75 54 3d 80 48 ab 3a
       0.055668876 -0.00884828 0.051870063 0.0013067871
000290 08 7b f1 3c d4 e4 e5 3c 68 42 72 bd 40 1d 45 3c
       0.029477611 0.028063215 -0.05914536 0.0120308995
0002a0 e8 26 83 3c 50 82 7a 3c d4 e7 8b 3c 80 bb 11 ba
       0.016009763 0.015289858 0.017078318 -0.0005559251
0002b0 78 84 a6 3c 9a 9d 6c bd 44 40 40 bd 50 73 3f 3d
       0.020326838 -0.057767488 -0.04693629 0.04674083
0002c0 a2 b9 39 bd 86 94 0e bd b2 36 0f bd 54 e4 ac 3c
       -0.04534305 -0.03480961 -0.03496427 0.02110497
0002d0 64 39 7f bd 96 71 26 3d e0 9d 05 3d e4 36 15 bd
       -0.06231059 0.040635668 0.032621264 -0.0364293
0002e0 b4 1c a3 bc 1e e1 76 bd 6a be 51 bd b0 19 c1 bb
       -0.019911148 -0.060273282 -0.051206984 -0.0058929548
0002f0 68 55 13 3d b8 5e f1 3c f0 73 e6 3c 88 43 cd bc
       0.03597012 0.02946411 0.028131455 -0.025056615
000300 9c aa 41 bd 5c aa 63 3d 1e ff 25 bd ac cb 9d bc
       -0.047281846 0.05558239 -0.0405265 -0.019262157
