models/PolicyGradientAgent/working_full_data.pt (torch, 376405 bytes, 3 tensors)

net.base.em.weight f4 [14, 1]
000000 00 00 00 00 88 35 45 3f 5d 2c ad 3f 1f ba 5d 3e
       0.0 0.7703481 1.3529164 0.21653031
000010 51 9c a7 be 5a f0 66 be ba 14 a3 be 94 56 d5 be
       -0.32736447 -0.22552624 -0.3185175 -0.41667616
000020 ea e8 30 bf 33 84 56 be 47 b5 78 bf ec d6 a2 bf
       -0.691054 -0.20948867 -0.9715161 -1.2721839
000030 65 2c 07 3f 4e f4 e9 3e
       0.52802116 0.45694202

net.out.weight f4 [196, 256]
000000 40 c5 d4 3a 5a 4c 72 3d 72 ad 02 bd 9c e0 ad 3c
       0.0016233101 0.059154846 -0.03190369 0.021225266
000010 ce 77 68 3d 84 07 cd 3c 3a be 20 3d ea 63 26 3d
       0.05675488 0.025027998 0.039243914 0.04062263
000020 f8 bc 1a 3d 98 50 e3 3c aa c8 5e 3d fc 6c 76 3d
       0.03777787 0.027748391 0.054390587 0.06016253
000030 9c a0 ea 3c 88 4d c1 bc 28 47 e4 3c ec 0e 9c 3c
       0.028641038 -0.02359654 0.027865961 0.019050084
000040 58 10 c2 3c 3a c4 72 3d 98 88 34 3c d8 b5 32 bc
       0.023689434 0.059269167 0.011018895 -0.010907613
000050 38 34 e8 3c 8c d5 f6 bc 50 e7 17 bc b0 49 2a bd
       0.028345212 -0.030131124 -0.009271458 -0.04157418
000060 ea f7 12 bd 88 9a 70 3d 40 e1 61 3c 26 f3 66 bd
       -0.03588096 0.058741122 0.013786614 -0.05638423
000070 d0 4d 0a 3c ac c0 b9 bc 64 b5 c5 bc 58 df 95 bc
       0.0084414035 -0.02267488 -0.024134345 -0.018294975
000080 e0 06 21 3b a6 5b 3c bd c8 09 58 3d 6c c8 c4 bc
       0.0024570748 -0.04598584 0.052743703 -0.02402135
000090 58 cc 1a bd d4 8b 49 3d 6a e1 0c 3d 98 59 7c bc
       -0.037792534 0.049205616 0.03439466 -0.01540222
0000a0 0c 75 f1 3c 4e 1e 05 3d 22 0b 40 3d 90 3a d5 3c
       0.029474758 0.032499604 0.046885617 0.026028901
0000b0 bc c2 c5 3c e6 88 1f 3d 86 13 28 bd f4 30 87 bc
       0.024140708 0.038948916 -0.041034244 -0.016502835
0000c0 d8 fa 97 bc 2a 22 5b bd e2 51 5b bd 50 14 09 3d
       -0.018552229 -0.05349938 -0.053544886 0.033466637
0000d0 44 30 f7 bc 4a 43 67 3d 54 b0 6f bd b0 cf 28 3d
       -0.030174382 0.056460656 -0.05851777 0.04121369
0000e0 a8 96 a9 bc 00 19 82 39 d4 d8 63 3d 48 4b 78 bd
       -0.020701721 0.0002481416 0.055626705 -0.06061867
0000f0 d8 93 c2 3c d8 48 0c bc 44 e9 81 bc 54 b6 c9 bc
       0.023752138 -0.008562289 -0.0158583 -0.024623074
000100 b4 e9 0f bd 18 ba 91 bc f2 b2 07 3d 82 6d 20 bd
       -0.035134986 -0.017788932 0.03312964 -0.039166935
000110 f6 96 16 bd 0a 0d 1a bd 8e 5d 09 bd 20 4b 64 bb
       -0.03676506 -0.03761009 -0.033536486 -0.0034834817
000120 a0 51 c5 3c 02 7d 15 3d c8 b8 c8 bc 74 62 1e bd
       0.024086773 0.03649617 -0.024502173 -0.03866811
000130 3c 17 05 3d fc 55 d1 3c 3c 77 d0 3c 58 92 c8 bc
       0.03249286 0.025553696 0.02544748 -0.024483845
000140 62 ef 5a 3d 64 56 b0 bc 10 21 e7 bb 38 4f 96 bc
       0.05345095 -0.02152557 -0.007053502 -0.018348321
000150 4e 8b 72 3d 3c 25 a1 3c 60 2c 6a 3b 70 cf 88 bc
       0.059214883 0.019671075 0.0035732016 -0.016700476
000160 cc 2a d9 bc 04 01 14 3d f0 d7 f3 3c ce 25 3d bd
       -0.026509665 0.03613378 0.029766053 -0.04617863
000170 68 e0 ef bc bc 6b d2 bc ac 4c ba bc ec de ea bc
       -0.02928181 -0.025686137 -0.022741638 -0.02867075
000180 82 ac 35 3d 94 5b fd 3c de 2b 37 3d 94 ef 35 bd
       0.04435397 0.030927457 0.04471957 -0.044417933
000190 a0 8f 06 bc 56 40 18 3d 40 d7 17 bc 6a ed 22 3d
       -0.008212954 0.03717073 -0.009267628 0.039777197
0001a0 fa f7 09 bd 60 a7 c4 bc 40 ad 77 3c 6c 43 37 3d
       -0.033683755 -0.024005592 0.01511699 0.044742033
0001b0 e8 e7 d6 bc b4 c0 f2 3c 38 61 09 bd 9a 75 07 bd
       -0.026233628 0.029632904 -0.03353998 -0.033071138
0001c0 a8 c8 02 bd 60 4f 6b bb 3c 63 f4 3c 90 ce 70 3c
       -0.031929642 -0.0035905465 0.029832475 0.014697686
0001d0 8a 72 79 bd c4 3a e0 bc 78 39 33 bd 38 5c 27 3d
       -0.06090025 -0.027371772 -0.04375598 0.04085943
0001e0 d4 c4 1b 3d f8 4c 47 3d 54 db fe bc d2 a3 38 3d
       0.038029507 0.048657387 -0.031110443 0.045078106
0001f0 12 44 4d 3d 90 fd 9e bb 0e 54 05 bd 4c 9e 25 3d
       0.050113745 -0.0048520043 -0.032550864 0.040434167
000200 c8 e6 4b 3d 40 83 f0 bc 58 d2 67 3c 36 97 35 bd
       0.049780637 -0.02935946 0.014149271 -0.04433366
000210 8a 45 29 3d 8c 73 48 bd 32 86 77 bd ec 64 27 bd
       0.041326083 -0.04893832 -0.060430713 -0.04086773
000220 66 96 3e 3d 38 3d ee bc 40 42 10 3c c2 7f 6c 3d
       0.04653015 -0.029081926 0.008804858 0.057739027
000230 d4 6a 3a 3d c8 ad 4d 3c 08 3f f2 3c 20 4c 2a 3b
       0.045512035 0.01255364 0.029571071 0.0025985315
000240 a4 e2 b3 bc fa 22 1b bd b4 12 64 3d 84 7c 91 bc
       -0.021958657 -0.037875153 0.0556819 -0.017759569
000250 f0 58 a9 bc 38 2a 99 bc 2c 04 cd 3c 1c d1 1c bd
       -0.020672292 -0.01869689 0.025026403 -0.03828536
000260 82 26 22 bd d8 8e 3c bd 72 0e 6e bd 60 f3 a4 bb
       -0.039587505 -0.046034664 -0.058119245 -0.0050338954
000270 98 49 2d bc 96 98 41 3d 8c 61 78 bd 08 6d 74 3c
       -0.010576628 0.047264658 -0.060639903 0.014918573
000280 d8 34 58 3c 5c fa 9e bc 38 5c 74 bc b6 7e 37 3d
       0.013196193 -0.01940649 -0.014914565 0.044798575
000290 6e 53 5a 3d 26 ca 66 bd 38 6d 2a 3d 9a c2 45 bd
       0.05330222 -0.056345128 0.041608065 -0.04828129
0002a0 a4 ef bf bc 40 be 09 3b 56 c3 41 bd 80 1a c3 bc
       -0.0234297 0.002101794 -0.047305427 -0.023816347
0002b0 96 a0 51 bd 08 50 0a bd 98 a6 e1 bc fc 0c 1f bd
       -0.051178537 -0.03376773 -0.027545258 -0.038830742
0002c0 50 02 a8 bb 48 c3 e5 3c 80 d7 86 bb 26 08 6f bd
       -0.005127229 0.028047219 -0.004115045 -0.05835738
0002d0 36 ec 4c 3d a4 a7 17 bd 00 66 1d 3b a0 cb 51 3d
       0.050029956 -0.03702511 0.0024017096 0.051219583
0002e0 60 c0 b4 3c c2 dd 75 3d 60 25 99 3b 20 8e 21 bc
       0.022064388 0.060025938 0.004673645 -0.009860545
0002f0 08 d8 16 3d 3c 84 e4 3c 00 c0 d9 3b e0 0f 6a bd
       0.036827117 0.027895086 0.0066452026 -0.057144046
000300 58 70 59 3c 80 8f 5a 3a 52 56 1c bd b6 aa 28 bd
       0.013271414 0.0008337423 -0.03816826 -0.041178428
000310 20 e9 0c bc 68 4f bd bc 94 1b d3 bc 18 3e 12 3c
       -0.008600503 -0.023109153 -0.025769986 0.008925937
000320 d4 0d cc bc d6 a9 57 bd b0 6a 78 bc 98 49 00 3d
       -0.024908938 -0.052652203 -0.015162155 0.031320184
000330 22 45 1a bd 4c 08 a7 bc 8a 89 14 3d 82 5e 77 bd
       -0.037663586 -0.020389698 0.03626398 -0.060392864
000340 4c 56 13 3d 70 98 f9 3c 02 2d 28 3d 58 03 7e 3d
       0.03597097 0.030468196 0.041058548 0.062014908
000350 b8 13 b7 bc 80 43 ce bb 8c 91 59 bd c2 d9 74 bd
       -0.02234827 -0.0062946677 -0.05311732 -0.059777983
000360 62 a1 2a 3d d8 55 41 3d 20 19 4c 3b 1c 98 c4 bc
       0.041657813 0.047201008 0.0031142905 -0.023998313
000370 4c 4a a3 3c de 76 05 3d c0 23 b1 bc b0 6c 93 bb
       0.019932888 0.032584064 -0.021623492 -0.0044990405
000380 3c 75 56 3d ce 4c 75 bd 80 bf 35 3a 60 c9 5c bc
       0.052357897 -0.0598877 0.0006933138 -0.013475746
000390 c0 2c 04 3d 68 18 6a 3c 48 ad 49 3d bc 00 f5 3c
       0.03226924 0.0142880455 0.04923752 0.029907577
0003a0 fe f8 00 3d c0 5f da 3a 80 7c 8d 3a b6 6a 4b 3d
       0.031487457 0.0016660616 0.001079455 0.049662314
0003b0 c8 3e 53 bd 50 e9 88 3c f0 26 1c 3c e0 0a 7c bc
       -0.051573545 0.016712815 0.009530768 -0.015383452
0003c0 80 8a 15 ba 00 af bd b9 78 b1 9b bc a0 63 bf 3c
       -0.0005704537 -0.00036179274 -0.019005522 0.023362935
0003d0 f0 14 dd 3b 68 26 e2 bc 60 85 4d 3b 3e d3 41 bd
       0.0067468807 -0.027606204 0.0031360015 -0.047320597
0003e0 90 5e 1a bd d8 39 c6 3c 98 4c 3f 3c 90 cb f1 bb
       -0.037687838 0.024197504 0.011675976 -0.007379003
0003f0 94 8c 71 3d ec 00 12 3d 46 43 63 bd 32 49 2d bd
       0.058971956 0.03564541 -0.05548408 -0.042306133

net.out.bias f4 [196]
000000 a0 6e f2 3c c4 ed ee bc a6 23 0c bd a0 c5 ec bb
       0.029593766 -0.02916611 -0.034213684 -0.007225707
000010 ee 5f 28 3d 30 c4 5f bc d8 40 4e bc f0 b0 3a 3d
       0.04110711 -0.013657615 -0.012588702 0.045578897
000020 70 60 e8 3b c0 64 e1 ba 00 de 8b 3b 74 76 d4 bc
       0.0070915744 -0.0017196164 0.004268408 -0.02593539
000030 e4 5f e0 bc d0 d4 ec 3b 80 9e c7 3a e0 46 7e bd
       -0.027389474 0.0072275177 0.0015229732 -0.06207931
000040 66 0c 63 3d 54 d1 a7 3c 24 c3 6e bd f0 40 1a 3c
       0.055431746 0.020485558 -0.05829157 0.009414896
000050 34 43 ff bc 3a 7e 07 3d d4 c5 4f bd f0 b6 ea bb
       -0.031159975 0.033079363 -0.050725773 -0.007162921
000060 f8 89 6a 3d 0e 9e 34 3d 6e 32 05 3d 18 3c e8 3c
       0.057260484 0.044096045 0.032518797 0.028348967
000070 14 74 3d bd f0 16 8e bc c0 33 6f 3c 48 07 c7 3c
       -0.04625328 -0.017344922 0.0145997405 0.024295464
000080 9c c9 da bc e4 47 26 3d 62 bb 4c 3d d4 3e 82 3c
       -0.026707463 0.040595904 0.04998339 0.0158991
000090 36 f5 3c bd 64 d0 d9 3c e2 4e 4e bd 68 20 e9 bc
       -0.04613229 0.026588626 -0.050368197 -0.028457835
0000a0 e4 1e 30 bd b2 fd 45 bd 36 4c 71 3d 2e b2 32 3d
       -0.04299821 -0.048337646 0.05891057 0.043626957
0000b0 56 b4 4f 3d 18 5b 04 3c 06 ce 22 bd 28 86 31 3d
       0.05070909 0.008078359 -0.03974726 0.043340832
0000c0 ec 79 7f 3d 74 51 2f 3d f8 e1 ab bc a4 8f 74 3d
       0.062372133 0.04280229 -0.020981774 0.0597073
0000d0 b6 20 06 3d 7c a1 17 bd d8 98 e2 3c f0 1a 8f 3b
       0.03274604 -0.037019238 0.027660772 0.004367225
0000e0 d8 a4 39 3d 00 63 f3 3b 04 32 16 bd bc 8a 7f bd
       0.045323223 0.007427573 -0.036668792 -0.062388167
0000f0 24 c0 09 bd b8 d2 28 bc 5c dd 6d bd ec 8c 10 3d
       -0.033630505 -0.0103041455 -0.058072433 0.035290644
000100 08 1a 0b bc f4 43 7c 3d d6 30 69 3d 9c 84 15 3d
       -0.008490093 0.061588243 0.05693134 0.03650342
000110 e4 27 d4 3c 60 24 a1 bc 62 d2 51 3d 38 2c 41 bc
       0.025897928 -0.019670665 0.051226027 -0.011790328
000120 f8 5c 64 3d 64 2a f1 bc 52 ef 3a bd 24 d4 7b bd
       0.055752724 -0.029439159 -0.04563839 -0.06148161
000130 da e8 18 bd 58 f5 77 bd d8 57 3e bc 00 54 ee bc
       -0.03733144 -0.060536712 -0.011617623 -0.029092789
000140 ea a3 7c 3d a0 04 72 bd 3c d4 91 bc 30 d3 e9 3c
       0.061679758 -0.059086442 -0.017801397 0.028543085
000150 9e 62 13 3d d4 35 62 3d 2c 1d ff 3c b4 88 f3 3c
       0.03598272 0.055227116 0.03114184 0.029728271
000160 10 29 0e 3c 18 b2 6f 3c 0e 05 02 3d 00 df 1f 3a
       0.008676782 0.014629863 0.0317431 0.0006098598
000170 98 7e 4c bc 02 42 29 3d 52 6b 07 3d 0a cb 23 bd
       -0.012481354 0.041322716 0.033061333 -0.039988555
000180 4a c4 0a 3d 74 a5 a8 bc a4 3b f1 bc 58 89 b2 bc
       0.033878602 -0.020586707 -0.029447384 -0.021794006
000190 06 de 0e bd f0 77 f7 bc 54 48 11 bd 80 7c 04 3b
       -0.034879707 -0.030208558 -0.035469368 0.002021581
0001a0 f0 ba b1 bb c0 63 a1 bb 30 e3 ca bb 80 33 43 3c
       -0.005423896 -0.004925221 -0.0061916336 0.011914134
0001b0 98 f6 3d 3d 40 3e c8 3b 90 11 bb 3c 74 45 a3 bc
       0.04637775 0.0061109364 0.022835523 -0.019930579
0001c0 7e 97 59 3d b2 40 15 bd 92 1e 1d 3d b4 ad 5b bd
       0.05312299 -0.03643865 0.038359232 -0.053632453
0001d0 b4 fc 41 3d 38 54 68 3c a8 b5 7f 3c 40 c6 3c bb
       0.047360137 0.014180236 0.015607275 -0.002880469
0001e0 88 a0 68 3d f8 5f 53 3c de 15 5e 3d 8e 36 0e bd
       0.05679372 0.012901299 0.054220073 -0.034719996
0001f0 7c fe ad bc b8 b9 b2 bc a2 f7 35 3d 30 1e 7e bc
       -0.021239512 -0.021817073 0.044425614 -0.015510127
000200 e0 2d 0f bd b0 59 13 bc ce 1e 7b 3d be 1a 61 3d
       -0.03495586 -0.008993551 0.061308675 0.054957144
000210 50 ab 62 3c 6c 35 f2 3c e0 db a1 bb 28 71 af 3c
       0.013834789 0.02956649 -0.004939541 0.021416262
000220 14 bf d8 3c 00 5e 63 b9 84 bf 69 bd b8 33 c7 3c
       0.0264583 -0.00021683425 -0.05706741 0.024316654
000230 40 57 30 3b a8 cd 98 3c 64 fc 42 bd 88 8d 46 bd
       0.0026907474 0.018652752 -0.04760398 -0.04847482
000240 58 bd 25 3d b0 01 78 bc 70 27 88 3b d4 62 52 3d
       0.040463775 -0.015137121 0.004155092 0.05136378
000250 14 6c f3 bc 88 f9 87 3c 04 07 47 3d 5c a5 1b 3d
       -0.029714622 0.016598478 0.048590675 0.037999496
000260 50 1c 0f 3d 08 f9 d5 3c e0 72 cc 3c 1c a5 4b bd
       0.03493911 0.026119724 0.02495712 -0.049718007
000270 00 b7 78 3c 50 22 43 3d 08 5b b3 3c b0 d1 49 bd
       0.015180349 0.047640145 0.021893993 -0.04927224
000280 e0 8f 5c bd 5c a2 2e 3d c4 14 fd bc 00 68 d3 b8
       -0.053848147 0.042635307 -0.03089369 -0.000100806355
000290 e4 aa d3 bc a6 b1 76 3d f0 68 53 3c e0 6d 51 3d
       -0.025838323 0.060228013 0.012903437 0.051130176
0002a0 a4 01 92 bc 58 0f 29 bd b8 48 f6 bc a0 ab f7 3c
       -0.017823048 -0.0412744 -0.030063972 0.030233204
0002b0 66 ff 35 bd a8 ea 12 bd 00 aa f7 b9 2e b5 1d 3d
       -0.04443302 -0.035868317 -0.0004723817 0.038502865
0002c0 70 c3 f1 3c 00 0b 9a b9 1e f6 49 bd 80 be c1 3b
       0.029512137 -0.00029381365 -0.04930698 0.005912602
0002d0 30 93 97 3c bc 44 68 bd a0 0a 1d 3c 20 1d 3f bc
       0.018502802 -0.056706175 0.009585053 -0.011664659
0002e0 9e 49 79 bd 30 2f 21 3c 20 5c 99 3c a8 b7 23 3c
       -0.060861222 0.0098379105 0.018720686 0.0099925175
0002f0 18 37 89 3c ba 91 35 3d 80 94 39 bb 6c 1d 94 3c
       0.016749904 0.04432843 -0.0028317273 0.018080436
000300 80 1d 33 bd f4 f7 a0 3c b8 32 45 3c 00 99 a3 bc
       -0.043729305 0.019649483 0.012036018 -0.019970417
