models/PolicyGradientAgent/working_full_data_C>0, 6>L>3.pt (torch, 254412 bytes, 3 tensors)

net.base.em.weight f4 [14, 1]
0.0 -1.5582987 -2.1079855 1.4846145 -2.064342 -0.1603033 1.1948355 0.0759414
-1.3262169 -1.255065 0.8409355 -0.015556533 -1.5972337 1.6218371
00000000: 0000 0000 5576 c7bf 3ce9 06c0 d907 be3f
00000010: 2e1e 04c0 8c26 24be 5ff0 983f 2a87 9b3d
00000020: 7ac1 a9bf f8a5 a0bf 8d47 573f d4e0 7ebc
00000030: 2772 ccbf 5c98 cf3f

net.out.weight f4 [196, 256]
-0.032498173 -0.014799207 0.032724045 -0.034693092 0.021245234 -0.027809247 -0.015535556 0.019238882
-0.04355192 -0.02669955 -0.0045528263 -0.03690096 0.0014980808 -0.053671777 0.02173639 0.06080275
0.014623754 0.05503285 0.040901907 0.052370936 -0.051028937 0.02433934 -0.013413653 0.023045652
0.008561023 0.0026780143 0.028552152 -0.008748934 -0.028989762 -0.056815714 -0.039489694 0.017823003
0.02513408 0.049765557 -0.0048671514 0.026316375 -0.055254318 0.05661639 0.06156244 -0.029335365
-0.05228956 0.038674124 0.031305507 -0.04708957 0.016706206 0.045441702 -0.02932246 -0.021655247
0.051999055 0.034339182 0.044603787 0.05063732 0.021536797 -0.045793593 -0.018096201 -0.060432196
-0.031047463 0.055256926 -0.017008029 0.042736024 -0.041002996 0.04722424 -0.016721025 -0.04928743
-0.053130172 -0.0054790154 -0.0546619 -0.01733017 -0.04467752 0.032152727 0.036482424 -0.0041210353
0.022974908 -0.003156595 0.04938636 0.059791848 0.05141809 0.0024892464 -0.014564939 0.010520093
0.053545505 -0.05072496 -0.0135266185 0.056084372 -0.018873528 -0.028606951 -0.02962137 -0.013580918
-0.054410346 -0.034001358 -0.018539846 0.022480875 0.021099329 -0.060770445 -0.0557495 0.041912593
-0.061328933 0.05353199 0.036749855 -0.060372055 0.0492841 0.009872265 -0.049261205 0.059239708
-0.059865788 -0.01526314 0.031760685 -0.029265717 -0.020306692 0.031699568 0.03637468 0.054444537
-0.0075768456 -0.042681813 0.054562844 -0.004896313 -0.056664675 0.01029449 -0.033910267 -0.002710551
-0.041501082 -0.05452869 0.009215906 0.0112359375 0.04160323 -0.06121303 0.03696411 -0.010375224
0.0022957325 0.025359727 0.015346177 0.03698621 -0.028978758 0.0032431707 -0.0004517138 0.0316863
0.033973835 -0.0052518547 -0.061042167 -0.0049439743 0.021155976 0.014633559 -0.04380054 0.05431056
0.03250742 0.045189828 0.01894243 -0.0014074296 -0.050941184 0.04288522 0.0017378777 0.0038111657
-0.03755413 -0.036814325 0.04971324 -0.045991153 0.03184765 -0.058024198 -0.022002198 0.024328806
-0.04429724 -0.060514838 0.030636624 0.011753835 0.012548789 0.016056247 -0.053044945 0.024797462
-0.052117065 0.034048587 0.04032155 -0.031782642 -0.058709532 0.04830549 -0.025184691 0.03022597
-0.00755094 -0.041649006 0.049979515 -0.03167855 0.0309598 0.06126281 -0.025504798 0.01747331
-0.058815777 0.005024031 0.01312042 -0.02490998 -0.038613312 0.0018952191 0.050579034 0.057645142
-0.018406399 0.046611384 -0.025173426 -0.059478402 0.015457928 0.042765096 -0.00026024878 -0.0026175156
-0.015504181 0.037406422 -0.008607797 0.04087089 -0.032443836 -0.046636693 0.012870006 -0.027517393
-0.05569955 -0.0060527697 -0.048874862 0.026686229 -0.061842456 -0.056020074 0.0056865364 -0.02980896
0.006122984 -0.058945045 -0.050757073 0.056095973 0.0030923933 0.0141776875 -0.02978789 -0.033463538
-0.005043268 -0.061342336 0.033353634 0.05044037 0.004653409 -0.028349333 0.008594386 0.020967044
0.027849182 -0.013064563 -0.04526925 0.05954826 -0.058137804 -0.027463034 -0.04763516 0.029006459
-0.031566314 -0.011488892 -0.011428215 0.032375023 -0.0051548257 0.011375263 -0.039588965 -0.005949445
0.018873788 0.054040276 8.27536e-05 -0.015568972 0.0019752458 0.0033569932 0.017562106 -0.031765953
00000000: ce1c 05bd 6078 72bc a609 063d 581a 0ebd
00000010: 7c0a ae3c 38d0 e3bc d888 7ebc dc9a 9d3c
00000020: 8063 32bd 04b9 dabc e02f 95bb 7625 17bd
00000030: 405b c43a f0d6 5bbd 8410 b23c 4e0c 793d
00000040: 7898 6f3c 206a 613d c288 273d e882 563d
00000050: b803 51bd 4c63 c73c f0c4 5bbc 3cca bc3c
00000060: 8843 0c3c a081 2f3b 34e6 e93c b057 0fbc
00000070: f07b edbc 98b7 68bd f2bf 21bd 8c01 923c
00000080: fce5 cd3c f8d6 4b3d a07c 9fbb 7095 d73c
00000090: 5a52 62bd 96e6 673d e628 7c3d b850 f0bc
000000a0: 942d 56bd c268 1e3d 343a 003d fee0 40bd
000000b0: 74db 883c 1421 3a3d a835 f0bc 5866 b1bc
000000c0: f6fc 543d 3ea7 0c3d 76b2 363d 1469 4f3d
000000d0: f06d b03c 1092 3bbd 7c3e 94bc c087 77bd
000000e0: 4057 febc 1655 623d 6c54 8bbc f80b 2f3d
000000f0: c2f2 27bd 346e 413d 88fa 88bc 9ee1 49bd
00000100: 069f 59bd 5089 b3bb 28e5 5fbd 00f8 8dbc
00000110: c6ff 36bd 94b2 033d 986e 153d c009 87bb
00000120: e035 bc3c e0de 4ebb 5a49 4a3d 4ce8 743d
00000130: c69b 523d a022 233b c8a1 6ebc 785c 2c3c
00000140: 8852 5b3d fac4 4fbd c09e 5dbc bab8 653d
00000150: a89c 9abc 2059 eabc 84a8 f2bc 8082 5ebc
00000160: 62dd 5ebd 0245 0bbd e0e0 97bc d029 b83c
00000170: 80d8 ac3c 6eea 78bd 9659 64bd 8aac 2b3d
00000180: 0c34 7bbd 5c44 5b3d 0487 163d b048 77bd
00000190: 20de 493d 48bf 213c 1ec6 49bd 56a5 723d
000001a0: d435 75bd 4012 7abc 7e17 023d a8be efbc
000001b0: 385a a6bc 68d7 013d 9efd 143d 3c01 5f3d
000001c0: 3047 f8bb 20d3 2ebd 4a7d 5f3d 4071 a0bb
000001d0: 3819 68bd 38aa 283c 7ee5 0abd 80a3 31bb
000001e0: 0afd 29bd 7a59 5fbd 50fe 163c f016 383c
000001f0: 2668 2a3d 84ba 7abd ae67 173d d8fc 29bc
00000200: 0074 163b 34bf cf3c 886e 7b3c da7e 173d
00000210: dc64 edbc 608b 543b 00d4 ecb9 7ec9 013d
00000220: 2628 0b3d c017 acbb 5a07 7abd 1001 a2bb
00000230: 4c4f ad3c 98c1 6f3c 3268 33bd c074 5e3d
00000240: 8026 053d f818 393d 282d 9b3c 8079 b8ba
00000250: b4a7 50bd 6aa8 2f3d 80c9 e33a c0c4 793b
00000260: 5cd2 19bd 9eca 16bd 1ca0 4b3d 3861 3cbd
00000270: ae72 023d c8aa 6dbd f43d b4bc 344d c73c
00000280: 0671 35bd 68de 77bd a8f9 fa3c 2893 403c
00000290: 7099 4d3c 6488 833c a845 59bd 0c24 cb3c
000002a0: b478 55bd 8876 0b3d 3628 253d 842e 02bd
000002b0: 6879 70bd fadb 453d 2050 cebc 749c f73c
000002c0: e06d f7bb 2698 2abd 52b7 4c3d 5ec1 01bd
000002d0: 689f fd3c b6ee 7a3d 70ef d0bc 3024 8f3c
000002e0: d0e8 70bd a0a0 a43b 08f7 563c 0410 ccbc
000002f0: fe28 1ebd 0069 f83a f62b 4f3d 501d 6c3d
00000300: 04c9 96bc 94eb 3e3d 8038 cebc a09f 73bd
00000310: 4043 7d3c 742a 2f3d 0072 88b9 a08a 2bbb
00000320: 4005 7ebc 7a37 193d b807 0dbc 3c68 273d
00000330: d4e3 04bd 1e06 3fbd b8dc 523c 286c e1bc
00000340: 3625 64bd 5056 c6bb 0231 48bd 149d da3c
00000350: 844e 7dbd 4e75 65bd 2056 ba3b ec31 f4bc
00000360: 50a3 c83b 5c70 71bd a6e6 4fbd e4c4 653d
00000370: c0a9 4a3b 8849 683c bc05 f4bc 1011 09bd
00000380: 0042 a5bb 1a42 7bbd d29d 083d 909a 4e3d
00000390: a07b 983b dc3c e8bc 78cf 0c3c 14c3 ab3c
000003a0: f823 e43c c00c 56bc 406c 39bd e0e8 733d
000003b0: e821 6ebd 28fa e0bc 161d 43bd f49e ed3c
000003c0: ae4b 01bd e83b 3cbc 683d 3bbc ac9b 043d
000003d0: d0e9 a8bb 505f 3a3c 0a28 22bd 90f3 c2bb
000003e0: 349d 9a3c 5659 5d3d 008c ad38 0015 7fbc
000003f0: 2073 013b 0001 5c3b 68de 8f3c 041d 02bd

net.out.bias f4 [196]
-0.03927499 -0.016982429 0.042863034 0.029938273 0.041991718 0.030955955 -0.04655978 0.0020849556
-0.038681135 0.054360606 -0.020601653 0.046560943 -0.044821918 -0.016912915 -0.0042072833 -0.0011124313
0.056081288 -0.030354321 0.037173413 -0.03812112 -0.0053628534 -0.039234273 0.03586884 0.03984338
-0.042565458 0.025283046 0.04054188 0.03795073 -0.0022936314 -0.0100322515 0.005105339 0.06237249
-0.049894877 -0.034876198 0.0062903836 -0.020365007 -0.006369762 -0.02851969 0.05189859 0.037060298
0.021172397 0.043334156 0.038569115 0.01221139 -0.058815435 -0.010662265 0.018929087 -0.032858193
-0.01368732 -0.037931323 -0.056983225 -0.061571866 -0.018302552 -0.04106114 -0.015267037 -0.027157024
0.035110205 -0.025949225 -0.0155377835 -0.016072541 0.010343038 0.022377364 -0.010570198 0.016315274
0.05183243 0.060767606 -0.027343616 0.009927705 -0.0067616627 0.060171127 0.04974655 0.005086407
0.006540261 -0.051911727 -0.03765881 0.035435647 0.054478645 -0.028723784 -0.05809319 -0.019883648
0.0061950386 0.029454939 0.0071504787 0.012284435 0.026054852 -0.049827218 -0.061085805 0.040767446
0.051756233 0.049689427 -0.011676751 0.018562675 -0.02207411 -0.04400512 0.030157134 0.008674271
0.029335357 0.0293779 -0.025296189 -0.051907726 -0.041261993 -0.05626195 -0.049215853 -0.027985752
-0.048138447 -0.017020993 -0.027542159 -0.04886084 -0.05746507 -0.0019889176 0.009036958 0.021047056
-0.029281154 0.015008293 0.047474556 -0.0050473437 -0.018070169 0.060326703 0.018510483 -0.008808218
-0.039152995 -0.016582258 0.024631739 0.05483955 0.04628353 0.014289983 0.047178857 0.012555473
0.011847086 -0.013549343 0.02293574 -0.0602277 0.050190456 -0.012715757 -0.053570405 -0.029935211
0.016652472 -0.042190783 0.036472365 -0.0190581 0.05938775 -0.039176606 -0.0465606 0.012068465
-0.05423359 0.046700038 0.01883813 -0.003382951 0.055455662 0.053570032 0.030024908 -0.057789743
-0.04069122 -0.041665047 -0.029625483 0.062005326 -0.030122884 0.030247457 0.01258754 -0.027044863
0.037908085 -0.04645244 -0.024417564 -0.01054965 -0.03667245 -0.023971178 -0.026428469 0.0040079206
-0.02672787 -0.0233332 -0.012940325 0.055296548 -0.042209454 -0.045563065 0.03284064 -0.0106355995
-0.034450985 0.05999896 0.019946277 0.032774635 0.0017291233 -0.056169033 0.033471026 0.016443633
-0.022503324 0.04545699 0.007940955 -0.0094633475 0.0039281324 -0.04606588 0.041138284 0.03552316
-0.026181936 0.0080072135 -0.057503 -0.035885178
00000000: d0de 20bd bc1e 8bbc 2691 2f3d 1c41 f53c
00000010: 82ff 2b3d 5897 fd3c 78b5 3ebd c0a3 083b
00000020: 1c70 1ebd 3aa9 5e3d ccc4 a8bc b0b6 3e3d
00000030: 3097 37bd f48c 8abc 40dd 89bb 00cf 91ba
00000040: 7eb5 653d a0a9 f8bc 2643 183d e424 1cbd
00000050: e0ba afbb 1eb4 20bd 34eb 123d d032 233d
00000060: 1e59 2ebd 641e cf3c 3e0f 263d 3a72 1b3d
00000070: c050 16bb 505e 24bc b04a a73b 4c7a 7f3d
00000080: 925e 4cbd 58da 0ebd 901f ce3b 84d4 a6bc
00000090: 70b9 d0bb 20a2 e9bc 9e93 543d 8acc 173d
000000a0: bc71 ad3c 287f 313d a6fa 1d3d 4812 483c
000000b0: 74e8 70bd c8b0 2ebc 2c11 9b3c 5096 06bd
000000c0: c840 60bc e05d 1bbd 3e67 69bd c832 7cbd
000000d0: 3cef 95bc ba2f 28bd 9822 7abc 6878 debc
000000e0: b8cf 0f3d 7893 d4bc 3092 7ebc 90aa 83bc
000000f0: d875 293c bc50 b73c a02e 2dbc 9ca7 853c
00000100: 3e4e 543d 74e7 783d b8ff dfbc d0a7 223c
00000110: f090 ddbb 0076 763d 0ac3 4b3d e0ab a63b
00000120: b04f d63b 64a1 54bd 2040 1abd f824 113d
00000130: 0025 5f3d 244e ebbc 20f3 6dbd 08e3 a2bc
00000140: c0ff ca3b 7c4b f13c 904e ea3b a844 493c
00000150: fc70 d53c a017 4cbd 1c35 7abd c4fb 263d
00000160: 58fe 533d 2487 4b3d d84f 3fbc c010 983c
00000170: c4d4 b4bc b63e 34bd 180c f73c 881e 0e3c
00000180: b450 f03c eca9 f03c f439 cfbc 329d 54bd
00000190: 5602 29bd ee72 66bd 9096 49bd 6042 e5bc
000001a0: d22c 45bd 9c6f 8bbc 18a0 e1bc 4e22 48bd
000001b0: 7e60 6bbd 8058 02bb c00f 143c e06a ac3c
000001c0: 08df efbc 58e5 753c ae74 423d 3064 a5bb
000001d0: e407 94bc 2219 773d 4ca3 973c 5850 10bc
000001e0: e45e 20bd 84d7 87bc 80c8 c93c 709f 603d
000001f0: cc93 3d3d 8820 6a3c 9e3e 413d 78b5 4d3c
00000200: 481a 423c 10fe 5dbc bce3 bb3c 52b1 76bd
00000210: 8294 4d3d c055 50bc a46c 5bbd b03a f5bc
00000220: c46a 883c 3ed0 2cbd 0c64 153d bc1f 9cbc
00000230: 9240 733d a677 20bd 54b6 3ebd d0ba 453c
00000240: 0a24 5ebd 8a48 3f3d 6c52 9a3c 80b4 5dbb
00000250: 7a25 633d 406c 5b3d ccf6 f53c f0b4 6cbd
00000260: d6ab 26bd f8a8 2abd 24b1 f2bc 4cf9 7d3d
00000270: 44c4 f6bc 84c9 f73c f83b 4e3c 308d ddbc
00000280: 8245 1b3d ea44 3ebd 5807 c8bc 70d8 2cbc
00000290: da35 16bd 345f c4bc 8480 d8bc e054 833b
000002a0: 68f4 dabc 4425 bfbc a803 54bc a27e 623d
000002b0: d2e3 2cbd 56a0 3abd e883 063d f040 2ebc
000002c0: 7a1c 0dbd 78c1 753d 6066 a33c b23e 063d
000002d0: c0a3 e23a 8011 66bd ea18 093d ccb4 863c
000002e0: e458 b8bc 1c31 3a3d c81a 023c 280c 1bbc
000002f0: 90b7 803b 94af 3cbd 9e80 283d bc80 113d
00000300: 807b d6bc b030 033c 4488 6bbd 56fc 12bd
