models/ac/working.pt (torch, 208407 bytes, 5 tensors)

base.em.weight f4 [14, 1]
0	0x00000000	0.0
1	0x3ec9c80c	0.39410436
2	0x3fa61907	1.2976388
3	0xbe624b52	-0.22099045
4	0x3e48a190	0.19592881
5	0x3dabd811	0.08390821
6	0xbfd43226	-1.6577804
7	0x3f426759	0.75938946
8	0x3fcc8091	1.5976735
9	0xbed9fe7f	-0.42576978
10	0x3f9b1ad2	1.211756
11	0x3fe9cb8f	1.8265246
12	0x3eb0bcd3	0.3451906
13	0x3eb88aec	0.3604349

value_head.weight f4 [1, 256]
0	0xbce8532c	-0.028359972
1	0xbd0e01e4	-0.03466977
2	0xbbfa8430	-0.0076451525
3	0xbd24b6b0	-0.040213287
4	0xbd36b03c	-0.044601664
5	0x3d4aef22	0.04954446
6	0xbd212dd4	-0.039350346
7	0xbd3b9ce4	-0.04580392
8	0xbcb9d498	-0.02268438
9	0xbd039b0a	-0.03213028
10	0x3c1c32e8	0.009533621
11	0x3cb5c2ac	0.022187553
12	0x3d180992	0.037118502
13	0x3cfcf048	0.030876294
14	0x3d046846	0.032326005
15	0xbd591580	-0.05299902
16	0xbd676f7a	-0.056502797
17	0xbd471a42	-0.048609026
18	0xbd37e748	-0.0448983
19	0xb98efd00	-0.0002727285
20	0x3c74f7e8	0.014951684
21	0x3d33746e	0.043812208
22	0xbd575038	-0.052566737
23	0x3b8fa850	0.004384078
24	0xbd4a1652	-0.049337693
25	0x3cd6ecfc	0.02623605
26	0x3cbaeae4	0.022817083
27	0xbcb88d18	-0.022528216
28	0xbb646b40	-0.0034853965
29	0xbd1c8de0	-0.03822124
30	0xbb13b240	-0.0022536665
31	0xbd07d792	-0.03316457
32	0xbd4f5e7a	-0.05062721
33	0xbd0aca4c	-0.03388433
34	0x3c40c2e0	0.011765212
35	0xbd79bdb2	-0.060971923
36	0x3d388d94	0.045056894
37	0xb9d78700	-0.00041108578
38	0x3d38a416	0.04507836
39	0x3d6aec56	0.057354294
40	0x3a92fa40	0.0011213496
41	0x3d4767ca	0.048682965
42	0xbd2df28e	-0.042467646
43	0xbd504700	-0.05084896
44	0xbd692a6e	-0.05692523
45	0xbc80c1ac	-0.01571735
46	0xbc3b4f30	-0.011432454
47	0x3c056e80	0.008144021
48	0x3ce44680	0.027865648
49	0xbc721650	-0.0147758275
50	0x3d244542	0.040105112
51	0xbb48ce00	-0.0030640364
52	0xbd0197fa	-0.031639077
53	0xbca4aa04	-0.020100601
54	0xbcb4ef7c	-0.022086851
55	0xbc6d13a0	-0.014470011
56	0xbd3d3d34	-0.046200946
57	0xbb21c740	-0.0024685413
58	0x3ac7ce80	0.0015244037
59	0xbb980ea0	-0.0046404153
60	0xbcd46110	-0.02592519
61	0xbb399aa0	-0.0028320923
62	0x3caf832c	0.021424852
63	0x3cfbedd8	0.030753061
64	0x3d68dcb0	0.05685109
65	0x3d2b8c06	0.041881584
66	0xbaf2f1c0	-0.0018535182
67	0xbd525f88	-0.051360637
68	0xbc1f9130	-0.009739205
69	0x3d2b5a9a	0.04183445
70	0x3d02abd2	0.031902142
71	0x3c7ec318	0.015549444
72	0x3d249830	0.0401842
73	0x3c40fee8	0.011779524
74	0x3d32c6c2	0.04364658
75	0xbd4727c8	-0.048621923
76	0xbc81ef7c	-0.015861265
77	0xbc95775c	-0.018245392
78	0x3d04ed92	0.032453127
79	0xbd07b4de	-0.033131473
80	0xbcb82040	-0.022476315
81	0xbc8c5e1c	-0.017134719
82	0x3d2b9fd4	0.04190047
83	0xbb4d1a00	-0.0031296015
84	0xbd65dd0a	-0.056119002
85	0x3d6c9370	0.057757795
86	0xbcd19cc8	-0.025587454
87	0x3c497080	0.0122948885
88	0x3d7a1ca8	0.061062485
89	0xbc375b30	-0.011191174
90	0x3d388236	0.045046054
91	0xbd45c278	-0.048281163
92	0xbc00a7a8	-0.007852472
93	0xbc87bebc	-0.016570441
94	0x3d22fd7c	0.039792523
95	0x3cf0bd38	0.029387102
96	0xbcb0ceac	-0.021582924
97	0x3bf6b2e0	0.007528648
98	0x3b6abe20	0.003581889
99	0xbcfc5c48	-0.030805722
100	0x3985e400	0.0002553761
101	0x3bd1fa90	0.006408043
102	0xbd016062	-0.03158606
103	0x3bee5460	0.007273242
104	0xbd48dac2	-0.04903675
105	0xba668300	-0.0008793324
106	0xbd1497ce	-0.036277585
107	0xbce65534	-0.0281168
108	0xbd0f91c8	-0.035051137
109	0xbd34ba28	-0.044122845
110	0xbc3c1538	-0.011479668
111	0xbcedd170	-0.029030532
112	0x3cf5ef30	0.03002128
113	0xbcb0efc0	-0.021598697
114	0x3d2ba7d0	0.041908085
115	0x3cc42194	0.023941793
116	0x3d6f1b82	0.058375843
117	0xbbe31ac0	-0.006930679
118	0xbd7ab39e	-0.061206453
119	0x3d2a0b76	0.041514836
120	0xbcd9cf0c	-0.026587985
121	0xbc3061f8	-0.010765545
122	0x3cfc15c8	0.030772105
123	0xbd1f6a8c	-0.03891997
124	0xbd629c90	-0.05532509
125	0x3b65c280	0.0035058558
126	0x3d6981e6	0.057008646
127	0x3d59a454	0.05313523
128	0x3d2842a8	0.041079193
129	0xbc367a18	-0.011137508
130	0x3ca05b48	0.019574776
131	0x3c584638	0.013200335
132	0xbaf60280	-0.0018769056
133	0x3cedfcb0	0.029051155
134	0xbc8f8ee0	-0.017524183
135	0xbbe0da60	-0.00686197
136	0xbc814450	-0.015779644
137	0x3d77e6e6	0.060522936
138	0x3d753d76	0.059873067
139	0xbd338c52	-0.04383499
140	0x3d446c26	0.0479547
141	0x3d59b7d8	0.053153843
142	0x3c633558	0.013867699
143	0xbd25afec	-0.040450975
144	0x3c19e028	0.009391822
145	0x3c43db60	0.011954159
146	0x3d3598d0	0.044335186
147	0x3d646158	0.055756897
148	0x3d4f8acc	0.050669476
149	0x3c2b8470	0.010468587
150	0xbcf0fa4c	-0.029416226
151	0xbc8110a0	-0.015754998
152	0xbd492b00	-0.049113274
153	0xbae13a40	-0.0017183498
154	0xbd71a280	-0.058992863
155	0x3c3153f0	0.010823235
156	0x3d3c5e80	0.04598856
157	0x3d75954e	0.05995684
158	0xbc879044	-0.016548283
159	0x3d364666	0.04450073
160	0x3c309278	0.010777108
161	0x3d2d02b8	0.04223892
162	0xbd2c6890	-0.042091906
163	0xbc06edd8	-0.008235417
164	0xbcec63b4	-0.028856136
165	0x3b8c2df0	0.004277937
166	0x3b3de0c0	0.0028973073
167	0x3c3ad4f0	0.011403307
168	0xbd1f1eda	-0.03884778
169	0xbcd17cf0	-0.02557227
170	0xbc43bfa0	-0.011947542
171	0x3cf16be4	0.029470392
172	0xbcc3149c	-0.023813538
173	0xbd1d7440	-0.038440943
174	0xbd226748	-0.039649278
175	0xbbf19e40	-0.007373601
176	0x3d22ab84	0.03971435
177	0x3d3a1040	0.045425653
178	0x3bdb4770	0.0066918656
179	0x3ca3bf0c	0.01998856
180	0xbd6b57ae	-0.057456665
181	0x3d1fe402	0.039035805
182	0x3cbe3934	0.023220636
183	0x3c7d9758	0.015477978
184	0x3d31b1d8	0.043382496
185	0x3d4b560c	0.049642608
186	0x3d321574	0.04347749
187	0x3d10de64	0.03536834
188	0x3b85c3c0	0.004082173
189	0x3cc06288	0.023484483
190	0xbd0b5c98	-0.03402385
191	0xbca53008	-0.020164505
192	0xbb478660	-0.0030445084
193	0x3cefb1fc	0.029259674
194	0x3c71e0b8	0.01476305
195	0x3c493498	0.012280606
196	0xbd7753e6	-0.060382746
197	0x3d4625dc	0.04837595
198	0xbbb2e310	-0.005459197
199	0x3ce3f678	0.027827486
200	0xbc594640	-0.013261378
201	0xbd780832	-0.06055469
202	0x3d3190e0	0.043351054
203	0x3d743e5e	0.05962979
204	0xbd281f46	-0.04104545
205	0xbc230000	-0.0099487305
206	0xbc91f478	-0.017816767
207	0x3d507e2a	0.05090157
208	0x3d0a6b64	0.033793822
209	0x3d79d212	0.060991354
210	0x3bb90f50	0.0056475773
211	0xbd726be4	-0.059184924
212	0x3ce1a83c	0.02754604
213	0x3cfbea88	0.030751482
214	0x3d426660	0.047460914
215	0xbab2adc0	-0.0013632104
216	0x3c277898	0.010221623
217	0xb9b44f00	-0.00034391135
218	0x3c92eb44	0.017934449
219	0xbb164a40	-0.002293244
220	0x3b31db00	0.002713859
221	0x3d5e5e7a	0.05428932
222	0xbd75b21a	-0.059984304
223	0x3d245db4	0.040128425
224	0xbbef15b0	-0.0072962865
225	0x3aa09c80	0.0012253672
226	0xbd43ee54	-0.04783471
227	0x3cca1bf0	0.024671525
228	0x3d5bed60	0.053693175
229	0x3c9901d8	0.018677637
230	0x3cb6fe64	0.0223381
231	0x3d5c7e50	0.0538314
232	0x3d6b4000	0.057434082
233	0x3c2f9940	0.01071769
234	0x3d459818	0.04824075
235	0x3b16ed00	0.0023029447
236	0x3d6bb03c	0.057541117
237	0x3d5c7826	0.05382552
238	0xbd7baae6	-0.06144228
239	0x3c3901b0	0.011291906
240	0xbcf52594	-0.029925145
241	0xbd4556e4	-0.04817857
242	0x3d7742b6	0.060366355
243	0xbd63759c	-0.055532083
244	0x3b87c870	0.004143767
245	0xbd0f3278	-0.03496024
246	0x3d02355c	0.03178917
247	0x3d688a88	0.05677274
248	0xbd0d5278	-0.034502476
249	0xbb8ef340	-0.0043624938
250	0x3c79b208	0.0152402
251	0xbc8e7a78	-0.017392382
252	0x3cf6db84	0.03013397
253	0xbd066582	-0.03281165
254	0xbd091e82	-0.03347636
255	0x3c6d3430	0.0144777745

action_head.net.base.em.weight f4 [14, 1]
0	0x00000000	0.0
1	0x3eda9c29	0.42697266
2	0x3f23c5a0	0.63973427
3	0x3f31857d	0.6934431
4	0xbe5aa883	-0.21353345
5	0x3fa07aa1	1.2537423
6	0xbef7f2ff	-0.4842758
7	0xbcae65bb	-0.021288743
8	0xbf3d0df4	-0.73849416
9	0xbf56bc41	-0.83881
10	0xbff0738f	-1.8785266
11	0xbd816374	-0.06317797
12	0x3e5dcb41	0.21659566
13	0x3f84eb78	1.0384359

action_head.net.out.weight f4 [196, 256]
0	0xbd679352	-0.05653698
1	0xbab40300	-0.0013733804
2	0xbd5ba008	-0.053619415
3	0x3d10fb94	0.035396174
4	0x3c51a218	0.012794994
5	0xbc5ea6c0	-0.013589561
6	0xbd78e676	-0.06076666
7	0xbc97f978	-0.018551573
8	0x3cccb31c	0.02498775
9	0x3cdab988	0.026699796
10	0xbd699dbc	-0.057035193
11	0xbc6c8550	-0.014436081
12	0xbd420ab8	-0.047373503
13	0x3d07a468	0.033115774
14	0xbb2afea0	-0.002609171
15	0x3d130486	0.035892986
16	0xbc0a5298	-0.008442543
17	0x3cb6d474	0.022318102
18	0x3c0070e8	0.007839419
19	0x3cafe4f0	0.02147147
20	0x3c25b688	0.01011432
21	0x3c9cd6a4	0.019145317
22	0x3d2a5a24	0.04158987
23	0xbd727a2a	-0.059198536
24	0x3d1b5ed0	0.037932217
25	0x3c00f590	0.007871047
26	0x3c9b6e18	0.018973395
27	0x3cccba10	0.024991065
28	0xbca95184	-0.020668752
29	0x3c88bb88	0.016690984
30	0xbb822590	-0.003971763
31	0xbcb95e90	-0.022628099
32	0x3d3ff6b4	0.046866134
33	0x3d42f006	0.047592185
34	0x3d25103e	0.040298693
35	0x3d415e64	0.04720916
36	0x3d548358	0.05188307
37	0x39199000	0.00014644861
38	0x3c5a9ed8	0.013343535
39	0xbcc524a4	-0.024065323
40	0x3b9660c0	0.00458917
41	0xbb273340	-0.0025512725
42	0xbd01cb52	-0.031688042
43	0xbd74947a	-0.05971191
44	0x3c0c4ca8	0.008563198
45	0x3ba7ce00	0.0051209927
46	0xbd1b0968	-0.037850767
47	0xbc926a0c	-0.017872833
48	0x3ce17c70	0.027525157
49	0x3d53f79c	0.05174981
50	0xbba950d0	-0.0051671043
51	0xbd71c1f2	-0.05902285
52	0xbd693220	-0.05693257
53	0xbd728a32	-0.059213825
54	0xbd41b25e	-0.047289245
55	0xbd6fd4f4	-0.058552697
56	0x3c1e84b0	0.00967519
57	0xbc4fc8a0	-0.01268211
58	0xbd4a3a6e	-0.04937213
59	0x3cbcc4b8	0.023043022
60	0x3ce68b54	0.028142609
61	0xbd30ae0a	-0.043134727
62	0x3ca15144	0.01969207
63	0xbd59467e	-0.053045742
64	0xbc4cca70	-0.012499437
65	0x3d7be424	0.06149687
66	0x3d7ac754	0.06122525
67	0xbd449a22	-0.047998555
68	0x3aada840	0.0013248995
69	0x3969f800	0.00022312999
70	0xbcd59c28	-0.026075438
71	0x3d20626e	0.03915637
72	0xbd46f658	-0.048574775
73	0xbcc31778	-0.023814902
74	0xbd61b56a	-0.05510465
75	0x3cae1974	0.021252371
76	0x3d4c31a2	0.04985202
77	0x3d0d534e	0.034503274
78	0xb77cc000	-1.5065074e-05
79	0x3cf9a1cc	0.030472659
80	0xbd02d55c	-0.031941757
81	0xbd7b79b6	-0.06139537
82	0xbcbd1d80	-0.023085356
83	0x3d1b1ff0	0.037872255
84	0x3c230be8	0.009951569
85	0xbd79abd4	-0.060954884
86	0xbc417280	-0.011807084
87	0x3d710ade	0.058848254
88	0xbcccafdc	-0.0249862
89	0xbc8700b8	-0.016479835
90	0xbcda6c48	-0.02666296
91	0xbd1d8bca	-0.03846339
92	0x3d36c854	0.04462464
93	0x3cf4becc	0.029876135
94	0x3c9dc930	0.019260973
95	0x3d474a38	0.048654765
96	0xbd48a248	-0.04898289
97	0x3d7215a6	0.059102677
98	0xbd6cd5fe	-0.057821266
99	0xbc974664	-0.018466182
100	0xbb49a4a0	-0.003076829
101	0xbd17630c	-0.036959693
102	0x3cef6418	0.029222533
103	0x3d3b478c	0.04572253
104	0xbd2c1a18	-0.042017072
105	0xbd0bdc24	-0.03414549
106	0xbc1602b0	-0.009155914
107	0x3c06c868	0.0082264915
108	0x3cd98814	0.026554145
109	0x3cb2bad0	0.021817595
110	0xbc39aad8	-0.011332236
111	0x3b534980	0.0032239854
112	0xbcfa3794	-0.03054408
113	0x3c8f7040	0.01750958
114	0xbd2e9fa6	-0.04263272
115	0xbcfb29b8	-0.030659541
116	0x3c437060	0.011928648
117	0xbce99848	-0.028514996
118	0xbce090fc	-0.027412884
119	0xbc8e1d9c	-0.017348103
120	0xbb91a740	-0.0044449866
121	0x3d044214	0.03228958
122	0xbc237fa8	-0.009979166
123	0xbce01208	-0.027352348
124	0x3be11710	0.0068692043
125	0x3c94e780	0.018176794
126	0xbcd69470	-0.026193827
127	0x3c77a510	0.015115038
128	0x3d303514	0.04301937
129	0x3d6cb3de	0.057788722
130	0x3d6a973a	0.057273127
131	0xbd5ba612	-0.053625174
132	0xbc6baa38	-0.014383845
133	0xbd55d7ce	-0.05220776
134	0x3d7c9f5c	0.061675414
135	0xbc518278	-0.012787454
136	0xbcd42b90	-0.025899678
137	0xbc62b688	-0.013837464
138	0x3cd4d638	0.025981054
139	0x3d3e8562	0.046513923
140	0x3ca24bd4	0.019811548
141	0x3d6520b0	0.055939376
142	0xbc9b7600	-0.018977165
143	0x3b1e6180	0.0024167001
144	0x3c58ea70	0.013239488
145	0xbd147f98	-0.036254495
146	0x3c9c3060	0.019066036
147	0xbce6335c	-0.028100662
148	0x3d498380	0.049197674
149	0x3c16d070	0.009204969
150	0x3c725f68	0.014793254
151	0x3ce52c5c	0.027975254
152	0xbbae53a0	-0.0053200275
153	0x3d3fb054	0.04679902
154	0xbd08ca06	-0.03339579
155	0x3c04d5b8	0.008107595
156	0x3d269e20	0.040678144
157	0x3c46e330	0.012139127
158	0x3d4e05fc	0.050298676
159	0x3b0e08c0	0.0021672696
160	0xbcd23560	-0.025660217
161	0xbc1c5228	-0.009541072
162	0xbd0823b8	-0.03323719
163	0x3c0f2030	0.008735701
164	0x3ccc2fb0	0.024925083
165	0xbb0fea40	-0.0021959692
166	0x3c9624a4	0.018328018
167	0xbd595eba	-0.053068854
168	0x3d6e415e	0.058167808
169	0xbcbcae40	-0.023032308
170	0xbc910b5c	-0.017705612
171	0xbd4e2aa2	-0.050333627
172	0x3d7dd5fc	0.06197165
173	0xbd2bb8e6	-0.04192438
174	0x3bfbfcb0	0.007690035
175	0xbd2b72b6	-0.041857444
176	0x3d0545e2	0.03253735
177	0xbae82f40	-0.0017714277
178	0x3c8b8dc4	0.017035373
179	0xbd23f5ec	-0.04002945
180	0xbd685046	-0.05671718
181	0xbd795e20	-0.06088078
182	0xbcbef258	-0.023308918
183	0xbd5fdbf0	-0.054653108
184	0xbd5dbadc	-0.05413328
185	0x3d5987ec	0.05310814
186	0x3beb8100	0.007187009
187	0xbd3506dc	-0.044195995
188	0xbd57e76c	-0.052710935
189	0x3b0936e0	0.002093725
190	0xbd0aa2b8	-0.033846587
191	0x3d76986c	0.060203955
192	0x3d49164c	0.04909353
193	0xbd28fe04	-0.041257873
194	0x3d56f31e	0.05247795
195	0xbc4bd050	-0.012439802
196	0xbadfd4c0	-0.0017076954
197	0x3cb868d0	0.022510916
198	0x3d43f11c	0.04783736
199	0xbd27ac28	-0.040935665
200	0x3d655272	0.05598683
201	0xbd6ed1c8	-0.05830553
202	0xbcc58c28	-0.024114683
203	0xbcddffcc	-0.027099513
204	0x3d202e9c	0.03910695
205	0xbc966500	-0.018358707
206	0x3ca5ba98	0.020230576
207	0x3d42d816	0.047569357
208	0x3ce5a828	0.028034285
209	0x3cefd834	0.029277898
210	0x3d7d6cea	0.061871447
211	0xbd3428b6	-0.043984137
212	0xbcb311bc	-0.021859042
213	0x3d1a5b8a	0.037684955
214	0x3d7295c6	0.059224866
215	0xbd2b8868	-0.041878134
216	0x3cea0f88	0.028571859
217	0xbc531888	-0.012884267
218	0xbc3270d0	-0.010891154
219	0xbd463192	-0.048387118
220	0xba854780	-0.0010168403
221	0xbd4c3290	-0.049852908
222	0xbd5935f6	-0.053029977
223	0x3d4b6cb0	0.0496642
224	0xbd582f02	-0.052779205
225	0x3ca632d8	0.020287916
226	0x3d529a3a	0.051416613
227	0xbcdfcef8	-0.02732037
228	0xbc3d3d40	-0.011550248
229	0xbc999f98	-0.018752858
230	0x3d5a754e	0.053334527
231	0xbbf9a060	-0.007617995
232	0x3d2c43dc	0.042056903
233	0xbafed980	-0.0019443482
234	0xbc946d30	-0.01811847
235	0x3ce9ef64	0.028556533
236	0xbd75c2ea	-0.060000338
237	0x3d5b2712	0.053504057
238	0x3cae695c	0.021290474
239	0x3d7dd786	0.061973117
240	0x3c90e57c	0.017687552
241	0x3d30efd4	0.043197468
242	0xbc4e1488	-0.012578137
243	0xbd64e2ac	-0.055880234
244	0xb9a57c00	-0.0003156364
245	0x3c8725ec	0.016497575
246	0xbcba0900	-0.02270937
247	0xbcec5b3c	-0.028852098
248	0xbc8c2b84	-0.017110594
249	0xbb2caae0	-0.0026346967
250	0x3b4321a0	0.002977468
251	0xbc935e4c	-0.0179893
252	0x3c36a458	0.011147581
253	0x3bdcd3f0	0.006739132
254	0x3cb0bcf8	0.021574482
255	0x3d308054	0.043091133

action_head.net.out.bias f4 [196]
0	0xbd0af5e6	-0.033925913
1	0x3d140e3c	0.036146387
2	0x3c056ec0	0.008144081
3	0xbcb7df60	-0.02244538
4	0x3cbec180	0.023285627
5	0x3d401d4c	0.04690294
6	0xbd0852c8	-0.03328207
7	0xbc7ea5c8	-0.015542455
8	0x3bccf150	0.0062543526
9	0x3c1b19a8	0.009466566
10	0x3d3c7772	0.04601235
11	0x3d54a41e	0.051914327
12	0xbd2e7ebc	-0.042601332
13	0xba77ac00	-0.0009447932
14	0xbcea816c	-0.028626166
15	0x3c6bc318	0.014389776
16	0x3d107e74	0.035276845
17	0x3d58acfc	0.052899346
18	0xbc8afdf0	-0.01696679
19	0xbd29cb92	-0.041453905
20	0xbd18ae70	-0.03727573
21	0x3ca5d380	0.020242453
22	0xbc10b4f0	-0.008832201
23	0xbc407898	-0.011747502
24	0x3c94d520	0.018168032
25	0x3b63b7c0	0.0034746975
26	0xbcdbf984	-0.026852377
27	0xbd65ed34	-0.056134418
28	0xbce9c590	-0.028536588
29	0x3d1d1188	0.038346797
30	0xbd76e5ce	-0.060277753
31	0x3d794b1a	0.060862638
32	0x3d2e2c50	0.04252273
33	0x3d023384	0.03178741
34	0x3c9173e0	0.017755449
35	0x3c584b08	0.013201483
36	0xbc11f348	-0.0089081
37	0xbc6b3430	-0.014355704
38	0xbb3fbde0	-0.0029257461
39	0x3d205a98	0.039148897
40	0x3c821d54	0.015883125
41	0x3d6572de	0.05601775
42	0x3cb53178	0.022118315
43	0x3c2b09e8	0.010439374
44	0x3b271e40	0.0025500208
45	0xbc3710e8	-0.011173464
46	0x3d2ad1b8	0.04170391
47	0x3d5389d6	0.051645122
48	0xbd205b56	-0.039149605
49	0xbbe43e30	-0.006965421
50	0xbbdb1200	-0.0066854954
51	0xbcfedd88	-0.031111494
52	0x3c1cf9d0	0.009581044
53	0xbca67a54	-0.020322002
54	0x3d25b31c	0.040454015
55	0xbd333d5a	-0.04375968
56	0x3baa9870	0.0052061602
57	0x3b98e460	0.0046658963
58	0x3cdd7e88	0.027037874
59	0x3d08253e	0.033238642
60	0x3bf9e260	0.007625863
61	0xbd3c0e70	-0.045912206
62	0xbd5ffe4c	-0.054685876
63	0xbcdec5d0	-0.027193934
64	0xbd03094a	-0.03199128
65	0xbd4d0f06	-0.050063156
66	0x3d5f100e	0.05445867
67	0x3c921eac	0.017836891
68	0xbd5e954e	-0.054341607
69	0xbcb7ed2c	-0.02245196
70	0xbd3bbd50	-0.04583484
71	0xbd74f426	-0.05980315
72	0xbcdc93d0	-0.026925951
73	0x3b89c590	0.0042044595
74	0xbb76c540	-0.0037654191
75	0xbd6f3b10	-0.058405936
76	0x3d03f04c	0.032211587
77	0x3c842c5c	0.016134433
78	0xbd3872ae	-0.045031242
79	0xbccc7cdc	-0.024961881
80	0x3ceaf3b4	0.02868066
81	0x3c857e34	0.01629553
82	0xbcc935a8	-0.024561718
83	0xbc831ba4	-0.016004391
84	0x3be4b250	0.0069792643
85	0xbd3b158e	-0.045674853
86	0xbbad93b0	-0.0052971467
87	0xbc078b08	-0.008272894
88	0x3d2689f2	0.0406589
89	0xbd3fee0a	-0.04685787
90	0xbd294dda	-0.04133401
91	0xbc0b7b20	-0.008513242
92	0xbd5d2d52	-0.0539983
93	0x3d7e9b6e	0.062159948
94	0xbd5f1706	-0.054465316
95	0xbbbc5f00	-0.0057486296
96	0xbd67eba2	-0.0566212
97	0xbd326630	-0.043554485
98	0x3d56ee06	0.05247309
99	0xbc86144c	-0.0163671
100	0xbd36c4e4	-0.044621363
101	0x3ce0664c	0.027392529
102	0xbd38a676	-0.045080625
103	0x3bf816b0	0.007571064
104	0x3b811230	0.0039389357
105	0x3c861520	0.016367495
106	0x3d3e1b8c	0.04641299
107	0xbd40fe46	-0.047117494
108	0x3d51b12c	0.051194355
109	0xbd28b1fc	-0.041185364
110	0xbd306a70	-0.043070257
111	0xbd4cffde	-0.0500487
112	0xbcda7380	-0.026666403
113	0xbb8c8a50	-0.004288949
114	0x3d0f9088	0.035049945
115	0xbd2714f8	-0.04079148
116	0x3d5bf418	0.053699583
117	0x3d16cff6	0.03681942
118	0xbd5ad96e	-0.053430013
119	0xbc4a61a0	-0.012352377
120	0x3d0c98e8	0.03432551
121	0xbd1c51c4	-0.038163915
122	0xbd70b522	-0.05876649
123	0xbd6da556	-0.058019005
124	0x3c8a29cc	0.016865633
125	0x3d48ffea	0.049072184
126	0x3c85e9d0	0.016346842
127	0x3d4bfd16	0.04980191
128	0xbc2c2b60	-0.010508388
129	0xbc029838	-0.007970862
130	0xbcc71918	-0.024303958
131	0xbcddef98	-0.027091786
132	0x3d371c6c	0.04470484
133	0xbd1dbd4c	-0.038510606
134	0x3d374794	0.044745997
135	0xbcada084	-0.021194704
136	0xbd23863e	-0.039922945
137	0xbad47680	-0.0016209632
138	0xbcbf0f3c	-0.023322694
139	0x3d4fa8a4	0.050697938
140	0xbd5ef3bc	-0.054431662
141	0xbc71ac70	-0.014750585
142	0x3d3c2448	0.045933038
143	0x3bae1ef0	0.0053137466
144	0xbcdabe94	-0.026702203
145	0x3a50ba00	0.00079622865
146	0xbc6fd8f0	-0.014639124
147	0xbca81b64	-0.020520873
148	0xbd26072c	-0.040534183
149	0x3c4a51d0	0.012348607
150	0x3cb23c4c	0.021757267
151	0x3cb6cc48	0.022314206
152	0xbd6fa9de	-0.058511607
153	0xbc1d7888	-0.009611256
154	0x3c1f46b8	0.0097214505
155	0xbbfa1980	-0.0076324344
156	0x3d0e475c	0.034736022
157	0xbd373d08	-0.04473594
158	0xbb86fcd0	-0.004119493
159	0xbd769e2e	-0.060209446
160	0xbd1b3f4c	-0.03790216
161	0x3d140514	0.036137655
162	0xbd211246	-0.039324068
163	0xbd78cf12	-0.060744353
164	0x3d4d6a80	0.050150394
165	0xbd41b1d8	-0.047288746
166	0x3c4fe1e8	0.012688138
167	0x3d53aee2	0.051680453
168	0xba284980	-0.0006419644
169	0xbd5838dc	-0.0527886
170	0x3cabdc0c	0.02097895
171	0xbc9dd65c	-0.019267254
172	0xbc18b100	-0.009319544
173	0x3d13a2c4	0.036043897
174	0x3d548592	0.051885195
175	0x3cb2f120	0.021843493
176	0x3c8a6de8	0.01689811
177	0xbc58c588	-0.013230689
178	0x3d1aa244	0.037752405
179	0x3c5946e0	0.013261527
180	0xbc71df18	-0.014762662
181	0x3c3b9f88	0.011451609
182	0x3d632eda	0.055464603
183	0x3cbb1cc8	0.022840872
184	0xbd3679d0	-0.044549763
185	0x3d7f1bd6	0.062282406
186	0x3c326aa8	0.010889687
187	0x3cf3be20	0.029753745
188	0xbd68365e	-0.056692474
189	0x3d188468	0.037235647
190	0x3c380a50	0.011232927
191	0xbd488e2e	-0.048963718
192	0xbd5dcdb6	-0.05415126
193	0xbd280e88	-0.041029483
194	0xbd7c20ac	-0.061554596
195	0xbc5cea98	-0.013483666
