models/PrioritizedDoubleDQNAgent/cool_reward_full_data_short_epochs.pt (torch, 890819 bytes, 12 tensors)

base.em.weight f4 [14, 1]
00000000: 0000 0000 2073 ce3f b14f 413f 9fe8 023d
00000010: f126 eabf 380b 5dbe a238 833e e55f a13e
00000020: c3a7 943d 75d9 53bf 05e4 f5bf a1b3 9bbf
00000030: dab0 bbbe 6f53 283e
0.0 1.6128883 0.75512224 0.031960126 -1.8293134 -0.21586311 0.25629145 0.31518474
0.072585605 -0.8275369 -1.9210211 -1.2164193 -0.36658365 0.16438077

out.weight f4 [196, 256]
00000000: 76d4 5f3c 972c 4cbd 8337 dbbc 506d 1abd
00000010: 0960 f2bc d208 3d3d 19fc 2c3d f9ee 643d
00000020: b94b 1a3d 7689 413c 17c3 0c3d e1a9 a43c
00000030: e078 ecbc b6ae 3a3c ad62 c63a a289 01bd
00000040: 80de 403d 499c e1bc be97 863c 5201 9cbc
00000050: cad2 803d 75d1 36bd ab33 cdbc 910e cabc
00000060: d6e7 0a3d 3eee 923c 7361 46bc 6ff8 4abd
00000070: 191c e7bb cca9 3dbd 78b0 503d 2b65 313d
00000080: 446a cf3b 43d2 2fbd 2245 0abd 3f39 083a
00000090: 8b37 403d 1c99 1ebd cdfa 113d 49b0 21bd
000000a0: bc26 25bc f6bc 6c3d 62b6 3b3d 2014 413c
000000b0: 3608 903b 50df 15bd feb5 6e3c 1f7f b93c
000000c0: 7d1f a8bb 4712 5f3d 74fe f2bc 3e27 f93c
000000d0: 55bb 003d e472 6bbd bfca eebb f8be 263d
000000e0: a2b0 d5bc 3584 fb3b dae6 3a3c ba33 a5bc
000000f0: b6b0 2a3d 047d 2fbc e870 22ba 8e8b da3c
00000100: 77c0 bfbc 2ddd 70bc 0f56 b83c 31b8 293d
00000110: 18cb ec39 699f fd3c 42a4 34bd 5326 0f3d
00000120: cb42 a93b 54e4 41bd cfa4 f7bc 7f5e 483d
00000130: 21cc 38bd ad4f 5cbd ef23 843b 5b82 233d
00000140: 8d68 da3c 6369 473c 7e3c 71bd bd74 d3bc
00000150: 704e 7dbd 72d2 b13c 8963 9cbc f918 5a3c
00000160: b77c 1d3d 2ed5 b6ba 2042 91bc cdd4 4cbd
00000170: f9f4 733d 7a8f 263d cf39 5a3c 60e8 343d
00000180: 72b1 5fbd ddce ef3c 4dcd 5a3d 4b8b c43c
00000190: 9572 5dbb e32e 52bd 55f5 333d 9e38 b6bc
000001a0: cd5c f2bb 2374 363d 3f9a 6abd 16c9 8fbc
000001b0: 3991 813c 50ca 7bbc 3418 ad3c 3bb8 a6bc
000001c0: c6d4 36bd 862a e5bc 46dd 513d cdf5 fc3c
000001d0: 5b43 5cbd 6f3b c63c e816 3abd 91dc e03c
000001e0: fe38 0e3b 41a2 68bd 012b fabc 45f7 493a
000001f0: d5ed cebc 44d5 24bd a3b0 79bd a999 073d
00000200: 559d dabc edda 71bc ec19 e1bc efda 2f3d
00000210: 6975 8c3b d2a2 0dbb 3e25 5cbd f89d 443d
00000220: e5b8 00bd 4ef3 073d 7530 f6bc dfc1 853c
00000230: 606a 223c ab71 403d 2cda 49bd 285e a83c
00000240: 4db9 2fbd e61c 6bbd aec6 93bb 87d1 c53c
00000250: ad9d 92b9 6146 04bc 9dda 3abb fb39 7c3c
00000260: 1d0a 3abd 36cd 3dbd 89e4 633d 432f 21bd
00000270: 762d 65bd 813d 203d 792a edbc 609f 46bd
00000280: c234 693d 7ab4 573d f49f 66bd 1eee 0cbc
00000290: f941 03bc 5ff3 0fbc f0fa 68bd 852d 033d
000002a0: 68ab 1b3d 2651 62bc d3bc dcbc c79a 52bc
000002b0: 2568 54bc 3093 81bd 424b 4a3d 6777 59bb
000002c0: e588 a63a 7998 21bd 755d 46bd dc0b 9c3c
000002d0: 46af 49bd 2d55 34bd 8c8d 07bd 6671 393d
000002e0: effe c3bc 9f17 78bd dcbd 19bd b39a 153d
000002f0: 17f3 0dba 02fa 4a3c c14c 003c aaf1 153d
00000300: dd2e ea3c f6c7 07bd d81b 4a3d a479 babc
00000310: eb5b 0a3c 2d67 89bc f454 703d 4ca6 723d
00000320: df47 6bbd 4dc7 f0ba 6815 983b 1c35 d1bb
00000330: 7b2f 51bd a7ac d63c dbb7 993c 2e08 bbbc
00000340: d047 ff3c 6f58 c63c 0a94 d03c 99c7 6e3c
00000350: 275f 723c 8d1c f3bb f866 4abd 3941 c23b
00000360: 58d9 3c3d 2ff4 613d af90 8dbd f71e a0bc
00000370: 5d1e 4a3d 6eff 493d 3599 643d 5de8 253d
00000380: 0a06 113c d787 493c e359 62bd 89f8 eb3c
00000390: 8dfa 9e3a 5141 50bd ae80 283c bee3 5a3d
000003a0: 632b 61bd 1933 e1bc c1dc 193c e3bb e3bb
000003b0: a3ee 463d 2b4d 23bd 0472 98bc 7563 09bc
000003c0: a77c 5d3d f30a 28bd d80c aa3c 5282 6d3d
000003d0: e2fc 243c a820 f8bc 579e 89bc e64a 3f3d
000003e0: 391d 553d 8416 1cbc 2021 1fbd 4785 4ebd
000003f0: b56e 843d 25d8 d9bb 76c5 28bd cac8 c1bc
0.0136614945 -0.04984721 -0.026759868 -0.037701905 -0.029586809 0.04615099 0.042232607 0.055891965
0.03766987 0.011812558 0.03436574 0.020100536 -0.028866231 0.011394193 0.0015135609 -0.031625398
0.047087193 -0.027540343 0.016429778 -0.019043598 0.06290205 -0.044633348 -0.025049051 -0.024665149
0.033912502 0.017935868 -0.012108195 -0.04955333 -0.00705291 -0.04630451 0.050949544 0.043309372
0.0063298065 -0.04292513 -0.033757336 0.00051965186 0.04692797 -0.038720235 0.035639573 -0.03947476
-0.010080036 0.057797395 0.04582823 0.011784583 0.00439551 -0.03658992 0.0145697575 0.022643624
-0.005130707 0.05446079 -0.029662348 0.03041422 0.031428654 -0.057482615 -0.007287353 0.040709466
-0.026085202 0.0076756724 0.011407578 -0.020166267 0.04167243 -0.010710958 -0.0006196634 0.026677873
-0.023407204 -0.01470117 0.022501973 0.041435424 0.00045164744 0.030959802 -0.04410196 0.03494866
0.005165433 -0.04733689 -0.030229954 0.048918243 -0.045116547 -0.053786922 0.004032604 0.03991924
0.026661182 0.012171122 -0.05889558 -0.025812501 -0.061842382 0.021706793 -0.01909043 0.013311618
0.038449015 -0.001394903 -0.017731726 -0.05000763 0.059559796 0.040664174 0.013319447 0.044166923
-0.054612584 0.029273445 0.053418446 0.023992201 -0.003379022 -0.051314246 0.04393514 -0.022243794
-0.0073963166 0.04454435 -0.057276007 -0.01755194 0.015816318 -0.015368059 0.021129705 -0.02035152
-0.04463651 -0.027974378 0.051236413 0.030878926 -0.053775173 0.024198262 -0.045432 0.027448924
0.002170145 -0.056795362 -0.030538084 0.00077043875 -0.025259892 -0.04024245 -0.06095947 0.033105526
-0.02668635 -0.014761669 -0.02747818 0.0429334 0.0042864573 -0.002161194 -0.053746454 0.048002213
-0.03142633 0.033191018 -0.030052403 0.016327797 0.009913057 0.046983402 -0.04928033 0.02055271
-0.042901326 -0.057400607 -0.0045097684 0.024147762 -0.00027964768 -0.00807342 -0.0028511651 0.015394683
-0.0454198 -0.046338283 0.05563787 -0.039351713 -0.055951558 0.039121155 -0.028950917 -0.048491836
0.05693508 0.05266235 -0.056304887 -0.008601693 -0.008011335 -0.0087860515 -0.056879938 0.032025833
0.038005263 -0.013813293 -0.026945507 -0.012854285 -0.012964283 -0.06326902 0.049388178 -0.0033182742
0.0012705593 -0.03945205 -0.04842897 0.019048624 -0.04923942 -0.044026542 -0.033093974 0.04527416
-0.023925273 -0.0605694 -0.03753458 0.036524486 -0.00054149464 0.012388708 0.0078308 0.036607422
0.0285868 -0.033149682 0.04934296 -0.02276308 0.0084447665 -0.01677283 0.058674768 0.059240624
-0.05744159 -0.0018369943 0.0046412237 -0.006384505 -0.05107067 0.026205374 0.018764427 -0.022831049
0.031162173 0.02421209 0.025461216 0.014573955 0.014793194 -0.007419175 -0.049414605 0.0059281853
0.046105713 0.055164512 -0.06912362 -0.019546015 0.049345363 0.049315862 0.055810172 0.040504802
0.0088515375 0.012300453 -0.055261504 0.028805034 0.0012129113 -0.05084354 0.010284586 0.053439848
-0.054973017 -0.027490186 0.009391011 -0.006949888 0.048567425 -0.039868515 -0.018609054 -0.008385529
0.054073956 -0.041026067 0.020758078 0.05798561 0.010070058 -0.03028901 -0.016799135 0.046702288
0.052029822 -0.0095268525 -0.03884995 -0.050420072 0.06466428 -0.006648081 -0.04120394 -0.023655314

out.bias f4 [196]
00000000: cfcf acbc 84d0 c4bd 5cc6 6fbd c2d2 cfbd
00000010: b794 d3bd 6438 43bd f5ac 5abd 6dc8 503c
00000020: ac28 0abd 95e4 433c 0c4e 33bd dcfd b2bb
00000030: e28e 4c3d ed34 8d3c ab07 a0bd 90fd 51bc
00000040: 6ce4 cfbd 0245 e1bc f343 30bd 73ea b53b
00000050: 4443 aabd 96e5 3dbd 8abe 0a3d 45ce 8fbd
00000060: 0f1e 933d dfbe 8abd 39c3 49bd 26b5 33bb
00000070: 8c6d 90bd 4e84 39bd 68e4 043c 2816 963c
00000080: 7917 bfbc 9214 94bc de26 103c c03e 1dbd
00000090: 929e 5a3d d12e bd3c c5c5 41bd b34e fc3c
000000a0: c894 103d b371 8cbb b225 e2bd 9177 0cbd
000000b0: 317c 12bd 148d a03c 637c 0dbd ad0f bebd
000000c0: a531 4fbd 6159 103d 174e 08bd 8866 35bd
000000d0: 3c3c 2d3c 12f7 2c3c 9f03 50bd e6a0 453d
000000e0: 3fe7 71bd a7b1 48bc 781f 90bc ada7 6fbd
000000f0: 6052 2cbc f464 b03c 564a 3bbd b581 83bc
00000100: d617 433d 7ac8 803c 47b9 353d a599 73bb
00000110: aeec b8bc 8d85 b4bc 4bcc 93bd 7ca8 84bd
00000120: 8156 a13c 6911 abbc b83c 623b 7272 39bd
00000130: a08c 993c 0065 b0bd dd6e 36bd 5c20 bdba
00000140: e9ce edbb c98c 673c 9a8b d3bc 960f 863d
00000150: 500b 9dbd 41f7 cabd 0911 00bd cfd3 0abd
00000160: 8233 b93a 7218 56bd 5c2d 073d 4139 24bd
00000170: b6ff 85bc e0d6 64bd 5c09 92bd b4e1 febc
00000180: a2ba 253d 2680 05bd db6e 223d cdda 85bd
00000190: 8784 7dbd e25d 19bc 7f3c e0bc f4ef 083d
000001a0: e906 53bd 0446 863c cf9a b4bd 99f8 08bc
000001b0: 4934 0cbd 9699 783d b1be 3abd 28ea 763d
000001c0: 5a6e 0d3d e047 bfbc 65a2 40bb 0046 9c3b
000001d0: c330 a9bc ad34 48bc 7ace 85bc 5a89 50bd
000001e0: 3033 553d 29ce a4bd c98c 48bd 583c 773d
000001f0: 8c92 ed3c 77bf b33c 6f67 3abc 1fc9 fa3b
00000200: 5ed2 2f3d 466c 96bd 08e2 b7bd d3fe 093c
00000210: 7f3c 803a 1380 0abd 2c07 5abb a6e0 5cbd
00000220: d37d 24bd 6c34 b13c 0db1 08bd 8b5b 913c
00000230: 668d 80bb 6604 5ebd e2f1 173d aa87 473c
00000240: c1c2 61bd d676 26bd c131 72bd cae3 0d3c
00000250: 2e86 e1bc b5e9 8d3c 30bc c93b 3beb a63c
00000260: 1873 803c fc8c 413d 50ae 49bc 586e 0e3d
00000270: 8253 6c3d 60ac 21bd 55d4 263d 6dd9 cb3b
00000280: be50 073d 50ca 6cbd 44be bebc ec16 20bd
00000290: b66f 4b3c c6f5 173d 08f5 21bd 3b16 633d
000002a0: 1e46 5bbd 623e 75bd 02f1 0ebd c0e2 4e3b
000002b0: ded6 27bd 387b ffbc 8041 6b3a 94da cdbb
000002c0: 446c 2c3d ca30 19bd 0054 653a aa95 78bd
000002d0: 4476 963c 8829 143c 7ed4 23bd 629b 353d
000002e0: e03a e6bb 58c6 2b3c f0b5 13bc 16c4 643d
000002f0: dedb 39bd 8453 28bd f419 3bbd d8cf 17bd
00000300: 1617 1ebd 3c7c 753d cd9f 193b 4819 873c
-0.021095185 -0.09610084 -0.05853878 -0.10147621 -0.103310995 -0.0476612 -0.0533876 0.012743098
-0.033730194 0.011956354 -0.043775603 -0.0054623913 0.04994095 0.017237151 -0.078139625 -0.012816802
-0.1015099 -0.027498726 -0.04303355 0.00555163 -0.08313611 -0.04636153 0.03387312 -0.07021765
0.071834676 -0.06774687 -0.049258444 -0.0027421205 -0.070521444 -0.04529219 0.008111097 0.018321112
-0.023326622 -0.018076215 0.008798329 -0.03838992 0.05337388 0.023093613 -0.04730775 0.030799245
0.03529814 -0.004286015 -0.11042346 -0.034293715 -0.03576297 0.019598521 -0.034542453 -0.09280334
-0.050584454 0.03524149 -0.033277597 -0.044287235 0.010573443 0.010556953 -0.050784703 0.048249148
-0.059058424 -0.012249387 -0.01759313 -0.058509517 -0.010517687 0.021532513 -0.04572519 -0.01605306
0.047630154 0.015720595 0.044366147 -0.0037170437 -0.022573795 -0.022036338 -0.072167 -0.06477448
0.019694569 -0.020882325 0.0034521054 -0.04527516 0.018743813 -0.08613014 -0.04453932 -0.00144292
-0.0072573316 0.014132687 -0.025823403 0.065459415 -0.07668173 -0.09910441 -0.031266246 -0.033893403
0.001412973 -0.052269407 0.033002242 -0.040093664 -0.016357284 -0.055868983 -0.071306914 -0.031113483
0.04046119 -0.032592915 0.0396565 -0.065358736 -0.061893966 -0.009360762 -0.027372597 0.033431962
-0.051520262 0.016390808 -0.0881859 -0.008360052 -0.03422955 0.060693346 -0.045592014 0.060281903
0.034529068 -0.023349702 -0.002939367 0.004769087 -0.020653134 -0.01221959 -0.016333807 -0.05091224
0.05205077 -0.080471344 -0.04896239 0.060360283 0.029000543 0.021941883 -0.0113772 0.00765337
0.04292523 -0.0734487 -0.08978659 0.008422571 0.0009783654 -0.033813547 -0.0033268435 -0.05392518
-0.040159058 0.021631442 -0.033371974 0.017743846 -0.003923106 -0.054203413 0.03709591 0.012178341
-0.055117372 -0.040640675 -0.05912948 0.008660266 -0.027529802 0.017323354 0.006156467 0.020375839
0.015679881 0.047253594 -0.012309626 0.0347732 0.057696827 -0.03947103 0.04072984 0.0062209875
0.033035986 -0.057810128 -0.023284085 -0.03908436 0.012416771 0.037099622 -0.03954032 0.055441123
-0.053533666 -0.059873946 -0.03489781 0.003156826 -0.040976398 -0.031186685 0.0008974299 -0.00628216
0.042095438 -0.037400045 0.0008748174 -0.060689606 0.01836694 0.009043105 -0.03999757 0.044337638
-0.0070260614 0.010484301 -0.009015545 0.055851065 -0.045375697 -0.04109527 -0.045679048 -0.03706345
-0.038596235 0.059932932 0.0023441196 0.016491547

base.em.weight f4 [14, 1]
00000000: 0000 0000 c36f ce3f 9c49 413f 651a 023d
00000010: 7023 eabf 0512 5dbe d92d 833e 4558 a13e
00000020: db87 943d 29d6 53bf 3ce2 f5bf 0bb3 9bbf
00000030: 8da8 bbbe 6f53 283e
0.0 1.6127857 0.75502944 0.031763453 -1.8292065 -0.21588905 0.25620916 0.31512657
0.07252475 -0.8274866 -1.9209666 -1.2164015 -0.36652032 0.16438077

out.weight f4 [196, 256]
00000000: acf5 5f3c 7326 4cbd 9a37 dbbc 386e 1abd
00000010: 1c60 f2bc 2c11 3d3d b0fb 2c3d 51f7 643d
00000020: 7143 1a3d 7f95 413c 12c3 0c3d 51b9 a43c
00000030: 1079 ecbc db95 3a3c 8b73 c53a 6c86 01bd
00000040: d1e1 403d fa8a e1bc e1a4 863c a4f0 9bbc
00000050: f5d6 803d a6d5 36bd e222 cdbc a60e cabc
00000060: 28e0 0a3d f6fe 923c d561 46bc 1ff0 4abd
00000070: 43d9 e6bb 75a6 3dbd 5ea8 503d 1665 313d
00000080: 4f2f cf3b dcc9 2fbd 3a45 0abd 294f 0a3a
00000090: 143e 403d ef93 1ebd 2203 123d f9a7 21bd
000000a0: db14 25bc 7bb9 6c3d 39ae 3b3d b804 413c
000000b0: 18e5 8f3b 04e1 15bd 42d7 6e3c d08f b93c
000000c0: a5dc a7bb 2d19 5f3d 4b0d f3bc 0827 f93c
000000d0: a7c3 003d cd6b 6bbd 1c88 eebb 57bd 263d
000000e0: 6bac d5bc 6841 fb3b d806 3b3c fd29 a5bc
000000f0: beb1 2a3d bd83 2fbc 5e5d 20ba 3288 da3c
00000100: 4fb0 bfbc 37c6 70bc a154 b83c 71bc 293d
00000110: 6f24 ea39 d2af fd3c eb9b 34bd 9c20 0f3d
00000120: cb07 a93b bdeb 41bd 5e96 f7bc ea5b 483d
00000130: c7c3 38bd df49 5cbd bcf7 833b 6589 233d
00000140: 3f79 da3c 7849 473c 0437 71bd 0564 d3bc
00000150: 5951 7dbd f3e1 b13c 3472 9cbc e418 5a3c
00000160: 357c 1d3d f5ca b5ba 3542 91bc dad4 4cbd
00000170: 35ed 733d d597 263d bb55 5a3c 6be0 343d
00000180: 98b7 5fbd 72ca ef3c a2d5 5a3d 0698 c43c
00000190: e1d4 5dbb e32e 52bd affd 333d f045 b6bc
000001a0: ba1e f2bb 7d7c 363d 579e 6abd 61b8 8fbc
000001b0: 86a0 813c caa9 7bbc 1829 ad3c 34bc a6bc
000001c0: 0bd5 36bd cf19 e5bc a0e5 513d 7905 fd3c
000001d0: 013b 5cbd 553b c63c 8e0e 3abd 91dc e03c
000001e0: b4b8 0d3b dba1 68bd 7727 fabc cd92 493a
000001f0: 03ee cebc c8d5 24bd 49a8 79bd da9e 073d
00000200: 5fa4 dabc 5bca 71bc fb09 e1bc efda 2f3d
00000210: 04b8 8c3b ac27 0ebb e71c 5cbd e09d 443d
00000220: f8b8 00bd a8fb 073d b61f f6bc 28c1 853c
00000230: 2a83 223c bb6a 403d 0ed9 49bd 924d a83c
00000240: 60b9 2fbd 9815 6bbd f5f4 93bb 57ca c53c
00000250: 5a64 95b9 5149 04bc e301 3bbb 2826 7c3c
00000260: 460a 3abd 86d0 3dbd 1ae1 633d 2028 21bd
00000270: 672f 65bd 5a45 203d c42a edbc f298 46bd
00000280: b134 693d bfb8 573d 1ea0 66bd 72ee 0cbc
00000290: cb20 03bc 1113 10bc 93f2 68bd 6f2f 033d
000002a0: 54b0 1b3d 6359 62bc f7bc dcbc cea6 52bc
000002b0: bb46 54bc 4d95 81bd 1051 4a3d 0a7d 59bb
000002c0: 1382 a63a 1d91 21bd 945d 46bd a41b 9c3c
000002d0: bda7 49bd 9758 34bd cf8b 07bd 1972 393d
000002e0: 0fff c3bc d51b 78bd 06be 19bd 0da3 153d
000002f0: aadc 0bba 56dc 4a3c 504c 003c 6ce9 153d
00000300: ed36 ea3c 9fbf 07bd c713 4a3d ad79 babc
00000310: ad71 0a3c 4f67 89bc 7450 703d aaae 723d
00000320: ff47 6bbd eb1d f1ba 8514 983b 9ff2 d0bb
00000330: 9b2f 51bd dfa3 d63c 7db3 993c 4714 bbbc
00000340: b847 ff3c 4f59 c63c 9a9d d03c 09a8 6e3c
00000350: f15e 723c 6f1d f3bb 9e5e 4abd 916a c23b
00000360: a0e1 3c3d 06f4 613d 178f 8dbd 141f a0bc
00000370: 9826 4a3d 39ff 493d a5a1 643d b7f0 253d
00000380: 75e6 103c 29a9 493c 3352 62bd 4509 ec3c
00000390: 1cf1 9e3a 4749 50bd 2d9c 283c b8e3 5a3d
000003a0: 0623 61bd 6229 e1bc b1fa 193c 9bbd e3bb
000003b0: 90f6 463d 1b45 23bd 4b61 98bc 2d65 09bc
000003c0: 2a77 5d3d 9402 28bd e91c aa3c ac8a 6d3d
000003d0: 41fa 243c 0610 f8bc 8f95 89bc f344 3f3d
000003e0: 9825 553d 84ff 1bbc 3a21 1fbd df7c 4ebd
000003f0: 596d 843d 129d d9bb efcb 28bd aed6 c1bc
0.013669413 -0.049841356 -0.026759911 -0.03770277 -0.029586844 0.046158955 0.042232215 0.05589992
0.037661973 0.011815428 0.03436572 0.020107897 -0.02886632 0.011388267 0.0015064342 -0.031622335
0.047090355 -0.02753209 0.016436042 -0.019035645 0.06291 -0.044637345 -0.025041047 -0.024665188
0.03390518 0.01794384 -0.012108286 -0.049545404 -0.0070449426 -0.046301324 0.050941817 0.043309294
0.0063227783 -0.042917117 -0.033757426 0.0005276078 0.046934202 -0.0387153 0.03564752 -0.03946683
-0.010075773 0.057794075 0.04582045 0.01178091 0.004391324 -0.036591545 0.014577689 0.022651583
-0.0051227384 0.05446737 -0.029669425 0.03041412 0.03143659 -0.057475854 -0.007279409 0.040707912
-0.026083192 0.007667709 0.011415206 -0.020161623 0.041673414 -0.010712561 -0.00061174284 0.026676271
-0.0233995 -0.014695696 0.022501292 0.041439477 0.00044659103 0.030967627 -0.044094007 0.034943208
0.0051583997 -0.04734396 -0.030223068 0.04891578 -0.045108583 -0.053781386 0.004027335 0.03992595
0.026669143 0.012163512 -0.058890358 -0.025804529 -0.061845157 0.021714186 -0.019097425 0.013311598
0.03844853 -0.001386969 -0.017731765 -0.05000768 0.05955239 0.040672142 0.013326104 0.044159334
-0.054618448 0.029271338 0.053426392 0.023998272 -0.003384881 -0.051314246 0.043943103 -0.022250146
-0.007388917 0.044552315 -0.05727991 -0.017543973 0.015823614 -0.015360305 0.02113776 -0.020353414
-0.044636767 -0.027966408 0.051244378 0.030886399 -0.053767208 0.024198214 -0.045424037 0.027448924
0.0021624984 -0.056794982 -0.030536396 0.00076894165 -0.025259977 -0.04024294 -0.060951505 0.033110477
-0.026689706 -0.014757718 -0.02747058 0.0429334 0.0042943973 -0.0021691127 -0.0537385 0.048002124
-0.0314264 0.033198982 -0.030044418 0.016327456 0.009918967 0.046976786 -0.049279265 0.0205448
-0.042901397 -0.05739364 -0.004515285 0.024144335 -0.00028494262 -0.008074121 -0.002853506 0.0153899565
-0.045419954 -0.04634144 0.055634595 -0.039344907 -0.05595341 0.03912864 -0.028951056 -0.048485704
0.056935016 0.052666422 -0.056305043 -0.008601772 -0.008003424 -0.008793608 -0.05687196 0.032027658
0.038009956 -0.013815257 -0.026945574 -0.012857152 -0.012956317 -0.06327305 0.049393713 -0.0033186101
0.001270356 -0.03944503 -0.048429087 0.019056149 -0.049232233 -0.0440298 -0.033092316 0.045274828
-0.023925332 -0.060573418 -0.037534736 0.03653245 -0.00053353107 0.012381634 0.007830694 0.03659956
0.028590644 -0.03314173 0.049335267 -0.022763098 0.008449954 -0.016772894 0.058670476 0.059248604
-0.057441708 -0.0018395757 0.004641118 -0.006376579 -0.05107079 0.026201187 0.018762344 -0.022836817
0.031162128 0.024212508 0.025465775 0.01456643 0.014793144 -0.0074192802 -0.04940664 0.005933114
0.04611361 0.05516436 -0.06912058 -0.01954607 0.049353212 0.049315665 0.05581822 0.040512767
0.008844008 0.012308397 -0.055254173 0.028813014 0.00121263 -0.050851133 0.010291141 0.053439826
-0.05496504 -0.027485553 0.009398148 -0.006950093 0.048574984 -0.039860826 -0.01860108 -0.008385939
0.05406872 -0.041018084 0.020765739 0.057993576 0.010069431 -0.030281078 -0.016794948 0.046696614
0.052037805 -0.009521369 -0.038850047 -0.050412055 0.06466169 -0.0066410387 -0.04121011 -0.023661938

out.bias f4 [196]
00000000: 16c2 acbc eb96 c4bd 2527 6fbd 2cbe cfbd
00000010: a175 d3bd 6a2b 43bd 78b4 5abd 53c4 503c
00000020: 3a29 0abd 53bd 433c 6762 33bd dcfd b2bb
00000030: a68e 4c3d ed34 8d3c c0d0 9fbd 90fd 51bc
00000040: 99cb cfbd 92b3 e0bc 4485 2fbd 5a3c bb3b
00000050: 9251 aabd 5495 3dbd 43ae 0a3d 45ce 8fbd
00000060: 0f1e 933d 78d5 8abd 98c3 49bd 26b5 33bb
00000070: 1520 90bd e061 39bd 68e4 043c 7bfe 963c
00000080: d293 bebc b62b 94bc db16 113c 593f 1dbd
00000090: 4d94 5a3d 632e bd3c c5c5 41bd b34e fc3c
000000a0: c894 103d b371 8cbb 40f7 e1bd cf1a 0cbd
000000b0: f27e 12bd 148d a03c 2f36 0dbd 6817 bebd
000000c0: 5dae 4ebd ce48 103d 1233 08bd e2cc 34bd
000000d0: 2f3d 2d3c 12f7 2c3c 9f03 50bd e6a0 453d
000000e0: b3d0 71bd d609 46bc 4f78 8fbc 2a15 6fbd
000000f0: 6052 2cbc 6a50 b03c 7612 3bbd d384 83bc
00000100: 9502 433d 3fbe 803c 47b9 353d a599 73bb
00000110: aeec b8bc 8d85 b4bc 3cce 93bd 0748 84bd
00000120: 4d66 a13c 66fd aabc 301b 633b 7272 39bd
00000130: 9dd0 993c 7d67 b0bd dd6e 36bd 6163 bdba
00000140: 37f9 ebbb c98c 673c 9a8b d3bc 960f 863d
00000150: 290f 9dbd e5f2 cabd 4c9c ffbc ef9b 0abd
00000160: 39c9 ba3a f599 55bd 5c2d 073d 92d5 23bd
00000170: 75fc 85bc e0d6 64bd 5c09 92bd b4e1 febc
00000180: a2ba 253d 2680 05bd db6e 223d 8cc4 85bd
00000190: f181 7dbd e25d 19bc e30e e0bc f4ef 083d
000001a0: 3002 53bd 0446 863c cf9a b4bd ebae 08bc
000001b0: 4934 0cbd 9699 783d b1be 3abd 28ea 763d
000001c0: 5a6e 0d3d e047 bfbc 65a2 40bb 0046 9c3b
000001d0: c330 a9bc ad34 48bc 4d76 85bc eb91 50bd
000001e0: 3033 553d 29ce a4bd 058d 48bd d63b 773d
000001f0: f8f7 ec3c 77bf b33c 6f67 3abc 1fc9 fa3b
00000200: 5ed2 2f3d 93ca 95bd 08e2 b7bd d3fe 093c
00000210: 793c 803a 473f 0abd 2c07 5abb a6e0 5cbd
00000220: d37d 24bd 6c34 b13c 0db1 08bd 8b5b 913c
00000230: 668d 80bb 6604 5ebd e2f1 173d fa9d 473c
00000240: c1c2 61bd d24c 26bd c131 72bd cae3 0d3c
00000250: 2e86 e1bc b5e9 8d3c 30bc c93b 3beb a63c
00000260: 1873 803c fc8c 413d 50ae 49bc 586e 0e3d
00000270: 1e4b 6c3d 60ac 21bd 55d4 263d 6dd9 cb3b
00000280: be50 073d 50ca 6cbd 44be bebc ec16 20bd
00000290: b66f 4b3c c6f5 173d 08f5 21bd 3b16 633d
000002a0: 1e46 5bbd 623e 75bd 02f1 0ebd c0e2 4e3b
000002b0: ded6 27bd 387b ffbc 8041 6b3a 94da cdbb
000002c0: 446c 2c3d ca30 19bd 0054 653a aa95 78bd
000002d0: 4476 963c 8829 143c 7ed4 23bd 629b 353d
000002e0: e03a e6bb 58c6 2b3c f0b5 13bc 16c4 643d
000002f0: dedb 39bd 8453 28bd f419 3bbd d8cf 17bd
00000300: 1617 1ebd 3c7c 753d cd9f 193b 4819 873c
-0.021088641 -0.09599098 -0.05838694 -0.10143694 -0.1032517 -0.047648825 -0.053394765 0.01274212
-0.033730723 0.011946994 -0.043795016 -0.0054623913 0.049940728 0.017237151 -0.07803488 -0.012816802
-0.10146255 -0.027429376 -0.0428517 0.0057139816 -0.083163396 -0.04628499 0.033857595 -0.07021765
0.071834676 -0.06778997 -0.0492588 -0.0027421205 -0.07037369 -0.045259356 0.008111097 0.018431893
-0.023263846 -0.01808725 0.008855547 -0.03839049 0.053364087 0.023093408 -0.04730775 0.030799245
0.03529814 -0.004286015 -0.11033487 -0.034205254 -0.035765596 0.019598521 -0.0344755 -0.09281808
-0.050459255 0.035225682 -0.03325183 -0.044140704 0.010573669 0.010556953 -0.050784703 0.048249148
-0.05903692 -0.012087306 -0.017513422 -0.058369793 -0.010517687 0.02152272 -0.045671903 -0.016054546
0.047609884 0.015715716 0.044366147 -0.0037170437 -0.022573795 -0.022036338 -0.072170705 -0.064590506
0.019702101 -0.020872783 0.0034653656 -0.04527516 0.018776232 -0.08613489 -0.04453932 -0.0014449173
-0.0072013396 0.014132687 -0.025823403 0.065459415 -0.07668907 -0.0990961 -0.031202458 -0.033840116
0.0014250643 -0.052148778 0.033002242 -0.0399986 -0.016355732 -0.055868983 -0.071306914 -0.031113483
0.04046119 -0.032592915 0.0396565 -0.06531629 -0.0618915 -0.009360762 -0.027350849 0.033431962
-0.051515758 0.016390808 -0.0881859 -0.008342485 -0.03422955 0.060693346 -0.045592014 0.060281903
0.034529068 -0.023349702 -0.002939367 0.004769087 -0.020653134 -0.01221959 -0.016291762 -0.05092041
0.05205077 -0.080471344 -0.04896261 0.0603598 0.028926834 0.021941883 -0.0113772 0.00765337
0.04292523 -0.073140286 -0.08978659 0.008422571 0.0009783647 -0.033751752 -0.0033268435 -0.05392518
-0.040159058 0.021631442 -0.033371974 0.017743846 -0.003923106 -0.054203413 0.03709591 0.012183661
-0.055117372 -0.040600605 -0.05912948 0.008660266 -0.027529802 0.017323354 0.006156467 0.020375839
0.015679881 0.047253594 -0.012309626 0.0347732 0.057688825 -0.03947103 0.04072984 0.0062209875
0.033035986 -0.057810128 -0.023284085 -0.03908436 0.012416771 0.037099622 -0.03954032 0.055441123
-0.053533666 -0.059873946 -0.03489781 0.003156826 -0.040976398 -0.031186685 0.0008974299 -0.00628216
0.042095438 -0.037400045 0.0008748174 -0.060689606 0.01836694 0.009043105 -0.03999757 0.044337638
-0.0070260614 0.010484301 -0.009015545 0.055851065 -0.045375697 -0.04109527 -0.045679048 -0.03706345
-0.038596235 0.059932932 0.0023441196 0.016491547

exp_avg f4 [14, 1]
00000000: 0000 0000 2b7d 50c0 cc10 67bf 851b abbe
00000010: 3369 e73f d5af bfbd 3817 f3be 5b27 dcbe
00000020: a145 0abe 9af4 c13e eeac d13e e258 9a3d
00000030: 23bb 1e3d 8508 7022
0.0 -3.2576396 -0.90260005 -0.33419433 1.8078979 -0.09359709 -0.47478652 -0.42998776
-0.13503124 0.3788193 0.40952247 0.07536484 0.038752686 3.2530575e-18

exp_avg_sq f4 [14, 1]
00000000: 0000 0000 e5f2 9e41 72c3 f23f 1252 773d
00000010: f963 c240 2567 863e fce2 4b3f e0b0 aa3f
00000020: 0977 fa3d 83ad 883f 3bd5 673f 765e 743e
00000030: 0714 aa3b bb36 8d37
0.0 19.8686 1.8965895 0.060381003 6.0747037 0.26250568 0.79643226 1.3335228
0.122297354 1.0677952 0.9055974 0.23864159 0.0051903757 1.6833996e-05

exp_avg f4 [196, 256]
00000000: 52d8 8039 e958 2d3a 3579 e4b5 b082 f1b6
00000010: 45d4 e0b5 85d7 ad39 20f8 7bb6 6cfc dc39
00000020: 800a e7b6 bf4f f038 c812 cbb5 e84e 983a
00000030: 80c7 5cb6 e988 b1b6 e673 05b7 d2c7 8d39
00000040: d3f2 2538 14df 8f38 f983 5539 9702 6539
00000050: 5b0f 4c3a 97f6 f2b6 3051 e739 52ec 07b6
00000060: 5194 fbb5 578f 123a f0e3 4eb6 680f 2339
00000070: 6134 c83a d561 183a b062 3fb7 e930 ecb6
00000080: 79a2 13b7 561a c638 b279 2fb5 624b bb39
00000090: 1822 a137 7d89 8739 c045 ca39 17e9 8e3a
000000a0: 3f53 6039 8a94 81b5 1273 3bb6 7d61 6eb7
000000b0: 4319 f5b5 4c06 14b6 4a9a a438 3436 0d3a
000000c0: 16cc 163a f643 063a 3a9c 42b6 ad43 b2b6
000000d0: 4449 b339 607d e139 ba2e bf3a dbf2 16b5
000000e0: a016 c738 9f17 a5b6 dc94 9f37 67b0 f639
000000f0: 32f7 3738 6d52 8eb5 3966 363a c68e 84b6
00000100: 4fed c336 dcd8 f739 96c2 eeb5 675d 6439
00000110: 704e b6b5 d9d4 683a fd96 1039 b6e4 38b6
00000120: 7368 51b7 a088 bfb6 f9df c139 6b08 4eb6
00000130: ed3c ce39 c129 cc39 2da7 feb6 5c5f dc39
00000140: ed4b a83a 80d6 c3b6 aad5 9f39 3097 4c3a
00000150: e3ca beb5 a7d6 703a f3b3 d2b6 573c 83b5
00000160: 91d1 06b7 0ec9 e338 6737 69b6 cb6d 75b6
00000170: 5ae0 5cb6 b16c 1b3a ec47 c73a 24fc e1b6
00000180: b113 6fb6 d268 18b6 5190 1e3a b94f bd39
00000190: d882 e3b6 9751 64b4 098b ac39 26f2 15b4
000001a0: 6a5a 5b3a 3437 2c39 a219 4bb7 ff78 943a
000001b0: deae e139 8d51 4a3a 8116 8237 c7af 8eb5
000001c0: 7d66 39b6 c106 183a c010 423a 6d6e 243a
000001d0: 2d8b 7e3a c279 96b6 fea8 bd39 fcd9 5ab4
000001e0: cfb6 22b7 6031 cd37 0426 5939 6d33 c6b5
000001f0: 777b 83b6 62a8 adb6 8304 313a 0daf e639
00000200: 25ac e1b6 c46a 2839 3231 f139 114f c1b3
00000210: e656 cb39 987f 4ab7 aa31 c938 8c3a 0db6
00000220: df8a 4eb6 54ee 3139 a80d ac39 85d4 98b4
00000230: 21a3 1737 8b01 f2b6 a779 c538 46b6 37b7
00000240: 45cf 81b6 7029 b338 94b7 abb6 5c9b 88b6
00000250: 99dc 6cb6 c949 a9b5 926a b9b6 53e2 3db6
00000260: 98b3 8fb6 5495 69b6 463c 0bb6 582e 0c3a
00000270: 515e 52b5 3eba 353a 452d b5b5 17da f939
00000280: b01c e0b5 d4f5 5639 2b2c 14b6 ca74 07b7
00000290: 7af9 da38 1e58 45b7 4575 9e39 9f6d ba38
000002a0: 9d70 e338 6b24 53b6 1700 dfb5 5fb3 a7b5
000002b0: 421d 5b3a 3716 16b7 0b0b 153a 0112 20b7
000002c0: be16 a3b6 52be 613a 6bb2 f7b4 0bfb 5f3a
000002d0: 490c 903a 55ac cbb6 2043 de38 de75 0e38
000002e0: 20fd 8eb6 8725 03b7 9580 91b6 c097 393a
000002f0: 51ed 503a db90 d0b6 e505 8cb6 bea2 1fb7
00000300: 1992 e238 1343 6f39 16c6 9ab6 b27e 30b5
00000310: 8fb6 063a cd9b 56b5 09d1 09b7 99f6 b339
00000320: 4f93 acb6 4213 43b5 3ae5 2ab5 045e c738
00000330: 0f35 28b7 eb22 87b6 a759 03b7 2163 89b6
00000340: 657e edb5 1c47 df37 1eb8 4b39 dddd 2cb7
00000350: cc1d 5db6 3f8a 45b6 c43d 313a 8494 ef39
00000360: efaa f938 65fb b3b6 d9b6 bd39 66b0 91b6
00000370: c4db 8a3a 607a 05b7 6677 7438 dfac 6e3a
00000380: 0ba5 e9b6 5d04 c639 a4d3 953a 108c 3f3a
00000390: 2e6d 01b7 c071 15b7 dd29 833a 0c73 08b6
000003a0: a35f 133a 982d 9e39 aa9c 473a 06ba c7b5
000003b0: 348f ce39 615a 6538 ebb1 853a 7e5b c0b6
000003c0: c32d 8ab5 0fe2 7c39 83e9 6a38 9f09 c33a
000003d0: af38 14b6 a8b9 9f38 a66d 9b39 a807 9fb6
000003e0: 7477 7d39 a9a1 503a 82bd a9b6 6a51 0e39
000003f0: 1e29 69b6 cad3 3c3a 0b05 d5b6 7fe4 bab6
0.00024575234 0.0006612675 -1.70226e-06 -7.1975737e-06 -1.6751079e-06 0.00033157706 -3.7546342e-06 0.0004214974
-6.885559e-06 0.00011458946 -1.5130145e-06 0.0011620196 -3.289868e-06 -5.2909495e-06 -7.9544025e-06 0.00027042493
3.9565213e-05 6.860323e-05 0.00020362427 0.00021840107 0.00077842706 -7.240869e-06 0.00044120243 -2.0254124e-06
-1.8744123e-06 0.00055908173 -3.082907e-06 0.0001555063 0.0015274399 0.0005812918 -1.1407465e-05 -7.039042e-06
-8.799711e-06 9.446281e-05 -6.536967e-07 0.00035723584 1.9208572e-05 0.00025851643 0.0003858041 0.0010903206
0.00021393316 -9.65448e-07 -2.7932151e-06 -1.4208604e-05 -1.8261275e-06 -2.2057384e-06 7.848868e-05 0.00053868
0.0005752457 0.00051218213 -2.8999189e-06 -5.312692e-06 0.00034196128 0.00043008756 0.0014586069 -5.6232756e-07
9.493274e-05 -4.920133e-06 1.9023595e-05 0.00047052206 4.386082e-05 -1.0603814e-06 0.00069579814 -3.9505276e-06
5.839079e-06 0.00047273084 -1.7789014e-06 0.0002177857 -1.3582885e-06 0.00088818144 0.00013789158 -2.7551264e-06
-1.248169e-05 -5.708149e-06 0.000369787 -3.0701292e-06 0.00039336775 0.0003894102 -7.5892517e-06 0.00042032718
0.001284001 -5.836424e-06 0.00030486035 0.0007804511 -1.4215151e-06 0.0009187259 -6.2794365e-06 -9.777822e-07
-8.035816e-06 0.00010861653 -3.4751954e-06 -3.6571753e-06 -3.2913144e-06 0.0005928977 0.001520393 -6.7348756e-06
-3.5625237e-06 -2.2710778e-06 0.00060487265 0.00036108287 -6.7803594e-06 -2.1263837e-07 0.00032909986 -1.39648e-07
0.000836766 0.00016423763 -1.2105711e-05 0.0011327564 0.0004304563 0.00077178405 1.5507687e-05 -1.0630982e-06
-2.7626804e-06 0.0005799346 0.00074030086 0.0006272558 0.000971007 -4.484523e-06 0.00036174798 -2.0382134e-07
-9.698516e-06 2.4460896e-05 0.00020708895 -1.4767116e-06 -3.9184774e-06 -5.175404e-06 0.00067526865 0.00043999442
-6.725563e-06 0.00016061502 0.00046003755 -9.001645e-08 0.00038783922 -1.2069846e-05 9.5936775e-05 -2.1044716e-06
-3.0777226e-06 0.0001696882 0.0003281657 -2.8466835e-07 9.038283e-06 -7.2123416e-06 9.4163515e-05 -1.0950089e-05
-3.868629e-06 8.5431035e-05 -5.1175684e-06 -4.071202e-06 -3.5295145e-06 -1.2612956e-06 -5.525836e-06 -2.8294933e-06
-4.2826396e-06 -3.4806626e-06 -2.0747698e-06 0.0005347482 -7.8368345e-07 0.00069323543 -1.3498726e-06 0.0004765547
-1.669765e-06 0.00020500208 -2.2079428e-06 -8.073819e-06 0.00010441519 -1.1762631e-05 0.0003022348 8.88959e-05
0.00010845179 -3.1462648e-06 -1.6614821e-06 -1.2494673e-06 0.0008358547 -8.945869e-06 0.00056855445 -9.540935e-06
-4.860426e-06 0.0008611429 -4.613715e-07 0.0008544183 0.0010989989 -6.0699335e-06 0.00010598288 3.396521e-05
-4.2613974e-06 -7.816946e-06 -4.3363057e-06 0.00070798025 0.0007969933 -6.2157465e-06 -4.1730113e-06 -9.51503e-06
0.000108037326 0.00022817803 -4.612618e-06 -6.5749475e-07 0.00051388977 -7.994793e-07 -8.214506e-06 0.0003432527
-5.1431484e-06 -7.2671185e-07 -6.3663504e-07 9.506571e-05 -1.0025934e-05 -4.0273785e-06 -7.829082e-06 -4.0944583e-06
-1.7694662e-06 2.6616784e-05 0.00019428178 -1.03036555e-05 -3.294891e-06 -2.9435757e-06 0.0006761218 0.00045696285
0.00011905084 -5.363882e-06 0.0003618512 -4.341872e-06 0.001059406 -7.95591e-06 5.828533e-05 0.00091047393
-6.9631546e-06 0.00037768754 0.0011430872 0.0007306943 -7.71442e-06 -8.907577e-06 0.0010006983 -2.0332545e-06
0.0005621856 0.00030170078 0.00076145923 -1.4880795e-06 0.00039398076 5.4682027e-05 0.0010200118 -5.732697e-06
-1.029512e-06 0.00024116806 5.6007422e-05 0.0014880187 -2.2086713e-06 7.616292e-05 0.00029645598 -4.7394606e-06
0.0002417246 0.00079586596 -5.058654e-06 0.00013572504 -3.474364e-06 0.000720319 -6.3484817e-06 -5.5698324e-06

exp_avg_sq f4 [196, 256]
00000000: 8687 1037 8819 ef38 bca0 8537 99f9 2535
00000010: 002c b737 51cd 8137 44a7 5e35 8768 d237
00000020: 2a15 e931 e227 6f37 0fb0 2838 2663 6939
00000030: 4f6a 4e37 91ad f431 6f2e 3f32 3f54 9238
00000040: 69df ba35 0e36 2535 1c55 1e37 e7d2 e136
00000050: e45f b338 6ee7 fb32 5ad4 e337 0d1f d337
00000060: a9ad 2030 096d 3838 3e19 2737 7fe6 6636
00000070: bb27 ac39 07eb 9b39 e561 a732 b2aa 9938
00000080: 9d95 7032 20cf a635 47a6 1535 4226 9737
00000090: 0153 b633 cdd9 cd37 e57b b037 bf33 3139
000000a0: 46a4 bc37 c944 4f30 e13e 9e30 1e8b 0f34
000000b0: 8379 e930 6156 8d32 dac7 6a35 a598 2b38
000000c0: 1f4c 4338 54dc 6238 4d20 ce30 182e d837
000000d0: 8134 8b37 edd5 1738 50ee 9d39 144b a030
000000e0: fc9b a737 134c 6a31 5f0e 6f33 b065 c038
000000f0: b59f 9737 bf4a 8631 9e9c 9038 c9a2 6933
00000100: 5031 b031 cea3 8b38 c8e3 8333 5fab d837
00000110: f60a 3130 a074 f138 2c2e 3436 2c1f 1c31
00000120: 38b3 f132 6c3f c831 e216 d837 3ad9 6f32
00000130: 2df8 b637 4758 3938 1d35 9f32 8213 1338
00000140: 6e92 7339 398d b431 93c4 fe37 30af b338
00000150: bcf4 2031 1a93 1039 3826 f731 7f7b bf37
00000160: c6df 2136 56bf e035 cb61 a138 d2c1 4938
00000170: 3d48 f230 1321 4f38 ab5c f439 a2d8 f131
00000180: e5de 6231 007d 3232 7c4c 5938 f29d 0438
00000190: 637d 4d32 cf48 2037 2593 7f37 7b2f 972c
000001a0: aaad ef38 717f 7e36 5d96 b733 4969 3d39
000001b0: 5f67 0238 37ab b938 fe43 0d33 890f 4131
000001c0: 04bd 8935 5778 4638 93c0 a138 170f 8438
000001d0: 1439 0b39 de83 9b38 e23d 9a37 a512 f438
000001e0: 20ee 7632 6979 1a38 1a8d 0d39 7838 1532
000001f0: 5eed 9c37 35a9 8435 0483 8638 4ee0 9338
00000200: cd37 1a33 2ac9 7737 0a4d 0938 65a9 db38
00000210: 50de b237 5155 b232 185c ae35 5d4c b036
00000220: 1f55 9637 80db 8736 5e3f 7d37 7666 d331
00000230: 2718 b532 8793 3632 e93f 9138 310e 9332
00000240: 18d5 eb37 47d7 b335 150d 0432 446e 5832
00000250: b056 8831 0b84 f832 5bbf 5533 0bfb 5b31
00000260: c21d e936 e4bd 3a32 0c9a 7631 209f 6738
00000270: d07e db30 cd8c a038 5947 6a35 335b 6238
00000280: dbee d936 c02a be37 7f83 ec35 cf75 c538
00000290: cef0 d035 e7ee b932 261b 5737 12cd b137
000002a0: 482d a036 6781 c432 2298 b636 9043 e930
000002b0: 334c ce38 f0ba 3c33 a7b8 c538 d4c2 f136
000002c0: f985 ab36 c5ff 0c39 e366 2134 a585 f138
000002d0: 82d2 5a39 726f 0533 26a1 1938 a740 c137
000002e0: 9bca 3b38 6db0 1133 2091 e336 4824 9438
000002f0: b1af bb38 57ee ec31 d9cc 7037 49b1 6032
00000300: 6e60 ed36 92ce f636 07c9 5c31 d32c 2137
00000310: f6e7 b738 a8a5 bd35 bb42 0d33 679d 8a37
00000320: 5bfb 8937 8d5e 4230 e5ef ac34 c47a ac35
00000330: 8fa6 8538 8e1d 0e32 8402 0834 a898 9a31
00000340: 41e5 8e37 2368 1638 1ed1 8737 35d3 8f32
00000350: cc53 1d38 5b86 e936 e8e4 8638 bb18 a138
00000360: a50e 0836 a8e3 3237 51ce 0339 ed8d 7238
00000370: a79d 2a39 023a 7637 feb3 fb34 d11f f538
00000380: 304e 0332 c565 a937 d3c2 6339 0831 9d38
00000390: 7e1e e136 2760 5332 f954 5a39 e5eb 0338
000003a0: 5519 3a38 3a0c 1f38 2145 d538 f6a0 fd34
000003b0: 3fcf cb37 f52e f334 c274 1939 9255 ec35
000003c0: 8f8d bd2f e3a1 0837 a42d 0035 a055 a339
000003d0: 07e5 ed33 ec30 5d35 dfe8 3b38 8a65 d631
000003e0: 2e72 0937 1354 4539 d00f c237 6b0b 2c36
000003f0: c90f 8932 ec13 c438 634a 2232 e12d d931
8.614623e-06 0.00011401164 1.5929683e-05 6.18305e-07 2.1835789e-05 1.5473606e-05 8.294485e-07 2.5082625e-05
6.7835986e-09 1.4254796e-05 4.021829e-05 0.00022257547 1.2303309e-05 7.121067e-09 1.1128221e-08 6.9775146e-05
1.3923101e-06 6.154595e-07 9.43735e-06 6.730075e-06 8.553246e-05 2.9325488e-08 2.7159393e-05 2.516762e-05
5.8454447e-10 4.3970565e-05 9.959853e-06 3.4406837e-06 0.00032835998 0.00029739013 1.9485876e-08 7.327403e-05
1.4003857e-08 1.2428245e-06 5.574879e-07 1.8018418e-05 8.490134e-08 2.4539326e-05 2.1038528e-05 0.00016899312
2.2487842e-05 7.540391e-10 1.1513884e-09 1.3368523e-07 1.6987517e-09 1.6453841e-08 8.7462615e-07 4.091174e-05
4.6562516e-05 5.4087795e-05 1.4997653e-09 2.577067e-05 1.659454e-05 3.620044e-05 0.0003012293 1.1662871e-09
1.9980587e-05 3.4094725e-09 5.5659594e-08 9.174214e-05 1.8074972e-05 3.908411e-09 6.895627e-05 5.4397592e-08
5.1278803e-09 6.6585475e-05 6.141596e-08 2.5829007e-05 6.44078e-10 0.000115134986 2.6848966e-06 2.2718707e-09
2.8137592e-08 5.8279763e-09 2.5759862e-05 1.3961023e-08 2.1811657e-05 4.418965e-05 1.853419e-08 3.50657e-05
0.00023228835 5.2547446e-09 3.0370697e-05 8.568016e-05 2.342218e-09 0.0001378771 7.192991e-09 2.2826482e-05
2.4121123e-06 1.6744987e-06 7.6952936e-05 4.8102644e-05 1.7628349e-09 4.938345e-05 0.0004660835 7.0386514e-09
3.301403e-09 1.0389385e-08 5.1808063e-05 3.161835e-05 1.196108e-08 9.553695e-06 1.5233444e-05 4.2969495e-12
0.000114287555 3.792313e-06 8.5489525e-08 0.00018063666 3.1090687e-05 8.853379e-05 3.289096e-08 2.8094027e-09
1.0262306e-06 4.7318954e-05 7.712948e-05 6.297061e-05 0.00013277336 7.415538e-05 1.8387047e-05 0.000116382995
1.4373228e-08 3.6829533e-05 0.00013499372 8.685781e-09 1.8707182e-05 9.884012e-07 6.4140215e-05 7.051286e-05
3.590667e-08 1.4769184e-05 3.2735094e-05 0.00010474286 2.1322776e-05 2.0760725e-08 1.2990813e-06 5.2540986e-06
1.7921031e-05 4.0488667e-06 1.5094729e-05 6.1525567e-09 2.1082156e-08 1.0627338e-08 6.926043e-05 1.7119506e-08
2.8113413e-05 1.3399193e-06 7.686386e-09 1.2597926e-08 3.967976e-09 2.8931046e-08 4.9766964e-08 3.2011396e-09
6.9474054e-06 1.0869801e-08 3.5885277e-09 5.522289e-05 1.597039e-09 7.655621e-05 8.727562e-07 5.3967535e-05
6.4949104e-06 2.2669672e-05 1.7621641e-06 9.4156356e-05 1.5567291e-06 2.1645475e-08 1.282132e-05 2.1195538e-05
4.773643e-06 2.2876248e-08 5.4417333e-06 1.6972184e-09 9.837039e-05 4.394218e-08 9.428086e-05 7.2050407e-06
5.1117936e-06 0.00013446722 1.5031723e-07 0.00011516669 0.0002086852 3.1067835e-08 3.6628124e-05 2.3037499e-05
4.4772965e-05 3.39209e-08 6.782022e-06 7.063948e-05 8.94958e-05 6.8956e-09 1.435281e-05 1.3078826e-08
7.0743763e-06 7.3554193e-06 3.2128484e-09 9.606784e-06 8.769326e-05 1.412981e-06 3.288981e-08 1.6524178e-05
1.644872e-05 7.0711154e-10 3.2212043e-07 1.2850728e-06 6.372958e-05 8.272208e-09 1.2666902e-07 4.499345e-09
1.7034474e-05 3.585977e-05 1.6190632e-05 1.6743437e-08 3.750976e-05 6.959582e-06 6.432255e-05 7.681685e-05
2.0274103e-06 1.0662632e-05 0.00012569992 5.7829475e-05 0.00016271193 1.4676249e-05 4.6883355e-07 0.00011688437
7.642981e-09 2.019376e-05 0.00021720985 7.495476e-05 6.7090723e-06 1.2303679e-08 0.00020821755 3.1452528e-05
4.4369448e-05 3.791994e-05 0.00010169508 4.7242037e-07 2.4295992e-05 4.5296443e-07 0.00014634713 1.7608274e-06
3.4479483e-10 8.143924e-06 4.775013e-07 0.00031153578 1.1077832e-07 8.2400106e-07 4.4801152e-05 6.2397634e-09
8.192421e-06 0.00018818704 2.3133965e-05 2.5636643e-06 1.5956077e-08 9.349719e-05 9.446555e-09 6.320747e-09

exp_avg f4 [196]
00000000: fabd 5e3b 72ab 2a3f 03d7 793f cad2 ec3d
00000010: f966 cb3d fa67 e03d e55b 33bd cc61 173b
00000020: a799 e8b8 a0e4 25bc 0d9e 7aba 2aec 68aa
00000030: de4a 8bb7 0400 0080 2016 133f 0000 0000
00000040: ad04 433f b17b 693e 8c28 1e3f ffa6 423f
00000050: 2534 49bd 0c58 8e3e 22de 80bd 3942 27b7
00000060: 0400 0080 0534 a0bb 0bcf 9fb7 0400 0080
00000070: 6ada c03f 97b8 ad3d 0000 0000 bc12 5e3e
00000080: bf4b 083e c8aa 64bc baa5 e33d f021 d0b9
00000090: 9459 65bb 2174 12b8 3df7 819c a90f 0080
000000a0: c078 f0aa 0400 0080 0199 983e bea4 303f
000000b0: a960 77bb 0000 0000 5431 cf3e 60d1 523c
000000c0: 776e c73e 6a62 c2bc 8981 143e 8f37 d63e
000000d0: cbc2 143d 4a41 f18b e1a5 d889 0400 0080
000000e0: 9926 273d 76d6 6f3f 9900 a63e 706f 883f
000000f0: 0000 0000 2afa 33bd c697 073f 2c64 b5bb
00000100: 0410 fbbc 9a77 02bc 9d80 1eb6 5b04 1193
00000110: 0400 0080 0400 0080 4c32 8bbc 2cd7 4e3f
00000120: 0328 a23c 390b d43c 9334 453c 0000 0000
00000130: 050e e13c 1d51 8fba b68c c0b3 21ed f4b9
00000140: 40e8 ed3d 8b5d 8ea6 a44d 9d9c 85d5 1f91
00000150: 28fb dbbc cb24 8c3c 772c 8a3e f7f9 803d
00000160: 0714 2a3e 297b e03d 0000 0000 0f82 283e
00000170: ab67 ac3b f927 beb4 7b1f d5a5 79a6 0380
00000180: 0400 0080 0400 0080 9d94 57b4 393f e93d
00000190: 0227 173b ef3c feb5 1b03 423e 184a 9fac
000001a0: 370f 8f3b 0000 0000 fb6a dcb0 03d8 6f3e
000001b0: 4493 bd92 ebde b3ab 0400 0080 841e 81a3
000001c0: 5fc3 9d99 a47f 5f9f c53a bba0 a2c0 3ea6
000001d0: 0400 0080 0400 0000 85a5 bb3d f20d abbd
000001e0: 0000 0000 0400 0000 ec35 11b8 402b 53b8
000001f0: 1f2a f1bb 0400 0080 0400 0000 e25a 04ad
00000200: 70fd de8e ee39 073f 570e 7205 35e8 b5a0
00000210: 9dc2 9cb3 7cfc c93e 201e 1b1d 0000 0000
00000220: 100f 4d96 0400 0080 0400 0080 0400 0080
00000230: 0400 0080 0000 0000 b5f0 7f9b 6ac6 393d
00000240: c826 90b4 7a72 cb3b 8d5e 8189 c969 812a
00000250: 48f3 e3a2 433e 7e9f 0000 0000 cdc5 34a5
00000260: 7eda 338a 0400 0080 0000 0000 c470 48a2
00000270: e960 35b9 0000 0000 0400 0080 0400 0000
00000280: 0000 0000 0000 0000 0400 0080 0000 0000
00000290: 0400 0080 0000 0000 0400 0080 0400 0080
000002a0: 0000 0000 0000 0000 0000 0000 0000 0000
000002b0: 0000 0000 0000 0000 0000 0000 0400 0080
000002c0: 0000 0000 0000 0000 0000 0000 0000 0000
000002d0: 0000 0000 0000 0000 0000 0000 0000 0000
000002e0: 0000 0000 0000 0000 0000 0000 0000 0000
000002f0: 0000 0000 0000 0000 0000 0000 0000 0000
00000300: 0000 0000 0000 0000 0400 0080 0000 0000
0.0033987747 0.66667855 0.97593707 0.11563642 0.0993175 0.10957332 -0.04378881 0.0023099063
-0.00011091242 -0.010125309 -0.00095602946 -2.0687675e-13 -1.6604954e-05 -6e-45 0.57455635 0.0
0.7617901 0.22801091 0.6178062 0.76036066 -0.049121995 0.2780155 -0.062923685 -9.969394e-06
-6e-45 -0.0048890137 -1.9050689e-05 -6e-45 1.5066655 0.08482473 0.0 0.21686834
0.13310145 -0.013956733 0.11115594 -0.00039698137 -0.003499602 -3.4917266e-05 -8.600414e-22 -5.618e-42
-4.271635e-13 -6e-45 0.29804233 0.69001377 -0.0037746823 0.0 0.40467322 0.012867302
0.38951465 -0.023728568 0.14502539 0.41839263 0.03631858 -9.292806e-32 -5.21561e-33 -6e-45
0.040808294 0.93686616 0.3242233 1.0659008 0.0 -0.043939747 0.5296596 -0.005535623
-0.030647285 -0.007963086 -2.3618697e-06 -1.830372e-27 -6e-45 -6e-45 -0.016991757 0.80797076
0.01979447 0.025884258 0.01203646 0.0 0.027472505 -0.0010934208 -8.966292e-08 -0.0004671598
0.11616564 -9.878584e-16 -1.0409458e-21 -1.2608684e-28 -0.02685316 0.017107388 0.2698705 0.06297677
0.16609202 0.10960991 0.0 0.16455863 0.0052613816 -3.5419342e-07 -3.6970942e-16 -3.35226e-40
-6e-45 -6e-45 -2.00775e-07 0.11389012 0.0023064022 -1.8942209e-06 0.18946497 -4.527278e-12
0.0043658274 0.0 -1.6037512e-09 0.23422246 -1.1963881e-27 -1.2780587e-12 -6e-45 -1.3999132e-17
-1.631233e-23 -4.732767e-20 -3.1717923e-19 -6.618056e-16 -6e-45 6e-45 0.0916243 -0.08352269
0.0 6e-45 -3.4620913e-05 -5.03466e-05 -0.0073597576 -6e-45 6e-45 -7.523511e-12
-5.4971277e-30 0.5282277 1.1381419e-35 -3.0816254e-19 -7.299716e-08 0.39450443 2.0529653e-21 0.0
-1.6564521e-25 -6e-45 -6e-45 -6e-45 -6e-45 0.0 -2.1170882e-22 0.045355238
-2.6850307e-07 0.006208715 -3.1144535e-33 2.2988406e-13 -6.1786057e-18 -5.3838094e-20 0.0 -1.5679529e-16
-8.65963e-33 -6e-45 0.0 -2.7164752e-18 -0.00017297607 0.0 -6e-45 6e-45
0.0 0.0 -6e-45 0.0 -6e-45 0.0 -6e-45 -6e-45
0.0 0.0 0.0 0.0 0.0 0.0 0.0 -6e-45
0.0 0.0 0.0 0.0 0.0 0.0 0.0 0.0
0.0 0.0 0.0 0.0 0.0 0.0 0.0 0.0
0.0 0.0 -6e-45 0.0

exp_avg_sq f4 [196]
00000000: 2af5 1d3b 0bdb eb3e eec0 953f 5618 053f
00000010: 41f2 0e3e e453 633d ab51 613e a648 ec3c
00000020: 6b29 833b a3ce f03b fe0c 3039 d693 b439
00000030: fe26 053a e621 4337 9ebc 1c3f 0000 0000
00000040: 1589 a040 acff 473e d786 7e3e ac91 de3e
00000050: 1e3a 833d 7342 133e b704 ed3d c977 273e
00000060: a558 083b 007f cb38 abb3 8739 a84d 5439
00000070: 4bf5 bb3f a39b a43f 0000 0000 0069 d33c
00000080: 3dbc a93d 06f0 923d 8590 ac3d 9988 373d
00000090: 18b6 a23b 2688 2d3b 5afe a23b 0647 3e39
000000a0: d1ff 7e39 904a 9639 80c2 013f ce2d a43e
000000b0: 7dcb 1e3d 0000 0000 d99b 663f 4ff1 2b3d
000000c0: 93ef 913e 4e6b fa3d b034 a43d 2f30 f83d
000000d0: 447c 163d 36b1 9a39 55ee c03a 7c20 8537
000000e0: 5193 053e 9742 eb3e cb1d d83d f1b5 a83f
000000f0: 0000 0000 8d87 023e 08c4 5440 7836 a23f
00000100: c5ae 4f3c c357 173d d052 bc3b 0fb7 aa38
00000110: eba9 8438 a6bc eb35 6174 ff3d 5ac1 e53e
00000120: 6171 c83c 77bf 053e 37b6 e93d 0000 0000
00000130: fd20 f63c 9eb5 9e3b 262f 573d 0eac a33b
00000140: 40fa b73c cdcc d33b 4cac 563a fe69 a836
00000150: 0a38 c43e 96cc 323d cfa9 053f bacc 513d
00000160: a5d5 6c41 7b5e 3c3d 0000 0000 0a2c 973d
00000170: 088c 853d aea0 363b 12a5 843d b0d3 f439
00000180: c624 3038 8db5 8036 7220 af3b 6f65 a63d
00000190: 955e a33d 23f1 f33c cbed d53f a3ef c53a
000001a0: 96bf 133e 0000 0000 28db 0240 e219 8a3f
000001b0: fe51 383c 1426 b439 4c47 8738 e601 5238
000001c0: 5091 033b 82c1 f53c 81b7 963a 8b9d 893d
000001d0: fb11 9339 df8e 5e3d 1b7e f83d b961 ee3e
000001e0: 0000 0000 9704 383f e7ed 0a3b c771 7c3a
000001f0: 9da3 6e3a 2eb1 1535 61e7 ec3b e460 1f3f
00000200: dd4c 403b f741 853d 2ef5 c43c 74ca e437
00000210: 4859 3c3a 24aa 213f aba3 da3e 0000 0000
00000220: a705 db3b 3cfa 7d38 edd2 4339 209c 0438
00000230: 2b29 ee36 0000 0000 7d87 863c a7b5 9f3d
00000240: bf7a c638 11fc 723a a766 4a3d 5d02 ed3c
00000250: 0ad5 d638 16de 763b 0000 0000 9b87 3b3b
00000260: dbbe 4b3a 4a16 7037 0000 0000 e102 b739
00000270: cab7 3238 0000 0000 c9bb 7e33 3fbb 823b
00000280: 0000 0000 0000 0000 064f b636 0000 0000
00000290: d857 d035 0000 0000 1315 0737 57dd 7c36
000002a0: 0000 0000 0000 0000 0000 0000 0000 0000
000002b0: 0000 0000 0000 0000 0000 0000 6e73 ce33
000002c0: 0000 0000 0000 0000 0000 0000 0000 0000
000002d0: 0000 0000 0000 0000 0000 0000 0000 0000
000002e0: 0000 0000 0000 0000 0000 0000 0000 0000
000002f0: 0000 0000 0000 0000 0000 0000 0000 0000
00000300: 0000 0000 0000 0000 d504 0138 0000 0000
0.0024102428 0.46065554 1.1699502 0.5199026 0.139596 0.055499926 0.2200381 0.028843235
0.00400274 0.0073488518 0.00016789508 0.00034442422 0.00050793577 1.1630798e-05 0.61225307 0.0
5.0167336 0.19531125 0.24856125 0.43470514 0.06407569 0.14380817 0.11573165 0.16354288
0.002080479 9.70345e-05 0.0002588307 0.00020246825 1.4684232 1.2859997 0.0 0.025806904
0.08287857 0.07174687 0.084260024 0.044808004 0.004965555 0.0026478856 0.0049741687 0.0001814627
0.00024318627 0.00028665783 0.5068741 0.32066196 0.03876828 0.0 0.90081555 0.041978177
0.28503093 0.12227498 0.08017862 0.12118565 0.036739603 0.000295052 0.0014719466 1.5869962e-05
0.13044478 0.45949242 0.105525576 1.3180524 0.0 0.12747021 3.3244648 1.2672873
0.012675946 0.03694893 0.0057471767 8.140329e-05 6.3259e-05 1.7563768e-06 0.124733694 0.44874078
0.024468126 0.1306132 0.11411708 0.0 0.030045027 0.004843428 0.0525352 0.0049948758
0.022458196 0.006463623 0.00081891264 5.0191293e-06 0.38324004 0.04365214 0.5221223 0.051220633
14.802159 0.04598854 0.0 0.07381447 0.065208495 0.0027866769 0.06476797 0.00046697026
4.1995918e-05 3.8358326e-06 0.005344444 0.08124816 0.079770245 0.029778069 1.6713194 0.0015101325
0.14428553 0.0 2.0446262 1.0789149 0.011250017 0.00034360646 6.450582e-05 5.006967e-05
0.0020075627 0.029999498 0.001149878 0.06719502 0.0002805142 0.05433547 0.12133428 0.4655893
0.0 0.71882004 0.002119893 0.0009629991 0.000910336 5.5764656e-07 0.007229731 0.6225722
0.002934269 0.065067224 0.024042692 2.7273993e-05 0.0007184935 0.6315024 0.42702994 0.0
0.0066840234 6.055295e-05 0.00018675225 3.1616655e-05 7.0977453e-06 0.0 0.016422028 0.07798319
9.464239e-05 0.0009269128 0.049414303 0.028931791 0.00010243997 0.0037668995 0.0 0.0028614763
0.0007772275 1.4310304e-05 0.0 0.00034906625 4.2609674e-05 0.0 5.9309773e-08 0.0039896066
0.0 0.0 5.433222e-06 0.0 1.5522774e-06 0.0 8.051534e-06 3.7679763e-06
0.0 0.0 0.0 0.0 0.0 0.0 0.0 9.613619e-08
0.0 0.0 0.0 0.0 0.0 0.0 0.0 0.0
0.0 0.0 0.0 0.0 0.0 0.0 0.0 0.0
0.0 0.0 3.0760497e-05 0.0
