models/PrioritizedDoubleDQNAgent/reward_for_end_state_all_data.pt (torch, 947438 bytes, 12 tensors)

base.em.weight f4 [14, 1]
00000000: 0000 0000 8127 d83f ee6f f43c 8d77 8ebf
00000010: a2dd 0abe 68c5 e13e 7699 2ebf 03f3 e63f
00000020: dedb e33e 8411 b93e 2241 37bf b5b7 cebd
00000030: 69f4 b6bf a0c1 dabf
0.0 1.6887056 0.029838528 -1.1130234 -0.13561109 0.44095922 -0.6820291 1.8042911
0.44503683 0.36146176 -0.7158376 -0.10093633 -1.4293338 -1.709034

out.weight f4 [196, 256]
00000000: 189e d83c 06fd 05bd e05a 8ebc 99ba 5e3d
00000010: 25da 8fbd 422f 53bb 8313 1cbd a79a 44bd
00000020: 45ef 52bd 1e12 61bc 7161 2b3d 16af 3bb8
00000030: ef20 4fbc 6466 b43c 54f7 09bd 53a5 dc3c
00000040: aee3 cb3c 5930 46bd 3658 a03c 3cd0 803d
00000050: bdf5 d3bc 1965 d1bb 8865 20bd 45e2 d9bc
00000060: 5a06 5bbd 358e 4d3d 5dbb 2cbd 585b 453c
00000070: 6982 56bd c462 38bd 739d 85bd 55a3 8dbd
00000080: 8722 20bd 87c2 f7bc a2f4 02bd f99f c83c
00000090: a0fd 383d f740 803d 8943 c5bc 8bde dd3a
000000a0: 4def 213d 35dc 5f3d 1dfa 1c3d ff2a 363d
000000b0: 2745 a63c ffd8 2dbd 9f93 403d 582d c63c
000000c0: 6696 37bd 29f9 4cbd 7225 70bc b70d 21bd
000000d0: 5354 2fbd d8a7 c73c 0888 9a3c 85d8 8bbd
000000e0: 8a12 15bd d85c 15bd d6d7 fd3c 9837 a03c
000000f0: f746 ab3b 9a92 8abc 5994 39bd fedd c6bc
00000100: a5a3 a3bb f869 9abd 1603 a4bc c009 40bd
00000110: 158e 85bd e0c1 7bbd be6b 18bd 3340 68bd
00000120: c9de fd3c 361d 8abc 4424 57bd 832c 6f39
00000130: 30da a43c 6310 413c a21f 16bd 8b54 25bd
00000140: ee06 9abc acfc 9e3c 6945 cf3c 62c8 2d3d
00000150: 16ef f0bc 0686 123c 241a c4bc 77b0 43bd
00000160: f724 af3c 5314 433c cd12 d3bc 988e 313d
00000170: dece 923c a94e 3a3d 667d e8bc 29a9 ca3c
00000180: 9c4a 1cbd b6c6 0cbc 7958 e33b b59f a83c
00000190: 21cb 4ebd 214b dfbb b06f 6b3c 6071 cdb9
000001a0: a465 14bd c00e 04bd 20a7 403b 5304 88bb
000001b0: 7879 ad3c cbde 02bc 78af 1a3d 275a 13bc
000001c0: 8383 61bd f2a2 943c 1898 e73c 0093 833d
000001d0: aa80 a2bb cc6f b43c aec3 013b c7a9 ec3c
000001e0: a34a f2bc 164a 37bc 7fd0 52bc f0cc 273d
000001f0: 8f9d 37bb c530 34bd d8a5 913b 708a 20bc
00000200: 9ef7 013d f780 ca3c d63b 2b3a 83ea 6fbd
00000210: 234c 40bd 3670 87bb cae5 a7bc a483 fc3c
00000220: de84 1d3d 584e ef3c 2709 a13c e61d 1dbc
00000230: bec4 79bd 0e3c 843d 77ab 83bc 1fc8 cbbb
00000240: f57f a43c d87b c83c 1441 f1bc 4519 093c
00000250: f8c2 85bd 6bc0 4fbd 2399 4b3d 1cac 613d
00000260: 2902 4d3c e9c0 74bc a421 66bd fdcf 013b
00000270: bc94 1abd 415a ec3c a27d d73c 47fd 873d
00000280: 6342 8f3a d998 1aba 9abe e7bc 8f49 cf3c
00000290: 8043 d0bc c300 f6bc 1d68 23bd 1a51 8c3c
000002a0: 49b3 31bc e10f 6fbc 8a34 0d3d 09aa 1d3d
000002b0: 8799 12bd a8e2 11bd 8766 67bd 451d 163d
000002c0: 4eac babc eda6 503d af88 253c 58bb 16bd
000002d0: ac0f ed3b 582f 88bd 745d f4bc c34c 82bd
000002e0: 888f 06bd 1c12 68bd f60e 453d d722 1abb
000002f0: a04f f53c b6de 47bd 25e8 273c 1a9d f93c
00000300: a8df 0e3d 96d9 53bd 2034 e6bc 8bd6 5f3c
00000310: 6f08 21bd 2db4 5b3c edea 123d 8bab 58bd
00000320: bf66 29bd 7bd1 87bd bfb1 f13c a9fd c7bc
00000330: e1af 60bc 7834 06bc f61b 54bd 22c1 d6bc
00000340: 5535 10bd a2f4 dabc abf8 67bd 7772 49bd
00000350: 4877 ce3c ddc1 c1bc 3025 78bb b53f 15bd
00000360: 6ebd 503d 58a7 0b3c 0719 513d 0e2b 83bc
00000370: cc03 d8bc 7ac5 333d e292 e0bc 9e28 c13c
00000380: f450 6b3b 8ee3 123d 7bd9 debc df52 a9bc
00000390: 06af 1fbd 934b 3c3d 237b c8bb 8fff 65bd
000003a0: 3d0a 223d d329 d0bb 4361 183d f562 8ebc
000003b0: 80b1 83ba d1e9 113d 85bf 433d bd71 403d
000003c0: 273b 443d 9182 b13c cc35 27bd e5ae 5bbd
000003d0: 0901 5c3c 3690 d939 6b09 3abb 4a39 cf3b
000003e0: 0f24 57bd 1fe2 c83c f034 8dbd 35da 9f3c
000003f0: 5de2 8dbd 9539 75bd 7bc7 21bc a9b9 87bc
0.026442572 -0.032712005 -0.017377317 0.054377172 -0.0702403 -0.0032224213 -0.038104545 -0.04799905
-0.051497716 -0.01373723 0.041840974 -4.4747336e-05 -0.012642129 0.02202148 -0.033683136 0.026934301
0.02488884 -0.04838595 0.019573312 0.062897176 -0.025874013 -0.0063902256 -0.039159328 -0.026597152
-0.053472854 0.050184447 -0.04217087 0.012045704 -0.052370463 -0.045016065 -0.06524172 -0.06915919
-0.039095428 -0.030244125 -0.03197158 0.024490343 0.04516375 0.06262391 -0.024080055 0.0016927285
0.039534856 0.054653365 0.038324464 0.044474598 0.020296646 -0.04244327 0.047015782 0.024191543
-0.044821166 -0.050042305 -0.014657365 -0.03931972 -0.042805027 0.024372026 0.018863693 -0.06828407
-0.036394633 -0.036465496 0.030986708 0.01955776 0.0052269655 -0.016915608 -0.04530749 -0.024275776
-0.004993873 -0.07539743 -0.020021003 -0.0468843 -0.065212406 -0.06146419 -0.037212126 -0.05670185
0.030990021 -0.016859632 -0.05252482 0.00022809398 0.020123571 0.011783692 -0.03665126 -0.04036383
-0.018802132 0.019407593 0.025301652 0.042427428 -0.02941088 0.0089430865 -0.023938246 -0.047775712
0.02137993 0.011906701 -0.0257658 0.04334888 0.017920908 0.045485172 -0.028380107 0.024738865
-0.03815709 -0.008592298 0.006938037 0.020583967 -0.050486688 -0.006814376 0.01436989 -0.00039185118
-0.036229745 -0.03224063 0.002939649 -0.004150906 0.021176085 -0.007987688 0.037764996 -0.008993662
-0.05505706 0.018144105 0.028270766 0.064245224 -0.0049591856 0.022025965 0.0019800472 0.02888955
-0.029576605 -0.011187097 -0.012867092 0.040966928 -0.0028017496 -0.043991823 0.004444819 -0.009798631
0.031730287 0.024719698 0.00065320486 -0.058573257 -0.04694761 -0.0041332496 -0.020495314 0.03082449
0.03845679 0.029212162 0.019657684 -0.009589648 -0.060978644 0.06456767 -0.016072972 -0.0062189247
0.020080546 0.024473116 -0.029449977 0.008367841 -0.06531328 -0.050720613 0.04970659 0.055095777
0.012512722 -0.0149385715 -0.056184426 0.0019807809 -0.0377395 0.02885163 0.026305024 0.06640106
0.0010929819 -0.000589741 -0.028289128 0.02530363 -0.025422812 -0.03002966 -0.039894212 0.017128516
-0.010845968 -0.014591188 0.034473933 0.038492236 -0.035790946 -0.035616547 -0.056494262 0.036649007
-0.02278724 0.050940443 0.010103389 -0.03679976 0.0072345342 -0.06649655 -0.029829718 -0.063622974
-0.032851726 -0.056657895 0.04810997 -0.0023519301 0.029945195 -0.048796378 0.010248219 0.03047042
0.034881264 -0.051721178 -0.028101027 0.013661991 -0.039314684 0.0134096565 0.035868574 -0.05289797
-0.041357752 -0.06631752 0.029503701 -0.024412947 -0.013713808 -0.00819122 -0.051784478 -0.02621514
-0.03520711 -0.026727978 -0.056633633 -0.049181428 0.025203362 -0.023652012 -0.0037863962 -0.03643771
0.050961904 0.008523785 0.05104926 -0.016011741 -0.026368998 0.0438895 -0.02741379 0.023578938
0.0035906406 0.035861544 -0.027203312 -0.020669399 -0.038985275 0.04597051 -0.0061181947 -0.056151923
0.039560545 -0.006352642 0.03720213 -0.01738117 -0.0010047406 0.035623375 0.04779007 0.04698347
0.047907975 0.021668704 -0.04082279 -0.05363359 0.013427981 0.0004149691 -0.0028386961 0.006323968
-0.052524623 0.024521885 -0.06894863 0.019513229 -0.06927941 -0.059869368 -0.00987422 -0.016568022

out.bias f4 [196]
00000000: 669a 4fbd 439c 603d 85e7 2fbc 065f e33c
00000010: ac04 00bd 5ab8 613d 16d2 a3bc 567e 693d
00000020: c059 963d b637 8f3d 791b 94ba e9d3 a03d
00000030: 4fa2 e9bc 41db 493d ede6 723d 08fd 593c
00000040: 399c ad3d 0013 2a3d 3193 a23d 812d eebc
00000050: 2da1 a63d f5e2 123d d0d4 753d 9d45 4ebc
00000060: 7239 38bc 2728 a33d 1c8f 4cbc ae43 633d
00000070: bc5d 12bc 1708 63bc 0075 bc39 859e 2d3d
00000080: 6b7b 2a3d 89b7 953c 82cf 5e3d dd0f 8dbc
00000090: c2bb e8bc df4c 3c3d 1865 6c3c 4ce5 20bb
000000a0: 238e 9b3b 9767 a4bc 6878 a03d 3ef8 aa3d
000000b0: 673d 973d 8866 39bd 6667 7cbc 5b82 253d
000000c0: e1f9 00bd 7758 b43d 9bf3 87bb c958 d13c
000000d0: 37d8 a33d c6f3 8e3d 015d 0f3d 202a d5bc
000000e0: 84b1 05bd c020 723d de63 ecbc aad7 bf3b
000000f0: dcfe 883c 8cad dfbc 0c3c 123d 3c9d e6bc
00000100: ab0d 8a3d b78f 783d 6406 dc3c 6d3a e73c
00000110: 7118 aebc 90cf 3b3c 03aa 3f3d 9332 953d
00000120: 2ae4 e93c 5be0 793d 9f05 0ebd 80b9 3ebc
00000130: c84d 2a3c a06d 0bbd eede 313c 00d3 a1bc
00000140: b5e7 983d 456b 423d 00c1 a1bb 96c1 30bd
00000150: c5ee 0f3b 00f8 ba3b 10c8 a53d 4680 f3bc
00000160: 9c02 01bd 3461 c83c 2a7a 453d 3185 ca3b
00000170: 55f1 1e3d 311e f83c bd27 8f3d 1b91 443c
00000180: 472a 273d f7a6 2ebd 47f8 9e3d e64a 293a
00000190: 008d 613c 79ea 04bd 5534 353d c17e b73b
000001a0: 3ec5 1b3d 507e acbb a3c3 033c 24a0 c03c
000001b0: a9f5 283d 8bca 17bc 73ed 123c b42f de3c
000001c0: 365e 933d dbb8 d63c f6eb 573b 6350 babc
000001d0: c575 5e3d 4e09 02bd eb13 983d a9cc b03b
000001e0: 404f a73c 3da6 9bbc cadb ddbb e604 a6bc
000001f0: dd50 453d 2047 4d3d 122c 673d 97e5 5fbc
00000200: 5f75 1cbd 5957 e8bb e15a 973d 64ed 873d
00000210: af6c 413d 1037 443d 4053 673b 8682 2dbd
00000220: c544 393c 0229 9e3d 3220 343c 3d2f 48bc
00000230: f0ce 423d 98b0 903d bf0c 1cbd 9bdd 28bd
00000240: b4f0 873d 69c9 08bd 611f f83c 4290 913d
00000250: fe75 8e3c 4103 2d3b 88db 6fbc a29f 15bd
00000260: e5a1 943d 0332 3ebd 0bca 093d c58c 64bc
00000270: d672 15bd 5c2e 3abd 2fdc 2bbd c49b c8bc
00000280: f697 9d3c ed29 613d 465c 793d ed34 113d
00000290: 8a28 3fbc 3cdb a1bc c624 3ebd 4dff 4c3d
000002a0: 342a 353d 7003 16bd 9c3d 7ebd 03c2 e33c
000002b0: 69a1 433d 3109 74bd 458c 9bbc e0a0 15bc
000002c0: 287a ac3c bdd3 813d 7942 b33c 7ee4 4f3d
000002d0: 2850 71bd 9bf0 253c 8cc7 6a3d 7689 6c3d
000002e0: 145f 163d 064e 683d a8ff a8bc b073 163d
000002f0: 6850 5b3d f6d5 15bd 6c43 1b3d 5078 8fbb
00000300: f0da 923b e819 20bc 6aaf 28bd e802 0ebd
-0.050684355 0.054836523 -0.010736351 0.027755272 -0.031254455 0.055107452 -0.019997638 0.05700525
0.07341337 0.06993048 -0.0011299691 0.07852919 -0.028519778 0.049281362 0.05930226 0.013304956
0.08477063 0.041522026 0.07938231 -0.029074432 0.081362106 0.035860974 0.060017407 -0.012589839
-0.011244165 0.07966643 -0.012485292 0.055484466 -0.008933481 -0.013856909 0.00035945326 0.042387504
0.041621607 0.018275993 0.054397114 -0.017219478 -0.028409842 0.045971747 0.0144283995 -0.0024550734
0.0047471686 -0.020068927 0.07835466 0.0834813 0.073847584 -0.045263797 -0.0154055115 0.04040752
-0.031488303 0.08805936 -0.004148913 0.025555031 0.08000224 0.0698009 0.035000805 -0.026021063
-0.032639995 0.059113264 -0.028856214 0.0058545666 0.016723089 -0.027304433 0.035701796 -0.028151147
0.06740888 0.060683932 0.026858516 0.028226102 -0.021251889 0.011463061 0.046792995 0.07285037
0.02855118 0.061004978 -0.03467333 -0.011640906 0.010394521 -0.034040093 0.010856373 -0.019753933
0.074660696 0.04746558 -0.0049363375 -0.043153368 0.0021962386 0.0057058334 0.080947995 -0.029724251
-0.03149663 0.024460413 0.048212208 0.0061804284 0.03880437 0.030287834 0.06990001 0.011997486
0.040811803 -0.0426397 0.07762199 0.0006457999 0.013766527 -0.032450173 0.04423936 0.005599827
0.0380299 -0.005264081 0.008042249 0.023513861 0.041249905 -0.009264599 0.008967745 0.027122356
0.07195704 0.026211193 0.003294704 -0.02274341 0.054311533 -0.031747155 0.07425674 0.005395491
0.020423532 -0.019000167 -0.0067705857 -0.020266008 0.04817282 0.05011666 0.056438513 -0.013665578
-0.03819787 -0.007090491 0.07390381 0.066370755 0.04722279 0.047904074 0.0035297424 -0.042360805
0.0113079 0.07722665 0.010994004 -0.012218294 0.047560632 0.070649326 -0.038098093 -0.041226964
0.06637707 -0.033395205 0.0302884 0.07107593 0.017390247 0.0026399645 -0.014639743 -0.03652919
0.072574414 -0.046434414 0.03363995 -0.013949578 -0.03648647 -0.045454368 -0.04195803 -0.024488337
0.0192375 0.054971624 0.060879014 0.035450865 -0.01166738 -0.01975786 -0.04642179 0.05004816
0.0442297 -0.036624372 -0.062070474 0.027802473 0.047761355 -0.059579078 -0.018987784 -0.009132594
0.021054342 0.06339214 0.021882283 0.050755017 -0.058914334 0.010128166 0.05731921 0.05774828
0.036711767 0.056715034 -0.020629719 0.036731422 0.05354348 -0.036581002 0.037906095 -0.004378356
0.004481666 -0.0097718015 -0.041182913 -0.03467074

base.em.weight f4 [14, 1]
00000000: 0000 0000 2627 d83f 7a75 f43c 3277 8ebf
00000010: 26dd 0abe fcc3 e13e 1b99 2ebf a8f2 e63f
00000020: cdda e33e 7e10 b93e 8741 37bf cabd cebd
00000030: 45f4 b6bf 45c1 dabf
0.0 1.6886947 0.029841173 -1.1130126 -0.13560924 0.44094837 -0.6820237 1.8042803
0.4450287 0.36145395 -0.7158436 -0.10094793 -1.4293295 -1.7090231

out.weight f4 [196, 256]
00000000: 0fab d83c 87f6 05bd ba62 8ebc e2b9 5e3d
00000010: 04d8 8fbd 87c6 52bb 710f 1cbd 7195 44bd
00000020: e0ea 52bd 23fa 60bc 1068 2b3d 7bde 51b8
00000030: c936 4fbc 655b b43c 67f1 09bd e9a4 dc3c
00000040: 95f0 cb3c ac29 46bd 1d64 a03c 35d3 803d
00000050: 20eb d3bc 0442 d1bb 7a6b 20bd 7dd8 d9bc
00000060: 2701 5bbd 4c94 4d3d 3db5 2cbd c073 453c
00000070: 527c 56bd fa5b 38bd f89b 85bd b0a0 8dbd
00000080: 861d 20bd 29c4 f7bc 9cee 02bd 38ab c83c
00000090: 5503 393d 833e 803d 5d3c c5bc db84 de3a
000000a0: 63e9 213d 0ad6 5f3d 05f6 1c3d 3930 363d
000000b0: 4646 a63c 96de 2dbd 1a9a 403d 832d c63c
000000c0: d49b 37bd d5f5 4cbd c609 70bc 9812 21bd
000000d0: 044f 2fbd 13a3 c73c 0e94 9a3c 1ed5 8bbd
000000e0: 990b 15bd 215a 15bd 6de2 fd3c c743 a03c
000000f0: 4146 ab3b 8487 8abc cd8e 39bd 1ada c6bc
00000100: f77d a3bb a368 9abd faf6 a3bc cf0e 40bd
00000110: 708b 85bd c7bb 7bbd 3f71 18bd fc3a 68bd
00000120: f3ea fd3c 4412 8abc 961d 57bd c8b3 7139
00000130: 72e6 a43c 920f 413c ac1a 16bd e05a 25bd
00000140: f8fa 99bc 3c00 9f3c ea4f cf3c dcc2 2d3d
00000150: 6ee4 f0bc 608a 123c 090d c4bc f0aa 43bd
00000160: 872f af3c 7e29 433c 5908 d3bc 408e 313d
00000170: 6ed6 923c e153 3a3d 0c87 e8bc 7db5 ca3c
00000180: f24a 1cbd b3b2 0cbc cf8e e33b f6a6 a83c
00000190: f8ce 4ebd a32b dfbb ce81 6b3c 0c85 cbb9
000001a0: 4962 14bd 7713 04bd b9fa 403b 7609 88bb
000001b0: 5985 ad3c b9c7 02bc e5ab 1a3d d742 13bc
000001c0: 0b7f 61bd 41ae 943c fea2 e73c ee92 833d
000001d0: fd49 a2bb 1669 b43c d486 013b aeb4 ec3c
000001e0: a14b f2bc 5a36 37bc fce3 52bc 79d0 273d
000001f0: 177f 37bb be2a 34bd 61d6 913b e18a 20bc
00000200: 86fc 013d 088b ca3c 1ed5 2c3a 68e4 6fbd
00000210: 2946 40bd 7c71 87bb 63da a7bc cb7a fc3c
00000220: 368b 1d3d 5242 ef3c ef15 a13c 4e03 1dbc
00000230: 3cc0 79bd 0e3c 843d cb9f 83bc fc9d cbbb
00000240: ec8a a43c 5d86 c83c be33 f1bc f117 093c
00000250: 1ac0 85bd 68c4 4fbd 639e 4b3d 58b1 613d
00000260: c0e8 4c3c 1ea9 74bc 671c 66bd ef32 023b
00000270: bc9a 1abd 5265 ec3c 5971 d73c d8fb 873d
00000280: 12ec 8f3a 4f49 19ba adc9 e7bc b553 cf3c
00000290: 6639 d0bc e6fd f5bc 8262 23bd b25e 8c3c
000002a0: 15a3 31bc 3c24 6fbc d52e 0d3d 2aaf 1d3d
000002b0: 4694 12bd 78e2 11bd 5e62 67bd f81d 163d
000002c0: 10a0 babc 07ad 503d 79a4 253c 10b6 16bd
000002d0: a433 ed3b f42b 88bd c74f f4bc 634a 82bd
000002e0: fa8e 06bd 7e11 68bd 5113 453d abbc 19bb
000002f0: 425d f53c d1d7 47bd e803 283c 949c f93c
00000300: 51da 0e3d 72d4 53bd fa26 e6bc b0ed 5f3c
00000310: 8308 21bd b7a3 5b3c 2ff0 123d 7ea7 58bd
00000320: 1261 29bd 0ece 87bd 02bf f13c aff0 c7bc
00000330: 3a94 60bc c319 06bc 0c22 54bd e4c2 d6bc
00000340: 283a 10bd 44e9 dabc e6f4 67bd a36d 49bd
00000350: 0985 ce3c 9bb4 c1bc dac3 77bb 2739 15bd
00000360: 64b7 503d 2abe 0b3c d313 513d 0c22 83bc
00000370: 1a0e d8bc fcc9 333d cb93 e0bc 7e34 c13c
00000380: 77b2 6b3b bae6 123d fdcd debc 5b48 a9bc
00000390: c2a9 1fbd b246 3c3d 424a c8bb 78fa 65bd
000003a0: 9404 223d 2e02 d0bb 7363 183d 1d58 8ebc
000003b0: cc0a 83ba 25e7 113d 7dc4 433d fa76 403d
000003c0: 703f 443d 7a86 b13c 4b3b 27bd ffaa 5bbd
000003d0: 6dff 5b3c 63a4 dc39 18ab 39bb 810a cf3b
000003e0: 8229 57bd 1fe2 c83c f231 8dbd d2e6 9f3c
000003f0: fdde 8dbd e435 75bd c8b6 21bc 70b2 87bc
0.026448755 -0.03270581 -0.01738106 0.05437649 -0.070236236 -0.0032161789 -0.038100664 -0.04799408
-0.051493526 -0.013731512 0.04184729 -5.0036684e-05 -0.012647339 0.022016237 -0.033677485 0.026934104
0.024894992 -0.048379585 0.019578988 0.062902845 -0.025868952 -0.0063860435 -0.039164998 -0.026592487
-0.053467896 0.050190255 -0.04216503 0.012051523 -0.052364655 -0.04500959 -0.06523889 -0.06915414
-0.039090656 -0.030244904 -0.031965837 0.024495706 0.045169193 0.06261923 -0.024076635 0.001697685
0.039529216 0.054647483 0.03832056 0.044479582 0.02029718 -0.042448603 0.047021963 0.024191624
-0.044826344 -0.05003913 -0.014650768 -0.039324373 -0.042799965 0.024369752 0.018869426 -0.06827758
-0.036388014 -0.036462907 0.030991757 0.019563569 0.005226881 -0.016910322 -0.0453022 -0.02427392
-0.0049893814 -0.07539489 -0.020015229 -0.046889123 -0.06520736 -0.061458375 -0.037217375 -0.056696877
0.030995822 -0.016854413 -0.05251845 0.00023050525 0.020129416 0.011783497 -0.03664653 -0.04036987
-0.018796429 0.019409291 0.02530666 0.04242216 -0.029405799 0.008944124 -0.023931997 -0.04777044
0.021384967 0.011911748 -0.025760816 0.04334855 0.017924514 0.04549015 -0.028384708 0.024744743
-0.03815741 -0.008587527 0.0069445143 0.020587426 -0.05049035 -0.006810622 0.01437421 -0.00038818305
-0.036226545 -0.032245126 0.0029446317 -0.0041515185 0.02118175 -0.007982188 0.037761588 -0.008988104
-0.0550528 0.018149497 0.028275963 0.06424509 -0.0049526677 0.022022765 0.0019764202 0.028894749
-0.029577078 -0.011182392 -0.0128717385 0.0409703 -0.0027999335 -0.043986075 0.004450605 -0.009798736
0.031734966 0.024724498 0.0006593036 -0.058567435 -0.04694191 -0.0041334014 -0.020489877 0.030820271
0.03846284 0.029206429 0.019663779 -0.009583307 -0.060974345 0.06456767 -0.016067406 -0.0062139016
0.020085774 0.024478132 -0.029443618 0.0083675245 -0.06530781 -0.050724417 0.049711596 0.05510077
0.012506664 -0.014932899 -0.05617943 0.0019866785 -0.037745222 0.028856907 0.026299166 0.06639832
0.0010980389 -0.00058474106 -0.028294409 0.02530847 -0.025417995 -0.030028295 -0.039888866 0.017134998
-0.010842104 -0.014596041 0.03446849 0.038497128 -0.035785936 -0.035616368 -0.056490295 0.036649674
-0.022781402 0.05094626 0.010110014 -0.036794722 0.007238822 -0.066490084 -0.029823197 -0.063618444
-0.032851197 -0.056657307 0.048114125 -0.0023458402 0.029951695 -0.048789803 0.010254838 0.03047017
0.03487617 -0.051716276 -0.028094757 0.013667509 -0.039314758 0.013405732 0.03587359 -0.052894108
-0.04135234 -0.06631099 0.029510025 -0.024406759 -0.013707215 -0.008184853 -0.051790282 -0.026215978
-0.035211712 -0.026722558 -0.056630038 -0.049176823 0.02520992 -0.02364569 -0.0037805946 -0.036431458
0.050956145 0.008529225 0.051044296 -0.016007446 -0.026373912 0.0438938 -0.027414223 0.0235846
0.0035964528 0.03586457 -0.027197832 -0.020664385 -0.038980253 0.045965858 -0.006112368 -0.05614707
0.039555147 -0.006347916 0.037204217 -0.017376 -0.0009997725 0.035620827 0.047794808 0.046988465
0.04791206 0.021670569 -0.04082803 -0.05362987 0.0134275975 0.00042084148 -0.002833074 0.006318391
-0.05252982 0.024521885 -0.06894292 0.019519243 -0.06927297 -0.059865847 -0.009870239 -0.016564578

out.bias f4 [196]
00000000: c594 4fbd 2195 603d 00ce 2fbc a24f e33c
00000010: 1201 00bd 98b5 613d 8bb5 a3bc c573 693d
00000020: f956 963d 6e39 8f3d bd2a 94ba dbd2 a03d
00000030: b0b0 e9bc f1d3 493d 7adc 723d 08fd 593c
00000040: 9c9f ad3d d50d 2a3d e792 a23d 6b3d eebc
00000050: 8fa0 a63d 8edc 123d 7ecb 753d e856 4ebc
00000060: cb60 38bc eb26 a33d 0bb0 4cbc 903b 633d
00000070: 994c 12bc 5915 63bc 0075 bc39 1e93 2d3d
00000080: c879 2a3d 42a2 953c c4c5 5e3d 9f1b 8dbc
00000090: e2bb e8bc 5846 3c3d 5743 6c3c 555e 21bb
000000a0: 9c5d 9b3b 9767 a4bc de7b a03d 5fff aa3d
000000b0: 113c 973d 8866 39bd 6f68 7cbc 6783 253d
000000c0: 4a03 01bd 5159 b43d 571e 88bb b153 d13c
000000d0: 37d9 a33d 02f3 8e3d e156 0f3d 202a d5bc
000000e0: 1aac 05bd fe1d 723d 3b6d ecbc 76f3 bf3b
000000f0: dcfe 883c f6af dfbc 903a 123d fba4 e6bc
00000100: 030e 8a3d 358e 783d fdfa db3c 6228 e73c
00000110: bf27 aebc 96aa 3b3c eea0 3f3d d82d 953d
00000120: 38f5 e93c 2fe6 793d 4609 0ebd 80b9 3ebc
00000130: bb31 2a3c 7565 0bbd dff3 313c cdd4 a1bc
00000140: bce6 983d a161 423d 21fd a1bb 2cc9 30bd
00000150: fee6 0e3b 3dc9 ba3b d0c6 a53d 8b92 f3bc
00000160: ad0a 01bd 265d c83c 2a7a 453d d185 ca3b
00000170: 60ec 1e3d be1c f83c 2924 8f3d 188e 443c
00000180: 9820 273d f7a6 2ebd 15f3 9e3d 501f 283a
00000190: 6267 613c a3ec 04bd 383c 353d 1e6f b73b
000001a0: 07c1 1b3d 507e acbb 9cc3 033c c88f c03c
000001b0: 5bf2 283d 4dd2 17bc 73ed 123c ed25 de3c
000001c0: 735c 933d 82a6 d63c 1c56 583b 4e54 babc
000001d0: 626e 5e3d 4712 02bd 3117 983d 429c b03b
000001e0: 404f a73c cabe 9bbc 48eb ddbb 8801 a6bc
000001f0: f949 453d 2a40 4d3d be26 673d 57ee 5fbc
00000200: 7581 1cbd 2e33 e8bb 855a 973d 26ea 873d
00000210: 8f63 413d 142e 443d 308b 663b 8682 2dbd
00000220: 6235 393c 0326 9e3d d500 343c 9e42 48bc
00000230: 8bd0 423d 8aae 903d 171a 1cbd 41e5 28bd
00000240: b4f0 873d 69c9 08bd 3809 f83c ce8d 913d
00000250: fe75 8e3c 23a4 2c3b 88db 6fbc 95a7 15bd
00000260: ac9e 943d d539 3ebd 0bca 093d c58c 64bc
00000270: d672 15bd 2334 3abd 8ce6 2bbd 15b1 c8bc
00000280: f697 9d3c 4027 613d 0157 793d ac30 113d
00000290: e846 3fbc 3cdb a1bc 102d 3ebd 84fa 4c3d
000002a0: 342a 353d 7003 16bd 9c3d 7ebd 03c2 e33c
000002b0: 69a1 433d 3109 74bd 458c 9bbc e0a0 15bc
000002c0: 287a ac3c bdd3 813d 7942 b33c 7ee4 4f3d
000002d0: 2850 71bd d9d8 253c 8cc7 6a3d 7689 6c3d
000002e0: 145f 163d 064e 683d a8ff a8bc b073 163d
000002f0: 6850 5b3d f6d5 15bd 6c43 1b3d 5078 8fbb
00000300: f0da 923b e819 20bc 6aaf 28bd e802 0ebd
-0.050678987 0.05482972 -0.010730267 0.027747933 -0.03125102 0.055104822 -0.019984027 0.056995172
0.073408075 0.06993376 -0.0011304241 0.078527175 -0.028526634 0.04927439 0.059292294 0.013304956
0.08477709 0.041517098 0.07938176 -0.02908202 0.08136093 0.03585487 0.06000852 -0.012593962
-0.011253546 0.079664074 -0.012493144 0.055476725 -0.008929395 -0.01386007 0.00035945326 0.04237663
0.041620046 0.018265847 0.054387823 -0.017225085 -0.028409902 0.045965523 0.014420352 -0.0024622877
0.0047413837 -0.020068927 0.07836126 0.083494894 0.07384504 -0.045263797 -0.015405758 0.04040852
-0.031497277 0.08806098 -0.0041540074 0.025552602 0.08000415 0.06979944 0.034994964 -0.026021063
-0.032634832 0.059110634 -0.028860679 0.00585788 0.016723089 -0.027305584 0.03570038 -0.02815484
0.06740954 0.060682494 0.026853079 0.028217498 -0.021259187 0.011454245 0.046784334 0.072841346
0.028559312 0.061010536 -0.034676813 -0.011640906 0.010387833 -0.034032304 0.010861366 -0.019754792
0.07465884 0.047456387 -0.0049435054 -0.043160602 0.0021805163 0.005700259 0.08094561 -0.029732963
-0.03150432 0.02445848 0.048212208 0.006180503 0.038799644 0.030287143 0.06989319 0.011996768
0.04080257 -0.0426397 0.07761208 0.00064133573 0.013757559 -0.032452237 0.044246882 0.005597963
0.038025882 -0.005264081 0.008042242 0.02350606 0.041246753 -0.009266448 0.008967745 0.027117694
0.07195368 0.026202444 0.003301031 -0.022745278 0.054304488 -0.031755712 0.074262984 0.005389721
0.020423532 -0.019011874 -0.0067724325 -0.020264402 0.04816625 0.05011002 0.05643343 -0.0136676645
-0.038209397 -0.007086179 0.07390312 0.06636457 0.047214087 0.047895506 0.0035178177 -0.042360805
0.011304231 0.07722094 0.0109865265 -0.012222914 0.047562163 0.07064541 -0.03811082 -0.04123426
0.06637707 -0.033395205 0.030277833 0.07107125 0.017390247 0.002634295 -0.014639743 -0.03653677
0.07256827 -0.04644187 0.03363995 -0.013949578 -0.03648647 -0.045459878 -0.041967914 -0.024498502
0.0192375 0.054969072 0.06087399 0.035446808 -0.01167462 -0.01975786 -0.046429694 0.050043598
0.0442297 -0.036624372 -0.062070474 0.027802473 0.047761355 -0.059579078 -0.018987784 -0.009132594
0.021054342 0.06339214 0.021882283 0.050755017 -0.058914334 0.010122501 0.05731921 0.05774828
0.036711767 0.056715034 -0.020629719 0.036731422 0.05354348 -0.036581002 0.037906095 -0.004378356
0.004481666 -0.0097718015 -0.041182913 -0.03467074

exp_avg f4 [14, 1]
00000000: 0000 0000 bdb3 53ba f36a 1d37 297b 1239
00000010: 0ed7 7c36 c667 dfb8 3549 0238 89b4 02ba
00000020: 14c8 5eb9 3739 77b8 16db b0b7 5ad4 22b8
00000030: f5e3 ab37 929e c038
0.0 -0.00080757943 9.38283e-06 0.00013969526 3.7676105e-06 -0.00010652798 3.1062595e-05 -0.0004986008
-0.00021246105 -5.8942675e-05 -2.1082855e-05 -3.8821578e-05 2.049094e-05 9.1848095e-05

exp_avg_sq f4 [14, 1]
00000000: 0000 0000 d111 6435 690a 8d30 8197 2d33
00000010: 32af b62f 7714 ee31 f5fd a231 f731 b334
00000020: 7652 6b33 4f20 d431 f263 8630 4b57 9830
00000030: 8118 8f30 80da ea31
0.0 8.4962545e-07 1.0262059e-09 4.0417493e-08 3.323009e-10 6.9290382e-09 4.743692e-09 3.3377702e-07
5.47902e-08 6.173685e-09 9.778189e-10 1.1084266e-09 1.0411584e-09 6.835137e-09

exp_avg f4 [196, 256]
00000000: 49c9 b836 6bf0 8836 9748 e0b2 95ee dcb3
00000010: 7e4b 4036 0dc1 0837 7dde 4936 7f9f 0136
00000020: f83f 4736 c1b8 6c36 a76b 1836 152a b7b3
00000030: e2b0 90b3 5b3c f5b3 7e25 bb35 00dc c9b3
00000040: 0e53 1536 330f 8437 ee11 0b37 664c 1735
00000050: de0e d036 fbf1 ad36 a352 acb3 a708 5136
00000060: 776a 1d35 12df 1a36 f672 0737 588c 3c36
00000070: 0588 5336 81b5 5e37 25f8 2936 4c19 e236
00000080: 00b4 7a35 e907 eeb2 2fc3 a734 9205 3836
00000090: 7391 2136 4f21 ccb3 f698 2b36 e0ca 1237
000000a0: c05a 1bb4 de43 00b4 d32e 19b3 bd24 9235
000000b0: 441a c833 9ce9 1db4 a02d 0f37 1a65 2a34
000000c0: 34ff c8b3 51b4 4636 1413 8336 7ac4 9db3
000000d0: 9d23 1537 123c 5ab2 4e44 ab35 e219 1037
000000e0: 2e0c 2336 7748 2736 0a02 2636 4c95 b035
000000f0: feb4 b7b2 73e3 c836 7a80 cf36 216a b435
00000100: 03c1 5c36 4066 3e36 5efe 1136 4d78 8eb3
00000110: 0435 6836 f4e3 6536 47ce 53b3 3396 d036
00000120: 342f 2836 4265 e236 1605 6037 fdfc 0e36
00000130: 402e 8336 a109 bab3 5d18 9f36 7fec 5ab4
00000140: 9b9f 8634 bc1c 1835 f038 c736 e2c4 6cb3
00000150: 1212 3435 8944 2c35 6e27 d236 adf6 0937
00000160: f886 6036 324f fb36 54d6 c435 8e60 adb2
00000170: 0bcc cd35 7de8 8b34 37ff ccb3 f8b4 8737
00000180: c7ba e1b3 03e3 4835 824a 6736 dd8d 9436
00000190: 91b5 f2b2 d189 2d36 0ba6 5736 18a5 0637
000001a0: acdc 3936 c03f d1b3 a767 4b36 5b65 00b3
000001b0: d6a7 5f36 26d2 ae36 1d41 5bb3 7811 2637
000001c0: b7e6 e336 f02f 0c37 80c4 1f36 a6f9 aab2
000001d0: e8b3 2b37 37a7 0fb3 541e c7b2 160e f136
000001e0: 9af1 d4b3 4be1 5336 d9ef d2b2 1c8b a535
000001f0: 8143 0b35 3146 3937 f7d4 c135 8d71 71b3
00000200: 8a6e 5636 d279 c336 43da 6836 1a42 2936
00000210: d89e 2e35 24bc 8ab3 388f c436 f49d aab3
00000220: 7e52 6936 1ce6 96b3 7be7 8636 7964 6736
00000230: de59 1136 bc41 7db3 f281 9c35 aad7 3e36
00000240: d822 0537 a94b 2b36 1551 a236 3423 e0b3
00000250: 3d69 a936 f656 3eb3 3e60 3c36 7444 1a36
00000260: 3cdd 07b4 c853 6037 b0bb 0f35 6da3 1436
00000270: e9d8 b8b3 cc71 6a37 6cc8 eeb3 ed79 ceb2
00000280: f385 cc36 f6aa d635 b61b c8b3 5e06 f035
00000290: f653 4437 72bf f735 55ca 3d37 c762 1b36
000002a0: 67b2 8435 6bb9 0fb4 edb7 90b3 62f6 dc36
000002b0: 0282 5936 6f47 3133 3bd9 2e35 dea5 1b35
000002c0: 9387 db35 5045 7136 d41b 6f37 b6ee 3236
000002d0: 76b8 c235 969e 2437 b2ea e836 45ee 9136
000002e0: e499 e534 1fc3 8c32 0a51 9236 6498 3a37
000002f0: 266f de36 f6eb 2d36 4daf d936 98e3 7cb3
00000300: 8956 1bb3 6635 3e36 0aeb b736 c25d 6336
00000310: cd03 c5b2 fbf1 b5b2 32a2 9a36 d7cf 8a36
00000320: be6b 1c36 ee99 1837 ca0c 1937 7025 5337
00000330: cc6d 0036 afe4 5337 2972 98b3 0d29 08b4
00000340: 165a 27b3 ed60 e336 f2e1 ad35 8a41 c536
00000350: 3061 0636 974c 1937 b3dd 3036 120f 0d37
00000360: 514e d8b3 2d06 1635 2bd5 dab3 3548 1236
00000370: 1aeb 4fb3 bfde 1136 b204 16b4 4b08 3837
00000380: c943 d735 9985 e435 9022 1437 8da0 9a36
00000390: fbfb 6336 d28b f4b3 4856 8b36 ce85 4336
000003a0: b092 5cb3 3747 1336 7b82 8e33 a87b 5d34
000003b0: 4a3c 1037 82ea 72b2 8d85 8835 dc27 2436
000003c0: 8b28 c235 2913 9f35 4775 ebb3 1a4f 2036
000003d0: 2d2d bbb3 9e04 bd36 fa6c b635 43ff c2b3
000003e0: c312 5ab3 2243 a2b2 867b b136 7196 c836
000003f0: ec95 5e37 1bee 6736 8f5d d336 a566 da35
5.50706e-06 4.081104e-06 -2.6110042e-08 -1.0287946e-07 2.8654172e-06 8.15118e-06 3.008084e-06 1.9315337e-06
2.9690545e-06 3.5274281e-06 2.2712427e-06 -8.529256e-08 -6.737697e-08 -1.141968e-07 1.3943497e-06 -9.3998096e-08
2.2251074e-06 1.5742704e-05 8.28922e-06 5.636306e-07 6.200614e-06 5.183972e-06 -8.024406e-08 3.1148463e-06
5.8641984e-07 2.3077632e-06 8.0733935e-06 2.8095874e-06 3.1520624e-06 1.3274491e-05 2.5327402e-06 6.73827e-06
9.339419e-07 -2.7710444e-08 3.124819e-07 2.742138e-06 2.4075532e-06 -9.505549e-08 2.557002e-06 8.749514e-06
-1.4468515e-07 -1.1945619e-07 -3.5665675e-08 1.088854e-06 9.3180034e-08 -1.4706751e-07 8.534087e-06 1.5869264e-07
-9.359647e-08 2.9609257e-06 3.906325e-06 -7.346621e-08 8.889384e-06 -1.27029285e-08 1.2760372e-06 8.589095e-06
2.4295982e-06 2.492712e-06 2.4737114e-06 1.3156473e-06 -2.138631e-08 5.986943e-06 6.1840374e-06 1.3441933e-06
3.2894902e-06 2.8371724e-06 2.1754745e-06 -6.634273e-08 3.4601553e-06 3.4256345e-06 -4.9314874e-08 6.2163685e-06
2.5061427e-06 6.747113e-06 1.3352625e-05 2.1306907e-06 3.9094884e-06 -8.6630514e-08 4.7414055e-06 -2.0388869e-07
2.5075573e-07 5.6666227e-07 5.9372906e-06 -5.5127096e-08 6.708152e-07 6.4174725e-07 6.263078e-06 8.22327e-06
3.3457163e-06 7.4896025e-06 1.4665516e-06 -2.0183759e-08 1.5333075e-06 2.6059925e-07 -9.5459136e-08 1.6177524e-05
-1.05113536e-07 7.483615e-07 3.4465052e-06 4.427259e-06 -2.8255075e-08 2.5859229e-06 3.2134146e-06 8.025461e-06
2.7695596e-06 -9.743917e-08 3.030969e-06 -2.9894505e-08 3.3327283e-06 5.2100686e-06 -5.104913e-08 9.898438e-06
6.791986e-06 8.355812e-06 2.3807224e-06 -1.9904132e-08 1.0234282e-05 -3.3446863e-08 -2.318044e-08 7.1839995e-06
-9.9159664e-08 3.1572588e-06 -2.4556288e-08 1.2333944e-06 5.1879766e-07 1.1043202e-05 1.4441601e-06 -5.621546e-08
3.1952827e-06 5.8256346e-06 3.469774e-06 2.5221439e-06 6.50512e-07 -6.460348e-08 5.857928e-06 -7.9449734e-08
3.4767722e-06 -7.026776e-08 4.020459e-06 3.4480165e-06 2.1658993e-06 -5.8965938e-08 1.1660725e-06 2.843774e-06
7.93553e-06 2.5525026e-06 4.8374154e-06 -1.0437216e-07 5.048844e-06 -4.4316913e-08 2.8070203e-06 2.2987633e-06
-1.265334e-07 1.3370947e-05 5.354477e-07 2.2148845e-06 -8.6076234e-08 1.3973982e-05 -1.1119195e-07 -2.4037002e-08
6.0952675e-06 1.5993999e-06 -9.318266e-08 1.7883247e-06 1.1702059e-05 1.8458652e-06 1.1312387e-05 2.3154296e-06
9.886688e-07 -1.3385367e-07 -6.7389784e-08 6.5851937e-06 3.2411194e-06 4.1275992e-08 6.5136163e-07 5.798337e-07
1.6356229e-06 3.5952144e-06 1.4251989e-05 2.6663015e-06 1.4507812e-06 9.812085e-06 6.941461e-06 4.349075e-06
4.2766544e-07 1.6386876e-08 4.3605733e-06 1.1121945e-05 6.629055e-06 2.5916356e-06 6.4875117e-06 -5.8880318e-08
-3.6167453e-08 2.8343288e-06 5.481187e-06 3.388021e-06 -2.2935547e-08 -2.1181213e-08 4.6084397e-06 4.1369162e-06
2.3308526e-06 9.095746e-06 9.122488e-06 1.2585297e-05 1.9137397e-06 1.2629825e-05 -7.098817e-08 -1.2680921e-07
-3.896465e-08 6.776411e-06 1.2955263e-06 5.8786873e-06 2.0024127e-06 9.137343e-06 2.635509e-06 8.407764e-06
-1.00725295e-07 5.588834e-07 -1.0190191e-07 2.1797725e-06 -4.8409767e-08 2.173634e-06 -1.3971547e-07 1.09691855e-05
1.6038476e-06 1.7026206e-06 8.829535e-06 4.608248e-06 3.3972308e-06 -1.13875686e-07 4.1525673e-06 2.913515e-06
-5.1356153e-08 2.194616e-06 6.6361245e-08 2.0627215e-07 8.597106e-06 -1.4139575e-08 1.0171658e-06 2.4461106e-06
1.4465926e-06 1.1852e-06 -1.0964373e-07 2.38879e-06 -8.7160835e-08 5.6331764e-06 1.3591773e-06 -9.080261e-08
-5.0774144e-08 -1.888981e-08 5.289391e-06 5.977978e-06 1.3267138e-05 3.4560278e-06 6.2991817e-06 1.6272139e-06

exp_avg_sq f4 [196, 256]
00000000: 3e9a 492e 2208 dc2d 8268 ce26 3e75 a32b
00000010: 66f4 e62d c527 962e 0ca4 fa2d 2913 a92c
00000020: efb1 bc2d 50f1 d22d fcde f92c e29a 2328
00000030: 8e4c 0028 b7cb be28 e168 782c e3cd 352d
00000040: 323b b32c 1520 a72f fe11 da2e 662c 352b
00000050: a828 562e 6e5d 612e b9a4 2428 0009 f32d
00000060: 8c1e f62a b3b5 cb2c a712 c72e 7723 812d
00000070: 533d a42d d3d6 522f 9e5d de2d 6025 7e2e
00000080: ed1f a52b 1d20 9a29 cf3b 4c2a 8158 772d
00000090: 17d5 ec2c 6bcc 9828 c9ca 162e 59fd f32e
000000a0: d267 ee28 b32c 8728 12bb 5227 2928 d42b
000000b0: ce43 1c2c d042 1d29 670f be2e c234 c02e
000000c0: 6202 3028 11c4 0b2e f397 972d 7245 2228
000000d0: e6c0 072f 2e00 4326 b1ff 5c2c 66b2 ca2e
000000e0: 82fa d62c 8be5 f82d 3987 082d 53f5 622c
000000f0: f296 472c ed6c 3e2e 8c55 bb2e d737 912d
00000100: 96f5 962d 2e7c 872e 9dc3 1e2d 0204 e827
00000110: 1aa3 852d 5bc3 c12d 466e 3627 fa76 6b2e
00000120: 4e23 502d 2c4d be2e 5968 522f 9aec d62d
00000130: 4d32 f82d 7e40 042d 53ca 1f2e aa28 6229
00000140: a35d 042a 37ca eb2c e4f1 502e 1c40 9727
00000150: 03a7 882b cd0b 702d 15aa 322e 1074 192f
00000160: ae79 7a2d 8cd0 9c2e bd08 412c dc8b 4d2a
00000170: b6a7 c92c ed3a ba29 e284 a628 642d a42f
00000180: 0c57 312d 93d1 522b 5ba4 532d 5ab1 642e
00000190: 2ade c726 aa2f a22d 049b 9a2d a999 2b2f
000001a0: f623 d02d 1b84 9328 1e27 502d a87b ad29
000001b0: a810 5a2d cf26 172e 8666 d127 012b 402f
000001c0: 66fe 272f e786 0f2f 7e5f 692d 3dde 722a
000001d0: 8227 072f 42b0 ad27 84f7 7c26 7745 c12e
000001e0: d854 052c 5a97 f52d 1336 6a26 c4f1 9e2c
000001f0: 5a4b ae2c 21b6 1c2f a9e1 892c bcb6 322d
00000200: 30c2 832d 3834 a92e db6d 872d e652 512d
00000210: 3ecb 662b ba27 1d2d 58f1 9f2e 34de 5c28
00000220: b757 5f2d 9c2c d527 797e e02d 8f36 8f2d
00000230: 7001 0d2d ea72 432d 3829 412c 9c96 352d
00000240: edff b92e 7375 132d a1ee 0b2e 6b15 cf2c
00000250: 126e 692e 04b1 d827 1826 312d cc50 ee2c
00000260: 2e48 9528 174e 902f 4ee0 c92a ccdd b82c
00000270: f0b2 2828 4e62 c62f 6781 7828 56f3 2c27
00000280: 553c 4f2e 17cc e02c f055 7228 ec41 962c
00000290: e17d a62f 8153 7a2e 0e0f 3a2f 27f4 de2c
000002a0: aa93 102c bd3a e628 a2bc e927 6a22 812e
000002b0: 051b 6c2d c251 b12c 3a39 e92b 947a c12d
000002c0: 37e0 ad2c 47bd d42d b198 772f 2cc4 1d2d
000002d0: a921 a72c aa3b f02e 1fc0 582e 6c9e 022e
000002e0: dcd2 a22d c77e 8827 5f2e 4d2e 9e44 4d2f
000002f0: 974e 452e 4438 f02c 9777 412e bbc6 022c
00000300: cfa1 cb26 21a0 3d2d cae1 1f2e d6f2 672d
00000310: 5681 932b 8ed7 3226 30c5 ee2d c9c0 1f2e
00000320: 7f3b 102d ffff b92e 2991 bd2e 0a5d 342f
00000330: 35b0 8f2c 368f 4a2f faa3 d127 cca5 862b
00000340: 4587 1a27 2226 ac2e 97cb 0c2d c8de dd2e
00000350: df34 902c 1f7a fb2e 5985 652d 076c be2e
00000360: 6d6f 6828 31e8 472b 0acd 8628 19c5 8b2d
00000370: 5f1b 4627 d158 6d2d 746d 8d2c 7865 1f2f
00000380: bf9f a72c c5c7 2b2d 221d 202f d021 f12d
00000390: 23bf e62d 8423 b728 7f8a 0c2e 2704 4d2d
000003a0: 8950 4f27 9241 f12c 49ee 8228 0f2f f229
000003b0: b2e9 1d2f d281 3d26 8191 c52b f6f1 062d
000003c0: af19 082d d685 da2d 5f1a ba28 a419 642d
000003d0: 9bb9 392c e1cc 452e 412f 812c 00e6 1e28
000003e0: 31c4 8227 2e25 d02d 1675 392e 6739 5f2e
000003f0: 8985 5e2f 1eaa 3a2e 8d2c c52e 6739 732d
4.5839103e-11 2.5014716e-11 1.4322448e-15 1.1614388e-12 2.6256507e-11 6.828275e-11 2.8494561e-11 4.805396e-12
2.1452144e-11 2.39814e-11 7.101762e-12 9.0819025e-15 7.1220275e-15 2.1182585e-14 3.530114e-12 1.0334375e-11
5.094058e-12 3.039992e-10 9.916688e-11 6.4365733e-13 4.8694077e-11 5.124206e-11 9.139547e-15 2.7629898e-11
4.3719574e-13 5.7897797e-12 9.0527856e-11 1.4681352e-11 1.8671875e-11 1.917571e-10 2.5280052e-11 5.778611e-11
1.1732816e-12 6.8445446e-14 1.813959e-13 1.4059976e-11 6.731181e-12 1.6964042e-14 3.428616e-11 1.1095364e-10
2.6468333e-14 1.5007396e-14 2.9244765e-15 1.5074653e-12 2.2206573e-12 3.4918954e-14 8.642936e-11 8.740521e-11
9.770479e-15 3.1779083e-11 1.7234192e-11 9.007865e-15 1.234671e-10 6.765446e-16 3.1405818e-12 9.2175864e-11
6.1100578e-12 2.8296273e-11 7.76073e-12 3.2252714e-12 2.8363392e-12 4.3297744e-11 8.5189716e-11 1.650939e-11
1.7162088e-11 6.161148e-11 9.024695e-12 6.439728e-15 1.5192781e-11 2.2028315e-11 2.5317353e-15 5.3538486e-11
1.183127e-11 8.653908e-11 1.913646e-10 2.4434055e-11 2.8216674e-11 7.517651e-12 3.6332114e-11 5.021735e-14
1.1756442e-13 6.701552e-12 4.7508567e-11 4.1980427e-15 9.709736e-13 1.3645041e-11 4.0623577e-11 1.3956503e-10
1.4237873e-11 7.131104e-11 2.74318e-12 1.8256181e-13 5.7313832e-12 8.270281e-14 1.8487331e-14 2.9863678e-10
1.0080613e-11 7.489783e-13 1.2030456e-11 5.1998718e-11 1.3868617e-15 1.8438435e-11 1.7576614e-11 1.560695e-10
2.3662832e-11 1.637757e-14 1.1832117e-11 7.704194e-14 1.2395564e-11 3.4367894e-11 5.812031e-15 1.7477576e-10
1.5278942e-10 1.3053701e-10 1.326572e-11 2.1571022e-13 1.2292214e-10 4.8208245e-15 8.776551e-16 8.788963e-11
1.8947535e-12 2.7920489e-11 8.1258343e-16 4.5174715e-12 4.953743e-12 1.4252823e-10 3.9188275e-12 1.0158704e-11
1.4979212e-11 7.694506e-11 1.5396509e-11 1.1898682e-11 8.199447e-13 8.933238e-12 7.273354e-11 1.2260636e-14
1.2695559e-11 5.916774e-15 2.5522017e-11 1.6281447e-11 8.015241e-12 1.1109983e-11 2.744983e-12 1.0322101e-11
8.4582875e-11 8.3820615e-12 3.1816886e-11 5.8856717e-12 5.307583e-11 6.0143964e-15 1.0069744e-11 6.773337e-12
1.6573626e-14 2.6248934e-10 3.5860415e-13 5.254219e-12 9.364674e-15 3.608584e-10 1.3794825e-14 2.4001708e-15
4.7119936e-11 6.3891214e-12 1.3452333e-14 4.270575e-12 3.0284666e-10 5.6917585e-11 1.692195e-10 6.336726e-12
2.05456e-12 2.5560603e-14 6.4875007e-15 5.872354e-11 1.3421046e-11 5.0397195e-12 1.6571529e-12 2.1995995e-11
4.9418486e-12 2.4185666e-11 2.2518766e-10 8.967976e-12 4.7501625e-12 1.0924535e-10 4.928335e-11 2.9699285e-11
1.8510908e-11 3.7885035e-15 4.665279e-11 1.8669019e-10 4.4862416e-11 6.827457e-12 4.3989336e-11 1.8584429e-12
1.4129813e-15 1.0778962e-11 3.6352955e-11 1.318475e-11 1.0480876e-12 6.2048287e-16 2.7145036e-11 3.6323642e-11
8.198663e-12 8.4583e-11 8.6205106e-11 1.6403959e-10 4.0838674e-12 1.8422672e-10 5.8186937e-15 9.56729e-13
2.1445123e-15 7.828428e-11 8.003285e-12 1.00894904e-10 4.098596e-12 1.14358516e-10 1.3046752e-11 8.659389e-11
1.2902749e-14 7.102123e-13 1.496591e-14 1.589e-11 2.7492858e-15 1.34916115e-11 4.0196128e-12 1.4497015e-10
4.764161e-12 9.764582e-12 1.4562265e-10 2.7413544e-11 2.6232854e-11 2.0332484e-14 3.1955324e-11 1.1653823e-11
2.877068e-15 6.8569117e-12 1.4536239e-14 1.0755122e-13 1.4362092e-10 6.5748487e-16 1.4038077e-12 7.670744e-12
7.736408e-12 2.4843166e-11 2.0661585e-14 1.2965993e-11 2.6393113e-12 4.4974583e-11 3.6716468e-12 8.820635e-15
3.629496e-15 2.3663373e-11 4.2168123e-11 5.0755313e-11 2.0238224e-10 4.2442598e-11 8.9664366e-11 1.3825697e-11

exp_avg f4 [196]
00000000: b5fe 2738 a4a7 1db8 2ae0 b438 1801 8db8
00000010: 0169 eeb6 57f7 0fb8 b090 a238 88c9 30ba
00000020: 5c7b 0db8 2985 3b36 25da 84b5 eed5 bbb5
00000030: be3f 61b7 7dd0 aab7 ba2b 8fb8 0000 0000
00000040: a45f 3338 7cad a8b7 11d0 ddb7 1e9d 67b8
00000050: 08cf c235 f326 1ab8 8a54 85ba 8c44 29b7
00000060: 186e 00b8 ed62 5ab6 f7aa b1b7 6197 05b7
00000070: 2c9c 4039 bcc7 0ab6 0000 0000 6a87 1eb8
00000080: f54d 5eb7 2d87 5bba 6516 aeb8 b185 15b8
00000090: 28e8 cc36 f776 68b7 47e9 d7b7 e3c6 a9b7
000000a0: 2975 63b7 0400 0080 66e9 3838 02d2 1138
000000b0: 3d31 1db7 0000 0000 0d95 bc36 7e29 0a37
000000c0: a70d 60ba 9120 7637 155b 1eb8 8f37 63b6
000000d0: d8da cd33 ff60 00b6 c935 05b8 0400 0080
000000e0: 4694 a837 19e2 dab7 ab4b b1b7 17bb bc37
000000f0: 0000 0000 e5db 35b7 5cfb 2fb7 af08 32b7
00000100: b690 1136 0d08 14b7 90f6 b6b6 452c bab8
00000110: 84d7 cbb7 89a4 21b7 0d29 94b9 1bac 9fb8
00000120: 2eee 1d39 85b4 9737 992c 50b7 0000 0000
00000130: a398 43ba e255 5537 17ba 5a38 0418 c9b6
00000140: 388c edb5 8f66 39b8 7b0c 03b8 7204 98b7
00000150: 626b 11b9 2ce7 fcb7 9811 3ab6 5f42 61ba
00000160: 8590 12b8 e047 62b8 0000 0000 10fc d0b5
00000170: 12b2 15b8 3fef 28b5 3aec 16b8 d976 a5b6
00000180: 3a33 aeb7 4b02 0080 95dd 45b9 1f6b 86b7
00000190: 31f3 8eb9 9847 00b8 333b f636 8dea ce33
000001a0: 1641 c4b6 0000 0000 e391 b2b6 3ad8 98b8
000001b0: 5c3c a1b6 400b 3fb5 0400 0080 cab6 09b7
000001c0: 2591 1bb7 7d41 53ba e4a9 5137 a98c adb6
000001d0: 6f3e d1b7 7c39 9bb9 f87b 4838 9c90 aeb7
000001e0: 0000 0000 3c68 2ab8 0d3d 4cb6 4317 6036
000001f0: 0968 42b7 e1a9 64b7 4a63 a0b7 a64d 87b5
00000200: 3990 8ab8 2d98 f336 687a 7fb6 ebff 86b7
00000210: faea 9fb7 056a 0cb9 3de4 acb8 0000 0000
00000220: a110 dcb6 89e3 ccb7 272c 88b7 0e9c d5b6
00000230: 36d4 d536 7510 53b7 9c6d feb8 f571 d8b8
00000240: 0400 0080 0400 0080 ab6f c1b8 2a79 36b5
00000250: 0400 0080 0e09 e9b7 0000 0000 8eed b5b7
00000260: 42a4 0db7 cd1c d0b7 0400 0080 0400 0080
00000270: 0400 0080 bfbe 8db7 65ac aab9 a392 41b8
00000280: 7e04 0080 45eb 4bb5 f3e7 f7b6 740a 28b7
00000290: c167 7bb8 0000 0000 7cdf e9b7 0bef 11b7
000002a0: 0400 0080 0400 0080 0000 0000 0400 0080
000002b0: 8804 0080 0400 0080 0400 0080 0400 0080
000002c0: 0000 0000 0400 0080 0400 0080 0400 0080
000002d0: 0000 0000 9d70 32b7 0000 0000 0000 0000
000002e0: 0400 0080 0000 0000 0000 0000 0000 0000
000002f0: 0400 0080 0000 0000 0000 0000 0000 0000
00000300: 0000 0000 0000 0000 0400 0080 0000 0000
4.0053117e-05 -3.7587844e-05 8.624823e-05 -6.723608e-05 -7.105177e-06 -3.432421e-05 7.751712e-05 -0.00067438977
-3.3731907e-05 2.794268e-06 -9.898255e-07 -1.3994847e-06 -1.3425886e-05 -2.0362664e-05 -6.826916e-05 0.0
4.2765998e-05 -2.0107946e-05 -2.6442141e-05 -5.522102e-05 1.451438e-06 -3.6752735e-05 -0.0010172289 -1.0089145e-05
-3.062011e-05 -3.2542114e-06 -2.1179656e-05 -7.962663e-06 0.00018368725 -2.0679863e-06 0.0 -3.779625e-05
-1.3250382e-05 -0.000837433 -8.301138e-05 -3.5648878e-05 6.1067003e-06 -1.3855976e-05 -2.5738625e-05 -2.0238984e-05
-1.3557533e-05 -6e-45 4.4086388e-05 3.476628e-05 -9.369393e-06 0.0 5.6201884e-06 8.235102e-06
-0.0008546956 1.4670325e-05 -3.7754962e-05 -3.3857975e-06 9.585864e-08 -1.9129945e-06 -3.1759762e-05 -6e-45
2.0096206e-05 -2.609291e-05 -2.113528e-05 2.2498467e-05 0.0 -1.0839639e-05 -1.0489337e-05 -1.0611649e-05
2.1690917e-06 -8.823362e-06 -5.4527263e-06 -8.877417e-05 -2.4299843e-05 -9.634657e-06 -0.00028259345 -7.613768e-05
0.00015061416 1.8084664e-05 -1.240815e-05 0.0 -0.00074614043 1.27157855e-05 5.214856e-05 -5.9930626e-06
-1.7698685e-06 -4.4202952e-05 -3.1244457e-05 -1.8121882e-05 -0.00013868281 -3.0148389e-05 -2.77264e-06 -0.0008592959
-3.4943707e-05 -5.3949538e-05 0.0 -1.5570567e-06 -3.569021e-05 -6.2933026e-07 -3.598279e-05 -4.931219e-06
-2.076627e-05 -8.23e-43 -0.0001886993 -1.6023927e-05 -0.00027265542 -3.0584255e-05 7.338263e-06 9.635287e-08
-5.848832e-06 0.0 -5.321797e-06 -7.2882e-05 -4.8052007e-06 -7.1169416e-07 -6e-45 -8.208395e-06
-9.272514e-06 -0.000805877 1.24969265e-05 -5.1721768e-06 -2.4943814e-05 -0.00029606733 4.779917e-05 -2.0809755e-05
0.0 -4.0628234e-05 -3.0433905e-06 3.3392141e-06 -1.1587524e-05 -1.3629412e-05 -1.9119721e-05 -1.0080882e-06
-6.607216e-05 7.25968e-06 -3.806921e-06 -1.6093216e-05 -1.9063697e-05 -0.00013390936 -8.244112e-05 0.0
-6.558447e-06 -2.442465e-05 -1.6233023e-05 -6.366062e-06 6.3725993e-06 -1.2580412e-05 -0.0001213208 -0.00010320909
-6e-45 -6e-45 -9.223757e-05 -6.79766e-07 -6e-45 -2.777998e-05 0.0 -2.1687501e-05
-8.442499e-06 -2.4808944e-05 -6e-45 -6e-45 -6e-45 -1.6897333e-05 -0.0003255337 -4.6151352e-05
-1.611e-42 -7.5965755e-07 -7.388176e-06 -1.0016014e-05 -5.993969e-05 0.0 -2.7879832e-05 -8.69833e-06
-6e-45 -6e-45 0.0 -6e-45 -1.626e-42 -6e-45 -6e-45 -6e-45
0.0 -6e-45 -6e-45 -6e-45 0.0 -1.0635847e-05 0.0 0.0
-6e-45 0.0 0.0 0.0 -6e-45 0.0 0.0 0.0
0.0 0.0 -6e-45 0.0

exp_avg_sq f4 [196]
00000000: 4341 2531 6ef8 d930 305a 4832 961c 8031
00000010: 63a6 842f d4de 9031 9c33 a431 536d d434
00000020: 0a27 2f31 6f2c 8b2e 6ab7 1a31 8cf1 7e2f
00000030: 49e9 a22f 2bb8 2a30 47b5 7031 0000 0000
00000040: 0ff2 1931 b31d d930 d3e8 0b34 c8c8 4631
00000050: c027 8830 eea8 0731 3e92 8e35 e983 3f2f
00000060: 0bfa 3b30 4824 382f 3a7a 6f30 cd70 212f
00000070: 687d 4a33 fe3f b730 0000 0000 0f5e a530
00000080: 9d4f 5131 8923 0c35 6905 0832 0788 2531
00000090: 031d 1c30 8860 0d30 4444 7f30 1017 8230
000000a0: 8225 f12f c806 c321 cbb7 4231 ee05 d22f
000000b0: f7ce 4430 0000 0000 7c5c dd30 3799 a030
000000c0: 29d5 3835 75f8 6131 23cd c131 2262 d930
000000d0: 6ac1 102f 967f 752f 14bf f530 2294 0b28
000000e0: 8ee9 3f30 aa67 2a32 bd24 ac30 87f4 d830
000000f0: 0000 0000 9735 8c31 e45b ef2f d6f7 682f
00000100: e72c 1330 7285 8130 1532 142f ea56 1932
00000110: c0c3 6830 27e6 722f 4664 dc33 61f8 ed31
00000120: 662b ea32 724a 8d30 9bc9 9c30 0000 0000
00000130: 9b79 9b35 b349 0230 44e6 5432 ba88 a130
00000140: a7d9 212f 1c9a 2a31 294c af30 8b5f 3430
00000150: 9383 c931 30dc e630 f777 a930 1ceb 5835
00000160: 33b1 8130 7c18 f632 0000 0000 f92b 1530
00000170: 6128 5431 8b14 202f 10c2 0e31 8ad7 632f
00000180: c84a 872f 0414 fd2e 4284 f232 df4f d630
00000190: 1174 c433 f467 2032 a84c 9b2f 67f0 c82e
000001a0: 8e6b 6a30 0000 0000 3bc8 2630 9476 9131
000001b0: 55a5 2c2f 9dba 3a2e 191a 362c b310 1230
000001c0: 4aff 982f 9749 3835 53e6 1e30 97aa 9e30
000001d0: e1e5 8830 f55b ea33 5572 0632 e891 cc30
000001e0: 0000 0000 9adc cf30 5a36 d02f c10e 402f
000001f0: 7c99 c92f 12f4 0d30 4fa6 9f30 30f2 e02d
00000200: 0871 7b31 d599 b32f 7150 1331 9625 3530
00000210: 0e01 4530 d409 8432 4a5e 4831 0000 0000
00000220: 9cfc b12f a3a3 5c30 83af b72f 8d2a 922f
00000230: be65 d92f 9038 a02f adbe 1e32 4c2c a632
00000240: e534 2c26 78a2 9d0c 8771 e031 392c b12e
00000250: 2385 532d 638c 0f31 0000 0000 27e2 7730
00000260: a56b 5b2f 9f87 2130 ecf3 271a f401 0000
00000270: f401 0000 d82b 1230 fa51 ac33 70cd 1f31
00000280: 0fe9 0a2f 5bd6 a62d 6229 9f2f 7303 ef2e
00000290: eced da31 0000 0000 592f b630 dce9 6530
000002a0: de3a bc03 b340 d30f 0000 0000 6c5c d527
000002b0: 923e bd2e f401 0000 f401 0000 f401 0000
000002c0: 0000 0000 8f5a 4918 f401 0000 f401 0000
000002d0: 0000 0000 d815 0d30 0000 0000 0000 0000
000002e0: f401 0000 0000 0000 0000 0000 0000 0000
000002f0: f401 0000 0000 0000 0000 0000 0000 0000
00000300: 0000 0000 0000 0000 f401 0000 0000 0000
2.4047757e-09 1.5859436e-09 1.16620384e-08 3.72854e-09 2.4128885e-10 4.216284e-09 4.7788955e-09 3.956762e-07
2.5488043e-09 6.328881e-11 2.2514208e-09 2.318698e-10 2.9633387e-10 6.210736e-10 3.502764e-09 0.0
2.2402025e-09 1.5797269e-09 1.3030085e-07 2.8926923e-09 9.9066e-10 1.974111e-09 1.0622387e-06 1.7418213e-10
6.8385536e-10 1.6747592e-10 8.712139e-10 1.468294e-10 4.7145846e-08 1.333319e-09 0.0 1.2032063e-09
3.0458758e-09 5.2205775e-07 7.917472e-09 2.4087983e-09 5.67937e-10 5.143268e-10 9.286547e-10 9.4653e-10
4.3864296e-10 1.3215509e-18 2.833519e-09 3.820299e-10 7.15985e-10 0.0 1.6106152e-09 1.1685078e-09
6.885553e-07 3.288304e-09 5.6403606e-09 1.5816719e-09 1.3165438e-10 2.2327948e-10 1.7880404e-09 7.748171e-15
6.9817296e-10 9.918873e-09 1.2525089e-09 1.5785567e-09 0.0 4.0806287e-09 4.353914e-10 2.1188326e-10
5.35421e-10 9.423913e-10 1.3478314e-10 8.925534e-09 8.4679286e-10 2.2091538e-10 1.0262788e-07 6.9258452e-09
2.726092e-08 1.0280259e-09 1.1407794e-09 0.0 1.1583792e-06 4.739846e-10 1.23923805e-08 1.1753152e-09
1.472019e-10 2.4825857e-09 1.2754572e-09 6.5619393e-10 5.864828e-09 1.6797284e-09 1.2330464e-09 8.08084e-07
9.436348e-10 2.8649303e-08 0.0 5.4268373e-10 3.0873013e-09 1.4559214e-10 2.0774031e-09 2.0722105e-10
2.4609492e-10 1.15086635e-10 2.8232652e-08 1.559325e-09 9.1480736e-08 9.336862e-09 2.8248803e-10 9.137651e-11
8.528155e-10 0.0 6.0674993e-10 4.233536e-09 1.5702047e-10 4.245725e-11 2.5878243e-12 5.313822e-10
2.7830033e-10 6.865243e-07 5.7807376e-10 1.1544498e-09 9.960638e-10 1.0913201e-07 7.825823e-09 1.4884423e-09
0.0 1.5123931e-09 3.78736e-10 1.746754e-10 3.6670744e-10 5.1642346e-10 1.161604e-09 2.5573405e-11
3.6589558e-09 3.2669215e-10 2.143704e-09 6.590083e-10 7.166968e-10 1.5371292e-08 2.9157428e-09 0.0
3.2375602e-10 8.0268076e-10 3.3412215e-10 2.658748e-10 3.9544362e-10 2.914402e-10 9.240165e-09 1.9345087e-08
5.9746173e-16 2.4287462e-31 6.5321646e-09 8.0568836e-11 1.2023524e-11 2.088904e-09 0.0 9.017946e-10
1.9956177e-10 5.876419e-10 3.473183e-23 7e-43 7e-43 5.3176796e-10 8.0242856e-08 2.3254323e-09
1.2633826e-10 1.8967208e-11 2.8951336e-10 1.08690744e-10 6.3716836e-09 0.0 1.32557e-09 8.364205e-10
1.1063162e-36 2.0831128e-29 0.0 5.921958e-15 8.6058397e-11 7e-43 7e-43 7e-43
0.0 2.6024362e-24 7e-43 7e-43 0.0 5.1326543e-10 0.0 0.0
7e-43 0.0 0.0 0.0 7e-43 0.0 0.0 0.0
0.0 0.0 7e-43 0.0
