models/PrioritizedDoubleDQNAgent/working_full_data_C>0, 6>L>3.pt (torch, 879837 bytes, 12 tensors)

base.em.weight f4 [14, 1]
0.0 188.99847 177.71527 163.36046 -178.47466 -182.29808 -170.05653 -186.92609
-186.74763 -193.7549 -173.54776 -138.78014 137.4898 136.93025
00000000: 0000 0000 9cff 3c43 1cb7 3143 475c 2343
00000010: 8379 32c3 4f4c 36c3 790e 2ac3 14ed 3ac3
00000020: 65bf 3ac3 41c1 41c3 3a8c 2dc3 b7c7 0ac3
00000030: 647d 0943 25ee 0843

out.weight f4 [196, 256]
-0.35594735 -0.5375045 -0.38359132 -0.2584725 -0.27278328 0.06972378 -0.065663934 -0.8418112
0.18005769 -0.13008279 0.19711465 0.3626123 -0.27945212 0.2752516 -0.038612578 0.676304
-0.54978216 0.210325 0.40592366 -0.12016174 0.34959543 0.25945067 0.31548584 -0.09986951
-0.042580027 -0.030737862 -0.17006217 1.4446052 -0.0046496512 -0.06146415 0.34118465 0.731429
0.3120566 -0.040816993 -0.29991654 0.6685105 0.09673873 -0.45586514 -0.10530084 0.04807699
-0.33104414 -0.24081454 0.30450863 0.11906728 -0.07487224 0.37674683 0.24695411 -0.073228054
-0.15742905 -0.18274005 -0.025658472 0.16902241 0.39482114 0.1709763 0.26791865 -0.039350092
0.04854677 -0.526037 0.46105385 0.59882647 0.47608775 -0.2722705 -0.16770734 0.015337278
-0.32187822 -0.017788932 0.624799 0.16308038 -0.1451832 0.14939904 -0.63380533 -0.44331977
0.10034259 1.5242263 0.05480041 1.198699 0.03249286 0.23240615 -0.42376292 0.7168826
0.56689113 1.2266022 0.18475842 -0.018348321 0.27885842 0.22072291 0.3500299 -0.016700476
-0.19717468 0.087016486 -0.06692735 -0.19266707 -0.22364981 0.22363655 -0.029668732 -0.17824197
-0.058935072 -0.21098639 -0.1706449 0.21151628 -0.33076152 0.67078143 0.31398502 0.07214141
-0.14495389 -0.024005592 0.3107971 -0.069295235 -0.025484715 0.029632904 -0.078622796 -0.52382094
-0.6185626 0.11201821 -0.49463162 -0.07131262 0.21217577 -0.45344228 0.1888378 -0.011422017
-0.33842018 -0.36888677 0.0090433685 0.43507603 -0.33928055 0.058649346 0.04441299 -0.24409911
-0.21133895 -0.07167063 -0.037432212 0.411493 0.15975882 0.0635503 -0.5816335 -0.10410806
-0.014813745 0.29741457 -0.024263518 0.29100528 -0.06702294 0.01255364 0.36377648 -0.1430672
0.7191772 -0.78157085 -0.8793095 0.24225323 -0.21782553 -0.17324468 -0.10683687 -0.75838643
-0.14955379 0.2241364 -0.0004920786 -0.249249 2.8340251 0.24693616 0.05093517 0.25362408
0.20813261 -0.29515046 0.34797144 0.43575123 0.21039774 -0.05292864 -0.10197012 -0.07375779
-0.28037244 -0.06157151 -0.022027645 -0.01270907 0.6827484 1.3643221 -0.2536749 0.18736246
-0.41026643 0.36124942 0.11912085 0.34752506 0.2245868 -0.27947515 -0.41544545 0.24484426
-0.45302293 0.031389005 -0.2340925 0.23405167 -0.028947819 -0.07989441 0.041954342 0.22938083
0.16988206 -0.20974189 -0.025587134 -0.053646456 -0.008600503 -0.07502639 -0.538737 -0.8527714
0.18113546 -0.27224123 -0.5246672 -0.072299935 1.3784447 -0.07380097 -0.17409165 0.27266163
0.1130679 0.07134739 -0.062426835 -0.5610933 -0.06407763 1.1612844 0.10285136 -0.29242578
-0.108346075 0.27652612 0.21884808 0.55846685 0.21212906 -0.18833508 0.058139253 0.24813665
1.6025854 0.1582737 -0.10166195 0.6306941 0.09659757 -0.058396045 -0.014926135 0.36327907
-0.51289827 0.39174268 0.18404697 -0.17359489 -0.070755176 -0.05975472 0.11363207 -0.4623356
0.112844706 -0.55876875 -0.204968 0.36145607 0.5076756 -0.2382075 0.15618238 -1.0955491
0.41653842 0.49806494 0.10771866 0.15033786 0.36316854 0.014169899 0.13307823 0.22995271
00000000: bb3e b6be e599 09bf 1566 c4be 8256 84be
00000010: 40aa 8bbe 57cb 8e3d d07a 86bd f080 57bf
00000020: 0b61 383e 6c34 05be 6cd8 493e 52a8 b93e
00000030: 5914 8fbe c7ed 8c3e 3928 1ebd 4222 2d3f
00000040: 86be 0cbf 705f 573e 3ad5 cf3e 5c17 f6bd
00000050: 2cfe b23e b8d6 843e 5c87 a13e 6388 ccbd
00000060: 6568 2ebd f8cd fbbc c724 2ebe d3e8 b83f
00000070: 1a5c 98bb d5c1 7bbd c1af ae3e ee3e 3b3f
00000080: e2c5 9f3e b82f 27bd a98e 99be 8123 2b3f
00000090: f51e c63d 2867 e9be f8a7 d7bd 61ec 443d
000000a0: 9e7e a9be 1698 76be 8ee8 9b3e 8cd9 f33d
000000b0: 9e56 99bd f6e4 c03e 8ae1 7c3e 97f8 95bd
000000c0: 1535 21be 3520 3bbe b731 d2bc 3614 2d3e
000000d0: ff25 ca3e 6914 2f3e a22c 893e 902d 21bd
000000e0: fad8 463d 5caa 06bf 400f ec3e b14c 193f
000000f0: c6c1 f33e 0a67 8bbe 79bb 2bbe 3549 7b3c
00000100: 39cd a4be 18ba 91bc d4f2 1f3f 8bfe 263e
00000110: e8aa 14be 10fc 183e 1141 22bf cffa e2be
00000120: 6a80 cd3d d919 c33f 6576 603d f86e 993f
00000130: 3c17 053d e1fb 6d3e 74f7 d8be 9e85 373f
00000140: c71f 113f 4d01 9d3f 5031 3d3e 384f 96bc
00000150: 88c6 8e3e 3005 623e 1e37 b33e 70cf 88bc
00000160: 29e8 49be b335 b23d 3511 89bd 844a 45be
00000170: 7504 65be fb00 653e d70b f3bc 1085 36be
00000180: e765 71bd d10c 58be 89bd 2ebe b997 583e
00000190: 9359 a9be 55b8 2b3f a5c2 a03e e0be 933d
000001a0: cb6e 14be 60a7 c4bc cc20 9f3e a9ea 8dbd
000001b0: 52c5 d0bc b4c0 f23c fd04 a1bd 2119 06bf
000001c0: 1e5a 1ebf ce69 e53d 5b40 fdbe 5a0c 92bd
000001d0: 9b44 593e 9629 e8be b25e 413e 6923 3bbc
000001e0: 6945 adbe bade bcbe a32a 143c 49c2 de3e
000001f0: 2eb6 adbe 4c3a 703d 65ea 353d 1ef5 79be
00000200: 3d69 58be 0dc8 92bd 8552 19bd 36af d23e
00000210: d197 233e a926 823d efe5 14bf 9b36 d5bd
00000220: 5ab5 72bc b946 983e 49c4 c6bc a5fe 943e
00000230: 5343 89bd c8ad 4d3c e940 ba3e 3580 12be
00000240: ff1b 383f 0715 48bf 6d1a 61bf 3b11 783e
00000250: a80d 5fbe 0e67 31be 4acd dabd 9d25 42bf
00000260: a124 19be 0384 653e d6fe 00ba 213b 7fbe
00000270: ab60 3540 d5dc 7c3e 66a1 503d 04db 813e
00000280: b720 553e f61d 97be 5029 b23e c91a df3e
00000290: 8172 573e b4cb 58bd b6d5 d0bd 530e 97bd
000002a0: fa8c 8fbe 6832 7cbd 5273 b4bc b439 50bc
000002b0: 99c8 2e3f 1ba2 ae3f ade1 81be f2db 3f3e
000002c0: 710e d2be aff5 b83e a2f5 f33d ceee b13e
000002d0: 15fa 653e 5e17 8fbe 44b5 d4be 74b8 7a3e
000002e0: 9ff2 e7be c291 003d f2b5 6fbe 3eab 6f3e
000002f0: fa23 edbc ae9f a3bd 51d8 2b3d cfe2 6a3e
00000300: 90f5 2d3e 94c6 56be 1c9c d1bc 63bc 5bbd
00000310: 20e9 0cbc 70a7 99bd abea 09bf 3a4f 5abf
00000320: 937b 393e 3463 8bbe 9750 06bf fd11 94bd
00000330: e070 b03f f724 97bd 1545 32be 4e9a 8b3e
00000340: 2590 e73d 951e 923d 48b3 7fbd cfa3 0fbf
00000350: 223b 83bd f8a4 943f bca3 d23d d5b8 95be
00000360: 8ce4 ddbd d594 8d3e b619 603e aff7 0e3f
00000370: 5c38 593e e9da 40be 6d23 6e3d 8917 7e3e
00000380: 8521 cd3f 8012 223e 2434 d0bd 2b75 213f
00000390: f2d4 c53d b130 6fbd bf8c 74bc b7ff b93e
000003a0: 4d4d 03bf 7f92 c83e cf76 3c3e dcc2 31be
000003b0: 17e8 90bd 5ec1 74bd eeb7 e83d 40b7 ecbe
000003c0: 201b e73d 780b 0fbf 22e3 51be c510 b93e
000003d0: 07f7 013f abec 73be 46ee 1f3e f43a 8cbf
000003e0: 8644 d53e 5e02 ff3e 9a9b dc3d 2bf2 193e
000003f0: 3af1 b93e dd28 683c a945 083e b978 6b3e

out.bias f4 [196]
-0.30347008 51.099808 47.734253 41.902958 42.874565 39.498547 47.896294 42.78255
40.42773 42.861378 32.005005 32.11911 40.069042 22.970781 55.744022 -0.06207931
44.89475 39.431805 46.632183 42.902134 41.48411 37.592625 42.31487 29.191828
39.509377 30.223341 31.640345 30.37365 35.532276 45.110806 0.0145997405 55.237724
46.343918 43.698303 47.007763 37.7012 28.14921 39.22797 41.343693 32.5351
35.893787 25.74847 49.94628 43.581375 49.66938 0.008078359 47.78709 46.239014
40.394756 44.541344 39.996338 24.682116 27.276268 24.056969 28.477535 29.927063
43.756573 45.044357 45.34897 50.46834 -0.033630505 39.724075 33.891983 27.084787
40.643627 32.988594 32.22193 26.755049 16.485676 24.249836 55.72311 37.749245
52.665466 43.125435 34.139057 -0.06148161 46.938244 43.573532 34.078163 38.417007
37.73041 37.05324 30.181175 27.818508 44.932545 35.384056 50.423687 41.134995
39.104965 48.19777 0.0317431 36.893894 36.074333 35.989784 35.68481 25.385778
11.690743 19.731028 41.1324 47.609642 49.435448 31.717213 32.523087 45.073544
39.45444 -0.004925221 39.566906 34.964756 30.684471 22.66986 28.259943 15.908275
39.34406 41.24255 38.86093 34.388615 23.457 26.530704 36.79497 29.43166
0.05679372 25.66676 35.582592 28.273186 29.818768 27.705141 33.1604 27.241652
25.10153 34.277935 38.31339 36.70471 33.97404 30.508781 36.99394 0.021416262
28.201944 28.89978 13.306972 31.924582 30.03626 23.977926 29.974983 32.959007
25.189558 33.67795 31.555918 30.00091 24.0103 31.18425 0.048590675 30.789215
30.418772 24.127985 23.023119 29.442019 23.995344 24.874315 25.669664 23.444134
32.86751 3.0228937 27.737564 24.20996 25.070288 0.060228013 29.492819 26.622845
-0.017823048 -0.0412744 -0.030063972 0.030233204 -0.04443302 -0.035868317 -0.0004723817 0.038502865
0.029512137 -0.00029381365 -0.04930698 0.005912602 0.018502802 -0.056706175 0.009585053 -0.011664659
-0.060861222 0.0098379105 0.018720686 0.0099925175 0.016749904 0.04432843 -0.0028317273 0.018080436
-0.043729305 0.019649483 24.46122 -0.019970417
00000000: 6e60 9bbe 3466 4c42 e0ef 3e42 a19c 2742
00000010: 8e7f 2b42 83fe 1d42 ce95 3f42 5521 2b42
00000020: ffb5 2142 0d72 2b42 2005 0042 f879 0042
00000030: b346 2042 29c4 b741 e1f9 5e42 e046 7ebd
00000040: 3994 3342 2bba 1d42 5b87 3a42 c99b 2b42
00000050: bbef 2542 d95e 1642 6d42 2942 dd88 e941
00000060: 9a09 1e42 67c9 f141 6d1f fd41 3cfd f241
00000070: 0d21 0e42 7771 3442 c033 6f3c 6ef3 5c42
00000080: 2c60 3942 10cb 2e42 f307 3c42 07ce 1642
00000090: 9531 e141 71e9 1c42 f15f 2542 f123 0242
000000a0: 3d93 0f42 defc cd41 fec8 4742 5453 2e42
000000b0: 72ad 4642 185b 043c fb25 3f42 c0f4 3842
000000c0: 3b94 2142 562a 3242 40fc 1f42 f974 c541
000000d0: cc35 da41 ac74 c041 fed1 e341 a06a ef41
000000e0: bb06 2f42 6c2d 3442 5865 3542 95df 4942
000000f0: 24c0 09bd 74e5 1e42 6491 0742 a5ad d841
00000100: 1393 2242 52f4 0342 42e3 0042 570a d641
00000110: aae2 8341 aaff c141 77e4 5e42 3aff 1642
00000120: 70a9 5242 7280 2c42 658e 0842 24d4 7bbd
00000130: c3c0 3b42 4c4b 2e42 0a50 0842 04ab 1942
00000140: f1eb 1642 8536 1442 0c73 f141 4e8c de41
00000150: edba 3342 4689 0d42 dbb1 4942 3c8a 2442
00000160: 7c6b 1c42 84ca 4042 0e05 023d 5993 1342
00000170: 1e4c 1042 8af5 0f42 3fbd 0e42 1316 cb41
00000180: 490d 3b41 25d9 9d41 9487 2442 4670 3e42
00000190: e6bd 4542 dabc fd41 a417 0242 4f4b 3442
000001a0: 59d1 1d42 c063 a1bb 8344 1e42 e9db 0b42
000001b0: cc79 f541 e05b b541 5d14 e241 4b88 7e41
000001c0: 5160 1d42 5ff8 2442 9871 1b42 f18d 0942
000001d0: f0a7 bb41 e23e d441 0d2e 1342 0a74 eb41
000001e0: 88a0 683d 8655 cd41 9354 0e42 7c2f e241
000001f0: d68c ee41 21a4 dd41 40a4 0442 e7ee d941
00000200: efcf c841 9b1c 0942 e940 1942 9fd1 1242
00000210: 6be5 0742 fc11 f441 cbf9 1342 2871 af3c
00000220: 959d e141 c032 e741 5be9 5441 8b65 ff41
00000230: 434a f041 cbd2 bf41 c4cc ef41 06d6 0342
00000240: 3784 c941 39b6 0642 8572 fc41 dd01 f041
00000250: 1815 c041 5879 f941 0407 473d 5050 f641
00000260: a559 f341 1d06 c141 592f b841 4189 eb41
00000270: 77f6 bf41 99fe c641 795b cd41 968d bb41
00000280: 5578 0342 1777 4140 88e6 dd41 00ae c141
00000290: f38f c841 a6b1 763d 4bf1 eb41 96fb d441
000002a0: a401 92bc 580f 29bd b848 f6bc a0ab f73c
000002b0: 66ff 35bd a8ea 12bd 00aa f7b9 2eb5 1d3d
000002c0: 70c3 f13c 000b 9ab9 1ef6 49bd 80be c13b
000002d0: 3093 973c bc44 68bd a00a 1d3c 201d 3fbc
000002e0: 9e49 79bd 302f 213c 205c 993c a8b7 233c
000002f0: 1837 893c ba91 353d 8094 39bb 6c1d 943c
00000300: 801d 33bd f4f7 a03c 94b0 c341 0099 a3bc

base.em.weight f4 [14, 1]
0.0 188.67374 177.38164 163.10872 -178.15965 -181.96999 -169.77635 -186.59412
-186.42262 -193.44705 -173.2505 -138.65901 137.13617 136.77156
00000000: 0000 0000 7aac 3c43 b361 3143 d51b 2343
00000010: df28 32c3 51f8 35c3 bfc6 29c3 1898 3ac3
00000020: 316c 3ac3 7272 41c3 2140 2dc3 b5a8 0ac3
00000030: dc22 0943 85c5 0843

out.weight f4 [196, 256]
-0.3488939 -0.4888986 -0.38359132 -0.2584725 -0.14324345 0.18045731 -0.065663934 -0.8418112
0.18005769 -0.13008279 0.32586843 0.3626123 -0.24927798 0.39194733 -0.007553087 0.676304
-0.54978216 0.30324364 0.48693085 -0.01300652 0.37559146 0.3800274 0.3934523 -0.077303514
-0.021361582 -0.030737862 -0.13731869 1.5515083 0.02408684 -0.06146415 0.34118465 0.731429
0.43786594 -0.006262025 -0.2630988 0.7972296 0.15790674 -0.43530628 -0.10530084 0.1087972
-0.2398286 -0.169024 0.30450863 0.16043869 0.013693978 0.46876755 0.24695411 -0.043036688
-0.11453396 -0.16690707 0.10307145 0.16902241 0.39482114 0.2889879 0.26791865 -0.039350092
0.04854677 -0.526037 0.59001654 0.59882647 0.59025097 -0.2722705 -0.16770734 0.0242708
-0.32187822 -0.017788932 0.624799 0.29274428 -0.1451832 0.14939904 -0.6277845 -0.3283951
0.10034259 1.5242263 0.11874534 1.198699 0.03249286 0.2902529 -0.29436567 0.7168826
0.5837296 1.2266022 0.3128439 -0.018348321 0.27885842 0.27853984 0.3500299 -0.016700476
-0.11139587 0.087066785 0.01907547 -0.19266707 -0.2114692 0.22363655 -0.029668732 -0.06560486
-0.035069108 -0.21098639 -0.1706449 0.21151628 -0.33076152 0.80152327 0.31398502 0.08808424
-0.14396638 -0.024005592 0.3107971 -0.065312386 0.016826054 0.029632904 -0.078622796 -0.52382094
-0.6185626 0.13273676 -0.49463162 0.02329963 0.2688734 -0.45300668 0.1888378 0.02213856
-0.2563643 -0.34697443 0.012032069 0.45134392 -0.31992534 0.09735226 0.04441299 -0.24409911
-0.1277819 -0.064408615 0.067571655 0.411493 0.2892963 0.06620425 -0.48288494 -0.10410806
0.02498416 0.29741457 -0.013762501 0.29100528 -0.019997131 0.01255364 0.37754485 -0.1430672
0.7191772 -0.75927573 -0.83065414 0.24586248 -0.21782553 -0.15951362 -0.10683687 -0.75838643
-0.14955379 0.2241364 -0.0004920786 -0.21474823 2.8340251 0.24693616 0.05093517 0.25362408
0.2669281 -0.19418941 0.34797144 0.43575123 0.21039774 -0.05292864 -0.10197012 -0.07375779
-0.275237 -0.06157151 -0.022027645 0.024676744 0.6827484 1.3643221 -0.2536749 0.18736246
-0.41026643 0.4746121 0.11912085 0.47220796 0.31068873 -0.22686094 -0.39807248 0.24484426
-0.4346986 0.031389005 -0.19102407 0.23405167 0.022381557 -0.07906956 0.041954342 0.24679926
0.27824682 -0.17687452 -0.025587134 -0.009225749 -0.008600503 -0.060886104 -0.538737 -0.8527714
0.21884994 -0.27224123 -0.5246672 -0.072299935 1.3784447 -0.028777476 -0.17409165 0.27266163
0.1130679 0.07134739 -0.062426835 -0.49867132 -0.005810352 1.1612844 0.14272909 -0.24925418
-0.108346075 0.27652612 0.25008985 0.55846685 0.28374752 -0.15054747 0.05971781 0.28903058
1.6025854 0.18102442 -0.10166195 0.6306941 0.1143153 0.07041948 -0.014926135 0.36783937
-0.51289827 0.39174268 0.31311798 -0.15087254 -0.07005766 -0.05975472 0.1944992 -0.4623356
0.13109882 -0.55876875 -0.204968 0.36145607 0.5076756 -0.2382075 0.15618238 -1.0955491
0.41653842 0.49806494 0.15403648 0.15033786 0.36316854 0.014169899 0.15279457 0.2460806
00000000: 39a2 b2be eb50 fabe 1566 c4be 8256 84be
00000010: 69ae 12be cdc9 383e d07a 86bd f080 57bf
00000020: 0b61 383e 6c34 05be 3ad8 a63e 52a8 b93e
00000030: ba42 7fbe 52ad c83e e37f f7bb 4222 2d3f
00000040: 86be 0cbf c042 9b3e 004f f93e 4d19 55bc
00000050: 864d c03e f492 c23e 9472 c93e 4e51 9ebd
00000060: 7cfe aebc f8cd fbbc 459d 0cbe d397 c63f
00000070: c451 c53c d5c1 7bbd c1af ae3e ee3e 3b3f
00000080: f72f e03e ac31 cdbb e3b4 86be 3d17 4c3f
00000090: 4eb2 213e 77e0 debe f8a7 d7bd 11d1 de3d
000000a0: a195 75be a114 2dbe 8ee8 9b3e 0a4a 243e
000000b0: b55c 603c 4d02 f03e 8ae1 7c3e 3d47 30bd
000000c0: c890 eabd b0e9 2abe 2017 d33d 3614 2d3e
000000d0: ff25 ca3e 39f6 933e a22c 893e 902d 21bd
000000e0: fad8 463d 5caa 06bf 530b 173f b14c 193f
000000f0: b01a 173f 0a67 8bbe 79bb 2bbe 8fd3 c63c
00000100: 39cd a4be 18ba 91bc d4f2 1f3f 94e2 953e
00000110: e8aa 14be 10fc 183e 7cb6 20bf 6723 a8be
00000120: 6a80 cd3d d919 c33f c230 f33d f86e 993f
00000130: 3c17 053d 079c 943e 19b7 96be 9e85 373f
00000140: 4e6f 153f 4d01 9d3f 132d a03e 384f 96bc
00000150: 88c6 8e3e c69c 8e3e 1e37 b33e 70cf 88bc
00000160: 8523 e4bd 1250 b23d 2944 9c3c 844a 45be
00000170: 628b 58be fb00 653e d70b f3bc d75b 86bd
00000180: a0a4 0fbd d10c 58be 89bd 2ebe b997 583e
00000190: 9359 a9be a130 4d3f a5c2 a03e 8365 b43d
000001a0: ec6b 13be 60a7 c4bc cc20 9f3e 80c2 85bd
000001b0: cbd6 893c b4c0 f23c fd04 a1bd 2119 06bf
000001c0: 1e5a 1ebf 25ec 073e 5b40 fdbe dede be3c
000001d0: c6a9 893e 7ef0 e7be b25e 413e ed5b b53c
000001e0: 2e42 83be a2a6 b1be 2822 453c 8d16 e73e
000001f0: 41cd a3be 9f60 c73d 65ea 353d 1ef5 79be
00000200: 42d9 02be aae8 83bd 0263 8a3d 36af d23e
00000210: a51e 943e 1896 873d b23c f7be 9b36 d5bd
00000220: 95ab cc3c b946 983e 1d7c 61bc a5fe 943e
00000230: 06d1 a3bc c8ad 4d3c 8f4d c13e 3580 12be
00000240: ff1b 383f e55f 42bf c0a5 54bf 60c3 7b3e
00000250: a80d 5fbe 8a57 23be 4acd dabd 9d25 42bf
00000260: a124 19be 0384 653e d6fe 00ba f6e6 5bbe
00000270: ab60 3540 d5dc 7c3e 66a1 503d 04db 813e
00000280: cdaa 883e 97d9 46be 5029 b23e c91a df3e
00000290: 8172 573e b4cb 58bd b6d5 d0bd 530e 97bd
000002a0: ddeb 8cbe 6832 7cbd 5273 b4bc e226 ca3c
000002b0: 99c8 2e3f 1ba2 ae3f ade1 81be f2db 3f3e
000002c0: 710e d2be 5b00 f33e a2f5 f33d 3ec5 f13e
000002d0: 9812 9f3e 3c4e 68be 28d0 cbbe 74b8 7a3e
000002e0: d190 debe c291 003d d09b 43be 3eab 6f3e
000002f0: 8759 b73c 39ef a1bd 51d8 2b3d f2b8 7c3e
00000300: 5e76 8e3e 981e 35be 1c9c d1bc 9927 17bc
00000310: 20e9 0cbc b563 79bd abea 09bf 3a4f 5abf
00000320: 331a 603e 3463 8bbe 9750 06bf fd11 94bd
00000330: e070 b03f bebe ebbc 1545 32be 4e9a 8b3e
00000340: 2590 e73d 951e 923d 48b3 7fbd d951 ffbe
00000350: c464 bebb f8a4 943f 9327 123e 7d3c 7fbe
00000360: 8ce4 ddbd d594 8d3e c70b 803e aff7 0e3f
00000370: 5b47 913e 1e29 1abe aa9a 743d d1fb 933e
00000380: 8521 cd3f 775e 393e 2434 d0bd 2b75 213f
00000390: 241e ea3d 1738 903d bf8c 74bc 7155 bc3e
000003a0: 4d4d 03bf 7f92 c83e 0051 a03e 557e 1abe
000003b0: 647a 8fbd 5ec1 74bd cc2a 473e 40b7 ecbe
000003c0: c53e 063e 780b 0fbf 22e3 51be c510 b93e
000003d0: 07f7 013f abec 73be 46ee 1f3e f43a 8cbf
000003e0: 8644 d53e 5e02 ff3e bdbb 1d3e 2bf2 193e
000003f0: 3af1 b93e dd28 683c 2e76 1c3e 8efc 7b3e

out.bias f4 [196]
-0.27083555 50.978848 47.714085 41.799362 42.789898 39.466988 47.810143 42.727203
40.377888 42.819378 32.040417 32.033947 39.975903 22.880491 55.625637 -0.06207931
44.729603 39.275864 46.5895 42.88215 41.458992 37.567963 42.257294 29.208168
39.475616 30.114906 31.570509 30.17138 35.527985 44.939644 0.0145997405 55.160267
46.280025 43.668457 47.002262 37.595787 28.128016 39.106705 41.247936 32.47606
35.813263 25.620214 49.823128 43.5152 49.6098 0.008078359 47.708977 46.181034
40.38635 44.407898 39.96393 24.575174 27.001059 23.975103 28.503105 29.865131
43.708153 45.00961 45.275547 50.430138 -0.033630505 39.648464 33.739277 27.055885
40.53127 32.892136 32.18043 26.761835 16.45486 24.172188 55.680904 37.58714
52.5911 42.911312 34.04885 -0.06148161 46.73979 43.481712 33.99231 38.350567
37.627956 36.901516 30.080877 27.818508 44.75647 35.318146 50.378483 41.008713
39.022404 48.106792 0.0317431 36.857082 36.030075 35.88115 35.556824 25.477118
11.73411 19.68936 41.114513 47.478943 49.328426 31.559422 32.416874 45.071358
39.416378 -0.004925221 39.57556 34.89398 30.653559 22.650072 28.161085 15.888819
39.185947 41.2196 38.758747 34.428272 23.446201 26.77347 36.636364 29.445292
0.05679372 25.562563 35.457527 28.253038 29.874184 27.664534 33.030655 27.170618
25.10153 34.271156 38.295124 36.658764 34.00102 30.355473 36.853424 0.021416262
28.140371 28.879055 13.225134 31.941725 29.990145 23.923 29.930029 32.98929
25.192421 33.623787 31.484123 29.989994 23.98976 31.11744 0.048590675 30.836071
30.392605 24.113401 23.023119 29.357544 23.950975 24.765686 25.854998 23.575323
32.831234 3.0228937 27.68692 24.152872 25.076836 0.060228013 29.485785 26.622845
-0.017823048 -0.0412744 -0.030063972 0.030233204 -0.04443302 -0.035868317 -0.0004723817 0.038502865
0.029512137 -0.00029381365 -0.04930698 0.005912602 0.018502802 -0.056706175 0.009585053 -0.011664659
-0.060861222 0.0098379105 0.018720686 0.0099925175 0.016749904 0.04432843 -0.0028317273 0.018080436
-0.043729305 0.019649483 24.46122 -0.019970417
00000000: f5aa 8abe 57ea 4b42 39db 3e42 8c32 2742
00000010: db28 2b42 32de 1d42 963d 3f42 a8e8 2a42
00000020: f582 2142 0b47 2b42 6329 0042 c322 0042
00000030: 53e7 1f42 3f0b b741 a780 5e42 e046 7ebd
00000040: 1deb 3242 7c1a 1d42 a65b 3a42 5287 2b42
00000050: 02d6 2542 9845 1642 7807 2942 54aa e941
00000060: 08e7 1d42 54eb f041 6790 fc41 fc5e f141
00000070: a81c 0e42 32c2 3342 c033 6f3c 1da4 5c42
00000080: bf1e 3942 80ac 2e42 5102 3c42 1662 1642
00000090: 2d06 e141 446d 1c42 e3fd 2442 7ce7 0142
000000a0: c840 0f42 33f6 cc41 e24a 4742 910f 2e42
000000b0: 6f70 4642 185b 043c fed5 3e42 61b9 3842
000000c0: 9f8b 2142 b0a1 3142 10db 1f42 f599 c441
000000d0: 2b02 d841 03cd bf41 5c06 e441 caeb ee41
000000e0: 26d5 2e42 d709 3442 291a 3542 76b8 4942
000000f0: 24c0 09bd 0798 1e42 05f5 0642 7472 d841
00000100: 0520 2242 8c91 0342 c3b8 0042 3d18 d641
00000110: 8ea3 8341 a460 c141 3fb9 5e42 3b59 1642
00000120: 495d 5242 2fa5 2b42 0632 0842 24d4 7bbd
00000130: 8cf5 3a42 46ed 2d42 20f8 0742 fb66 1942
00000140: 0783 1642 279b 1342 a3a5 f041 4e8c de41
00000150: a006 3342 c845 0d42 9183 4942 ec08 2442
00000160: f116 1c42 5b6d 4042 0e05 023d a76d 1342
00000170: cc1e 1042 4c86 0f42 303a 0e42 23d1 cb41
00000180: eabe 3b41 cf83 9d41 4375 2442 70ea 3d42
00000190: 4f50 4542 b279 fc41 e1aa 0142 1249 3442
000001a0: 5faa 1d42 c063 a1bb 604d 1e42 6f93 0b42
000001b0: 7d3a f541 5933 b541 e749 e141 9a38 7e41
000001c0: 69be 1c42 dfe0 2442 f508 1b42 8db6 0942
000001d0: d291 bb41 1130 d641 a38b 1242 f58f eb41
000001e0: 88a0 683d 2180 cc41 82d4 0d42 3906 e241
000001f0: 54fe ee41 f750 dd41 641f 0442 6d5d d941
00000200: efcf c841 aa15 0942 352e 1942 93a2 1242
00000210: 0b01 0842 02d8 f241 e869 1342 2871 af3c
00000220: 7b1f e141 4e08 e741 269a 5341 a788 ff41
00000230: d1eb ef41 4e62 bf41 b370 ef41 08f5 0342
00000240: 148a c941 c27e 0642 7cdf fb41 82eb ef41
00000250: 07eb bf41 84f0 f841 0407 473d 46b0 f641
00000260: 0e24 f341 3fe8 c041 592f b841 40dc ea41
00000270: 999b bf41 2020 c641 09d7 ce41 439a bc41
00000280: 2f53 0342 1777 4140 d07e dd41 1539 c141
00000290: 5c9d c841 a6b1 763d e3e2 eb41 96fb d441
000002a0: a401 92bc 580f 29bd b848 f6bc a0ab f73c
000002b0: 66ff 35bd a8ea 12bd 00aa f7b9 2eb5 1d3d
000002c0: 70c3 f13c 000b 9ab9 1ef6 49bd 80be c13b
000002d0: 3093 973c bc44 68bd a00a 1d3c 201d 3fbc
000002e0: 9e49 79bd 302f 213c 205c 993c a8b7 233c
000002f0: 1837 893c ba91 353d 8094 39bb 6c1d 943c
00000300: 801d 33bd f4f7 a03c 94b0 c341 0099 a3bc

exp_avg f4 [14, 1]
0.0 -1785.7839 -734.07416 -553.00305 960.15546 924.29877 786.6497 958.4665
1098.3922 892.8051 607.8049 184.88905 -307.01395 -112.348076
00000000: 0000 0000 1639 dfc4 bf84 37c4 3240 0ac4
00000010: f309 7044 1f13 6744 95a9 4444 db9d 6f44
00000020: 8d4c 8944 8733 5f44 83f3 1744 99e3 3843
00000030: c981 99c3 37b2 e0c2

exp_avg_sq f4 [14, 1]
0.0 4.2789905e+06 719822.56 523119.0 1.3342811e+06 1.2013881e+06 979585.44 1.1703958e+06
1.4786715e+06 989691.44 548641.06 133314.95 106813.484 59567.227
00000000: 0000 0000 9d95 824a e9bc 2f49 e06d ff48
00000010: 49e0 a249 61a7 9249 1728 6f49 dede 8e49
00000020: 7c80 b449 b79f 7149 11f2 0549 bd30 0248
00000030: be9e d047 3aaf 6847

exp_avg f4 [196, 256]
0.011108562 0.067613415 -2.8326293e-16 -6e-45 0.08037335 0.053847484 -6e-45 -6e-45
-4.824816e-16 -3.373716e-16 0.05937593 -5.34693e-17 0.07700657 0.007713991 0.048264697 -6e-45
-2.2852668e-16 0.09958095 0.062334705 0.12564866 0.033871423 0.059562936 0.07421706 0.031072127
0.009723714 -6e-45 0.062756486 0.067812115 0.0037649598 -6e-45 6e-45 -6e-45
0.035090383 0.077871956 0.06323977 0.06948831 0.0153671885 0.034965355 6e-45 0.020326106
0.036838047 0.11351457 -2.1848834e-16 0.047041573 0.07782572 0.07629827 -6e-45 0.03269083
0.010817322 0.03915875 0.085079156 -4.2163242e-17 -6e-45 0.008243131 -6e-45 -4.3939824e-16
-7.619045e-18 -1.3058432e-17 0.07954875 -2.578952e-17 0.0732029 -3.0692338e-17 -1.0856509e-17 0.016316993
-3.4008072e-17 0.0 -6e-45 0.020667095 -1.0093696e-16 -1.7762151e-16 0.024125589 0.022533417
6e-45 -5.972873e-17 0.085074924 -6e-45 0.0 0.05790287 0.04784264 -6e-45
0.015015549 6e-45 0.04849733 0.0 -6e-45 0.08455995 -6e-45 0.0
0.01699191 9.9926336e-05 0.060815763 -1.6153129e-16 0.055318218 -6e-45 -6e-45 0.114758685
0.038770888 -3.4803157e-16 -3.179648e-16 6e-45 -6e-45 0.027957264 6e-45 0.04312678
0.002385509 0.0 -6e-45 0.006245876 0.06979788 0.0 -6e-45 -6e-45
-6e-45 0.021560257 -6e-45 0.12375193 0.09249052 0.0006605692 -6e-45 0.01605583
0.111031 0.065997355 0.0045206174 0.03385128 0.023105944 0.045889065 -6e-45 -6e-45
0.0027480044 0.008753745 0.021711243 -6e-45 0.021225717 0.001150476 0.06675125 -6e-45
0.060588162 -6e-45 0.019648088 -4.164035e-17 0.043087445 0.0 0.01317363 -3.4120012e-16
-6.6656775e-17 0.05620905 0.0824578 0.0054572625 -6e-45 0.034882694 -4.8107496e-16 -1.0170298e-17
-8.889967e-17 -4.15168e-16 -6e-45 0.048375823 -6e-45 -3.8673343e-16 -1.4910232e-16 -2.7762908e-16
0.027203172 0.09022995 6e-45 -2.8749481e-16 -6e-45 6e-45 -6e-45 -6e-45
0.01720344 -6e-45 -6e-45 0.06939336 -6e-45 -6e-45 -6e-45 -1.5888375e-16
-2.280481e-16 0.060412753 -6e-45 0.033847205 0.07808341 0.087402165 0.01483291 -2.3915874e-17
0.012117764 -1.627248e-16 0.03356757 -3.525681e-16 0.034606777 0.0018882267 -3.1157693e-17 0.03203418
0.07361222 0.04578756 -6e-45 0.057098977 0.0 0.013143311 -6e-45 -6e-45
0.015456982 -6e-45 -6e-45 -6e-45 -5.790455e-17 0.070802465 -3.6220158e-16 6e-45
-6e-45 -6e-45 -6e-45 0.0932177 0.06905522 -6e-45 0.067523 0.06199089
-9.673926e-17 -6e-45 0.03992772 -6e-45 0.10099562 0.075814195 0.005879857 0.019429574
-6.567085e-17 0.019684201 -8.5748844e-17 -6e-45 0.020565035 0.05414512 -6e-45 0.010708346
-1.588889e-16 -6e-45 0.028475732 0.038523663 0.0013773232 6e-45 0.047102403 -6e-45
0.051888682 6e-45 -6e-45 6e-45 -6.927485e-17 -6e-45 -6e-45 -3.1543062e-16
-5.791758e-17 -2.0914464e-16 0.068004586 -6e-45 -4.9828182e-17 -7.5485604e-17 0.053760182 0.006065634
00000000: b000 363c e778 8a3d 3b4a a3a5 0400 0080
00000010: c89a a43d 2e8f 5c3d 0400 0080 0400 0080
00000020: dc10 0ba6 437b c2a5 2d34 733d 6895 76a4
00000030: 9fb5 9d3d a6c5 fc3b 34b1 453d 0400 0080
00000040: 96bc 83a5 19f1 cb3d ad52 7f3d 0baa 003e
00000050: c3bc 0a3d 44f8 733d 1dff 973d f98a fe3c
00000060: 3650 1f3c 0400 0080 7986 803d 14e1 8a3d
00000070: 8bbd 763b 0400 0080 0400 0000 0400 0080
00000080: efba 0f3d 557b 9f3d da83 813d e34f 8e3d
00000090: a9c6 7b3c d537 0f3d 0400 0000 ef82 a63c
000000a0: 7ee3 163d 547a e83d 60e6 7ba5 aaae 403d
000000b0: 1763 9f3d 4442 9c3d 0400 0080 d2e6 053d
000000c0: 233b 313c ed64 203d fb3d ae3d 9271 42a4
000000d0: 0400 0080 330e 073c 0400 0080 bc4b fda5
000000e0: ec8b 0ca3 b4e2 70a3 74ea a23d c8dd eda3
000000f0: 67eb 953d 1e8b 0da4 6a44 48a3 37ab 853c
00000100: a5d5 1ca4 0000 0000 0400 0080 0a4e a93c
00000110: aabe e8a4 9ec8 4ca5 07a3 c53c 0098 b83c
00000120: 0400 0000 9eb9 89a4 c33b ae3d 0400 0080
00000130: 0000 0000 8f2b 6d3d a5f6 433d 0400 0080
00000140: c703 763c 0400 0000 23a5 463d 0000 0000
00000150: 0400 0080 c42d ad3d 0400 0080 0000 0000
00000160: 9e32 8b3c 8b8f d138 f319 793d 9f3b 3aa5
00000170: 5b95 623d 0400 0080 0400 0080 9a06 eb3d
00000180: 39ce 1e3d 65a0 c8a5 534b b7a5 0400 0000
00000190: 0400 0080 a206 e53c 0400 0000 b5a5 303d
000001a0: 3356 1c3b 0000 0000 0400 0080 35aa cc3b
000001b0: 31f2 8e3d 0000 0000 0400 0080 0400 0080
000001c0: 0400 0080 239f b03c 0400 0080 a771 fd3d
000001d0: ab6b bd3d 0c2a 2d3a 0400 0080 8487 833c
000001e0: 3964 e33d 9f29 873d b021 943b a4a7 0a3d
000001f0: ad48 bd3c 2cf6 3b3d 0400 0080 0400 0080
00000200: dd17 343b de6b 0f3c c7db b13c 0400 0080
00000210: 8ee1 ad3c 92cb 963a e1b4 883d 0400 0080
00000220: 4b2b 783d 0400 0080 07f5 a03c 4008 40a4
00000230: 767c 303d 0000 0000 36d6 573c 40b0 c4a5
00000240: 37b3 99a4 763b 663d a3df a83d d6d2 b23b
00000250: 0400 0080 28e1 0e3d 11a9 0aa6 e09b 3ba3
00000260: 1afd cca4 fc53 efa5 0400 0080 ba25 463d
00000270: 0400 0080 c8ef dea5 3de7 2ba5 d20a a0a5
00000280: 30d9 de3c 7bca b83d 0400 0000 bfba a5a5
00000290: 0400 0080 0400 0000 0400 0080 0400 0080
000002a0: 3bee 8c3c 0400 0080 0400 0080 1b1e 8e3d
000002b0: 0400 0080 0400 0080 0400 0080 352e 37a5
000002c0: f675 83a5 5d73 773d 0400 0080 5ea3 0a3d
000002d0: 32ea 9f3d e8ff b23d bc05 733c c395 dca3
000002e0: 9689 463c e29b 3ba5 267e 093d de3d cba5
000002f0: d6bf 0d3d 607e f73a 83b0 0fa4 4636 033d
00000300: 01c2 963d bd8b 3b3d 0400 0080 9ee0 693d
00000310: 0000 0000 0b57 573c 0400 0080 0400 0080
00000320: 483f 7d3c 0400 0080 0400 0080 0400 0080
00000330: d084 85a4 e200 913d 85cb d0a5 0400 0000
00000340: 0400 0080 0400 0080 0400 0080 ece8 be3d
00000350: d36c 8d3d 0400 0080 8049 8a3d 29ea 7d3d
00000360: c810 dfa4 0400 0080 408b 233d 0400 0080
00000370: cbd6 ce3d 7944 9b3d d1ab c03b c52a 9f3c
00000380: 3a6d 97a4 c340 a13c 2fb9 c5a4 0400 0080
00000390: 0178 a83c 46c7 5d3d 0400 0080 0f72 2f3c
000003a0: ba2f 37a5 0400 0080 f045 e93c fdca 1d3d
000003b0: 4c87 b43a 0400 0000 73ee 403d 0400 0080
000003c0: 3a89 543d 0400 0000 0400 0080 0400 0000
000003d0: a7bc 9fa4 0400 0080 0400 0080 58d5 b5a5
000003e0: 818c 85a4 9a20 71a5 fd45 8b3d 0400 0080
000003f0: bcca 65a4 d60e aea4 a333 5c3d 3ac2 c63b

exp_avg_sq f4 [196, 256]
0.37472823 0.2924678 0.03783456 0.00228074 0.058364443 0.03581699 0.9789582 0.016139988
0.092376135 0.06882262 0.03224249 0.0009045364 0.9841131 0.00066207384 0.3648578 0.05809141
0.02192098 0.17382988 0.08957637 0.20823018 0.25650823 0.036979474 0.1370678 0.28644696
0.031725425 0.3174519 0.55506134 0.06093578 0.0025938102 2.776824 2.1207098e-09 4.3056604e-18
0.011792676 0.7673965 0.44582117 0.04418348 0.009543788 0.4369991 1.6168784e-10 0.01694039
0.024684316 0.37811497 0.015001808 0.19538094 0.11684647 0.104047574 0.0006853645 0.17715378
0.009611194 0.92412955 0.06622427 0.0012963949 0.0454885 0.0007393571 1.2005965e-07 0.27151015
0.016309474 0.0005819322 0.057685647 0.04206509 0.062286675 0.01176451 0.06098579 0.503971
0.15685496 0.0 5.5785913e-05 0.0038517693 0.2867942 1.3824323 2.4254203 0.0058238464
2.5237106e-09 0.3163654 0.26763391 0.0070111565 0.0 0.1514716 0.020726003 1.25379675e-23
0.12013313 8.731e-19 0.021734552 0.0 0.00030275143 0.323376 0.000161108 0.0
0.0059372415 0.59519297 0.07566114 0.014058208 3.1158452 0.019991046 0.24694256 0.15724368
0.3987306 0.04687207 0.16395251 1.1973582e-14 0.005702895 0.006933076 9.698894e-16 1.1054883
0.88134307 0.0 0.045787442 0.3715443 0.41125807 0.0 3.669386e-15 0.0005140077
0.4095184 0.1636019 0.00074798363 0.25895292 0.40228477 0.34686127 0.0034274221 0.03458261
0.27699423 1.3705086 0.3456606 0.6541369 0.21529877 0.21244906 0.1755683 0.021074634
0.0001635602 0.2195117 0.006473869 0.00031186393 0.0040708394 0.028396979 0.069173604 0.002749727
0.35024515 1.5053587 0.52885216 0.00071701204 0.12688278 0.0 0.13830832 0.15151048
0.0020656267 0.9603197 0.434095 0.34529847 1.1690058e-06 0.9749972 0.40703273 0.002009279
0.0024984959 0.05495098 0.006182195 0.29708946 0.043589566 0.05101338 0.16853441 0.19120346
0.032363843 0.120926075 6.36521e-12 0.032728978 3.73121e-05 2.3956381e-06 0.8085501 0.0006607606
1.6952484 0.021464178 5.0163753e-19 0.5206102 0.036832873 0.0009197784 0.020131629 0.009068788
0.038275734 0.043022383 0.014721745 0.011170275 0.12443895 0.41712236 0.11011959 0.2860207
0.06606564 0.48208103 0.09180311 0.062199686 0.06870695 0.791134 0.00038218807 0.5109844
0.06988838 0.29324818 1.0066125 0.24971153 0.0 0.13052349 0.0429354 0.46832204
0.025379429 0.022710295 0.030536424 0.0034779932 0.0017504039 0.37374735 0.07504466 2.4126266e-15
0.006164415 6.7556957e-18 0.002646711 0.33717868 0.21234086 0.3705739 0.433273 0.3116026
0.08018741 0.16663146 0.24680674 0.016729362 0.30075103 0.6082784 2.0961366 0.03411048
0.0668222 0.11310107 0.0045241932 0.00025378916 0.20352955 0.02678583 0.08515726 0.83303696
0.027181776 0.00015527933 0.0073795035 0.43427065 0.589245 7.653119e-18 0.051325034 0.004474999
1.2207909 1.6008974e-08 0.2525943 4.3296528e-19 0.036407802 0.015157839 0.0044177994 0.031546738
0.0010402654 0.01380676 0.32580465 0.000645916 0.017962048 0.5300753 1.1232445 0.021369511
00000000: 61dc bf3e 57be 953e 69f8 1a3d 7878 153b
00000010: 8e0f 6f3d d6b4 123d 019d 7a3f 0238 843c
00000020: b32f bd3d e0f2 8c3d b410 043d 691e 6d3a
00000030: d6ee 7b3f 068f 2d3a a4ce ba3e 42f1 6d3d
00000040: a193 b33c 7600 323e d173 b73d 4b3a 553e
00000050: 0c55 833e ca77 173d 805b 0c3e 2da9 923e
00000060: 85f2 013d 0e89 a23e 8018 0e3f cc97 793d
00000070: eafc 293b 7cb7 3140 ecbb 1131 d0d9 9e22
00000080: 1136 413c 1974 443f ac42 e43e bdf9 343d
00000090: 8c5d 1c3c 59be df3e 15c7 312f 93c6 8a3c
000000a0: c336 ca3c 4998 c13e 25ca 753c f111 483e
000000b0: 344d ef3d e516 d53d 08aa 333a cd67 353e
000000c0: 4578 1d3c c193 6c3f 97a0 873d cbeb a93a
000000d0: 2652 3a3d 6ad1 413a bfe9 0034 6103 8b3e
000000e0: 729b 853c cf8c 183a c947 6c3d 724c 2c3d
000000f0: 5020 7f3d eebf 403c 3ccc 793d 3e04 013f
00000100: 969e 203e 0000 0000 abfb 6938 f76d 7c3b
00000110: b0d6 923e 8bf3 b03f 163a 1b40 f7d5 be3b
00000120: 966d 2d31 a5fa a13e 5007 893e d8bd e53b
00000130: 0000 0000 5f1b 1b3e 94c9 a93c 0285 7219
00000140: 5c08 f63d c9d8 8021 a90c b23c 0000 0000
00000150: 9cba 9e39 8a91 a53e 19ef 2839 0000 0000
00000160: 318d c23b 915e 183f 3af4 9a3d 6654 663c
00000170: 026a 4740 43c4 a33c 83de 7c3e 7d04 213e
00000180: 6b26 cc3e edfc 3f3d 2be3 273e 67b2 5728
00000190: 5adf ba3b db2e e33b 9ac6 8b26 a480 8d3f
000001a0: b39f 613f 0000 0000 9d8b 3b3d 0e3b be3e
000001b0: 6b90 d23e 0000 0000 1d34 8427 79be 063a
000001c0: 65ac d13e 4287 273e 5514 443a 7a95 843e
000001d0: 45f8 cd3e cd97 b13e 9a9e 603b 7fa6 0d3d
000001e0: 30d2 8d3e d36c af3f 6dfa b03e 8475 273f
000001f0: 4877 5c3e 3f8c 593e 2dc8 333e b6a4 ac3c
00000200: 5b81 2b39 adc7 603e c022 d43b ab81 a339
00000210: ad64 853b c8a0 e83c e4aa 8d3d c434 343b
00000220: 5553 b33e 98af c03f db62 073f ddf5 3b3a
00000230: 8fed 013e 0000 0000 b2a0 0d3e 9025 1b3e
00000240: 775f 073b 83d7 753f b341 de3e f6ca b03e
00000250: bce6 9c35 6b99 793f 9866 d03e 1cae 033b
00000260: cebd 233b 4714 613d 0394 ca3b 1c1c 983e
00000270: f98a 323d 68f3 503d 4994 2c3e d7ca 433e
00000280: f38f 043d 17a8 f73d b7f4 df2c d20e 063d
00000290: 907f 1c38 c0c4 2036 24fd 4e3f e536 2d3a
000002a0: e6fd d83f a5d5 af3c a90e 1421 b646 053f
000002b0: 11de 163d 491d 713a 16eb a43c 4195 143c
000002c0: 04c7 1c3d 3d38 303d 7933 713c 8703 373c
000002d0: d9d9 fe3d 1091 d53e 6186 e13d 4e71 923e
000002e0: 6c4d 873d 53d3 f63e 4503 bc3d 19c5 7e3d
000002f0: 3bb6 8c3d c287 4a3f 6a60 c839 e0cf 023f
00000300: a421 8f3d a024 963e aed8 803f 61b4 7f3e
00000310: 0000 0000 f3a7 053e 08dd 2f3d e8c7 ef3e
00000320: 85e8 cf3c f10a ba3c 8627 fa3c 0bef 633b
00000330: cf6d e53a d05b bf3e 04b1 993d 1bd9 2d27
00000340: dcfe c93b be3d f922 7174 2d3b afa2 ac3e
00000350: e26f 593e ddbb bd3e f5d5 dd3e 608a 9f3e
00000360: 4c39 a43d 70a1 2a3e e8ba 7c3e 040c 893c
00000370: 0afc 993e 22b8 1b3f 1a27 0640 6eb7 0b3d
00000380: 14da 883d 89a1 e73d af3f 943b 010f 8539
00000390: 0d6a 503e f56d db3c ee66 ae3d e941 553f
000003a0: 51ac de3c 7ad2 2239 c3cf f13b b958 de3e
000003b0: c3d8 163f d52c 0d23 333a 523d 03a3 923b
000003c0: e042 9c3f 1b84 8932 0a54 813e dd93 ff20
000003d0: 5920 153d 9658 783c 30c3 903b 2737 013d
000003e0: 8459 883a c035 623c decf a63e b052 293a
000003f0: 2525 933c 04b3 073f 7ac6 8f3f 1d0f af3c

exp_avg f4 [196]
0.0015820004 -0.20901331 -0.13829875 -0.32368 -0.08610643 -0.122829296 -0.22220737 -0.20365714
-0.20519614 -0.2599893 -0.07407708 -0.03387612 -0.07075157 -0.099699415 -0.13278937 0.0
-0.48709807 -0.8553049 -0.41444194 -0.11169547 -0.09068253 -0.20402464 -0.2442233 0.08342304
-0.054870695 -0.12099502 -0.07126887 -0.13300022 -0.013044601 -0.18086483 0.0 -0.40103456
-0.033488102 -0.14989316 -0.04906967 -0.2948413 -0.076379195 -0.09645987 -0.5673937 -0.058923967
-0.066988304 -0.063342266 -0.28272295 -0.101810314 -0.13781685 0.0 -0.56974757 -0.1705662
-0.01404064 -0.42680225 -0.1276763 -0.2780336 -0.27478772 -0.08975595 -0.055847097 -0.013529981
-0.2726688 -0.038922016 -0.24086897 -0.032444023 0.0 -0.21772237 -0.40498316 0.105039015
-0.27059382 -0.26226142 -0.029238177 0.0012179156 -0.03302235 -0.055085544 -0.12350538 -0.22052966
-0.111377664 -0.3221913 -0.3552819 0.0 -0.24601279 -0.4049739 -0.2201034 -0.20323296
-0.18063931 -0.12894456 -0.11154208 6e-45 -0.09158927 -0.1611445 -0.6244469 -0.14312431
-0.21180467 -0.16347815 0.0 -0.1462608 -0.038167857 -0.21625304 -0.123394765 0.08863854
-0.084312096 -0.0021854383 -0.1723195 -0.34848255 -0.24993129 -0.13468958 -0.22444993 0.10190986
-0.06956576 0.0 -0.16212735 -0.10565278 -0.13412046 -0.0053640283 0.009143731 -0.032850306
-0.1258015 0.101086035 -0.23955296 0.04052202 -0.14949164 0.14571929 -0.16844966 0.026769832
0.0 -0.2033574 -0.27427977 0.0823198 0.038196146 -0.0031190114 -0.39906675 -0.036525775
-1.8526607e-24 -0.05333398 0.016920635 -0.1013093 -0.01354475 -0.07374608 -0.08728454 0.0
-0.042345166 -0.12317617 -0.15402274 -0.019383138 -0.010843342 -0.024159424 -0.30225074 0.027500011
0.0003387575 -0.0033720376 -0.12593137 0.027576981 -0.006468477 -0.015521296 0.0 0.07546285
-0.0029845284 -0.012525231 -3.0920143e-19 -0.053579114 -0.02461219 -0.14562231 -0.04480143 0.21902247
-0.011603581 -6e-45 -0.01670963 -0.34651002 0.04303489 0.0 -0.0053630606 -6e-45
0.0 0.0 0.0 0.0 0.0 0.0 0.0 0.0
0.0 0.0 0.0 0.0 0.0 0.0 0.0 0.0
0.0 0.0 0.0 0.0 0.0 0.0 0.0 0.0
0.0 0.0 -6e-45 0.0
00000000: 205b cf3a 9607 56be 309e 0dbe 63b9 a5be
00000010: 9158 b0bd ed8d fbbd 548a 63be 7f8b 50be
00000020: f01e 52be 511d 85be b9b5 97bd b0c1 0abd
00000030: 33e6 90bd 352f ccbd f0f9 07be 0000 0000
00000040: eb64 f9be 43f5 5abf bc31 d4be 98c0 e4bd
00000050: c3b7 b9bd d6eb 50be ac15 7abe b3d9 aa3d
00000060: 18c0 60bd 3dcc f7bd 6af5 91bd 3631 08be
00000070: 06b9 55bc a134 39be 0000 0000 6754 cdbe
00000080: d22a 09bd 987d 19be 47fd 48bd 70f5 96be
00000090: b26c 9cbd c18c c5bd b740 11bf 425a 71bd
000000a0: 2a31 89bd 97b9 81bd 10c1 90be ed81 d0bd
000000b0: dc1f 0dbe 0000 0000 fada 11bf e8a8 2ebe
000000c0: b60a 66bc d385 dabe 93bd 02be 6c5a 8ebe
000000d0: fab0 8cbe f8d1 b7bd edbf 64bd daac 5dbc
000000e0: 3f9b 8bbe b16c 1fbd 5ba6 76be 06e4 04bd
000000f0: 0000 0000 9df2 5ebe f459 cfbe b21e d73d
00000100: 468b 8abe 2147 86be e784 efbc 77a2 9f3a
00000110: 7242 07bd 61a1 61bd 63f0 fcbd 87d2 61be
00000120: f919 e4bd 42f6 a4be 82e7 b5be 0000 0000
00000130: c7ea 7bbe bd58 cfbe c962 61be 4d1c 50be
00000140: 83f9 38be 0b0a 04be 2d70 e4bd 0400 0000
00000150: 2893 bbbd 1003 25be c1db 1fbf 2e8f 12be
00000160: 53e3 58be d166 27be 0000 0000 64c5 15be
00000170: e655 1cbd 7071 5dbe 65b6 fcbd 1f88 b53d
00000180: d2ab acbd 9239 0fbb 8674 30be 4e6c b2be
00000190: fded 7fbe 11ec 09be 34d6 65be 1eb6 d03d
000001a0: 7e78 8ebd 0000 0000 b604 26be 7c60 d8bd
000001b0: e056 09be bbc4 afbb 96cf 153c 0b8e 06bd
000001c0: 1cd2 00be 3206 cf3d 5f4d 75be 6bfa 253d
000001d0: 5614 19be 7037 153e 117e 2cbe 684c db3c
000001e0: 0000 0000 ec3c 50be 666e 8cbe 4997 a83d
000001f0: 9073 1c3d 5468 4cbb 7a52 ccbe 0d9c 15bd
00000200: ba57 0f98 bb74 5abd 259d 8a3c 407b cfbd
00000210: cdea 5dbc 2f08 97bd 3dc2 b2bd 0000 0000
00000220: 2072 2dbd ca43 fcbd 23b8 1dbe 63c9 9ebc
00000230: 46a8 31bc fce9 c5bc 9cc0 9abe b447 e13c
00000240: 439b b139 67fd 5cbb 27f4 00be 1fe9 e13c
00000250: 85f5 d3bb 094d 7ebc 0000 0000 448c 9a3d
00000260: 1498 43bb a036 4dbc 3385 b6a0 c675 5bbd
00000270: 819f c9bc 041e 15be b481 37bd 6d47 603e
00000280: f21c 3ebc 0400 0080 a2e2 88bc c369 b1be
00000290: 5a45 303d 0000 0000 9dbc afbb 0400 0080
000002a0: 0000 0000 0000 0000 0000 0000 0000 0000
000002b0: 0000 0000 0000 0000 0000 0000 0000 0000
000002c0: 0000 0000 0000 0000 0000 0000 0000 0000
000002d0: 0000 0000 0000 0000 0000 0000 0000 0000
000002e0: 0000 0000 0000 0000 0000 0000 0000 0000
000002f0: 0000 0000 0000 0000 0000 0000 0000 0000
00000300: 0000 0000 0000 0000 0400 0080 0000 0000

exp_avg_sq f4 [196]
0.00035516222 0.9950359 0.6090483 0.53191763 0.56188244 1.4774021 1.1657072 0.9686643
0.6937347 1.1936738 0.43148044 0.03917199 0.18706432 0.04436511 1.1827576 0.0
1.6135979 2.5682993 3.0834918 0.93773776 0.66487646 0.54869634 0.9071092 0.61209095
0.2610216 0.40277985 0.15300798 0.06629627 1.2713866 0.8947966 0.0 1.7001328
0.9714953 0.6402292 0.8816656 1.0652487 0.46091804 0.18743114 1.0620768 0.21159664
0.0846957 0.09869323 1.0731006 1.5573466 0.63459843 0.0 1.7075124 1.4327368
0.46790814 1.8962098 1.2202237 0.49350414 0.5253117 0.3586936 0.32207662 0.0075372066
0.64113736 1.708673 1.3790041 0.6052929 0.0 1.5126814 1.7116549 1.1137674
0.84750706 0.86257565 0.1112608 0.12188209 0.46780512 0.193312 1.0478475 0.7596791
0.5230061 1.3998332 1.0551685 0.0 0.43007615 1.464475 0.49341354 1.455906
0.24667272 0.20593065 0.03501295 0.0008381628 0.8179579 0.471919 1.0311043 0.5272621
1.6967198 0.4524412 0.0 0.78312457 0.816449 0.3501468 0.26924732 0.4266082
0.4829271 0.010048837 0.514701 0.9410991 0.87652683 0.717309 0.38179338 0.5736637
0.8482748 0.0 0.53932875 0.74574316 0.2702743 0.13421255 0.035124253 0.17122994
0.39032793 0.7421504 0.54538226 0.2026204 0.28522545 0.11051262 0.21651563 0.520092
0.0 0.6440912 0.41894755 0.3299649 0.035040714 0.025953438 0.49213424 0.08998862
0.0030680373 0.37352398 0.8361052 0.27905554 0.0975668 0.047150023 0.23921457 0.0
0.12064034 0.2566466 0.5731686 0.039452642 0.020692663 0.4849427 1.1590729 0.432144
0.033254206 0.15317278 0.16282581 0.20149365 0.03641734 0.11129941 0.0 0.13769671
0.123727866 0.25149322 0.007053641 0.1897618 0.09381525 0.12958431 0.007056301 0.22827353
0.06911243 4.4236642e-16 0.14674883 0.016394416 0.28856793 0.0 0.0086307 0.00035193446
0.0 0.0 0.0 0.0 0.0 0.0 0.0 0.0
0.0 0.0 0.0 0.0 0.0 0.0 0.0 0.0
0.0 0.0 0.0 0.0 0.0 0.0 0.0 0.0
0.0 0.0 0.00038060563 0.0
00000000: 1135 ba39 acba 7e3f 97ea 1b3f c12b 083f
00000010: 87d7 0f3f 831b bd3f e535 953f 62fa 773f
00000020: 9998 313f 4eca 983f 01eb dc3e cf72 203d
00000030: ca8d 3f3e 31b8 353d 9a64 973f 0000 0000
00000040: 608a ce3f 045f 2440 ee57 4540 950f 703f
00000050: 5835 2a3f 5d77 0c3f 4f38 683f feb1 1c3f
00000060: a0a4 853e 2939 ce3e 20ae 1c3e 57c6 873d
00000070: ccbc a23f 6411 653f 0000 0000 f49d d93f
00000080: eab3 783f 10e6 233f d6b4 613f 125a 883f
00000090: 73fd eb3e f3ed 3f3e 22f2 873f caac 583e
000000a0: f074 ad3d ad1f ca3d 5c5b 893f 2257 c73f
000000b0: 0b75 223f 0000 0000 c48f da3f eb63 b73f
000000c0: a891 ef3e 01b7 f23f 4a30 9c3f 93ac fc3e
000000d0: d47a 063f b0a6 b73e 3ae7 a43e acfa f63b
000000e0: 9421 243f ccb5 da3f 3583 b03f 7af4 1a3f
000000f0: 0000 0000 8b9f c13f 8217 db3f ee8f 8e3f
00000100: 39f6 583f c2d1 5c3f b4dc e33d 519d f93d
00000110: 2784 ef3e 95f3 453e de1f 863f 547a 423f
00000120: bae3 053f bc2d b33f c30f 873f 0000 0000
00000130: f132 dc3e eb73 bb3f b3a0 fc3e 215b ba3f
00000140: c697 7c3e 7cdf 523e bd69 0f3d 27b8 5b3a
00000150: b065 513f 5e9f f13e 3afb 833f a6fa 063f
00000160: 1d2e d93f 5fa6 e73e 0000 0000 da7a 483f
00000170: cd02 513f 7146 b33e c9da 893e 646c da3e
00000180: 3942 f73e e1a3 243c 72c3 033f dfeb 703f
00000190: 1064 603f 90a1 373f 6c7a c33e a0db 123f
000001a0: 8a28 593f 0000 0000 7311 0a3f 06e9 3e3f
000001b0: 6561 8a3e 046f 093e 73de 0f3d e756 2f3e
000001c0: 10d9 c73e 92fd 3d3f 2c9e 0b3f b97b 4f3e
000001d0: 1209 923e 7154 e23d 46b6 5d3e c024 053f
000001e0: 0000 0000 29e3 243f 4b80 d63e 29f1 a83e
000001f0: da86 0f3d 4e9c d43c 05f9 fb3e f44b b83d
00000200: 2011 493b 893e bf3e fe0a 563f 5ee0 8e3e
00000210: 1ad1 c73d 6220 413d aaf4 743e 0000 0000
00000220: 4812 f73d 2f67 833e 2dbb 123f 1899 213d
00000230: a983 a93c 694a f83e 805c 943f fa41 dd3e
00000240: 9035 083d 53d9 1c3e cfbb 263e 5a54 4e3e
00000250: 592a 153d f2f0 e33d 0000 0000 5e00 0d3e
00000260: 0965 fd3d b8c3 803e 3b22 e73b eb50 423e
00000270: 3622 c03d c0b1 043e 8b38 e73b 89c0 693e
00000280: d18a 8d3d c301 ff25 5345 163e 954d 863c
00000290: 2dbf 933e 0000 0000 c867 0d3c d883 b839
000002a0: 0000 0000 0000 0000 0000 0000 0000 0000
000002b0: 0000 0000 0000 0000 0000 0000 0000 0000
000002c0: 0000 0000 0000 0000 0000 0000 0000 0000
000002d0: 0000 0000 0000 0000 0000 0000 0000 0000
000002e0: 0000 0000 0000 0000 0000 0000 0000 0000
000002f0: 0000 0000 0000 0000 0000 0000 0000 0000
00000300: 0000 0000 0000 0000 068c c739 0000 0000
