models/DoubleDQNAgent/cool_reward_full_data_short_epochs.pt (torch, 890883 bytes, 12 tensors)

base.em.weight f4 [14, 1]
000000 00 00 00 00 04 df fb 3e 21 d2 36 3f 8a d6 54 3e
       0.0 0.49193585 0.7141438 0.20784965
000010 da b5 fe bf a3 85 00 40 f2 76 a4 3f 91 3b d1 3f
       -1.9899247 2.0081565 1.2848799 1.6346303
000020 77 51 6c 3f 24 e7 80 bf b6 52 cf 3f 17 ea f7 bc
       0.92311805 -1.0070539 1.6197116 -0.03026299
000030 7e cf 68 3f 4a d8 fc 3f
       0.9094161 1.9753506

out.weight f4 [196, 256]
000000 9f 03 18 3b bc a5 b9 bc b5 4c 55 bd ff a9 48 3b
       0.0023195518 -0.022662036 -0.052075107 0.0030618904
000010 34 27 43 bd 7e 4f d1 3b 98 46 0d bd 89 98 25 bd
       -0.04764481 0.00638765 -0.03449115 -0.040428672
000020 68 6d c7 bc 6c 33 db bb 98 3a 20 ba ac 68 80 bd
       -0.024344161 -0.0066894796 -0.0006112247 -0.062699646
000030 b3 21 c1 3c 33 c5 3d 3c f6 46 97 bd d6 c4 d6 bc
       0.02357564 0.0115826605 -0.073865816 -0.026216906
000040 d1 b2 ab bb e4 8f 66 3d f4 2d 01 3c 30 b0 14 3d
       -0.0052398224 0.05628957 0.007884491 0.036300838
000050 bf 86 7c bd 7b 96 a4 bd a2 36 d2 3b af f0 6b 3d
       -0.06165194 -0.08036514 0.006415204 0.05760258
000060 cf db a3 bd 2b e0 15 3c 55 67 07 bd 6f 51 ce bc
       -0.080009095 0.009147684 -0.03305753 -0.025185315
000070 9d 60 79 bc a8 48 2e bd bf 4a a5 bb 4b ee 35 3d
       -0.015220788 -0.04254976 -0.005044311 0.044416707
000080 c5 dc d1 bc 51 03 9d bc 10 a6 4f 3c d2 41 c9 bb
       -0.025617966 -0.01916662 0.01267387 -0.0061418796
000090 46 d4 e4 bc 45 ca f3 bc 4d 90 7d 3c be 8e 80 3c
       -0.027933251 -0.029759536 0.0154762985 0.015693065
0000a0 95 1e ad bc e8 4e f9 bc f0 a8 0d 3d 50 83 59 3d
       -0.021132747 -0.030433133 0.03458494 0.053103745
0000b0 2b e6 34 bd 6d 04 9b bc a0 3a 90 bd 82 55 1b 3c
       -0.044164818 -0.018923009 -0.07042432 0.009480836
0000c0 d8 49 eb 3c cc 7e 22 bd 73 1b 65 3c a6 55 ff bc
       0.028721735 -0.039671704 0.013983595 -0.03116877
0000d0 51 f8 ea bc 4d 87 ae bd 89 4b 82 3c e3 a5 71 3c
       -0.02868286 -0.085219 0.015905159 0.014749023
0000e0 15 ed 35 3d 36 a2 e2 3c b7 1e 48 3d e5 12 17 3d
       0.044415552 0.027665239 0.048857417 0.036883254
0000f0 0e 59 b2 3c 99 07 a3 bc 05 d8 35 3c 82 9a 7f bd
       0.02177098 -0.019901084 0.011098866 -0.06240321
000100 1a ee 3a 3b fd a4 bd 3c d1 8a 33 3b 9b 36 b7 3c
       0.0028523267 0.023149962 0.0027395973 0.022364905
000110 29 61 f9 bc f2 c9 63 3d 7f e2 9b b9 37 6f 2b 3d
       -0.030441837 0.055612512 -0.00029732657 0.04185411
000120 0a ed 46 3c 78 30 81 bd 26 69 4d bc ad 53 68 bd
       0.012141475 -0.06308073 -0.012537276 -0.056720424
000130 ce 95 93 bd aa ba 3d bd 1a 69 6f bd a4 3a 25 bc
       -0.07206307 -0.046320595 -0.058449842 -0.010084782
000140 f8 29 ce bc 3a 38 31 bd 39 22 39 3c 24 1c 3e bc
       -0.025166497 -0.043266512 0.011299663 -0.011603389
000150 fd 58 8e 3c e3 16 ee bc 64 56 1b 3d 31 10 0c bd
       0.017376417 -0.029063648 0.037924185 -0.03419513
000160 c8 fd cf bc ff d4 ff 3c 3f e2 38 bc 08 bc 98 3c
       -0.025389567 0.031229494 -0.01128441 0.018644348
000170 0a e4 70 bc 10 c5 a6 3b 06 23 24 bc c6 f7 9a bc
       -0.014702806 0.0050894096 -0.010018116 -0.018916976
000180 62 0a 59 bd 02 f4 90 3c 1f 5b 27 3d 84 71 6e bd
       -0.052988417 0.017694477 0.040858384 -0.058213726
000190 14 90 59 3c 59 a4 d6 bc fd 43 11 3d 97 7b e5 bc
       0.01327898 -0.026201414 0.03546523 -0.028013034
0001a0 92 c8 fe 3c 43 5b e5 bc 18 82 1b 3d 13 74 90 3d
       0.031101499 -0.027997619 0.037965864 0.070533894
0001b0 e1 b0 70 3d 99 68 e7 3c ac 4b e5 bb 17 55 03 3d
       0.058762435 0.028248118 -0.006997546 0.03206357
0001c0 24 38 33 bd 01 7a 81 3c c7 8a 0d ba 98 2c c1 bc
       -0.04375471 0.015805246 -0.00053994026 -0.023580834
0001d0 e9 32 1f 3d 05 d5 17 bd a8 c8 88 bd ca 83 e9 bc
       0.03886691 -0.037068386 -0.06678897 -0.028505225
0001e0 40 73 d5 3b 28 b2 28 bd 8c 31 87 bd 8e 77 d2 3c
       0.006513983 -0.041185528 -0.06601247 0.025691774
0001f0 8f 42 08 3b a5 4b d1 3c dc ad 98 bb 22 00 56 ba
       0.0020791625 0.025548765 -0.0046593975 -0.0008163472
000200 74 18 e6 3c 2b fc 52 bc 88 33 70 bd b9 12 bb 3c
       0.028087832 -0.012877504 -0.058642894 0.022836076
000210 d2 f8 fd bc c0 88 e4 3c 62 96 1c 3d 8d 83 2f bd
       -0.031002436 0.027897239 0.038229354 -0.042850066
000220 1c fb fe bc 6e 1b 46 bd fe 6c f6 bc 14 c1 55 bc
       -0.031125598 -0.048366003 -0.030081268 -0.013046522
000230 91 86 84 bc bd df 29 bd 12 09 a0 bb 18 7e c0 bc
       -0.016177448 -0.04147314 -0.0048838938 -0.023497626
000240 32 c2 5a bd 0b af 2e 3d c5 3d fc bc e3 aa 53 bc
       -0.053407855 0.042647403 -0.030791173 -0.012919161
000250 64 3c 7a bc 03 fb af bc 70 8f 44 bd a8 6c 87 bb
       -0.015273187 -0.021481996 -0.047988355 -0.004132826
000260 11 b0 63 bc e6 cd 7f bd e7 71 f3 bb 9b fb 16 3d
       -0.013896958 -0.06245222 -0.0074293497 0.036861043
000270 60 a6 ab 3b 10 6b 91 3c d8 96 54 bb 85 2b e9 3c
       0.0052383393 0.017751247 -0.0032438543 0.028463135
000280 74 4e 2a bd 5d 5c 8c bb 48 5b 09 3d 08 67 30 bd
       -0.041578725 -0.0042834715 0.03353432 -0.04306701
000290 dd 86 26 bb c8 61 34 bd 60 e9 8d bd fb 97 89 bd
       -0.0025409975 -0.044038564 -0.069292784 -0.06718441
0002a0 76 19 4a 3d b9 30 13 bd c8 c7 83 bd 31 72 03 bd
       0.049340688 -0.035935137 -0.064345896 -0.032091323
0002b0 6d 7a 8c 3b cf 00 23 3d d3 5d 20 3d 70 57 8f bd
       0.004287055 0.039795693 0.039151978 -0.06999099
0002c0 5f 05 70 bd bf 33 ed 3c 58 08 1b bd bc 98 1e bd
       -0.058598872 0.028955339 -0.037849754 -0.038719878
0002d0 59 18 90 3c 9a b2 c0 bc 3c 13 e1 bb 59 8b b7 3c
       0.017589735 -0.023522664 -0.006868748 0.022405313
0002e0 d7 57 25 3d f9 6e 90 bd 6b 67 9a 39 bb 2b 7f bc
       0.040366974 -0.07052416 0.0002945022 -0.015574391
0002f0 2a 9d 5d 3d bd bf 76 bb a2 dc 1a 3d 58 b5 47 3d
       0.05410496 -0.0037650906 0.037808068 0.048756927
000300 6a fc 53 bc a3 e6 41 3c 48 bf b3 bc 15 6f 8d bc
       -0.012938598 0.011834773 -0.021941796 -0.017264882
000310 46 6f 11 3d 31 aa 2c bd 32 f4 36 bd 1e dc 4a 3b
       0.03550651 -0.042154495 -0.044666477 0.0030953954
000320 21 d2 45 3d 60 6d 71 3d ee 2b 12 3d 05 bd be 39
       0.048296098 0.0589422 0.035686426 0.00036380455
000330 f7 fa 05 3d d0 19 1a bd 62 c9 eb bc f3 38 e9 bc
       0.03271004 -0.037622273 -0.02878255 -0.028469538
000340 99 78 06 bd be 40 b1 3c 3a 10 8d bc 6b 85 f7 3c
       -0.032829855 0.021637317 -0.017219651 0.030214986
000350 00 ce 88 3c a5 39 bd bc c3 62 93 bd f6 d2 df 3b
       0.016699791 -0.023098776 -0.07196572 0.0068305684
000360 1d e0 a3 bc d9 7e 1e bd 3f cd c7 bc b7 2c 5b bd
       -0.020004326 -0.03869519 -0.024389861 -0.05350944
000370 a5 0b b0 3b d5 73 12 bd a6 48 91 3b f8 92 1f bd
       0.005372482 -0.035754997 0.004433709 -0.03895852
000380 cf 4a 59 3c 37 11 a3 3c 50 5d ef 3c 9d 6e 07 bd
       0.013262465 0.01990567 0.0292193 -0.033064473
000390 97 81 80 bd 3a d0 e1 bc c3 fb 18 bd 22 74 84 bc
       -0.06274717 -0.02756511 -0.037349474 -0.016168658
0003a0 0b 2a c8 bc a7 d7 32 3c 21 cf 8b bd 81 0b df 3c
       -0.02443411 0.010915673 -0.06826616 0.027227165
0003b0 29 a7 09 3d b0 c6 67 3d aa 39 89 3c d3 1f 17 3d
       0.033606682 0.056585968 0.01675113 0.036895584
0003c0 b6 77 7a bc e2 b7 0f 3b 8e dd 88 bd bb 2f 4d 3d
       -0.01528733 0.002192967 -0.06682883 0.050094347
0003d0 11 69 98 3d 46 8c e0 3c f4 b8 1d bc 6f e2 b6 bc
       0.07441915 0.027410638 -0.009626616 -0.022324769
0003e0 e3 2e 30 3d 54 6c e5 bc 0d f9 7a bc 12 32 c9 bc
       0.043013465 -0.028005756 -0.015318167 -0.024560008
0003f0 42 45 f4 bb 8c 4c 28 bd 8c 3f 39 3d 9a ef 86 bd
       -0.0074545452 -0.041088626 0.04522662 -0.06588669

out.bias f4 [196]
000000 df c5 ad bd e0 68 90 bd 94 54 75 bc b5 f7 46 bd
       -0.084850065 -0.07051253 -0.014973778 -0.048576076
000010 be b6 c0 bc e2 1f e3 bc 2d 4d 41 bd 21 9e ce bc
       -0.023524638 -0.027725164 -0.04719274 -0.025221886
000020 0c cb 8d 3c 60 b3 7f bc 7f bb c0 3c 62 62 91 3d
       0.017308734 -0.015606731 0.023526905 0.07098843
000030 f3 b2 55 3d b6 2b 4d bd 8d 15 ae bd ea d9 59 3d
       0.052172612 -0.050090514 -0.08500204 0.053186335
000040 80 2b 6b bd ec a9 d1 bd 1c ad d5 bc f1 37 e3 39
       -0.05741453 -0.10237488 -0.026083522 0.00043338494
000050 0e e4 48 bd 1b 00 94 bd 62 34 09 bd 06 31 be bc
       -0.049045615 -0.072265826 -0.03349722 -0.023216736
000060 3d 46 30 bc 34 ef 7a bd 88 a3 19 3d e7 f6 06 bd
       -0.010758934 -0.061263278 0.03750947 -0.03295031
000070 a9 c0 43 bd 0a 6f 69 bd a8 73 20 bd 08 82 3b bc
       -0.047791157 -0.05699066 -0.0391728 -0.011444576
000080 19 9b 48 bd d5 1c 17 bd a9 fb bf bd 30 6a 23 bb
       -0.048976038 -0.03689273 -0.09374172 -0.002493512
000090 c2 59 8f bd d7 cc 83 3c 62 da b2 bc a6 b0 e5 3c
       -0.06999542 0.016088886 -0.021832649 0.028038334
0000a0 7f 0a 73 3d 3f 58 6f 3d 50 9d e8 bd 71 3f 96 bc
       0.05933618 0.058433767 -0.1135813 -0.018340798
0000b0 55 77 25 3c 68 75 18 bc ae 2b bc bd 33 54 ec bc
       0.010099252 -0.009305336 -0.09188019 -0.028848743
0000c0 a6 43 c9 bd b7 ec 84 3c e2 8c a8 3b 5e 01 56 bd
       -0.09827356 0.016226156 0.0051437477 -0.052247398
0000d0 90 62 44 bd 72 41 3b bb 0b 5b 92 3d 80 c6 0e 3d
       -0.04794556 -0.0028572944 0.07146271 0.034857273
0000e0 85 00 04 bd 51 11 b1 bd 42 53 fa bd 03 ca 64 bc
       -0.032227058 -0.08645881 -0.122229114 -0.013964179
0000f0 f0 ed 92 bb bb f6 28 bd 99 2c 91 bd 3a f4 37 bd
       -0.0044839308 -0.041250926 -0.070885845 -0.044910647
000100 70 e4 8c bc bc 0c 74 bd c4 2d 20 3d f0 25 ef bc
       -0.017198771 -0.059582457 0.039106146 -0.029192895
000110 12 8d c1 bc 68 de 48 3c dd 87 9e bd fd 78 bf 3b
       -0.023626838 0.012260057 -0.077407576 0.0058432803
000120 e4 1b 56 bc 71 9e ac bd 12 17 97 bd 64 bb 42 3d
       -0.013068173 -0.08428658 -0.07377447 0.04754199
000130 c1 88 15 3c 79 7f 9e bd 0a 1c a8 bc 9b 50 d6 3c
       0.009126843 -0.07739157 -0.020521183 0.026161483
000140 61 f3 8d bd 47 c3 51 bd c2 82 97 3d 1e 01 5c 3d
       -0.069311865 -0.05121162 0.07397987 0.053712003
000150 e5 63 52 bc 8d 5c 51 3b 73 1c c5 bd 7d e6 e1 bc
       -0.0128411995 0.0031946034 -0.09624567 -0.027575726
000160 15 32 2f bd dd e8 05 bd 38 8b ac bc 0c fa a7 bd
       -0.04277237 -0.03269278 -0.021062478 -0.082019895
000170 01 3d 57 bd d8 19 fe bc 64 1d f0 3c f0 83 59 3d
       -0.052548412 -0.031018183 0.02931089 0.05310434
000180 76 92 2f 3c 9a ab 18 bd ef 04 02 bd 4a 5f a0 bd
       0.010716071 -0.037273027 -0.031742986 -0.07830675
000190 c1 8c 30 bd 5c 07 48 bd cc f5 d5 bd 0f 67 8d bd
       -0.043102983 -0.048835143 -0.10447273 -0.069044225
0001a0 7c 51 3b bd 40 71 d0 3b 38 45 53 bc 54 aa 86 bd
       -0.045732006 0.0063611567 -0.012894921 -0.06575456
0001b0 df 9a 7a bc 96 5c d4 bb f8 b0 b8 3d b5 4d a9 bc
       -0.015295713 -0.0064807637 0.09018129 -0.020666936
0001c0 36 36 75 3d 0d 8f 47 bd 5d 56 8c bd 14 4c d5 bc
       0.059866153 -0.04872041 -0.0685241 -0.026037253
0001d0 31 88 85 bc f9 87 c1 bd f3 51 db bd 3d 19 73 bd
       -0.016300293 -0.09449763 -0.1070899 -0.05935024
0001e0 56 5a 5f bd 96 ed 5a bd b6 cd 56 3d ef e2 72 3d
       -0.05452951 -0.053449236 0.052442275 0.059298452
0001f0 f4 65 06 bd c5 ec 43 bd 58 48 f6 bc 14 ad f7 3c
       -0.032812074 -0.047833223 -0.030063793 0.030233897
000200 f7 40 99 bc 04 be c1 bd d9 18 32 3d 4d 66 60 3d
       -0.018707735 -0.09460071 0.043480728 0.05478506
000210 a9 f8 be bc 05 0b da bd 55 8f 68 bd 9c 41 37 3d
       -0.02331193 -0.10646633 -0.056777317 0.044740304
000220 aa 08 e9 bc 1c 48 97 bb c1 85 d7 bc 36 5a 43 3d
       -0.028446514 -0.0046167504 -0.026308896 0.047693454
000230 e4 3a e0 39 9b 0c ef 3b 96 4c ab bd 08 ec dc bb
       0.00042768486 0.007295204 -0.08364217 -0.0067420043
000240 29 d3 7c 3d d8 5c 79 3c 3c a6 76 3c 92 cd c1 3a
       0.061724816 0.01521989 0.015054282 0.0014785996
000250 e0 a3 52 3d 10 c7 ab bd ba f0 4b bd 03 38 3e bd
       0.051425815 -0.083875775 -0.04979012 -0.046440136
000260 ff 8f de bc a9 0c 06 3d 70 44 9a 3c 80 cb 07 3d
       -0.027168272 0.032726917 0.018831462 0.033153057
000270 00 f7 2c bb 4e 91 63 3d cf 23 59 3d ff 4d 5b 3d
       -0.002639234 0.055558495 0.053012665 0.05354118
000280 fc eb b5 3c bf e7 e1 bc da ee 3d bd 77 fb aa bc
       0.022207253 -0.027576325 -0.046370365 -0.02087186
000290 1f 8a 08 bc 10 7f a3 bb 91 53 79 3d 29 1a e0 bc
       -0.008333712 -0.0049895123 0.06087071 -0.027356224
0002a0 28 e3 25 3d 10 0d 23 bd c2 a8 6a bd 20 0c 49 bb
       0.040499836 -0.03980738 -0.057289846 -0.0030677393
0002b0 80 f6 4a 3d f6 f7 40 3d 80 64 42 bc 7c 3e b7 3c
       0.049551487 0.047111474 -0.011864781 0.022368662
0002c0 98 18 d5 3c 3d a6 d7 3c e6 27 02 bd c0 5c 75 3d
       0.026012704 0.026324386 -0.03177633 0.059902906
0002d0 70 7d b5 3c 74 25 01 3d 80 33 8d bc 24 70 d3 bc
       0.02215454 0.03152986 -0.017236471 -0.025810309
0002e0 d8 3d 29 3c be 2e 09 bd 26 0e 1f bd 40 cb a8 3a
       0.010329686 -0.033491842 -0.038831852 0.0012877956
0002f0 9e 80 1c bd b8 8e d7 bc 40 65 96 ba 34 54 fe bc
       -0.038208596 -0.02631317 -0.0011474267 -0.03104601
000300 84 0d a2 bc 50 de aa bc df 8d 28 bd c0 28 96 3a
       -0.019781835 -0.02085796 -0.041150924 0.0011456236

base.em.weight f4 [14, 1]
000000 00 00 00 00 e4 d9 fb 3e f4 cf 36 3f 1f cb 54 3e
       0.0 0.49189675 0.7141106 0.2078061
000010 c0 b4 fe bf 09 85 00 40 9f 75 a4 3f 56 3a d1 3f
       -1.989891 2.0081198 1.2848395 1.6345928
000020 e9 4d 6c 3f 2a e6 80 bf f8 51 cf 3f 0b ed f7 bc
       0.9230638 -1.007024 1.619689 -0.030264398
000030 b0 cd 68 3f 4a d8 fc 3f
       0.90938854 1.9753506

out.weight f4 [196, 256]
000000 9f 03 18 3b bc a5 b9 bc b5 4c 55 bd ff a9 48 3b
       0.0023195518 -0.022662036 -0.052075107 0.0030618904
000010 34 27 43 bd 7e 4f d1 3b 98 46 0d bd 89 98 25 bd
       -0.04764481 0.00638765 -0.03449115 -0.040428672
000020 68 6d c7 bc 6c 33 db bb 98 3a 20 ba ac 68 80 bd
       -0.024344161 -0.0066894796 -0.0006112247 -0.062699646
000030 b3 21 c1 3c 33 c5 3d 3c f6 46 97 bd d6 c4 d6 bc
       0.02357564 0.0115826605 -0.073865816 -0.026216906
000040 d1 b2 ab bb e4 8f 66 3d f4 2d 01 3c 30 b0 14 3d
       -0.0052398224 0.05628957 0.007884491 0.036300838
000050 bf 86 7c bd 7b 96 a4 bd a2 36 d2 3b af f0 6b 3d
       -0.06165194 -0.08036514 0.006415204 0.05760258
000060 cf db a3 bd 2b e0 15 3c 55 67 07 bd 6f 51 ce bc
       -0.080009095 0.009147684 -0.03305753 -0.025185315
000070 9d 60 79 bc a8 48 2e bd bf 4a a5 bb 4b ee 35 3d
       -0.015220788 -0.04254976 -0.005044311 0.044416707
000080 c5 dc d1 bc 51 03 9d bc 10 a6 4f 3c d2 41 c9 bb
       -0.025617966 -0.01916662 0.01267387 -0.0061418796
000090 46 d4 e4 bc 45 ca f3 bc 4d 90 7d 3c be 8e 80 3c
       -0.027933251 -0.029759536 0.0154762985 0.015693065
0000a0 95 1e ad bc e8 4e f9 bc f0 a8 0d 3d 50 83 59 3d
       -0.021132747 -0.030433133 0.03458494 0.053103745
0000b0 2b e6 34 bd 6d 04 9b bc a0 3a 90 bd 82 55 1b 3c
       -0.044164818 -0.018923009 -0.07042432 0.009480836
0000c0 d8 49 eb 3c cc 7e 22 bd 73 1b 65 3c a6 55 ff bc
       0.028721735 -0.039671704 0.013983595 -0.03116877
0000d0 51 f8 ea bc 4d 87 ae bd 89 4b 82 3c e3 a5 71 3c
       -0.02868286 -0.085219 0.015905159 0.014749023
0000e0 15 ed 35 3d 36 a2 e2 3c b7 1e 48 3d e5 12 17 3d
       0.044415552 0.027665239 0.048857417 0.036883254
0000f0 0e 59 b2 3c 99 07 a3 bc 05 d8 35 3c 82 9a 7f bd
       0.02177098 -0.019901084 0.011098866 -0.06240321
000100 1a ee 3a 3b fd a4 bd 3c d1 8a 33 3b 9b 36 b7 3c
       0.0028523267 0.023149962 0.0027395973 0.022364905
000110 29 61 f9 bc f2 c9 63 3d 7f e2 9b b9 37 6f 2b 3d
       -0.030441837 0.055612512 -0.00029732657 0.04185411
000120 0a ed 46 3c 78 30 81 bd 26 69 4d bc ad 53 68 bd
       0.012141475 -0.06308073 -0.012537276 -0.056720424
000130 ce 95 93 bd aa ba 3d bd 1a 69 6f bd a4 3a 25 bc
       -0.07206307 -0.046320595 -0.058449842 -0.010084782
000140 f8 29 ce bc 3a 38 31 bd 39 22 39 3c 24 1c 3e bc
       -0.025166497 -0.043266512 0.011299663 -0.011603389
000150 fd 58 8e 3c e3 16 ee bc 64 56 1b 3d 31 10 0c bd
       0.017376417 -0.029063648 0.037924185 -0.03419513
000160 c8 fd cf bc ff d4 ff 3c 3f e2 38 bc 08 bc 98 3c
       -0.025389567 0.031229494 -0.01128441 0.018644348
000170 0a e4 70 bc 10 c5 a6 3b 06 23 24 bc c6 f7 9a bc
       -0.014702806 0.0050894096 -0.010018116 -0.018916976
000180 62 0a 59 bd 02 f4 90 3c 1f 5b 27 3d 84 71 6e bd
       -0.052988417 0.017694477 0.040858384 -0.058213726
000190 14 90 59 3c 59 a4 d6 bc fd 43 11 3d 97 7b e5 bc
       0.01327898 -0.026201414 0.03546523 -0.028013034
0001a0 92 c8 fe 3c 43 5b e5 bc 18 82 1b 3d 13 74 90 3d
       0.031101499 -0.027997619 0.037965864 0.070533894
0001b0 e1 b0 70 3d 99 68 e7 3c ac 4b e5 bb 17 55 03 3d
       0.058762435 0.028248118 -0.006997546 0.03206357
0001c0 24 38 33 bd 01 7a 81 3c c7 8a 0d ba 98 2c c1 bc
       -0.04375471 0.015805246 -0.00053994026 -0.023580834
0001d0 e9 32 1f 3d 05 d5 17 bd a8 c8 88 bd ca 83 e9 bc
       0.03886691 -0.037068386 -0.06678897 -0.028505225
0001e0 40 73 d5 3b 28 b2 28 bd 8c 31 87 bd 8e 77 d2 3c
       0.006513983 -0.041185528 -0.06601247 0.025691774
0001f0 8f 42 08 3b a5 4b d1 3c dc ad 98 bb 22 00 56 ba
       0.0020791625 0.025548765 -0.0046593975 -0.0008163472
000200 74 18 e6 3c 2b fc 52 bc 88 33 70 bd b9 12 bb 3c
       0.028087832 -0.012877504 -0.058642894 0.022836076
000210 d2 f8 fd bc c0 88 e4 3c 62 96 1c 3d 8d 83 2f bd
       -0.031002436 0.027897239 0.038229354 -0.042850066
000220 1c fb fe bc 6e 1b 46 bd fe 6c f6 bc 14 c1 55 bc
       -0.031125598 -0.048366003 -0.030081268 -0.013046522
000230 91 86 84 bc bd df 29 bd 12 09 a0 bb 18 7e c0 bc
       -0.016177448 -0.04147314 -0.0048838938 -0.023497626
000240 32 c2 5a bd 0b af 2e 3d c5 3d fc bc e3 aa 53 bc
       -0.053407855 0.042647403 -0.030791173 -0.012919161
000250 64 3c 7a bc 03 fb af bc 70 8f 44 bd a8 6c 87 bb
       -0.015273187 -0.021481996 -0.047988355 -0.004132826
000260 11 b0 63 bc e6 cd 7f bd e7 71 f3 bb 9b fb 16 3d
       -0.013896958 -0.06245222 -0.0074293497 0.036861043
000270 60 a6 ab 3b 10 6b 91 3c d8 96 54 bb 85 2b e9 3c
       0.0052383393 0.017751247 -0.0032438543 0.028463135
000280 74 4e 2a bd 5d 5c 8c bb 48 5b 09 3d 08 67 30 bd
       -0.041578725 -0.0042834715 0.03353432 -0.04306701
000290 dd 86 26 bb c8 61 34 bd 60 e9 8d bd fb 97 89 bd
       -0.0025409975 -0.044038564 -0.069292784 -0.06718441
0002a0 76 19 4a 3d b9 30 13 bd c8 c7 83 bd 31 72 03 bd
       0.049340688 -0.035935137 -0.064345896 -0.032091323
0002b0 6d 7a 8c 3b cf 00 23 3d d3 5d 20 3d 70 57 8f bd
       0.004287055 0.039795693 0.039151978 -0.06999099
0002c0 5f 05 70 bd bf 33 ed 3c 58 08 1b bd bc 98 1e bd
       -0.058598872 0.028955339 -0.037849754 -0.038719878
0002d0 59 18 90 3c 9a b2 c0 bc 3c 13 e1 bb 59 8b b7 3c
       0.017589735 -0.023522664 -0.006868748 0.022405313
0002e0 d7 57 25 3d f9 6e 90 bd 6b 67 9a 39 bb 2b 7f bc
       0.040366974 -0.07052416 0.0002945022 -0.015574391
0002f0 2a 9d 5d 3d bd bf 76 bb a2 dc 1a 3d 58 b5 47 3d
       0.05410496 -0.0037650906 0.037808068 0.048756927
000300 6a fc 53 bc a3 e6 41 3c 48 bf b3 bc 15 6f 8d bc
       -0.012938598 0.011834773 -0.021941796 -0.017264882
000310 46 6f 11 3d 31 aa 2c bd 32 f4 36 bd 1e dc 4a 3b
       0.03550651 -0.042154495 -0.044666477 0.0030953954
000320 21 d2 45 3d 60 6d 71 3d ee 2b 12 3d 05 bd be 39
       0.048296098 0.0589422 0.035686426 0.00036380455
000330 f7 fa 05 3d d0 19 1a bd 62 c9 eb bc f3 38 e9 bc
       0.03271004 -0.037622273 -0.02878255 -0.028469538
000340 99 78 06 bd be 40 b1 3c 3a 10 8d bc 6b 85 f7 3c
       -0.032829855 0.021637317 -0.017219651 0.030214986
000350 00 ce 88 3c a5 39 bd bc c3 62 93 bd f6 d2 df 3b
       0.016699791 -0.023098776 -0.07196572 0.0068305684
000360 1d e0 a3 bc d9 7e 1e bd 3f cd c7 bc b7 2c 5b bd
       -0.020004326 -0.03869519 -0.024389861 -0.05350944
000370 a5 0b b0 3b d5 73 12 bd a6 48 91 3b f8 92 1f bd
       0.005372482 -0.035754997 0.004433709 -0.03895852
000380 cf 4a 59 3c 37 11 a3 3c 50 5d ef 3c 9d 6e 07 bd
       0.013262465 0.01990567 0.0292193 -0.033064473
000390 97 81 80 bd 3a d0 e1 bc c3 fb 18 bd 22 74 84 bc
       -0.06274717 -0.02756511 -0.037349474 -0.016168658
0003a0 0b 2a c8 bc a7 d7 32 3c 21 cf 8b bd 81 0b df 3c
       -0.02443411 0.010915673 -0.06826616 0.027227165
0003b0 29 a7 09 3d b0 c6 67 3d aa 39 89 3c d3 1f 17 3d
       0.033606682 0.056585968 0.01675113 0.036895584
0003c0 b6 77 7a bc e2 b7 0f 3b 8e dd 88 bd bb 2f 4d 3d
       -0.01528733 0.002192967 -0.06682883 0.050094347
0003d0 11 69 98 3d 46 8c e0 3c f4 b8 1d bc 6f e2 b6 bc
       0.07441915 0.027410638 -0.009626616 -0.022324769
0003e0 e3 2e 30 3d 54 6c e5 bc 0d f9 7a bc 12 32 c9 bc
       0.043013465 -0.028005756 -0.015318167 -0.024560008
0003f0 42 45 f4 bb 8c 4c 28 bd 8c 3f 39 3d 9a ef 86 bd
       -0.0074545452 -0.041088626 0.04522662 -0.06588669

out.bias f4 [196]
000000 df c5 ad bd 8b 68 90 bd bd e5 74 bc 8f ef 46 bd
       -0.084850065 -0.0705119 -0.014947352 -0.048568305
000010 53 6f c0 bc 03 d8 e2 bc 3f 52 41 bd 84 4f ce bc
       -0.023490584 -0.027690893 -0.047197577 -0.0251844
000020 c8 c4 8d 3c 45 00 80 bc 75 bb c0 3c 1c 5b 91 3d
       0.017305747 -0.015625129 0.023526886 0.07097456
000030 f3 b2 55 3d b6 2b 4d bd fe 14 ae bd ea d9 59 3d
       0.052172612 -0.050090514 -0.08500098 0.053186335
000040 89 07 6b bd c9 92 d1 bd 1a 85 d5 bc a4 95 e4 39
       -0.057380233 -0.10233075 -0.026064444 0.0004359904
000050 98 ad 48 bd 8d fb 93 bd 98 15 09 bd 2e 1f be bc
       -0.048993677 -0.07225714 -0.03346786 -0.023208227
000060 d4 86 30 bc b2 f0 7a bd 88 a3 19 3d e7 f6 06 bd
       -0.010774333 -0.0612647 0.03750947 -0.03295031
000070 a2 bf 43 bd 2f 5a 69 bd a8 73 20 bd 7d 5f 3b bc
       -0.047790177 -0.05697077 -0.0391728 -0.01143634
000080 6c 88 48 bd da fd 16 bd 4e fd bf bd 0e 6b 23 bb
       -0.048958227 -0.036863185 -0.09374486 -0.0024935636
000090 52 57 8f bd 32 b8 83 3c 18 e6 b2 bc 6a a0 e5 3c
       -0.06999077 0.016079042 -0.021838233 0.028030593
0000a0 7f 0a 73 3d 3f 58 6f 3d e5 99 e8 bd 61 ef 95 bc
       0.05933618 0.058433767 -0.11357478 -0.018302621
0000b0 cb 8d 25 3c 68 75 18 bc 2b 28 bc bd 0d 64 ec bc
       0.010104607 -0.009305336 -0.09187349 -0.028856302
0000c0 90 40 c9 bd e5 bc 84 3c 4c c6 a9 3b 5f 03 56 bd
       -0.098267674 0.016203353 0.0051811095 -0.05224931
0000d0 af 63 44 bd 72 41 3b bb 10 5a 92 3d 80 c6 0e 3d
       -0.04794663 -0.0028572944 0.07146084 0.034857273
0000e0 39 dc 03 bd 7a 0f b1 bd aa 4c fa bd e8 cc 64 bc
       -0.032192443 -0.0864553 -0.12221654 -0.013964869
0000f0 f0 ed 92 bb 82 d6 28 bd dd 2c 91 bd b9 fa 37 bd
       -0.0044839308 -0.041220196 -0.07088635 -0.044916842
000100 d0 e4 8c bc b1 0d 74 bd d8 17 20 3d 7c 53 ef bc
       -0.01719895 -0.05958337 0.03908524 -0.029214613
000110 29 b5 c1 bc 68 de 48 3c db 7f 9e bd d9 d7 bf 3b
       -0.023645954 0.012260057 -0.0773923 0.0058545885
000120 c1 a2 55 bc fd 95 ac bd 58 0a 97 bd 64 bb 42 3d
       -0.013039292 -0.084270455 -0.0737502 0.04754199
000130 c8 7b 15 3c d3 72 9e bd 51 e1 a7 bc 60 50 d6 3c
       0.00912375 -0.07736745 -0.020493181 0.026161373
000140 ab fb 8d bd f8 c4 51 bd 82 81 97 3d 1e 01 5c 3d
       -0.069327675 -0.051213235 0.073977485 0.053712003
000150 18 fe 51 bc 2a 6a 54 3b 8c 12 c5 bd 8a cb e1 bc
       -0.012816928 0.0032411912 -0.09622678 -0.027562875
000160 6f 36 2f bd dd e8 05 bd 38 8b ac bc 7c e1 a7 bd
       -0.04277652 -0.03269278 -0.021062478 -0.081973046
000170 de 39 57 bd 5c 2f fe bc ae 1a f0 3c f0 83 59 3d
       -0.05254542 -0.031028442 0.029309597 0.05310434
000180 76 92 2f 3c 9a ab 18 bd 1b fe 01 bd 3f 5a a0 bd
       0.010716071 -0.037273027 -0.031736474 -0.07829713
000190 c1 8c 30 bd 37 0c 48 bd b8 f5 d5 bd 5b 56 8d bd
       -0.043102983 -0.048839774 -0.10447258 -0.069012366
0001a0 cd 27 3b bd 40 71 d0 3b 4e 46 53 bc 6a aa 86 bd
       -0.045692254 0.0063611567 -0.01289518 -0.06575473
0001b0 bd 0d 7a bc 96 5c d4 bb f8 b0 b8 3d b5 4d a9 bc
       -0.0152620645 -0.0064807637 0.09018129 -0.020666936
0001c0 36 36 75 3d 44 8d 47 bd 95 52 8c bd 84 ce d4 bc
       0.059866153 -0.048718706 -0.06851689 -0.02597738
0001d0 31 88 85 bc e5 74 c1 bd 96 4e db bd 41 19 73 bd
       -0.016300293 -0.09446124 -0.107083485 -0.059350256
0001e0 56 5a 5f bd db ef 5a bd 85 ca 56 3d ef e2 72 3d
       -0.05452951 -0.0534514 0.05243923 0.059298452
0001f0 33 79 06 bd c5 ec 43 bd 58 48 f6 bc 1e b0 f7 3c
       -0.03283043 -0.047833223 -0.030063793 0.030235346
000200 f7 40 99 bc 04 be c1 bd d9 18 32 3d 4d 66 60 3d
       -0.018707735 -0.09460071 0.043480728 0.05478506
000210 a9 f8 be bc 3f 0b da bd 55 8f 68 bd 9c 41 37 3d
       -0.02331193 -0.10646676 -0.056777317 0.044740304
000220 66 b4 e8 bc 1c 48 97 bb c1 85 d7 bc 36 5a 43 3d
       -0.028406333 -0.0046167504 -0.026308896 0.047693454
000230 e4 3a e0 39 d1 6b ee 3b 96 4c ab bd 08 ec dc bb
       0.00042768486 0.0072760363 -0.08364217 -0.0067420043
000240 29 d3 7c 3d d8 5c 79 3c 3c a6 76 3c d4 c2 c6 3a
       0.061724816 0.01521989 0.015054282 0.0015164264
000250 e0 a3 52 3d c7 b3 ab bd ba f0 4b bd 03 38 3e bd
       0.051425815 -0.08383899 -0.04979012 -0.046440136
000260 ff 8f de bc a9 0c 06 3d 70 44 9a 3c 80 cb 07 3d
       -0.027168272 0.032726917 0.018831462 0.033153057
000270 00 f7 2c bb 4e 91 63 3d cf 23 59 3d ff 4d 5b 3d
       -0.002639234 0.055558495 0.053012665 0.05354118
000280 fc eb b5 3c bf e7 e1 bc da ee 3d bd 77 fb aa bc
       0.022207253 -0.027576325 -0.046370365 -0.02087186
000290 1f 8a 08 bc 10 7f a3 bb 91 53 79 3d 29 1a e0 bc
       -0.008333712 -0.0049895123 0.06087071 -0.027356224
0002a0 28 e3 25 3d 10 0d 23 bd c2 a8 6a bd 20 0c 49 bb
       0.040499836 -0.03980738 -0.057289846 -0.0030677393
0002b0 80 f6 4a 3d f6 f7 40 3d 80 64 42 bc 7c 3e b7 3c
       0.049551487 0.047111474 -0.011864781 0.022368662
0002c0 98 18 d5 3c 3d a6 d7 3c e6 27 02 bd c0 5c 75 3d
       0.026012704 0.026324386 -0.03177633 0.059902906
0002d0 70 7d b5 3c 74 25 01 3d 80 33 8d bc 24 70 d3 bc
       0.02215454 0.03152986 -0.017236471 -0.025810309
0002e0 d8 3d 29 3c be 2e 09 bd 26 0e 1f bd 40 cb a8 3a
       0.010329686 -0.033491842 -0.038831852 0.0012877956
0002f0 9e 80 1c bd b8 8e d7 bc 40 65 96 ba 34 54 fe bc
       -0.038208596 -0.02631317 -0.0011474267 -0.03104601
000300 84 0d a2 bc 50 de aa bc df 8d 28 bd c0 28 96 3a
       -0.019781835 -0.02085796 -0.041150924 0.0011456236

exp_avg f4 [14, 1]
000000 00 00 00 00 17 1d 59 c0 9d 96 ca bf 81 28 b3 bf
       0.0 -3.3924005 -1.5827214 -1.3996736
000010 fc 84 8a 40 b0 b0 b7 c0 92 0d 92 c0 5a d2 8d c0
       4.3287334 -5.7403183 -4.5641565 -4.4319277
000020 23 6c 22 c0 03 88 94 3f 5a ee 21 c0 f2 1d 06 bd
       -2.5378501 1.1604007 -2.5301728 -0.0327434
000030 59 2d 95 bf 04 00 00 80
       -1.1654464 -6e-45

exp_avg_sq f4 [14, 1]
000000 00 00 00 00 9d 4c 41 41 31 5c 69 40 91 44 e8 3f
       0.0 12.081204 3.646252 1.8145925
000010 4f c8 d4 41 01 aa 1a 42 cd de a5 41 f7 7b af 41
       26.597807 38.66602 20.73379 21.93553
000020 3b 69 5b 40 8c 8b 17 40 ad 11 a6 41 a3 f8 80 3e
       3.4282978 2.3678923 20.75863 0.25189695
000030 1c 03 49 40 9c c4 e0 3a
       3.1408148 0.0017148438

exp_avg f4 [196, 256]
000000 04 00 00 00 04 00 00 80 04 00 00 80 04 00 00 00
       6e-45 -6e-45 -6e-45 6e-45
000010 04 00 00 00 04 00 00 00 04 00 00 80 04 00 00 00
       6e-45 6e-45 -6e-45 6e-45
000020 04 00 00 80 04 00 00 00 04 00 00 00 04 00 00 00
       -6e-45 6e-45 6e-45 6e-45
000030 04 00 00 00 04 00 00 00 04 00 00 00 04 00 00 80
       6e-45 6e-45 6e-45 -6e-45
000040 04 00 00 00 04 00 00 80 04 00 00 00 04 00 00 00
       6e-45 -6e-45 6e-45 6e-45
000050 04 00 00 00 04 00 00 00 04 00 00 00 04 00 00 80
       6e-45 6e-45 6e-45 -6e-45
000060 04 00 00 00 04 00 00 80 04 00 00 80 04 00 00 80
       6e-45 -6e-45 -6e-45 -6e-45
000070 04 00 00 80 04 00 00 80 04 00 00 00 04 00 00 80
       -6e-45 -6e-45 6e-45 -6e-45
000080 04 00 00 80 04 00 00 00 04 00 00 80 04 00 00 80
       -6e-45 6e-45 -6e-45 -6e-45
000090 04 00 00 80 04 00 00 00 04 00 00 00 04 00 00 80
       -6e-45 6e-45 6e-45 -6e-45
0000a0 04 00 00 00 04 00 00 00 04 00 00 00 04 00 00 80
       6e-45 6e-45 6e-45 -6e-45
0000b0 04 00 00 00 04 00 00 80 04 00 00 00 04 00 00 00
       6e-45 -6e-45 6e-45 6e-45
0000c0 04 00 00 80 04 00 00 00 04 00 00 80 04 00 00 80
       -6e-45 6e-45 -6e-45 -6e-45
0000d0 04 00 00 80 04 00 00 00 04 00 00 80 04 00 00 00
       -6e-45 6e-45 -6e-45 6e-45
0000e0 04 00 00 80 04 00 00 00 04 00 00 80 04 00 00 80
       -6e-45 6e-45 -6e-45 -6e-45
0000f0 04 00 00 00 04 00 00 00 04 00 00 80 04 00 00 00
       6e-45 6e-45 -6e-45 6e-45
000100 04 00 00 00 04 00 00 80 04 00 00 00 04 00 00 80
       6e-45 -6e-45 6e-45 -6e-45
000110 04 00 00 80 04 00 00 80 04 00 00 80 04 00 00 80
       -6e-45 -6e-45 -6e-45 -6e-45
000120 04 00 00 00 04 00 00 00 04 00 00 80 04 00 00 00
       6e-45 6e-45 -6e-45 6e-45
000130 04 00 00 00 04 00 00 00 04 00 00 00 04 00 00 00
       6e-45 6e-45 6e-45 6e-45
000140 04 00 00 00 04 00 00 00 04 00 00 00 04 00 00 00
       6e-45 6e-45 6e-45 6e-45
000150 04 00 00 00 04 00 00 80 04 00 00 80 04 00 00 00
       6e-45 -6e-45 -6e-45 6e-45
000160 04 00 00 80 04 00 00 00 04 00 00 00 04 00 00 80
       -6e-45 6e-45 6e-45 -6e-45
000170 04 00 00 80 04 00 00 00 04 00 00 00 04 00 00 80
       -6e-45 6e-45 6e-45 -6e-45
000180 04 00 00 80 04 00 00 80 04 00 00 80 04 00 00 80
       -6e-45 -6e-45 -6e-45 -6e-45
000190 04 00 00 00 04 00 00 80 04 00 00 80 04 00 00 00
       6e-45 -6e-45 -6e-45 6e-45
0001a0 04 00 00 00 04 00 00 00 04 00 00 80 04 00 00 80
       6e-45 6e-45 -6e-45 -6e-45
0001b0 04 00 00 80 04 00 00 80 04 00 00 00 04 00 00 80
       -6e-45 -6e-45 6e-45 -6e-45
0001c0 04 00 00 80 04 00 00 00 04 00 00 80 04 00 00 80
       -6e-45 6e-45 -6e-45 -6e-45
0001d0 04 00 00 80 04 00 00 00 04 00 00 80 04 00 00 00
       -6e-45 6e-45 -6e-45 6e-45
0001e0 04 00 00 80 04 00 00 00 04 00 00 00 04 00 00 80
       -6e-45 6e-45 6e-45 -6e-45
0001f0 04 00 00 00 04 00 00 00 04 00 00 00 04 00 00 80
       6e-45 6e-45 6e-45 -6e-45
000200 04 00 00 00 04 00 00 80 04 00 00 00 04 00 00 00
       6e-45 -6e-45 6e-45 6e-45
000210 04 00 00 00 04 00 00 80 04 00 00 80 04 00 00 00
       6e-45 -6e-45 -6e-45 6e-45
000220 04 00 00 00 04 00 00 80 04 00 00 00 04 00 00 00
       6e-45 -6e-45 6e-45 6e-45
000230 04 00 00 00 04 00 00 00 04 00 00 80 04 00 00 00
       6e-45 6e-45 -6e-45 6e-45
000240 04 00 00 80 04 00 00 80 04 00 00 80 04 00 00 00
       -6e-45 -6e-45 -6e-45 6e-45
000250 04 00 00 80 04 00 00 80 04 00 00 00 04 00 00 00
       -6e-45 -6e-45 6e-45 6e-45
000260 04 00 00 00 04 00 00 80 04 00 00 80 04 00 00 00
       6e-45 -6e-45 -6e-45 6e-45
000270 04 00 00 80 04 00 00 00 04 00 00 00 04 00 00 80
       -6e-45 6e-45 6e-45 -6e-45
000280 04 00 00 00 04 00 00 80 04 00 00 00 04 00 00 80
       6e-45 -6e-45 6e-45 -6e-45
000290 04 00 00 00 04 00 00 00 04 00 00 80 04 00 00 00
       6e-45 6e-45 -6e-45 6e-45
0002a0 04 00 00 80 04 00 00 00 04 00 00 00 04 00 00 80
       -6e-45 6e-45 6e-45 -6e-45
0002b0 04 00 00 00 04 00 00 00 04 00 00 80 04 00 00 80
       6e-45 6e-45 -6e-45 -6e-45
0002c0 04 00 00 00 04 00 00 80 04 00 00 00 04 00 00 00
       6e-45 -6e-45 6e-45 6e-45
0002d0 04 00 00 80 04 00 00 80 04 00 00 00 04 00 00 80
       -6e-45 -6e-45 6e-45 -6e-45
0002e0 04 00 00 00 04 00 00 80 04 00 00 80 04 00 00 00
       6e-45 -6e-45 -6e-45 6e-45
0002f0 04 00 00 80 04 00 00 80 04 00 00 80 04 00 00 80
       -6e-45 -6e-45 -6e-45 -6e-45
000300 04 00 00 00 04 00 00 80 04 00 00 00 04 00 00 80
       6e-45 -6e-45 6e-45 -6e-45
000310 04 00 00 80 04 00 00 80 04 00 00 80 04 00 00 80
       -6e-45 -6e-45 -6e-45 -6e-45
000320 04 00 00 80 04 00 00 80 04 00 00 80 04 00 00 00
       -6e-45 -6e-45 -6e-45 6e-45
000330 04 00 00 80 04 00 00 00 04 00 00 80 04 00 00 80
       -6e-45 6e-45 -6e-45 -6e-45
000340 04 00 00 80 04 00 00 80 04 00 00 00 04 00 00 00
       -6e-45 -6e-45 6e-45 6e-45
000350 04 00 00 80 04 00 00 80 04 00 00 00 04 00 00 00
       -6e-45 -6e-45 6e-45 6e-45
000360 04 00 00 00 04 00 00 80 04 00 00 00 04 00 00 00
       6e-45 -6e-45 6e-45 6e-45
000370 04 00 00 80 04 00 00 00 04 00 00 80 04 00 00 00
       -6e-45 6e-45 -6e-45 6e-45
000380 04 00 00 00 04 00 00 00 04 00 00 80 04 00 00 80
       6e-45 6e-45 -6e-45 -6e-45
000390 04 00 00 00 04 00 00 80 04 00 00 80 04 00 00 00
       6e-45 -6e-45 -6e-45 6e-45
0003a0 04 00 00 00 04 00 00 00 04 00 00 80 04 00 00 00
       6e-45 6e-45 -6e-45 6e-45
0003b0 04 00 00 80 04 00 00 80 04 00 00 00 04 00 00 00
       -6e-45 -6e-45 6e-45 6e-45
0003c0 04 00 00 00 04 00 00 80 04 00 00 00 04 00 00 80
       6e-45 -6e-45 6e-45 -6e-45
0003d0 04 00 00 80 04 00 00 00 04 00 00 80 04 00 00 80
       -6e-45 6e-45 -6e-45 -6e-45
0003e0 04 00 00 80 04 00 00 80 04 00 00 80 04 00 00 00
       -6e-45 -6e-45 -6e-45 6e-45
0003f0 04 00 00 00 04 00 00 00 04 00 00 80 04 00 00 00
       6e-45 6e-45 -6e-45 6e-45

exp_avg_sq f4 [196, 256]
000000 dc 4a 42 3a 10 c2 8e 37 4c f5 a0 37 01 81 a5 37
       0.00074116676 1.7018087e-05 1.9187712e-05 1.9729605e-05
000010 0a 76 d1 37 39 53 11 3a bb e3 dc 33 dc 5e c5 3a
       2.4969708e-05 0.0005543712 1.0285972e-07 0.0015058178
000020 5b bc 1f 35 60 92 bd 39 ef ef e3 39 db a1 3e 3a
       5.950621e-07 0.00036157947 0.00043475578 0.0007272043
000030 60 b9 fe 39 93 bf 8c 39 4c 4e 28 3a 2d 5f 52 3a
       0.0004858477 0.00026845615 0.00064203585 0.00080250466
000040 f2 81 f2 3a 82 f5 ce 33 92 c4 4b 3a 10 f5 3f 39
       0.0018501861 9.63728e-08 0.00077731267 0.00018306472
000050 dd 85 2d 3a 7f d5 0d 3b 5f 5f c4 39 87 c3 1d 33
       0.00066193735 0.0021642146 0.0003745509 3.6732242e-08
000060 4f 7f cd 3a be d4 6d 38 af e6 14 38 40 3b b5 38
       0.00156782 5.6703335e-05 3.550079e-05 8.641789e-05
000070 5a e1 c7 34 72 b4 8b 34 4f 96 b9 38 10 43 8e 34
       3.7230603e-07 2.602206e-07 8.8494846e-05 2.6498356e-07
000080 64 b0 1d 38 59 99 1e 39 6b c3 e6 33 cc 2f 07 35
       3.7595993e-05 0.0001512518 1.0745756e-07 5.036097e-07
000090 73 42 27 35 4c 26 99 38 d5 31 c7 39 25 4e dc 34
       6.2309044e-07 7.302742e-05 0.00037993366 4.103505e-07
0000a0 dd 4a be 39 dc 81 4a 38 e4 3a 82 3a d8 c5 8a 33
       0.00036295402 4.8281494e-05 0.0009935764 6.462113e-08
0000b0 46 f7 05 36 22 99 13 36 91 34 18 3b 63 68 82 38
       1.9962476e-06 2.1993842e-06 0.0023224691 6.2183266e-05
0000c0 a9 ea b7 34 f5 70 90 37 4e 8b 04 36 2c 7f b6 38
       3.4257144e-07 1.7218737e-05 1.9750619e-06 8.702124e-05
0000d0 fa cf 3f 34 96 17 31 3b 53 7e 66 35 03 ab 22 39
       1.7863923e-07 0.0027022115 8.58655e-07 0.00015513231
0000e0 b5 c5 90 35 4f eb 71 37 7e f6 65 38 db c8 b9 39
       1.0786376e-06 1.4419506e-05 5.482742e-05 0.000354356
0000f0 73 c2 df 39 03 a2 88 38 4c 12 b8 33 3e b8 0b 39
       0.0004267875 6.5151624e-05 8.571496e-08 0.00013324709
000100 34 fd 43 36 2a 0d a4 37 8d 3d a5 3a 9a dd 47 35
       2.9204648e-06 1.9556453e-05 0.0012606845 7.445575e-07
000110 3a 6c 00 38 74 da 8d 33 a7 6f c0 38 d6 49 bc 37
       3.0618372e-05 6.6055605e-08 9.17607e-05 2.2445729e-05
000120 10 29 62 39 a0 62 2b 39 52 6d 18 36 71 f5 0a 3b
       0.00021568337 0.00016344571 2.2713398e-06 0.0021203423
000130 e3 04 98 39 7d 44 36 3a 43 e3 57 38 49 b1 4b 37
       0.0002899534 0.00069529546 5.147165e-05 1.214102e-05
000140 b5 c3 1b 38 2d 72 0b 3a 12 f8 2c 3a 8a bb 95 38
       3.7137146e-05 0.0005319443 0.00065982447 7.1398055e-05
000150 4a 15 61 3b 8c 7e c5 32 1f 60 a6 33 c2 fd e0 39
       0.0034344965 2.2991365e-08 7.747462e-08 0.00042913674
000160 e1 a2 ff 33 9f 9c 3c 38 45 98 63 37 4b b1 31 33
       1.190399e-07 4.4968558e-05 1.3565707e-05 4.137227e-08
000170 cb 1f a1 3a 58 22 ea 36 d9 43 b2 3a 9e 57 a7 37
       0.00122928 6.9777416e-06 0.0013600542 1.9948751e-05
000180 e6 03 ad 39 29 f2 86 34 70 ae b1 34 28 7f 5d 35
       0.00033000036 2.513564e-07 3.309574e-07 8.251395e-07
000190 de 39 b9 39 21 76 ea 33 d5 4c 47 36 cb 6a e2 38
       0.00035329064 1.0917962e-07 2.9698033e-06 0.000107964115
0001a0 0a 50 0a 3b db 0c 27 3a ff fc 69 34 0f a0 de 33
       0.0021104836 0.000637246 2.1791855e-07 1.0366795e-07
0001b0 09 ef 8e 34 6f 07 7f 33 17 18 80 3a ad bb d3 39
       2.6623482e-07 5.9378575e-08 0.0009772804 0.00040384886
0001c0 1e 26 44 36 92 f7 08 3a ba 16 f3 34 ee 34 89 34
       2.9228463e-06 0.0005224879 4.5278813e-07 2.555675e-07
0001d0 41 80 88 33 fc 6c 62 3a 00 88 19 3a 83 8d 99 38
       6.356323e-08 0.0008637456 0.00058567524 7.321967e-05
0001e0 b9 53 0a 32 3e 99 1b 38 4f 99 22 38 30 10 2d 35
       8.0516935e-09 3.7097598e-05 3.876659e-05 6.447108e-07
0001f0 0f 18 c4 3a 03 23 0c 3a c1 60 77 3a e0 9e 43 34
       0.0014960783 0.00053457933 0.00094367197 1.8218589e-07
000200 c8 d9 b6 39 03 79 b2 38 54 e5 94 38 7f a0 01 39
       0.00034876005 8.5102416e-05 7.0999056e-05 0.00012362188
000210 bb 42 d0 3a a1 eb fd 37 39 c2 c1 36 bb ae a1 38
       0.0015889028 3.0269674e-05 5.7744587e-06 7.709624e-05
000220 64 2b b4 39 07 e2 6d 34 07 cb 23 39 60 31 72 3a
       0.00034364604 2.2154573e-07 0.00015620525 0.0009238925
000230 08 b3 ee 3a dd 2e de 39 9e d3 ee 33 38 07 85 3a
       0.0018211314 0.00042378056 1.11212316e-07 0.0010149246
000240 61 9a 04 39 1e 98 17 38 de f6 17 34 ac d3 2a 3b
       0.00012646012 3.6142876e-05 1.415278e-07 0.0026066108
000250 a3 05 de 33 38 c9 e9 33 08 96 ab 39 da 90 15 3a
       1.0338706e-07 1.08865095e-07 0.00032727444 0.00057054835
000260 b3 88 0b 3a b0 b7 36 39 bc 4e e6 32 3e ab 80 36
       0.0005322799 0.00017425301 2.6811328e-08 3.8346325e-06
000270 3c 0c 75 33 db d7 81 3a 93 f1 2b 37 9e 85 f8 36
       5.7054635e-08 0.0009906249 1.024864e-05 7.406531e-06
000280 6e b4 06 38 b2 be 05 36 f0 f3 c0 3a 07 64 26 3a
       3.2116128e-05 1.9929544e-06 0.0014721137 0.00063473027
000290 df c6 a0 38 a7 60 a3 35 13 94 04 36 cd a3 2f 37
       7.666437e-05 1.2172576e-06 1.9755723e-06 1.0468951e-05
0002a0 6e 38 6c 33 54 0e 9e 39 2b 04 18 39 03 a3 7e 35
       5.4999354e-08 0.00030146784 0.00014497402 9.4859587e-07
0002b0 5b d9 9f 3a 5c fa 9f 39 90 33 eb 38 f2 14 97 36
       0.0012195514 0.00030513376 0.000112152775 4.502589e-06
0002c0 df d4 ab 3a 10 36 1d 35 18 ab 2d 39 08 88 a6 3a
       0.0013109705 5.856573e-07 0.00016562303 0.0012705335
0002d0 5e 1c 88 37 80 53 e0 32 bb 38 b9 37 b9 91 c7 37
       1.6225673e-05 2.6115003e-08 2.2080136e-05 2.3790506e-05
0002e0 89 8a a1 39 cd 2d fc 38 24 11 76 34 3f de 25 38
       0.0003081153 0.000120248274 2.2916771e-07 3.954605e-05
0002f0 73 db 69 3a 0e 34 51 32 4c 04 5f 33 7c e9 d9 33
       0.0008920945 1.2177237e-08 5.192514e-08 1.01473205e-07
000300 62 2f d8 3a af d9 fc 37 2e 82 58 39 4a 6d c8 33
       0.0016493613 3.0142108e-05 0.00020647861 9.333105e-08
000310 7b 46 cc 33 67 67 1e 36 ce f8 1a 34 5f 3f 18 39
       9.5123106e-08 2.3604023e-06 1.4432882e-07 0.00014519457
000320 1f 8b 6f 39 04 94 a7 32 a5 9a ae 34 a8 45 72 39
       0.00022844643 1.9508668e-08 3.2522544e-07 0.00023104867
000330 30 9e d8 33 d3 5a d0 37 bd 60 c4 35 88 71 0d 3a
       1.0087058e-07 2.4837826e-05 1.4631293e-06 0.00053956406
000340 99 5c d2 33 c2 e1 3f 34 a4 af 06 3a c9 6f 98 38
       9.7957304e-08 1.7870391e-07 0.0005137867 7.2687464e-05
000350 17 48 55 39 8f 7a b5 34 a3 d9 0c 3b 22 10 f4 39
       0.00020340118 3.380305e-07 0.0021492026 0.00046551327
000360 84 50 32 3b c9 2f c6 34 f5 fc f5 39 43 d2 4d 38
       0.0027208636 3.6915142e-07 0.0004691851 4.907163e-05
000370 4d 41 9c 34 be 68 17 3a c2 67 3a 34 19 f4 7a 3a
       2.9104777e-07 0.00057758007 1.7360347e-07 0.00095731165
000380 49 fc ca 37 3b c9 7a 37 bd 97 a8 34 c6 93 5d 35
       2.4197756e-05 1.4948014e-05 3.1402843e-07 8.2543954e-07
000390 67 f4 17 3b 50 7a 73 35 b7 eb 0f 39 0f de b5 38
       0.0023186447 9.070254e-07 0.00013725353 8.672114e-05
0003a0 a2 3d 86 39 b4 77 95 3a d3 3f bf 37 ab 0d 40 3b
       0.00025604392 0.0011403472 2.2798695e-05 0.0029305022
0003b0 7a d1 cb 33 c9 e9 f5 33 ba eb 16 3b bb 48 59 39
       9.491028e-08 1.1451227e-07 0.0023028688 0.00020721827
0003c0 d9 bb 0a 39 d0 96 bd 34 51 0d 27 3a f1 d5 80 38
       0.00013230684 3.5313724e-07 0.0006372529 6.143365e-05
0003d0 f2 16 c7 34 ed 42 89 3a d1 03 7b 33 8a 28 6c 35
       3.7083333e-07 0.0010472216 5.8443963e-08 8.7975843e-07
0003e0 8e 57 64 35 7d 58 b8 33 e1 24 85 33 52 65 e7 36
       8.506403e-07 8.5842636e-08 6.200003e-08 6.8961317e-06
0003f0 01 fa 34 3a 31 a1 ce 38 9e 3d 8b 36 29 9d da 3a
       0.00069037086 9.85287e-05 4.149696e-06 0.0016678917

exp_avg f4 [196]
000000 04 00 00 00 25 93 81 3c ff 90 89 3f dd 7c 0d 3f
       6e-45 0.015817234 1.0747374 0.5526865
000010 5a 3b 6b 40 c5 ca 45 3f 54 49 8a bc 49 b8 44 3f
       3.6754975 0.77262527 -0.016880669 0.76843697
000020 40 a1 66 bc 73 8f 40 bd ca e9 f5 b7 5b 21 93 bc
       -0.014076531 -0.047011804 -2.9315142e-05 -0.017960241
000030 3a 99 6f a5 00 00 00 00 1e 94 32 3d 00 00 00 00
       -2.0781861e-16 0.0 0.043598287 0.0
000040 7f 4c 2e 3f a3 39 1d 40 68 bf 92 3f 86 3c 44 3d
       0.68085474 2.4566429 1.1464663 0.047909282
000050 bd db f6 3f fa a4 32 3e 0d 82 04 3f 43 b7 bc 3e
       1.9285809 0.17445746 0.5176094 0.36858568
000060 8b c2 0d bd cd 5a 59 bb 04 00 00 80 04 00 00 80
       -0.03460936 -0.0033165694 -6e-45 -6e-45
000070 30 4e c1 3c 47 20 f1 3e 00 00 00 00 e8 b1 88 3d
       0.023596853 0.47094938 0.0 0.06674558
000080 b6 39 e6 3e 8c de 37 40 d4 e5 71 bd d7 d0 86 bb
       0.44965905 2.8729582 -0.05905707 -0.004114251
000090 61 e7 f0 3e 6d 82 59 bd 1f ff bf bc 3f 0b 8b bc
       0.47051528 -0.0531029 -0.02343708 -0.016973136
0000a0 04 00 00 80 04 00 00 80 b2 c2 a8 3e 2d 69 0e 40
       -6e-45 -6e-45 0.3296104 2.2251694
0000b0 b2 6b 2f 3e 00 00 00 00 13 06 35 3e a7 5b b8 bd
       0.17130926 0.0 0.17678098 -0.09001856
0000c0 9d 22 c2 3d db 5b 14 be 2e f1 9a 3f 13 9e e3 bd
       0.09479258 -0.14488165 1.2104852 -0.11114135
0000d0 75 04 63 bc 9a 68 9e 8a 49 82 8e ba 04 00 00 80
       -0.013856043 -1.5254193e-32 -0.0010872568 -6e-45
0000e0 e7 13 6c 40 6e 3f 08 3e f7 a0 0e 3f ce a8 e2 bc
       3.6887147 0.13305447 0.5571436 -0.027668383
0000f0 00 00 00 00 1a 5b 8c 3f 52 f9 40 bc f6 d5 8f bd
       0.0 1.0965302 -0.011778193 -0.07023232
000100 7d 73 ac ba 44 13 1a bb 44 ac f7 bd 72 03 dd bc
       -0.0013156977 -0.0023510018 -0.12093404 -0.026979182
000110 4b 7d 9d bd 04 00 00 80 34 d9 bf 3e 45 64 1e 3e
       -0.07689913 -6e-45 0.374704 0.15467937
000120 e7 5a 41 40 d6 f3 ba 3d 77 2f c0 3f 00 00 00 00
       3.0211732 0.09128539 1.5014485 0.0
000130 9a e7 60 bd 15 e8 a4 3e 52 e9 f2 3f c3 d9 1f ba
       -0.054908372 0.32208315 1.8977454 -0.00060978177
000140 17 d6 33 be d4 1e 88 bb 19 c1 5b bb 04 00 00 80
       -0.17562138 -0.0041540656 -0.0033531843 -6e-45
000150 7e fa bc 3e 7b 52 f8 3f 78 ca 97 3e 0c c7 bf 3e
       0.3690986 1.9400171 0.2964666 0.37456548
000160 9a a2 1c be f0 33 bb 1a 00 00 00 00 25 96 73 3f
       -0.15296403 7.7425297e-23 0.0 0.9515098
000170 51 d7 b1 3d 70 70 6b bd f5 96 a1 bc fa 26 00 98
       0.086836465 -0.057480276 -0.019725302 -1.656329e-24
000180 04 00 00 80 04 00 00 80 4b 43 2d 3d 0e b2 b1 3e
       -6e-45 -6e-45 0.042300504 0.34706157
000190 dc 0a bc 06 61 d7 9e bc 07 99 09 3b 49 05 a1 3e
       7.0733697e-35 -0.01938981 0.0020995752 0.31449345
0001a0 ea 69 f6 3f 00 00 00 00 b4 53 31 bd 1c 0f 37 bc
       1.9251072 0.0 -0.043292716 -0.011173036
0001b0 4e 2a 08 3f 50 7d 0a a7 14 d2 da ac 04 00 00 80
       0.5318955 -1.921928e-15 -6.219256e-12 -6e-45
0001c0 04 00 00 80 55 e1 12 3c ba a5 0b 3f 87 e1 d3 3f
       -6e-45 0.008964856 0.54549754 1.65532
0001d0 04 00 00 00 84 75 18 40 73 9e be 3d 22 94 42 ba
       6e-45 2.3821726 0.093075655 -0.0007422586
0001e0 00 00 00 00 78 84 9e bc cd 69 d6 bb b4 1e c8 87
       0.0 -0.019350275 -0.006543374 -3.01107e-34
0001f0 40 94 b3 bc 04 00 00 80 04 00 00 80 fa ed 95 3d
       -0.021921277 -6e-45 -6e-45 0.07320781
000200 04 00 00 80 15 2f ca 37 3d 00 00 00 9a 00 00 00
       -6e-45 2.41022e-05 8.5e-44 2.16e-43
000210 04 00 00 00 b4 e8 c5 bc 65 33 13 0a 00 00 00 00
       6e-45 -0.024158813 7.087459e-33 0.0
000220 6b f0 99 3f 7b 85 3c a4 ee 37 06 a6 04 00 00 80
       1.2026495 -4.0879064e-17 -4.656639e-16 -6e-45
000230 04 00 00 80 44 a7 2c bd 58 a1 97 2c 04 00 00 80
       -6e-45 -0.042151704 4.309591e-12 -6e-45
000240 04 00 00 80 04 00 00 00 92 6b 85 2c e1 1c 86 3f
       -6e-45 6e-45 3.79203e-12 1.0477563
000250 00 00 00 00 fb c0 b0 3f 00 00 00 00 04 00 00 80
       0.0 1.3808893 0.0 -6e-45
000260 04 00 00 80 04 00 00 80 00 00 00 00 04 00 00 00
       -6e-45 -6e-45 0.0 6e-45
000270 00 00 00 00 00 00 00 00 04 00 00 80 04 00 00 00
       0.0 0.0 -6e-45 6e-45
000280 04 00 00 80 04 00 00 80 00 00 00 00 04 00 00 80
       -6e-45 -6e-45 0.0 -6e-45
000290 05 00 00 80 00 00 00 00 04 00 00 80 04 00 00 80
       -7e-45 0.0 -6e-45 -6e-45
0002a0 00 00 00 00 00 00 00 00 04 00 00 80 00 00 00 00
       0.0 0.0 -6e-45 0.0
0002b0 00 00 00 00 00 00 00 00 00 00 00 00 00 00 00 00
       0.0 0.0 0.0 0.0
0002c0 00 00 00 00 04 00 00 80 00 00 00 00 00 00 00 00
       0.0 -6e-45 0.0 0.0
0002d0 00 00 00 00 04 00 00 80 00 00 00 00 00 00 00 00
       0.0 -6e-45 0.0 0.0
0002e0 00 00 00 00 00 00 00 00 00 00 00 00 00 00 00 00
       0.0 0.0 0.0 0.0
0002f0 00 00 00 00 00 00 00 00 00 00 00 00 00 00 00 00
       0.0 0.0 0.0 0.0
000300 00 00 00 00 00 00 00 00 04 00 00 80 00 00 00 00
       0.0 0.0 -6e-45 0.0

exp_avg_sq f4 [196]
000000 ac 7d 97 3c 07 0b 8c 40 b7 9a 39 40 fd 31 17 41
       0.018492542 4.376346 2.900068 9.449704
000010 28 cb 8a 41 f1 22 33 3f bd c3 9b 3c 26 9e 09 3f
       17.349197 0.6997519 0.019014234 0.5375694
000020 35 06 4a 3d b6 c2 47 3c bb 20 be 3b 99 da 73 3b
       0.049322326 0.012192419 0.0058022416 0.0037209152
000030 48 be be 39 00 00 00 00 b2 d3 6d 40 00 00 00 00
       0.00036381395 0.0 3.7160459 0.0
000040 e3 cd 1e 3f cc 28 bb 40 74 b0 db 40 ae 93 4a 3f
       0.6203291 5.84873 6.8652897 0.7913159
000050 d1 38 25 40 01 20 93 3f c2 5a 34 3f 67 2a 56 40
       2.5815928 1.1494142 0.70450985 3.346338
000060 20 e0 37 3c f3 fa 45 3c 84 07 59 3a 12 71 5f 37
       0.011222869 0.012083757 0.0008279013 1.3318162e-05
000070 98 ec e4 3f 8f 38 88 3f 00 00 00 00 56 84 96 3d
       1.7884703 1.064226 0.0 0.0734946
000080 e3 a0 1d 3f a6 c3 57 41 5b b4 82 3e c5 ce 60 41
       0.6157362 13.485266 0.25528225 14.050481
000090 b9 85 99 41 aa 74 09 3d 65 80 e6 3c 20 02 2f 3c
       19.190294 0.033558525 0.028137395 0.010681659
0000a0 c0 bc 96 3b ec 7c 67 37 f0 79 8e 40 57 0b c6 40
       0.0046001375 1.3797759e-05 4.452385 6.1888843
0000b0 79 e7 f5 3e 00 00 00 00 0d 22 c6 3f e1 82 95 3e
       0.48028162 0.0 1.5479141 0.29201415
0000c0 77 9a 13 3f 28 69 3f 3d ad 86 03 40 fc d2 f0 40
       0.5765757 0.046731144 2.055095 7.525755
0000d0 a4 fb 23 3e b5 fe 1f 3b cf 8c 44 3a 43 6d 04 37
       0.16013962 0.0024413292 0.0007497789 7.893253e-06
0000e0 d5 c9 7e 41 e9 97 4c 40 31 12 f4 3f ba c6 09 40
       15.924275 3.1967719 1.9068052 2.1527543
0000f0 00 00 00 00 83 80 18 40 f1 e3 9a 3f 65 92 30 3e
       0.0 2.3828437 1.2100812 0.17243345
000100 14 b3 f6 3d d2 d5 71 3c 4d 4c 92 3c 9d 76 01 3b
       0.12045875 0.014760451 0.017858649 0.0019754537
000110 30 3a 89 3c 9a 1f 94 39 10 b6 51 3f ea 88 5c 3f
       0.016751379 0.00028252305 0.8191843 0.86146414
000120 1a eb 86 41 38 a2 8f 3e d9 8b a9 40 00 00 00 00
       16.864796 0.2805345 5.2983212 0.0
000130 e7 47 33 3f 7d 2a 8a 3e 26 45 e3 40 fa ff 8a 3d
       0.7003159 0.2698554 7.102191 0.06787105
000140 6d 28 4c 3e bb ee 71 3c 65 be 90 3b cc 5d 50 3a
       0.19937296 0.01476639 0.004417228 0.0007948547
000150 d1 26 0f 3f 9e 54 24 40 12 c0 f5 3e 5b e2 15 40
       0.55918604 2.5676646 0.479981 2.3419406
000160 07 6b 22 40 ea 8f 16 3f 00 00 00 00 eb cb 54 3f
       2.5377824 0.58813345 0.0 0.83123654
000170 28 15 57 3e 0d ca 7e 3e 6f 7f 04 3f 20 94 af 3c
       0.21004164 0.24881764 0.5175695 0.021432936
000180 0d 93 84 3b c5 5a 5b 39 d4 f7 bf 3d c0 81 11 40
       0.00404585 0.00020919282 0.09373441 2.2735443
000190 d5 b0 c3 40 e8 8a 1f 3d b0 3f d2 3e 3a b7 43 3e
       6.115336 0.03895083 0.41064215 0.19112864
0001a0 16 40 19 40 00 00 00 00 d6 7c 40 41 bf 86 2a 41
       2.3945365 0.0 12.030478 10.657897
0001b0 e6 a0 db 3e 29 11 08 3c ae e3 1b 3c dc 4a 05 39
       0.42896193 0.008304873 0.009514732 0.00012711756
0001c0 72 25 f9 37 76 f0 7c 3d e3 39 1e 41 2e 34 82 3f
       2.970055e-05 0.06175276 9.8891325 1.0172174
0001d0 15 82 b4 3c 78 1c e3 40 0d 2b ef 3e 93 cc be 40
       0.022034684 7.097225 0.46712533 5.9624724
0001e0 00 00 00 00 14 08 39 3d 8d 3b 28 3c 81 9d 7a 3b
       0.0 0.04517372 0.010268104 0.0038240852
0001f0 54 1b 87 3a 99 8f 3a 36 d3 aa c1 39 b7 7c b5 40
       0.0010307827 2.7799745e-06 0.00036939103 5.671474
000200 b5 5b 3b 3b ec 33 e3 40 4a 92 d3 3c 0a be ed 3c
       0.0028588597 7.100088 0.025826592 0.029021282
000210 5c 84 f8 3c cb 8d 9a 40 b5 a5 82 3d 00 00 00 00
       0.030336551 4.8298087 0.06379262 0.0
000220 87 7f e6 3f 76 3c fe 3c b5 2c e5 3b 95 9f 74 39
       1.8007668 0.03103469 0.006993855 0.00023329102
000230 82 04 d5 3c a2 0b 30 3c 1c dd 72 3e 34 b6 40 3e
       0.026003126 0.010744961 0.23717159 0.18819505
000240 f4 b7 2a 36 d7 e9 99 3d 1d 97 8b 3d 15 30 da 3f
       2.5439049e-06 0.075153045 0.06815932 1.7045923
000250 00 00 00 00 3f 5e 2b 40 00 00 00 00 b2 93 a2 3b
       0.0 2.6776273 0.0 0.0049614543
000260 cb 9c 8a 39 0b 56 aa 37 00 00 00 00 15 70 91 3c
       0.0002643823 2.0305646e-05 0.0 0.01775364
000270 00 00 00 00 00 00 00 00 c2 d0 7b 36 b8 d6 dc 3c
       0.0 0.0 3.7523428e-06 0.026957855
000280 94 6d 21 37 92 89 3a 3b 00 00 00 00 e7 a5 9b 3c
       9.621861e-06 0.0028463346 0.0 0.019000007
000290 a8 18 d1 39 00 00 00 00 5c 12 f0 38 71 55 f3 37
       0.00039881957 0.0 0.000114475115 2.9007644e-05
0002a0 00 00 00 00 00 00 00 00 0d d3 9e 31 00 00 00 00
       0.0 0.0 4.622399e-09 0.0
0002b0 00 00 00 00 00 00 00 00 00 00 00 00 00 00 00 00
       0.0 0.0 0.0 0.0
0002c0 00 00 00 00 e8 d9 48 36 00 00 00 00 00 00 00 00
       0.0 2.992916e-06 0.0 0.0
0002d0 00 00 00 00 0d 43 07 33 00 00 00 00 00 00 00 00
       0.0 3.149312e-08 0.0 0.0
0002e0 00 00 00 00 00 00 00 00 00 00 00 00 00 00 00 00
       0.0 0.0 0.0 0.0
0002f0 00 00 00 00 00 00 00 00 00 00 00 00 00 00 00 00
       0.0 0.0 0.0 0.0
000300 00 00 00 00 00 00 00 00 15 18 46 3b 00 00 00 00
       0.0 0.0 0.0030226756 0.0
