models/DoubleDQNAgent/reward_for_end_state_all_data.pt (torch, 948846 bytes, 12 tensors)

base.em.weight f4 [14, 1]
00000000: 0000 0000 0e89 a5be dcd4 d4be 9226 783e
00000010: b658 b7bf 9c4f 14c0 eb6d b1be 8985 68bf
00000020: 88d3 e53f 2e66 9fbe a038 82bf 11ab fa3e
00000030: d034 18c0 a424 55bf
0.0 -0.32331127 -0.4156865 0.24233463 -1.4323947 -2.317359 -0.34654173 -0.9082876
1.7955179 -0.31132644 -1.017353 0.48958638 -2.3782234 -0.83259034

out.weight f4 [196, 256]
00000000: e38e 1bbd 105f 903c 2e2f 7ebb 58d0 f8bc
00000010: 5a57 fd3c 37db 2cbc 329c 6cbd 6296 25bd
00000020: adeb 7e3d ecaf ac3c f8c1 2dbd be58 263d
00000030: 7573 dfba e121 4ebd 6b1c a73c 0b28 9ebc
00000040: 8b7f aabc 2fc2 81bb 90ef 62bd 718b e13b
00000050: 7385 303d d58c c03b 299e 54ba 7c4d fa3c
00000060: 2aae 17bc 4938 74bc f18c d53b cda5 03ba
00000070: b886 033d 8490 98bc b1f4 5e3d 390f 073d
00000080: 0ab5 e6bc 832a 813c ddab a03b ce27 6e3d
00000090: 175e 313d 6481 223d 1b2c 2e3d 2532 b83c
000000a0: 97f8 c5bc 97f8 d9bc 2088 4c3d 144d 9a3c
000000b0: ee11 33bd cdfd e63c c19f 9abc 82a1 6ebd
000000c0: 90e2 783d f265 c93a 9234 b33c 8dcc 23bc
000000d0: a476 76bd 1d1e 653d 7847 cbbc c43d 83bd
000000e0: f55a 4a3d bc52 b9bc 9a06 05bd 6124 593d
000000f0: 7e28 d63c 9ba5 3fbd 8897 81bc bf04 0bbd
00000100: df3d 603d b4a9 7fbd bc19 2fbd 5e41 99bc
00000110: 6ee8 07bd 60c5 373d dcec 0ebd 70ec 52bc
00000120: 5b4e c03b 5fef fcbb fca9 093c 4d03 4ebc
00000130: aeeb 71bd 3af6 483d edb9 07bd 3611 033c
00000140: 69dc 043d baba af3c 799d 6ebd 2733 8e3b
00000150: d72a a73b a2fd 1c3d 0954 103d 4227 383d
00000160: 3eda 03bc f597 693d 26a0 d7bb e966 f1bc
00000170: fb54 e5bc 3125 603d ae2e 113d f6f2 c13c
00000180: 4b1b 1bbd 3d57 15bd dc93 c8bb b495 ad3b
00000190: 3aa2 80bd 74f8 373d 13ef 02bd 2f0d e7bc
000001a0: 1342 39bd 0f80 623c 531b bbbc fb7a 493d
000001b0: a175 6b3d 330e 9b3c fbc4 d9bc e14a 5e3d
000001c0: 8ed9 0e3d 3b29 7c3d cc21 3cbd e7dc 33bc
000001d0: a6be 443a a665 b9bc ced6 a2bb 8ebe ec3b
000001e0: 6aef 8c3d a02e 8abd 5637 56bd 5f22 d6bb
000001f0: 83ce 08bd 2493 1cbb 7b5b 58bd 0d6a 63bd
00000200: ebc5 373c 196e d4bc 692e 4e3c 047f 003d
00000210: 8c01 fbbc 62be 143d 5a90 d63c c6a6 92bc
00000220: faf2 42bd 579d cabc 1213 853d 8b07 2abd
00000230: 6684 3fbd fcb8 41bd 4756 353d e130 cd3c
00000240: caef efbc f1f8 823d edf9 4cbd 1dd3 80bd
00000250: 1ea3 13bd d70f 2e3d b34d 95bc de2e a6bc
00000260: eee6 92bc 8c45 2cbd e1ac 783d 45a9 e03b
00000270: aef4 83bc 0939 613d 1132 7ebd eae9 a8bc
00000280: 665b 6b3d a442 52bd e86f a93c 4055 15bd
00000290: d685 58bd f3ac 02bd af22 46bd ccd7 c2bc
000002a0: f0e2 26bd 3409 cdbc 1ce1 bdbc b969 0bbd
000002b0: fedc e7bc 1baf 49bb fe23 023b 00a7 14bc
000002c0: 1035 cebc 5fd5 283d 9a1f 4ebd 6661 783d
000002d0: 6322 eb3b 3435 95bc 5bbc 79bd e2a0 313c
000002e0: b3d7 6ebd 814a 333d b326 e2b9 e875 7dbd
000002f0: fc74 863d 2d74 e13a 6a9d cc3c b2d7 4c3b
00000300: d09d 723d 861f 1cbd 1842 57bd 148e f83c
00000310: 06ed 97bc fc7f 8e3b 1f22 44bd e2cf e23c
00000320: f0d0 8abd 1c2d 14bc 0e5e dfbc 4fab 7ebd
00000330: 669e 3e3c d1ed 88bc 8475 e43b e460 79bd
00000340: 2d4c 533d 4520 88bd 5f0c f9bc fec8 37bd
00000350: 976f 66bd 1009 b13c 65e7 67bc 6b98 b83c
00000360: 4bb0 993c f167 5e3d a3b4 cbbc bdf2 bbbc
00000370: 291b 6abd 68b3 88bc 7e0a 7c3d faa9 40bd
00000380: 1e1d 34bd 4d19 f53c 7684 d63c c5f3 1e3d
00000390: aa50 1fbd b82a ddbc f3df 523d 1ce2 38bd
000003a0: e220 2ebd dc93 eebc 94d9 88bd 27df 98bc
000003b0: 0918 3a3c a431 993c aaf7 0b3d 92d0 89bc
000003c0: 66ca 24bd c93f 50bd 3585 35ba 5162 2ebc
000003d0: e67f 41bd 7974 de3c 5331 a83c 8455 16bd
000003e0: 0816 58bd 4215 12bd 191c 17bd fbfd 37bd
000003f0: 408c 27bd e5c4 1a3d 4d99 2ebd e4a5 b93c
-0.037978064 0.017623454 -0.0038785446 -0.030372784 0.030925442 -0.010550312 -0.057766147 -0.04042662
0.062236477 0.02107998 -0.04242131 0.040611975 -0.0017047959 -0.05032528 0.020399293 -0.019306203
-0.02081277 -0.003959916 -0.055404246 0.006883078 0.043096017 0.0058761635 -0.0008110726 0.030554526
-0.009257833 -0.014905998 0.0065170457 -0.00050219597 0.0321109 -0.018623598 0.054432575 0.0329735
-0.028162498 0.015767341 0.0049033 0.05814343 0.04330262 0.039674178 0.04252253 0.022484848
-0.024166388 -0.026607795 0.049934506 0.018835582 -0.04371827 0.028197194 -0.018875005 -0.058259495
0.06076294 0.0015365465 0.021875653 -0.009997499 -0.06017174 0.05593692 -0.024814352 -0.06408265
0.04940315 -0.022622459 -0.032477 0.05301321 0.026142355 -0.046788793 -0.015819326 -0.033940073
0.054746505 -0.0624177 -0.04274915 -0.018707927 -0.033180647 0.044865966 -0.034893855 -0.012873754
0.0058687157 -0.007718965 0.008402344 -0.012574029 -0.059062652 0.049062945 -0.033136297 0.007999709
0.032436762 0.021451343 -0.058255646 0.004339594 0.0051015425 0.03832782 0.035236392 0.044959314
-0.008047638 0.057029683 -0.0065803705 -0.029468017 -0.027994623 0.05472297 0.035444908 0.023675423
-0.037867825 -0.03646015 -0.006121142 0.005297387 -0.06280942 0.044914678 -0.03196628 -0.028204529
-0.04522903 0.013824477 -0.022840178 0.04918955 0.057485227 0.01892767 -0.026583185 0.05427063
0.034875445 0.061562758 -0.04593067 -0.01097796 0.00075052155 -0.022631478 -0.0049694544 0.0072248643
0.06881602 -0.06747174 -0.052298866 -0.006534859 -0.03340007 -0.0023891414 -0.052821618 -0.05552106
0.011216621 -0.025931405 0.012584307 0.03137113 -0.030640386 0.036314376 0.026191879 -0.01790179
-0.047595 -0.024733229 0.06497778 -0.0415111 -0.046757124 -0.047295555 0.044271734 0.025047721
-0.029289145 0.06395138 -0.050043035 -0.06290267 -0.036044233 0.042495575 -0.018225526 -0.02028602
-0.017932381 -0.042058513 0.060711745 0.006856116 -0.016107883 0.054986034 -0.062059466 -0.020619351
0.05746021 -0.051333085 0.020683244 -0.036458254 -0.05286201 -0.03190322 -0.04837292 -0.02378454
-0.04074377 -0.025028802 -0.02317863 -0.03403637 -0.02830362 -0.0030774537 0.0019857879 -0.009073019
-0.025171787 0.04121911 -0.050323106 0.06063976 0.00717573 -0.018213846 -0.060970645 0.01084158
-0.058311176 0.043772224 -0.00043134912 -0.061880022 0.06565282 0.0017200761 0.024977405 0.0031256494
0.059232533 -0.038116 -0.052553266 0.030341186 -0.018545639 0.004348753 -0.047884103 0.027687017
-0.06778133 -0.009043958 -0.027266528 -0.06217509 0.011634445 -0.016714962 0.0069720168 -0.060883418
0.05158632 -0.0664678 -0.030401407 -0.044869415 -0.056258764 0.021610767 -0.01415429 0.022533616
0.01876082 0.054298345 -0.024866408 -0.022942895 -0.05715481 -0.01668711 0.061533444 -0.047037102
-0.04397308 0.02991929 0.02618621 0.038806695 -0.038895287 -0.026997909 0.051483106 -0.04513751
-0.04251183 -0.02912324 -0.06682125 -0.018661095 0.0113582695 0.018700428 0.034171738 -0.016823087
-0.040232085 -0.05084208 -0.00069244514 -0.010643558 -0.047241114 0.027155148 0.020531332 -0.036702648
-0.052755386 -0.035664804 -0.03689203 -0.04491995 -0.040905237 0.03778543 -0.042626668 0.02266211

out.bias f4 [196]
00000000: 017c 483d 134d c83b dbc1 4f3d 67d1 f63c
00000010: b547 2a3d 21b4 913d b1f8 e7bc 43a2 b63c
00000020: 4a9c 06bd f646 f3bb 6e1f cd3c b179 39bc
00000030: 7a7f 643d 27b6 c8bc 6bed 9fbc 9876 703d
00000040: 2122 8e3d ac5b 0f3a d5b5 dfbc 52c5 213d
00000050: e7c9 833c 5335 183d fb5e aa3c b6d2 f9bc
00000060: 1fe2 b2bc d25a 5ebc fc18 ebbc 4a42 713d
00000070: bac8 af3d 520b b23d a0b9 de3c 4bfc db3b
00000080: 06c5 a1bc 41d2 323d 2dc9 dd3c b2c2 953d
00000090: 11cb babc 9c21 02bc d676 103d 475d 983d
000000a0: 7bd6 413d 2562 db3c 7c24 ac3d 955d 413d
000000b0: d9bf 8d3c 6063 babc befa 583d 3d7c 1b3d
000000c0: 183e 9a3c af2f 7f3d 53ae 333d bd0a 3dbb
000000d0: f5d9 0e3c 6164 f73c 9774 3b3d e2cc 13bc
000000e0: 4ac1 213d 045f 153d e74b 733b 1900 243b
000000f0: 14f1 d9bc 002e 943c 8d45 203c 4199 e33b
00000100: 39ae ba3d d992 79bc daff 093d 0174 65bc
00000110: 3f3a 8538 4b7c bd3c 8e77 dfbc 88a4 c33c
00000120: f2eb 013d 31ac 0b3d 4cd0 db3c 6408 20bd
00000130: f9f5 a4bb 0644 0f3d dbec 99bb 0612 eebc
00000140: 490b 373c 67c0 9e3d f1eb 3b3d c755 a03c
00000150: d9c3 0e3d 4bc5 dc3b 6f4b ba3d e2e1 dbbc
00000160: 62d0 28bc eec7 c1bc 3844 6a3d 178d 0b3c
00000170: 8b5c 6c3b 78f8 d2bc 5df3 1f3d 93b3 47bc
00000180: 3b8d 1cbd 1252 833d 837a 003b 63a3 243d
00000190: 27e0 24bc 3873 a13d a9df e53c c273 3a3d
000001a0: 83f9 87bb f626 083d 6b38 563c 2766 313d
000001b0: 6ff3 633c 4613 6e3d c8a1 8d3d bc1e 173d
000001c0: f779 8b3d fa64 183d b0e6 903d 654e 01bd
000001d0: b388 983d 50a7 863d 0984 973d ad38 513d
000001e0: c833 053d 11a1 6e3d bd9c 103d 6393 edbb
000001f0: d4de 1d3d 29a1 44bd ea73 14bd 5753 e4bc
00000200: db1b 97bc 1568 3c3d 3c2e 583d 732f 823d
00000210: 34f2 d43c 2b29 ac3d b2f3 a5bb 56a4 15bd
00000220: 736c 563d 44fc f63b 707c 863d 296a e2bc
00000230: c8c9 033d cdc7 283d 8ab7 673d 595b 6d3d
00000240: 6a86 7d3d 133b aabc d646 09bc eb86 733d
00000250: 6223 6d3d 06b0 d5bc f46f c8bc e348 a13d
00000260: 4be6 133d d8cb 923c 17f2 9e3c 3989 32bd
00000270: 09be 20bd 7dc6 0a3d fff3 043d da50 da3c
00000280: 937b 8e3d 1c00 cf3c ae3a 1a3d 77da 52bc
00000290: 9ec0 c1bc 9cc6 2f3d 54de 35bb 5ef1 38bd
000002a0: aa5b 6cbc 7a5c c4bc 7b76 143d 76d6 1cbd
000002b0: 7f04 1f3d 4d4d 223a c339 05bd d8bc d9bb
000002c0: 1cbd 8a3b dfdc 793d 1a6d 273d 1048 6fbd
000002d0: b092 79bc 837b cbbc 3892 753d f0f8 50bc
000002e0: 7290 573d 5270 793d 98ad 073c 9c85 e4bc
000002f0: 0adc 693d 8ebf 3ebd 5d0b 62bd b28b 66bd
00000300: 2a0f 6b3d 00cb 67bc 8034 3dbd d848 31bc
0.048946384 0.0061127036 0.050721984 0.030129148 0.04157229 0.07114435 -0.028316827 0.02229417
-0.032863893 -0.0074242307 0.0250394 -0.011320517 0.055785634 -0.02450092 -0.01952239 0.05870685
0.06940103 0.0005468677 -0.027308384 0.03949482 0.016087485 0.03716023 0.020797243 -0.030495983
-0.021836339 -0.013571458 -0.028698437 0.05890111 0.085832074 0.086935654 0.027188122 0.0067134253
-0.019747268 0.043657545 0.027073467 0.07312526 -0.022801908 -0.007942583 0.03526958 0.07439666
0.047323685 0.026780197 0.08405396 0.047208387 0.017303394 -0.022752464 0.0529735 0.03796028
0.018828437 0.062301334 0.04386742 -0.0028845512 0.008718957 0.030199232 0.045765486 -0.009021016
0.039490975 0.036467567 0.0037124099 0.0025024472 -0.026604213 0.01808834 0.009782207 0.0069457595
0.091152616 -0.015232765 0.033691265 -0.014004708 6.3527834e-05 0.023130557 -0.027278688 0.023882166
0.031719156 0.03409976 0.026832722 -0.039070502 -0.005034205 0.03497698 -0.004697425 -0.029061329
0.011172124 0.077515416 0.045879308 0.019572152 0.034854744 0.0067373863 0.09096419 -0.026841108
-0.010303589 -0.023654904 0.057193965 0.008517525 0.0036065902 -0.025753245 0.03905045 -0.01218881
-0.038220625 0.06412138 0.0019604273 0.04019488 -0.010063208 0.07883304 0.028060751 0.04552055
-0.004149617 0.03324028 0.0130749745 0.04331031 0.01391302 0.05812385 0.06915623 0.036894545
0.06810372 0.037205674 0.0707525 -0.031568903 0.07447948 0.06574881 0.073982306 0.05107944
0.032520086 0.058259074 0.035305727 -0.007250236 0.038542584 -0.048005257 -0.036243357 -0.02787177
-0.0184459 0.045997698 0.052778468 0.063567065 0.025994398 0.0840629 -0.005064451 -0.036533676
0.05234952 0.0075373966 0.06566703 -0.027638512 0.032174855 0.04120617 0.05657152 0.057948444
0.061895765 -0.020780122 -0.008378705 0.05945484 0.05789507 -0.026084911 -0.024467446 0.0787523
0.036108296 0.017919466 0.019402547 -0.043587897 -0.03924373 0.0338807 0.032459255 0.026649881
0.06957164 0.025268607 0.037653618 -0.012869469 -0.023651417 0.042914018 -0.0027750926 -0.04515206
-0.014426151 -0.023969878 0.036245804 -0.038290463 0.038822647 0.0006191328 -0.03252579 -0.0066448264
0.0042339694 0.061001655 0.04087553 -0.058418334 -0.015232727 -0.024839168 0.0599539 -0.012754664
0.05262799 0.060898133 0.008281134 -0.027895741 0.05709461 -0.0465694 -0.055186618 -0.056285568
0.05738751 -0.01414752 -0.046192646 -0.01082059

base.em.weight f4 [14, 1]
00000000: 0000 0000 1488 a5be 29d5 d4be a324 783e
00000010: 7358 b7bf 9c4f 14c0 026d b1be 0385 68bf
00000020: 45d3 e53f 2265 9fbe 5d38 82bf 2baa fa3e
00000030: d034 18c0 2d24 55bf
0.0 -0.32330382 -0.41568878 0.24232726 -1.4323868 -2.317359 -0.3465348 -0.9082796
1.7955099 -0.31131846 -1.0173451 0.48957953 -2.3782234 -0.83258325

out.weight f4 [196, 256]
00000000: 278d 1bbd 8b62 903c 5313 7ebb ccd3 f8bc
00000010: ee53 fd3c 3bd4 2cbc e79d 6cbd a694 25bd
00000020: 0cea 7e3d 7eac ac3c 3cc0 2dbd 0c57 263d
00000030: 7baa dfba 9523 4ebd f718 a73c 3d2b 9ebc
00000040: fb82 aabc 3cb4 81bb 4af1 62bd 947d e13b
00000050: c083 303d 847f c03b 050c 55ba f850 fa3c
00000060: e0b4 17bc 273f 74bc e39a d53b 4436 03ba
00000070: 0085 033d 088d 98bc f7f2 5e3d f510 073d
00000080: 8eb1 e6bc fe2d 813c 3b9e a03b 1426 6e3d
00000090: d35f 313d af7f 223d 8b2a 2e3d ad2e b83c
000000a0: 1bf5 c5bc 0bfc d9bc dc89 4c3d 9050 9a3c
000000b0: a813 33bd 66fa e63c 459c 9abc c69f 6ebd
000000c0: dbe0 783d b49d c93a 1e31 b33c 91c5 23bc
000000d0: e874 76bd 651c 653d e54a cbbc 9f3e 83bd
000000e0: b15c 4a3d 404f b9bc 3d08 05bd c222 593d
000000f0: 3325 d63c dfa3 3fbd 0f94 81bc 6206 0bbd
00000100: 253c 603d f8a7 7fbd 0118 2fbd d044 99bc
00000110: 21ea 07bd 1cc7 373d 0eee 0ebd 40f3 52bc
00000120: 4e5c c03b 33fd fcbb f8b0 093c 51fc 4dbc
00000130: f2e9 71bd 97f4 483d 31b8 07bd 3218 033c
00000140: 25de 043d 35be af3c bd9b 6ebd 1a41 8e3b
00000150: cb38 a73b e8fb 1c3d c555 103d fe28 383d
00000160: 42d3 03bc 5296 693d faad d7bb 6f63 f1bc
00000170: 7f51 e5bc 7823 603d f42c 113d 83ef c13c
00000180: 8f19 1bbd 8155 15bd 30a1 c8bb a1a3 ad3b
00000190: 5da1 80bd 30fa 373d c7f0 02bd b309 e7bc
000001a0: 5740 39bd 3279 623c c41e bbbc b77c 493d
000001b0: 5c77 6b3d bf0a 9b3c 7fc1 d9bc 9d4c 5e3d
000001c0: 4adb 0e3d 8627 7c3d 1120 3cbd ebd5 33bc
000001d0: cb4f 443a 2a62 b9bc 32e4 a2bb cab0 ec3b
000001e0: 96ee 8c3d 742f 8abd fe38 56bd 6b14 d6bb
000001f0: 3dd0 08bd aaae 1cbb bf59 58bd 5168 63bd
00000200: 01bf 373c 9f6a d4bc 6535 4e3c c080 003d
00000210: 10fe fabc a8bc 143d ef8c d63c 34aa 92bc
00000220: 3ef1 42bd bea0 cabc ef13 853d cf05 2abd
00000230: 1b86 3fbd 40b7 41bd 0358 353d 5d34 cd3c
00000240: 3df3 efbc cef9 823d 64fb 4cbd 40d2 80bd
00000250: d8a4 13bd d20e 2e3d 2651 95bc 4e32 a6bc
00000260: 59ea 92bc 4047 2cbd 9dae 783d 969b e03b
00000270: 24f8 83bc c53a 613d 5530 7ebd 71e6 a8bc
00000280: 225d 6b3d e840 52bd d96c a93c 8553 15bd
00000290: 8687 58bd 37ab 02bd f320 46bd 50d4 c2bc
000002a0: 34e1 26bd a60c cdbc a2dd bdbc fd67 0bbd
000002b0: 69e0 e7bc aeca 49bb df3f 023b 05a0 14bc
000002c0: 7a38 cebc 1bd7 283d de1d 4ebd b95f 783d
000002d0: 5630 eb3b bc31 95bc 9fba 79bd dea7 313c
000002e0: f7d5 6ebd ca48 333d 9f02 e3b9 2c74 7dbd
000002f0: 1f74 863d eeab e13a fc99 cc3c 9ebc 4c3b
00000300: 1b9c 723d ca1d 1cbd 5c40 57bd c38a f83c
00000310: 8ae9 97bc ef8d 8e3b d123 44bd 7bcc e23c
00000320: 13d0 8abd 2726 14bc 925a dfbc 93a9 7ebd
00000330: 62a5 3e3c 22f1 88bc 7683 e43b 285f 79bd
00000340: 754a 533d 681f 88bd ca0f f9bc 43c7 37bd
00000350: db6d 66bd 9a05 b13c 4dee 67bc fc94 b83c
00000360: c5b3 993c ad69 5e3d 13b8 cbbc 1ef6 bbbc
00000370: 6d19 6abd ecaf 88bc c408 7c3d 3ea8 40bd
00000380: b21e 34bd c71c f53c f287 d63c 81f5 1e3d
00000390: 4a52 1fbd 1a2e ddbc afe1 523d d6e3 38bd
000003a0: 9922 2ebd 3597 eebc 6cda 88bd 8ee2 98bc
000003b0: 1d11 3a3c 1f35 993c 65f9 0b3d fbd3 89bc
000003c0: acc8 24bd 0d3e 50bd 66f3 35ba 2c69 2ebc
000003d0: a081 41bd 0c71 de3c cf34 a83c c853 16bd
000003e0: 4c14 58bd b816 12bd 5d1a 17bd b5ff 37bd
000003f0: f28d 27bd a1c6 1a3d 079b 2ebd 60a9 b93c
-0.03797641 0.017625114 -0.0038768842 -0.03037443 0.03092381 -0.010548647 -0.057767775 -0.040424965
0.062234923 0.021078344 -0.042419657 0.040610358 -0.0017064357 -0.050326902 0.020397646 -0.019307727
-0.02081441 -0.003958253 -0.055405892 0.006881425 0.043094397 0.005874576 -0.0008127096 0.030556187
-0.009259433 -0.014907635 0.006518708 -0.00050053396 0.03210926 -0.018621936 0.054430928 0.032975156
-0.028160837 0.015769001 0.004901675 0.058141783 0.043304276 0.03967255 0.04252104 0.022483194
-0.024164727 -0.026609441 0.04993616 0.018837243 -0.043719918 0.028195571 -0.018873343 -0.05825784
0.060761314 0.0015382082 0.021874007 -0.009995834 -0.060170084 0.055935282 -0.024815986 -0.064084284
0.049404804 -0.022620797 -0.03247856 0.053011663 0.026140785 -0.04678714 -0.01581767 -0.033941634
0.05474486 -0.062416047 -0.0427475 -0.01870957 -0.033182267 0.04486762 -0.034894995 -0.012875378
0.0058703786 -0.0077206134 0.008404009 -0.012572364 -0.059061 0.049061384 -0.033134643 0.008001374
0.032438416 0.021453002 -0.058253992 0.004341257 0.005103206 0.038326174 0.035238046 0.04496097
-0.008045973 0.057028122 -0.006582019 -0.029466359 -0.027992962 0.054721326 0.03544326 0.023673778
-0.03786617 -0.036458496 -0.0061227307 0.005299047 -0.062807776 0.04491633 -0.031967904 -0.028202867
-0.045227375 0.0138228405 -0.022841819 0.049191203 0.057486877 0.018926023 -0.026581524 0.054272283
0.0348771 0.06156113 -0.04592902 -0.010976295 0.0007488697 -0.022629816 -0.0049710507 0.0072232233
0.06881444 -0.06747332 -0.052300446 -0.0065331957 -0.033401717 -0.0023907819 -0.052819964 -0.055519406
0.0112149725 -0.025929747 0.012585972 0.031372786 -0.030638725 0.03631273 0.02619025 -0.017903425
-0.047593348 -0.024734851 0.06497943 -0.041509446 -0.046758752 -0.0472939 0.044273388 0.025049383
-0.02929079 0.06395303 -0.050044432 -0.06290102 -0.03604588 0.042494603 -0.018227171 -0.020287659
-0.017934011 -0.042060137 0.0607134 0.006854485 -0.016109534 0.054987688 -0.06205781 -0.020617696
0.057461865 -0.05133143 0.020681785 -0.036456604 -0.05286362 -0.031901564 -0.048371267 -0.02378288
-0.040742114 -0.025030445 -0.023176972 -0.034034718 -0.02830525 -0.0030790973 0.0019874496 -0.009071355
-0.025173414 0.041220766 -0.050321452 0.060638163 0.007177393 -0.018212192 -0.06096899 0.010843245
-0.05830952 0.04377059 -0.00043298767 -0.06187837 0.06565117 0.0017217377 0.02497577 0.0031240354
0.059230905 -0.038114347 -0.052551612 0.030339604 -0.018543977 0.004350416 -0.04788572 0.027685395
-0.06777968 -0.009042299 -0.027264867 -0.062173437 0.01163611 -0.016716544 0.006973679 -0.060881764
0.05158468 -0.06646615 -0.030403037 -0.044867765 -0.05625711 0.021609116 -0.014155936 0.022531979
0.018762479 0.0543 -0.024868047 -0.022944506 -0.057153154 -0.016685449 0.061531797 -0.04703545
-0.043974586 0.029920949 0.02618787 0.03880835 -0.038896836 -0.026999522 0.05148476 -0.045139156
-0.042513464 -0.029124836 -0.06682286 -0.018662717 0.011356619 0.018702088 0.034173388 -0.016824713
-0.040230438 -0.050840426 -0.0006940871 -0.010645192 -0.04724276 0.027153514 0.020532994 -0.036700994
-0.05275373 -0.035666198 -0.036890376 -0.044921596 -0.040906854 0.037787084 -0.042628314 0.022663772

out.bias f4 [196]
00000000: bd7d 483d 2b1a c83b d0c1 4f3d 34d1 f63c
00000010: 8742 2a3d 50b4 913d 4e07 e8bc ac98 b63c
00000020: 919a 06bd 1e47 f3bb 1914 cd3c 6487 39bc
00000030: 7e7a 643d 27b6 c8bc 1602 a0bc 9876 703d
00000040: 9f1e 8e3d 5f09 0e3a d7c1 dfbc 2bbe 213d
00000050: f6bd 833c a939 183d 1c54 aa3c 41d6 f9bc
00000060: d2e4 b2bc 4764 5ebc ac20 ebbc b540 713d
00000070: 7cc8 af3d 5a08 b23d a0b9 de3c 85d8 db3b
00000080: 94d1 a1bc d0ca 323d e5ba dd3c b8be 953d
00000090: e0d6 babc 4c39 02bc 6873 103d 455a 983d
000000a0: 49d1 413d 2562 db3c 2d21 ac3d 8658 413d
000000b0: 15b5 8d3c 6063 babc 8001 593d ea7b 1b3d
000000c0: 9b30 9a3c 362b 7f3d 42a9 333d 274a 3dbb
000000d0: e5b7 0e3c a95a f73c c170 3b3d 9ad9 13bc
000000e0: a8bb 213d 1358 153d 3ddb 723b 2f66 243b
000000f0: 14f1 d9bc ed25 943c 4c26 203c 615b e33b
00000100: 3eac ba3d 0c8d 79bc bdfc 093d d580 65bc
00000110: 348f 7b38 dc78 bd3c 6d80 dfbc f096 c33c
00000120: ede4 013d 58ae 0b3d eec0 db3c 6408 20bd
00000130: 9e2c a5bb 8340 0f3d 511d 9abb 0418 eebc
00000140: 96e8 363c 16c0 9e3d 26ea 3b3d c755 a03c
00000150: 45bb 0e3d 0a99 dc3b 1a48 ba3d 27f0 dbbc
00000160: 81f0 28bc 84d3 c1bc 3844 6a3d e076 0b3c
00000170: 46ec 6b3b ecfe d2bc 30ee 1f3d 73c1 47bc
00000180: 3c90 1cbd 0d51 833d b528 003b bc9d 243d
00000190: f9ff 24bc e170 a13d e4da e53c 1d70 3a3d
000001a0: f811 88bb f626 083d 1d29 563c 6f5f 313d
000001b0: d0e6 633c f50d 6e3d 15a0 8d3d bc1e 173d
000001c0: a07a 8b3d fa64 183d dde3 903d 0a53 01bd
000001d0: 1d88 983d 84a4 863d 2082 973d d22d 513d
000001e0: c833 053d 7a9b 6e3d b696 103d 13b6 edbb
000001f0: fddc 1d3d 29a1 44bd ca78 14bd eb57 e4bc
00000200: 6224 97bc b065 3c3d 1928 583d 3f2d 823d
00000210: 6de8 d43c d425 ac3d 7807 a6bb 56a4 15bd
00000220: 0969 563d 6fdc f63b a87a 863d 936d e2bc
00000230: efc2 033d 32c5 283d cbb4 673d 595b 6d3d
00000240: 6d81 7d3d 133b aabc 265c 09bc df84 733d
00000250: 701f 6d3d 06b0 d5bc f46f c8bc 5546 a13d
00000260: 50e3 133d 9ac8 923c 17f2 9e3c 9f8e 32bd
00000270: 09be 20bd 7dc6 0a3d fff3 043d da50 da3c
00000280: 937b 8e3d fdf7 ce3c ae3a 1a3d 77da 52bc
00000290: c0c8 c1bc 9cc6 2f3d 54de 35bb b7f3 38bd
000002a0: aa5b 6cbc 7a5c c4bc 7b76 143d 76d6 1cbd
000002b0: 7f04 1f3d 71b1 213a c339 05bd d8bc d9bb
000002c0: 1f7d 8a3b dfdc 793d 1a6d 273d 1048 6fbd
000002d0: b092 79bc 837b cbbc 3892 753d f0f8 50bc
000002e0: 7290 573d 5270 793d 98ad 073c 9c85 e4bc
000002f0: 0adc 693d 8ebf 3ebd 5d0b 62bd b28b 66bd
00000300: 2a0f 6b3d 00cb 67bc 8034 3dbd d848 31bc
0.04894804 0.006106635 0.050721943 0.030129053 0.04156735 0.0711447 -0.028323796 0.022289596
-0.03286225 -0.0074242493 0.025033997 -0.011323784 0.05578088 -0.02450092 -0.019532245 0.05870685
0.06939434 0.00054182665 -0.02731411 0.039488 0.016081791 0.037164364 0.02079206 -0.030497672
-0.021837626 -0.013573713 -0.028702103 0.0588996 0.08583161 0.08692999 0.027188122 0.0067091607
-0.019753255 0.04365045 0.027066657 0.07311767 -0.022807539 -0.007948231 0.03526631 0.074390925
0.04731873 0.026780197 0.08404765 0.047203563 0.01729826 -0.022752464 0.052979946 0.03795997
0.018822005 0.06229707 0.04386259 -0.002888331 0.008710836 0.030194597 0.045761827 -0.009024048
0.039485604 0.036460947 0.0037056946 0.002508532 -0.026604213 0.01808449 0.009774756 0.0069383834
0.09114884 -0.015231382 0.033688296 -0.014007767 5.997643e-05 0.02312892 -0.027282918 0.023875684
0.03171246 0.034101814 0.026825394 -0.039070502 -0.005040719 0.034973633 -0.004703202 -0.029064186
0.011163851 0.07751481 0.0458776 0.019572152 0.034846563 0.006732111 0.090957835 -0.026847912
-0.010311247 -0.023660429 0.057193965 0.008512229 0.0035998984 -0.025756322 0.039045513 -0.012192118
-0.03822349 0.064119436 0.0019555513 0.04018949 -0.010070794 0.07882858 0.028058477 0.045517076
-0.0041525327 0.03324028 0.013071326 0.043303903 0.01391001 0.05811878 0.06915299 0.036894545
0.06810498 0.037205674 0.070747115 -0.031573333 0.074478365 0.065743476 0.07397866 0.05106909
0.032520086 0.058253743 0.03529998 -0.007254371 0.03854083 -0.048005257 -0.036248006 -0.027873954
-0.018449966 0.045995414 0.052772615 0.06356286 0.025989735 0.08405653 -0.0050668083 -0.036533676
0.052346263 0.007533602 0.065663636 -0.02764014 0.032168325 0.041203685 0.056568902 0.057948444
0.06189101 -0.020780122 -0.008383786 0.059452888 0.05789131 -0.026084911 -0.024467446 0.07874743
0.036105454 0.01791792 0.019402547 -0.043593045 -0.03924373 0.0338807 0.032459255 0.026649881
0.06957164 0.025264734 0.037653618 -0.012869469 -0.023655295 0.042914018 -0.0027750926 -0.0451543
-0.014426151 -0.023969878 0.036245804 -0.038290463 0.038822647 0.00061681034 -0.03252579 -0.0066448264
0.0042263414 0.061001655 0.04087553 -0.058418334 -0.015232727 -0.024839168 0.0599539 -0.012754664
0.05262799 0.060898133 0.008281134 -0.027895741 0.05709461 -0.0465694 -0.055186618 -0.056285568
0.05738751 -0.01414752 -0.046192646 -0.01082059

exp_avg f4 [14, 1]
00000000: 0000 0000 1940 4c3b 45dd a0b9 9188 2fba
00000010: e137 a43b 8665 db3b 2821 1d3b 4824 913b
00000020: 743a 67bb 2071 2a3b 771d 2d3b 1ceb 70ba
00000030: 4def 373b d9b2 5239
0.0 0.0031166135 -0.00030682437 -0.000669607 0.005011544 0.006695452 0.0023976061 0.004429374
-0.0035282644 0.002600737 0.0026415267 -0.00091903075 0.0028066218 0.00020093787

exp_avg_sq f4 [14, 1]
00000000: 0000 0000 2cf7 0c37 a250 7435 99ed f134
00000010: 903d ae37 3b5e 1238 d9a5 be36 740f 8637
00000020: 20e0 f336 8588 9e36 57fa dc36 7cac 5335
00000030: 7755 e836 3557 2e33
0.0 8.4021995e-06 9.101442e-07 4.5062623e-07 2.0771084e-05 3.489687e-05 5.6817485e-06 1.598124e-05
7.268056e-06 4.72466e-06 6.5856543e-06 7.8854623e-07 6.924088e-06 4.0591846e-08

exp_avg f4 [196, 256]
00000000: e32f 9b37 8acd ab37 2d65 0537 2775 c3b4
00000010: 4a86 2fb4 f4d5 c936 bb28 27b4 7f84 8037
00000020: a4d2 4cb3 581b 44b4 3b91 8f37 b795 bbb3
00000030: 5ffb 69b4 e460 03b4 65f7 aab4 736b 0cb3
00000040: 17ac 5cb4 266e 9d37 276b 78b4 86fd 04b5
00000050: 1790 eab3 56ba 87b3 c3e7 52b4 f833 ae37
00000060: 6709 a3b3 bd52 55b4 1815 4a37 4b92 c237
00000070: 6c84 5fb4 f28d b137 cde1 95b4 db9c 1338
00000080: 43b6 0338 49be 7b37 d118 06b4 c617 95b4
00000090: b947 5f37 8e59 0cb4 0b1c f0b2 f99d 08b5
000000a0: f6b5 e137 851c dfb4 07b1 2b38 49eb 4737
000000b0: e8eb 8bb4 2126 f2b3 679d 5337 c7ca cc37
000000c0: 0c3b 0cb4 9bab c537 d643 ccb4 e40c af37
000000d0: 073a 0238 435c 5eb4 d914 3bb4 ead8 53b4
000000e0: 76a8 6537 e8bb 3337 a894 61b3 6d5b 1db3
000000f0: fb13 59b3 6a07 6f37 d7a0 d635 363d 5cb3
00000100: f3e4 c3b4 ee94 3938 b435 8e36 8012 87b4
00000110: 83e8 f0b3 259d 5637 3e69 eab1 2c05 12b4
00000120: 2d70 4c37 113f beb4 90c8 0537 ddf7 7b37
00000130: f342 6637 0d46 57b3 0656 b137 9ca5 0438
00000140: 8832 8437 490e bb36 6696 0f38 f541 6a37
00000150: f237 aa37 3cfe beb4 fe50 1938 70fb 1d37
00000160: 0713 6037 9b9c 60b3 1280 beb4 ed38 5336
00000170: cce5 ac36 a5f5 6db4 6ada 8ab4 9f2e 97b4
00000180: 12c4 d837 baf7 e236 769f 8db3 366d 2136
00000190: 2c6b 1438 ef0a ee37 e95e 00b4 8c32 fe37
000001a0: fa12 8537 6b6a 50b4 0a01 80b4 e8e0 4e38
000001b0: 9f5d 9536 b097 bdb4 97f8 4638 feda b436
000001c0: 979b 1037 4235 16b4 c7e9 b436 18fd 2138
000001d0: edec 03b5 b31e 1d38 15bc 99b3 2178 7cb4
000001e0: 1dca b6b3 37d8 9fb3 3f6f 8ab3 40e3 4938
000001f0: 74a8 eab4 827f 71b4 3275 5338 496e ec37
00000200: 2b8e d2b4 d2b1 0637 43ba 0437 455f b837
00000210: c8b1 5237 45c0 b5b4 f9d2 23b4 54f8 3ab4
00000220: 56cb 0b37 b8fc f6b3 b9cc 5d35 e4d0 a937
00000230: 1804 12b4 d635 1538 6237 8637 39d7 ce37
00000240: 34b0 98b4 68e5 ba37 8f4e 89b2 afdb be37
00000250: e365 03b5 0511 94b1 a536 94b4 0a07 60b4
00000260: f049 1fb4 6eab 01b4 e382 9f37 86d0 21b4
00000270: 77ca e4b4 01c6 da37 4860 1938 142a 4536
00000280: 48c3 8837 b613 c636 4498 afb2 65ed 3b36
00000290: 3282 afb3 7571 b737 5197 5437 2749 5737
000002a0: 2922 d237 800f 86b4 3fb2 6a36 df08 cb37
000002b0: 7d73 24b4 c426 8db4 72aa 0538 42d7 5536
000002c0: 14db 19b4 c898 0238 2eb8 ba37 abf9 a0b3
000002d0: b153 0537 aed3 d435 1654 8837 473b d737
000002e0: 0b18 5438 1b9e 51b4 7b94 60b4 a1bc e637
000002f0: 392d d2b4 9c49 ac36 a7c8 43b4 d120 d5b3
00000300: c453 19b4 789b 8037 2d5f 3238 7168 7cb3
00000310: ceb6 9737 b656 8637 b5f7 d0b3 647c f5b3
00000320: 77b8 2937 ee68 ef35 6a60 0d38 1942 3837
00000330: e1c0 e737 cad3 78b3 d952 2c37 d1b8 4038
00000340: 3526 63b4 968a 7f37 7714 1fb4 c216 1537
00000350: cdfd fe37 39dc fcb4 8977 b4b4 1dba 4cb4
00000360: 153f 4936 0528 a337 6b55 5eb4 eef8 b4b3
00000370: e1a4 1f38 e588 8738 9772 9ab4 950a 8337
00000380: 8228 fdb2 28df 2d37 ba79 d137 348c ff36
00000390: e15e 25b3 c312 b9b3 a766 4437 b5f3 d3b4
000003a0: 6037 39b4 6e98 98b3 0ba4 00b4 1082 07b4
000003b0: dd3b eab4 96d7 7d37 0d07 5536 aaf7 17b4
000003c0: 6561 0c35 4fba ca36 2603 83b4 12e7 43b4
000003d0: fc69 f9b4 a693 33b4 66f5 2e37 75e1 f637
000003e0: 6701 2437 8f48 88b2 0dc8 ea37 5d6a 9eb4
000003f0: d8a7 c2b3 a96e 3f37 1860 cab4 fd35 7738
1.8499739e-05 2.04805e-05 7.950975e-06 -3.640682e-07 -1.6346999e-07 6.015174e-06 -1.5567905e-07 1.5320487e-05
-4.7689028e-08 -1.826387e-07 1.7114557e-05 -8.735099e-08 -2.1791264e-07 -1.2235574e-07 -3.184497e-07 -3.2694015e-08
-2.0551703e-07 1.876715e-05 -2.3135782e-07 -4.9542757e-07 -1.0922684e-07 -6.320322e-08 -1.9642088e-07 2.0766616e-05
-7.591989e-08 -1.9867271e-07 1.20450495e-05 2.3194725e-05 -2.0816668e-07 2.1166143e-05 -2.7917704e-07 3.5193614e-05
3.140258e-05 1.500507e-05 -1.248875e-07 -2.777071e-07 1.3308535e-05 -1.3071096e-07 -2.795243e-08 -5.089383e-07
2.6906822e-05 -4.1557738e-07 4.0934447e-05 1.1916106e-05 -2.6062412e-07 -1.1275939e-07 1.2613228e-05 2.441312e-05
-1.3059997e-07 2.356414e-05 -3.8047318e-07 2.0867628e-05 3.1048457e-05 -2.0708926e-07 -1.7423316e-07 -1.9729819e-07
1.36886865e-05 1.0712982e-05 -5.2522097e-08 -3.6637562e-08 -5.0542422e-08 1.4247236e-05 1.5991053e-06 -5.1278413e-08
-3.6488163e-07 4.424614e-05 4.2381816e-06 -2.515917e-07 -1.12181645e-07 1.2791982e-05 -6.822261e-09 -1.3599191e-07
1.21854655e-05 -3.5436145e-07 7.974115e-06 1.5018476e-05 1.3724656e-05 -5.01223e-08 2.1140102e-05 3.162549e-05
1.5759157e-05 5.5746973e-06 3.4233926e-05 1.3962844e-05 2.029163e-05 -3.5575238e-07 3.6553472e-05 9.416472e-06
1.3355871e-05 -5.2296496e-08 -3.548344e-07 3.1474585e-06 5.1527513e-06 -2.216171e-07 -2.586342e-07 -2.8159863e-07
2.5840509e-05 6.764164e-06 -6.59483e-08 2.4054439e-06 3.538576e-05 2.8376902e-05 -1.1955457e-07 3.0302697e-05
1.5863672e-05 -1.9410224e-07 -2.3842614e-07 4.9323688e-05 4.451445e-06 -3.531436e-07 4.7438396e-05 5.389912e-06
8.619295e-06 -1.3989214e-07 5.3916333e-06 3.8621103e-05 -4.9146075e-07 3.7460308e-05 -7.1588296e-08 -2.3513032e-07
-8.5117996e-08 -7.443344e-08 -6.446361e-08 4.8133777e-05 -4.3708462e-07 -2.2491261e-07 5.0415467e-05 2.8184748e-05
-3.921899e-07 8.028424e-06 7.911181e-06 2.1978873e-05 1.2558368e-05 -3.3853772e-07 -1.525731e-07 -1.7412941e-07
8.3323885e-06 -1.1501237e-07 8.2626826e-07 2.0243642e-05 -1.3598799e-07 3.5574507e-05 1.5999834e-05 2.4657335e-05
-2.844041e-07 2.2279753e-05 -1.5984623e-08 2.2752063e-05 -4.894957e-07 -4.309302e-09 -2.7606907e-07 -2.0864186e-07
-1.4834927e-07 -1.2076427e-07 1.9015226e-05 -1.5070154e-07 -4.2615622e-07 2.6079828e-05 3.656771e-05 2.937978e-06
1.6303398e-05 5.9031545e-06 -2.0441924e-08 2.8003353e-06 -8.172755e-08 2.1868133e-05 1.2671416e-05 1.2832031e-05
2.5049858e-05 -2.4970723e-07 3.497247e-06 2.4203617e-05 -1.5315705e-07 -2.6291502e-07 3.186841e-05 3.186477e-06
-1.4328936e-07 3.1136704e-05 2.2258693e-05 -7.495995e-08 7.946904e-06 1.5856838e-06 1.6251619e-05 2.56576e-05
5.056713e-05 -1.952216e-07 -2.0915643e-07 2.7505974e-05 -3.9148452e-07 5.1345687e-06 -1.8233787e-07 -9.924555e-08
-1.4279709e-07 1.5331185e-05 4.2527146e-05 -5.876831e-08 1.8085728e-05 1.6014423e-05 -9.7308124e-08 -1.1431328e-07
1.0116134e-05 1.7837426e-06 3.3706812e-05 1.0982644e-05 2.7627162e-05 -5.793462e-08 1.0271288e-05 4.594849e-05
-2.1154922e-07 1.52314515e-05 -1.4815474e-07 8.886391e-06 3.0397345e-05 -4.709889e-07 -3.3614586e-07 -1.9066688e-07
2.9988053e-06 1.944975e-05 -2.0706436e-07 -8.427183e-08 3.806211e-05 6.4628e-05 -2.876811e-07 1.5621345e-05
-2.9471497e-08 1.0363561e-05 2.4971425e-05 7.615914e-06 -3.8503348e-08 -8.6181466e-08 1.1706411e-05 -3.9479133e-07
-1.7249613e-07 -7.1057784e-08 -1.1980607e-07 -1.2620171e-07 -4.3629453e-07 1.513017e-05 3.1743577e-06 -1.415307e-07
5.229579e-07 6.0417583e-06 -2.4402942e-07 -1.8244853e-07 -4.6456978e-07 -1.6724388e-07 1.04283445e-05 2.9430472e-05
9.775488e-06 -1.586548e-08 2.798813e-05 -2.9507183e-07 -9.0643596e-08 1.1410252e-05 -3.769535e-07 5.893967e-05

exp_avg_sq f4 [196, 256]
00000000: b8fb 8331 7cce a131 190c 4330 705b d12b
00000010: b0cc a82a 1832 df2f c824 992a 16ff 3431
00000020: 7fe3 e528 72ca d22a dce4 6131 a5cd c029
00000030: 22f8 152b 4f1f 3d2a 6a24 a02b 3666 5828
00000040: d272 052b 78cb 8731 460c 292b 0ed4 412c
00000050: cbb8 162a c9d8 4929 9eb9 f32a d243 a631
00000060: 27b9 9129 db59 f92a 94cd df30 4e76 cf31
00000070: fae7 082b 55c1 ac31 5740 762b d5d0 6e32
00000080: 8f20 3e32 53a9 2d31 8af1 442a 349d 732b
00000090: bfa0 0831 47e7 572a b92c 1e28 f989 4c2c
000000a0: 2299 0b32 fb60 082c b286 a132 33fd da30
000000b0: 6599 562b eba3 202a 9458 f530 07cb e531
000000c0: 2578 572a cb16 d631 cea1 e42b e7e1 a731
000000d0: 63e6 3932 9b79 072b 7fd6 bf2a 4ef8 f52a
000000e0: 817e 1031 c0f9 b030 d58e 0b29 e4b6 8728
000000f0: c8fd 0029 497b 1c31 5462 fc2d 54dd 0429
00000100: 2746 d22b 1cb9 bc32 91b9 5d2f 37f7 472b
00000110: ea0a 1f2a 5a66 fc30 2920 1726 27a6 692a
00000120: 14f5 e430 f555 c62b da2b 4430 daf3 2d31
00000130: de45 1131 2df9 fd28 7059 ac31 3ad9 4032
00000140: 9f91 3f31 a0a9 bf2f 01f6 6132 7159 1631
00000150: 95c0 9e31 9de3 c72b 6ece 8032 f1d2 8830
00000160: 4d8b 0931 6b4a 0a29 14dd c62b c381 f42e
00000170: f9b3 a32f 7d2a 1b2b 5552 532b 2674 7a2b
00000180: 0ac0 0032 b112 0d30 62cd 5b29 c1f7 8e2e
00000190: 6864 7132 9e3c 1b32 a795 342a 6f0c 3132
000001a0: 6b07 4231 be04 ee2a 188f 332b 6682 ea32
000001b0: 1a90 742f b7f6 c42b c9f3 d832 e523 b32f
000001c0: 0d12 6530 5e5c 772a 3b64 b32f 21c6 8f32
000001d0: aac3 3e2c 704c 8732 db6e 8129 179f 2e2b
000001e0: 85fe b629 43ec 8b29 eff5 5129 f858 df32
000001f0: abdc 162c 98cd 1f2b 6402 f532 962c 1932
00000200: 47f6 f22b e405 4730 632f 4130 d54a ba31
00000210: f238 f330 0802 b52b 3b09 932a ec7b bf2a
00000220: c02c 5630 f81f 272a a8fb 062d 07fe 9d31
00000230: ed9e 692a 26fc 7332 3879 4531 856c ea31
00000240: 7b7d 7f2b d866 bf31 3587 4e27 1c9a c731
00000250: d63a 3d2c 4303 7025 6ebf 702b 3c81 092b
00000260: ce07 8b2a 355b 382a 6776 8b31 068b 8f2a
00000270: 9067 0f2c 2327 0332 dcea 8032 a00f d52e
00000280: 8c01 4d31 2ed8 d62f 0133 a927 c0d1 c12e
00000290: d5bf a829 d45d b831 6f98 f730 21fc fd30
000002a0: 5ff6 f131 f3f8 442b 50f3 162f 64ea e131
000002b0: 1c36 942a be5d 5a2b 81c9 4332 de79 fa2e
000002c0: 62b6 812a 40ed 3a32 6409 bf31 dc0b 8e29
000002d0: 2abf 4230 2195 f82d 84b4 4b31 e8e1 fd31
000002e0: 3d7d f632 6ac6 f02a 3738 0a2b 0edf 1132
000002f0: 5114 f22b a389 a22f 4304 d22a fadd f829
00000300: 3bd1 802a c952 3531 a65c ae32 d277 2e29
00000310: 5421 7c31 19c7 4531 3b68 ef29 2b20 252a
00000320: 4aec 9d30 8978 1d2e db11 5b32 8ced b930
00000330: 0827 1332 3bbf 2929 8dbe a230 7f82 cb32
00000340: 0655 0d2b e2e2 3231 5aa3 8a2a 34bc 7330
00000350: 7122 3232 0c2e 2f2c 4674 b22b afa9 e52a
00000360: e9e8 dd2e 28da 9131 897f 072b 4872 b329
00000370: 26ab 8b32 f64e 4933 89bb 822b 192b 3c31
00000380: 14cc 2f28 f0cb a530 9071 f031 a8fd 3230
00000390: 4ddf 9528 00c4 bb29 7e63 d330 8426 f62b
000003a0: 0eee bb2a 990d 7f29 e666 352a 4836 492a
000003b0: 7a4f 162c be94 3031 a8f7 f82e 7e28 7d2a
000003c0: 7a0b 592c 5e34 e12f 521f 3c2b 9b5b d22a
000003d0: 1b73 2a2c e8ac b02a c2a8 a730 1502 2732
000003e0: 2c51 9330 9a45 4b27 0603 1732 cc83 892b
000003f0: 21cc cf29 1cbd c830 446a e02b 4a73 2733
3.841219e-09 4.7091913e-09 7.095778e-10 1.4875722e-12 2.9984825e-13 4.0599057e-10 2.7203782e-13 2.6338447e-09
2.5522768e-14 3.7443968e-13 3.28719e-09 8.5621865e-14 5.3279787e-13 1.6797434e-13 1.1378791e-12 1.2012572e-14
4.7410437e-13 3.952149e-09 6.0057894e-13 2.7544664e-12 1.3386789e-13 4.4818997e-14 4.329427e-13 4.838946e-09
6.4714124e-14 4.4293635e-13 1.6283814e-09 6.0379426e-09 4.863884e-13 5.027838e-09 8.7486046e-13 1.3900906e-08
1.10668585e-08 2.5271063e-09 1.7492098e-13 8.6549106e-13 1.9881978e-09 1.9176076e-13 8.7804596e-15 2.9066734e-12
8.125683e-09 1.9380597e-12 1.880412e-08 1.5933551e-09 7.624095e-13 1.4267725e-13 1.7851272e-09 6.6878587e-09
1.913752e-13 6.230811e-09 1.6245284e-12 4.886022e-09 1.0820801e-08 4.8130396e-13 3.4077252e-13 4.3693039e-13
2.1026667e-09 1.2876669e-09 3.0988087e-14 1.5067327e-14 2.864183e-14 2.2771067e-09 2.869275e-11 2.950186e-14
1.4940869e-12 2.1970259e-08 2.016576e-10 7.104208e-13 1.4125823e-13 1.8364503e-09 5.2432234e-16 2.0752203e-13
1.6658839e-09 1.4092604e-12 7.13667e-10 2.5313427e-09 2.1139992e-09 2.8196705e-14 5.0160267e-09 1.12252625e-08
2.7876934e-09 3.4863223e-10 1.31526585e-08 2.1878714e-09 4.6202993e-09 1.4202976e-12 1.4995035e-08 9.955256e-10
2.0015307e-09 3.0706703e-14 1.4130108e-12 1.1118886e-10 2.9777406e-10 5.5126026e-13 7.5076517e-13 8.897903e-13
7.494245e-09 5.1322063e-10 4.880591e-14 6.501422e-11 1.4050876e-08 9.03597e-09 1.6039133e-13 1.0305583e-08
2.8234932e-09 4.2280583e-13 6.379216e-13 2.7300484e-08 2.2242866e-10 1.3995115e-12 2.525657e-08 3.2585415e-10
8.3335366e-10 2.1970053e-13 3.2631128e-10 1.673749e-08 2.710924e-12 1.5750828e-08 5.747981e-14 6.2038e-13
8.126576e-14 6.213825e-14 4.6620636e-14 2.6001075e-08 2.1438777e-12 5.6773466e-13 2.8522841e-08 8.91591e-09
1.726349e-12 7.240415e-10 7.028033e-10 5.42182e-09 1.7696762e-09 1.2861387e-12 2.611885e-13 3.4014404e-13
7.791634e-10 1.4843671e-13 7.672897e-12 4.598181e-09 2.0749696e-13 1.42017935e-08 2.8736178e-09 6.8226336e-09
9.076834e-13 5.5705236e-09 2.8661539e-15 5.8091825e-09 2.6891176e-12 2.0817787e-16 8.553079e-13 4.8851526e-13
2.4696776e-13 1.6374127e-13 4.058893e-09 2.549837e-13 2.037901e-12 7.634102e-09 1.5007963e-08 9.688894e-11
2.9832306e-09 3.9079978e-10 4.696222e-15 8.813883e-11 7.493976e-14 5.365772e-09 1.801494e-09 1.8479832e-09
7.0420323e-09 6.9978675e-13 1.3728862e-10 6.575009e-09 2.6327627e-13 7.757925e-13 1.1396311e-08 1.1390332e-10
2.3041557e-13 1.0880569e-08 5.559899e-09 6.308124e-14 7.084845e-10 2.8260562e-11 2.9643e-09 7.3889517e-09
2.8695121e-08 4.2770242e-13 4.910546e-13 8.490828e-09 1.7200773e-12 2.9565425e-10 3.730645e-13 1.1051919e-13
2.288255e-13 2.6386024e-09 2.0298398e-08 3.873969e-14 3.6689771e-09 2.8780447e-09 1.0631813e-13 1.4666104e-13
1.1490411e-09 3.5804724e-11 1.2751538e-08 1.3528036e-09 8.565401e-09 3.7691404e-14 1.1841209e-09 2.3691653e-08
5.0211257e-13 2.6031377e-09 2.4627072e-13 8.867034e-10 1.0368795e-08 2.4894557e-12 1.2679933e-12 4.0796313e-13
1.00912896e-10 4.244857e-09 4.8138625e-13 7.9690215e-14 1.6259559e-08 4.6870774e-08 9.289107e-13 2.7382099e-09
9.758704e-15 1.2063293e-09 6.99783e-09 6.511649e-10 1.6639164e-14 8.338469e-14 1.5380548e-09 1.7490042e-12
3.3383057e-13 5.663317e-14 1.611173e-13 1.7871219e-13 2.13604e-12 2.569592e-09 1.1321727e-10 2.2484963e-13
3.0843926e-12 4.096447e-10 6.6834483e-13 3.7367058e-13 2.422235e-12 3.1383858e-13 1.2198813e-09 9.721153e-09
1.0718728e-09 2.820964e-15 8.790044e-09 9.771016e-13 9.2280574e-14 1.4605663e-09 1.5945652e-12 3.8987572e-08

exp_avg f4 [196]
00000000: b3fa 1039 671c 5eba c3aa d5b6 3cfb 0f39
00000010: ffa2 0cbb 89e6 09b8 9411 1dba a79c c6b9
00000020: 8206 d338 7e2b 7cb5 d757 8fba b1c5 03b9
00000030: 0a2c 71b9 0400 0080 573e 5fba 0000 0000
00000040: bd85 5fbb 7d7c 8bbb 7f01 81ba 0e6b b2bb
00000050: a7a5 5bb9 f0b9 f539 a7b3 1cb9 c5d4 08ba
00000060: 0db0 8eb8 cf04 12b9 4a93 b6b9 4603 45b7
00000070: 6952 a4b9 175f 13ba 0000 0000 b99d 61b9
00000080: d025 21ba 13e4 13b9 e861 2abb aec4 36bc
00000090: 48b6 30ba 1b82 bbba b435 c6b9 7710 b9b9
000000a0: c4dd a8b8 0400 0080 2924 a7b9 9198 e5ba
000000b0: a363 00ba 0000 0000 b509 163c a618 3bb8
000000c0: ecc6 8dba fd3c 00ba d0e7 7bb9 72d9 8bb8
000000d0: 3dff 8cba 6dd0 9fb9 ce4e c3b9 b4fe a0b9
000000e0: 0e4d f6bb 85ad 78ba 1c31 c4ba ae45 7c3b
000000f0: 0000 0000 160f 3bb9 4a4d cdbb c94c b3b9
00000100: ad15 72b8 a23e 2538 ba10 c4b7 13b8 74b9
00000110: 6f04 13b9 4b47 83b7 cecb cdb9 dc91 a1ba
00000120: 6cc2 b7b9 2119 553a 54f6 27ba 0000 0000
00000130: 34b2 a2ba c8e2 06ba b2d4 35ba 523f 81b9
00000140: 55e2 24b9 8764 aab7 27cb fbb8 0400 0080
00000150: 2a41 51ba 91ef e8b9 96df 8cbb 6196 05bc
00000160: 08a3 a2bb c96e 3dba 0000 0000 8bf8 30b9
00000170: 9a3e 7cba 4fe4 94b9 1441 71b9 5f1b 17b9
00000180: fb88 bcb8 d8db 57b6 e252 34b9 cc7b 6eb9
00000190: c98a 34bc c559 b7b9 e49e 43b9 af9e 20b9
000001a0: 5d13 35b9 0000 0000 cbec 07b9 cdb8 52ba
000001b0: 466d ceb8 f1ef 86b9 dffe 47b9 0400 0080
000001c0: 6353 0336 0400 0080 79d6 edba 039a 87b9
000001d0: 7d18 d1b7 fc69 29ba 2407 58b8 cd9d 1fb9
000001e0: 0000 0000 135a 8cb8 d7e2 82ba 7059 37b9
000001f0: a38d 5bb9 0400 0080 e86a 1eba 8f7f a3ba
00000200: 9cee 3dba a513 81b8 5f05 e8ba 4593 eeb8
00000210: 6ec0 3cba 9747 49bc 7510 69b5 0000 0000
00000220: 6554 e2b9 bd92 6bb9 93f0 ffb8 3fec 16b9
00000230: 6ed7 51bb 70e3 bab8 7f4c 85b9 0400 0080
00000240: 9608 cdb9 0400 0080 aab5 5bb9 c67c 35b9
00000250: bd17 b6b9 0400 0080 0000 0000 b51a 4fba
00000260: 8712 3bb9 b2ce 73b8 0400 0080 3691 89ba
00000270: 0400 0080 0400 0080 0400 0080 0400 0080
00000280: 0400 0080 7ad9 d6b9 0400 0080 0400 0080
00000290: b7c4 f7b9 0000 0000 0400 0080 99d3 f6b7
000002a0: 0400 0080 0400 0080 0400 0080 0400 0080
000002b0: 0400 0080 9d2f 94b6 0400 0080 0400 0080
000002c0: d52d 97b8 0400 0080 0400 0080 0000 0000
000002d0: 0000 0000 0400 0080 0000 0000 0000 0000
000002e0: 0000 0000 0000 0000 0400 0080 0000 0000
000002f0: 0000 0000 0400 0080 0400 0080 0000 0000
00000300: 0000 0000 0000 0000 0400 0080 0000 0000
0.00013826303 -0.000847286 -6.367774e-06 0.00013731135 -0.0021459458 -3.2878048e-05 -0.0005991694 -0.00037882218
0.00010062476 -9.3940605e-07 -0.0010936212 -0.0001256678 -0.00022999957 -6e-45 -0.0008516064 0.0
-0.0034106814 -0.0042567835 -0.0009842365 -0.005444891 -0.00020947178 0.00046868576 -0.00014944245 -0.00052196934
-6.80388e-05 -0.00013925436 -0.00034823484 -1.1742877e-05 -0.00031341918 -0.00056217745 0.0 -0.00021516428
-0.0006147297 -0.00014103977 -0.0025998298 -0.0111552905 -0.0006741029 -0.0014305742 -0.00037805515 -0.00035298217
-8.052171e-05 -6e-45 -0.00031879664 -0.0017516782 -0.00048976595 0.0 0.009157588 -4.460723e-05
-0.001081673 -0.00048919005 -0.00024023582 -6.668539e-05 -0.0010757219 -0.00030482133 -0.00037252012 -0.00030707347
-0.00751651 -0.00094863056 -0.0014968249 0.003849368 0.0 -0.0001783933 -0.006265317 -0.0003419875
-5.7717483e-05 3.9397397e-05 -2.337281e-05 -0.00023338226 -0.00014020664 -1.5649615e-05 -0.00039252493 -0.0012326795
-0.00035049336 0.00081290497 -0.000640725 0.0 -0.0012412728 -0.00051454874 -0.0006936296 -0.00024651975
-0.00015724574 -2.0312391e-05 -0.00012006453 -6e-45 -0.00079824275 -0.0004442898 -0.0042991145 -0.008153529
-0.0049632825 -0.0007226286 0.0 -0.00016877257 -0.00096223655 -0.00028398863 -0.00023007795 -0.00014410679
-8.990053e-05 -3.2165462e-06 -0.00017197014 -0.00022743567 -0.011019417 -0.00034971363 -0.0001865584 -0.00015317903
-0.00017268719 0.0 -0.00012962816 -0.0008038402 -9.843199e-05 -0.00025737242 -0.00019073066 -6e-45
1.9569059e-06 -6e-45 -0.0018145583 -0.00025863954 -2.4926145e-05 -0.0006462631 -5.1505063e-05 -0.00015222207
0.0 -6.692498e-05 -0.0009985816 -0.00017485558 -0.00020938231 -6e-45 -0.0006043152 -0.0012473929
-0.00072453334 -6.1548584e-05 -0.0017701796 -0.000113761555 -0.0007200305 -0.012285135 -8.682321e-07 0.0
-0.00043168958 -0.0002246601 -0.00012204158 -0.00014393123 -0.0032019275 -8.911535e-05 -0.0002542473 -6e-45
-0.00039107044 -6e-45 -0.00020953143 -0.00017307987 -0.00034731432 -6e-45 0.0 -0.0007900403
-0.00017840612 -5.8128215e-05 -6e-45 -0.0010495547 -6e-45 -6e-45 -6e-45 -6e-45
-6e-45 -0.00040979293 -6e-45 -6e-45 -0.00047258075 0.0 -6e-45 -2.9424018e-05
-6e-45 -6e-45 -6e-45 -6e-45 -6e-45 -4.4162866e-06 -6e-45 -6e-45
-7.208778e-05 -6e-45 -6e-45 0.0 0.0 -6e-45 0.0 0.0
0.0 0.0 -6e-45 0.0 0.0 -6e-45 -6e-45 0.0
0.0 0.0 -6e-45 0.0

exp_avg_sq f4 [196]
00000000: 3b65 6634 b97c 7335 6482 0338 daab 2b34
00000010: 910e 0137 688f 3033 dda8 c034 a7bf 7734
00000020: 05bd 6133 0a6b ab31 e7d4 d235 3d3a a134
00000030: 77b1 8434 60fe 032d de8a 8234 0000 0000
00000040: d63e 5b37 dbe1 0e38 ab46 bc35 5584 0338
00000050: 8cfc 3c33 a222 1a35 d033 8e33 c114 8a36
00000060: f832 cc32 61fb 3934 447b c834 90c2 d633
00000070: 588a 4c37 0320 d234 0000 0000 f70d d533
00000080: 41b9 bc34 b8f0 1a34 30de 0637 b02b cf38
00000090: 59de 3c35 ee9c c835 9394 e634 bf54 cf33
000000a0: 6dbe 4532 6853 d81f 154d 0534 329b e136
000000b0: 30f4 9c34 0000 0000 5073 be38 8444 1a37
000000c0: 1121 e035 7c6b ed34 b394 c133 b632 9332
000000d0: 3406 7335 5969 d934 2365 f334 2964 9234
000000e0: a619 b838 f0cf 6435 d1fa af35 1e92 9337
000000f0: 0000 0000 dd2c 3534 0b5d f437 e4c4 8b33
00000100: ab3d e232 596d 9333 5b1d be32 b57f 2e34
00000110: 2e82 2534 45df af33 a4d6 b134 3c87 0536
00000120: e915 2134 b54a f436 add5 f234 0000 0000
00000130: 93f0 b435 a843 f534 aa46 8035 a0bf 3e34
00000140: 1bef 4b33 a1b0 3231 8f24 e633 e0d8 3624
00000150: 11c7 b734 b368 8e34 2fc8 ab37 0f04 8438
00000160: f09f 9b37 456c 2035 0000 0000 1fef 9333
00000170: aab1 9835 6694 0635 af9c 5c33 8f64 ab33
00000180: d90b 3d34 26c4 9b32 c238 6733 cf4f 4b34
00000190: 2714 c338 1727 0c35 697b 7c34 b53f c532
000001a0: b95f b533 0000 0000 c81d 3c33 c50b 3135
000001b0: 09f8 0f33 54b8 7834 32ab d334 64b5 0124
000001c0: 3126 8532 3854 a130 1c92 9536 7a6e 5334
000001d0: 0991 ee31 2f6c 0835 7a1d 6b32 a44b f331
000001e0: 0000 0000 a6da 0a33 bc52 ad35 cd67 0134
000001f0: af17 3a34 82b2 671f 520c 5535 c5f6 3037
00000200: 7c61 f235 fd32 8c33 ebcd 6636 d7eb 4333
00000210: 3b11 2335 b6d5 1539 a33c 8d31 0000 0000
00000220: be1d a534 84f8 a733 37ef 1634 fa18 0b34
00000230: 53ca 2e37 7c0a 0733 4c1d b134 34fc dc2b
00000240: a675 ef33 d192 9c2a 228e 9333 3670 e534
00000250: a33b 6534 5e27 fe2a 0000 0000 53e6 c635
00000260: f536 7633 e183 0334 80a3 1821 ef12 c535
00000270: 69b1 d31e 47fc 342b 4a29 e501 6c56 1021
00000280: ae5c 4213 111b 2534 894e bd21 6b6b 922d
00000290: b101 9434 0000 0000 e52b 0f15 03ac 8e33
000002a0: 311b 0000 cdfd 532b 2627 200d c704 0000
000002b0: c661 150d 6c2f ed32 cd0f 2214 121c 1512
000002c0: 168d 2d33 f401 0000 349c 240e 0000 0000
000002d0: 0000 0000 ea79 3306 0000 0000 0000 0000
000002e0: 0000 0000 0000 0000 886e f41b 0000 0000
000002f0: 0000 0000 f401 0000 79ae 0b00 0000 0000
00000300: 0000 0000 0000 0000 a05f 8e0c 0000 0000
2.1457247e-07 9.070605e-07 3.135427e-05 1.5988135e-07 7.692391e-06 4.110862e-08 3.588565e-07 2.307339e-07
5.2558807e-08 4.988924e-09 1.5708182e-06 3.003096e-07 2.471604e-07 7.5029705e-12 2.4315426e-07 0.0
1.3068047e-05 3.4065783e-05 1.4027659e-06 3.1356078e-05 4.400185e-08 5.741987e-07 6.621815e-08 4.1151366e-06
2.3771904e-08 1.7320919e-07 3.734259e-07 1.0000542e-07 1.2191558e-05 3.913884e-07 0.0 9.9211256e-08
3.515252e-07 1.442994e-07 8.0387545e-06 9.8786666e-05 7.0359016e-07 1.4946834e-06 4.294894e-07 9.654604e-08
1.1510207e-08 9.161754e-20 1.2414633e-07 6.7235896e-06 2.9234934e-07 0.0 9.0813846e-05 9.195068e-06
1.6698924e-06 4.4222895e-07 9.014311e-08 1.7136113e-08 9.053358e-07 4.049605e-07 4.5335864e-07 2.7267495e-07
8.778581e-05 8.523921e-07 1.3111513e-06 1.7591807e-05 0.0 1.687326e-07 2.9130393e-05 6.508506e-08
2.6337906e-08 6.865111e-08 2.213226e-08 1.6251472e-07 1.5414182e-07 8.189685e-08 3.312499e-07 1.9897261e-06
1.5002264e-07 7.2804637e-06 4.5231482e-07 0.0 1.3481061e-06 4.5684033e-07 9.557309e-07 1.7764842e-07
4.7482086e-08 2.600281e-09 1.07168596e-07 3.964866e-17 3.4231246e-07 2.652574e-07 2.0478006e-05 6.2950065e-05
1.8551917e-05 5.97622e-07 0.0 6.888717e-08 1.137659e-06 5.013484e-07 5.1365245e-08 7.9810995e-08
1.7606307e-07 1.8133573e-08 5.38355e-08 1.8934882e-07 9.302078e-05 5.221095e-07 2.3514225e-07 2.2962789e-08
8.445881e-08 0.0 4.3799247e-08 6.5954765e-07 3.352037e-08 2.3163858e-07 3.9426374e-07 2.812606e-17
1.5500605e-08 1.1738228e-09 4.4575554e-06 1.9691097e-07 6.9432002e-09 5.0821376e-07 1.36855025e-08 7.08083e-09
0.0 3.232949e-08 1.2913583e-06 1.2051824e-07 1.7331216e-07 4.906381e-20 7.936661e-07 1.0547873e-05
1.8058777e-06 6.528533e-08 3.439253e-06 4.561647e-08 6.0747305e-07 0.00014289361 4.1105337e-09 0.0
3.0755285e-07 7.821748e-08 1.4056864e-07 1.295447e-07 1.04183155e-05 3.1441672e-08 3.2990135e-07 1.5701941e-12
1.1150705e-07 2.781304e-13 6.871075e-08 4.2736218e-07 2.1348983e-07 4.514678e-13 0.0 1.4819183e-06
5.732632e-08 1.2248303e-07 5.1715994e-19 1.4683154e-06 2.2413869e-20 6.429895e-13 8.418056e-38 4.8903476e-19
2.4531937e-27 1.5376669e-07 1.2827926e-18 1.6645981e-11 2.756838e-07 0.0 2.8913247e-26 6.643679e-08
9.754e-42 7.531448e-13 4.935093e-31 1.714e-42 4.603186e-31 2.7611996e-08 8.182026e-27 4.705071e-28
4.040802e-08 7e-43 2.028977e-30 0.0 0.0 3.3755727e-35 0.0 0.0
0.0 0.0 4.0437843e-22 0.0 0.0 7e-43 1.07278e-39 0.0
0.0 0.0 2.1936116e-31 0.0
