models/DoubleDQNAgent/working_full_data_C>0, 6>L>3.pt (torch, 879709 bytes, 12 tensors)

base.em.weight f4 [14, 1]
00000000: 0000 0000 79b0 4b43 97d3 39c3 8465 3ac3
00000010: 3e27 41c3 be1b 2943 0c0b 42c3 add3 4843
00000020: 6122 4743 db75 1943 ae6c 17c3 52c1 70c2
00000030: b7fb fdc2 176a 4f41
0.0 203.68935 -185.82652 -186.39655 -193.15329 169.10837 -194.04315 200.82686
199.1343 153.46037 -151.42453 -60.18879 -126.99163 12.963401

out.weight f4 [196, 256]
00000000: 7169 1f3e 6745 003e 942d 01be 7458 1d3e
00000010: 0e56 abbc 178b 4e3d 11d6 683e d414 b13e
00000020: 18bc 9eba 23f0 d8bd 2cec 26bd 2cd6 dabd
00000030: f022 91bc 40b6 0e3f 89f5 83bd 4bf0 0fbc
00000040: 0aba 2cbc 763c 9abd 9563 e0bc dda0 073e
00000050: 7a2b e23c 8378 28bb e20d 4fbe c835 d8bd
00000060: a41a d3bd c70a 9f3e 755b 853e 8205 503e
00000070: 4fb2 91bc da16 703d edc9 c8be dbc8 3ebe
00000080: f806 bebd 62e0 043e 114c 5ebd e72b 213e
00000090: aa3b 403d 4138 d73d 7522 84be eabc 92bd
000000a0: f424 993e bcd5 343d 69d1 2ebe 0fc1 003e
000000b0: bcc6 a03c 5c09 5bbd 2f80 843e 3d78 693e
000000c0: 02b2 a0ba 8331 bc3b e87b cebc 9e7a 2e3c
000000d0: 88c1 e4bd f6ae 8c3e 198a df3d 4709 523e
000000e0: 8ac2 66bc a2fb 943d 9635 64bd 44b3 8d3e
000000f0: 1730 1abe 9335 423e 257c fbbd 9a78 52be
00000100: a005 03be ddea 84be 1211 8ebb 3b75 2abd
00000110: ca5e d5bd 4adf 3bbe f00e 92bc af3f bebd
00000120: 08b9 0b3e eac5 2bbb d7f0 1cbe f8f6 f6bd
00000130: c103 843e 291f 0d3e 45e6 253e 0a55 56bd
00000140: 5565 1b3c 4a52 85bd 35a1 0fbc 1ce9 b23d
00000150: 3e36 ddbd b7ee 8bbd b801 08bc 2ec2 babd
00000160: 4cec 3ebe fbf7 4fbd fb98 e23f 5591 943d
00000170: f37b 6d3c 086c 833e 527c 25bd 0377 73bd
00000180: c189 dfbd 6ca0 53be b443 d53d 4ba9 433d
00000190: 4f5c 84be 6e76 0fbe 6a8a 8a3e f59f 31be
000001a0: b658 d1bd 58d9 6f3f d357 e2bd 4a4f f2b9
000001b0: cf20 003d 465a 373d a169 bb3d 2fdb f3bd
000001c0: fce7 34be c24a 49bd 534a b8bb 9062 663d
000001d0: 70d4 3fbe dd1d 3a3b 41c9 3b3f 1330 d5bd
000001e0: c762 553e d9af 5a3d 75b0 2e3d 4afd b73d
000001f0: 0e08 a83d 4f23 c0be 1aa9 5bbc c685 0e3e
00000200: 2b85 1c3d f708 b3bd de80 27be 8075 d5bb
00000210: 1487 24be 8923 153d ec70 d8bd 7f1e 853d
00000220: cc9c a83e 08a4 9f3c f6c2 a6bd 9551 813e
00000230: 21cf 6bbc c430 8f3c cc3f 3c3e 349e 323d
00000240: fe4b 263e 4d99 ef3d 9bb5 673d 1872 cc3d
00000250: 761d debd 14d0 cabd 0ce2 7cbd 235c 243b
00000260: b531 1b3e 4cd6 b4bd 602a c4be b939 b1bd
00000270: 81a5 283d 9439 21bd f8e2 893c c6dd 4dbe
00000280: e3cf a3bd 76b0 2cbe d172 8a3d 0d75 63be
00000290: 07b8 28be a9b8 bcbd 51c3 d5bd 3137 afbc
000002a0: b898 2cbd b2f5 ea3d f7b0 f63d b503 293e
000002b0: 40be 8dbd 6938 853c f926 babd dd18 fbbc
000002c0: a33e 52bd cd79 0dbe 3900 e13d cac2 2e3d
000002d0: 9f93 82bc 43fb 8cbd 5836 18be d996 cf3d
000002e0: 42c5 97bd 9d93 32be b496 f1bd da86 ab3b
000002f0: 17d8 e43d ceac 493c 34e4 8a3d 06c7 92bd
00000300: 1b7a 723e cd43 da3d 0788 debd 10e6 d73d
00000310: 6d18 ccbc 89a9 803d 5110 d63c 4e9e 19bd
00000320: 29e4 18be 7a79 8e3d ab4c 14bd 5f74 efbd
00000330: 0666 34bd 782b 3b3d a092 6b3d 840a cfbd
00000340: 7ac0 0cbd a347 903e c2dc 2b3e 5c37 d4bc
00000350: 7393 a4bd e23d f23d 2443 6bbd 0ed7 16be
00000360: ae56 333d d4f3 9f3e 14bf b43d 450c e9bd
00000370: ee78 213e dc67 733d 2764 a83a 70f9 53bc
00000380: 45b2 493d a51a 5d3e 92f0 04be 5783 e83d
00000390: 2c32 33be 8e30 0d3d 05ad 16bd 9b50 313e
000003a0: fa6c 483e e35c 8b3d d3f1 a2bd 551e 94bc
000003b0: e567 bfbd 750a 4b3e 4459 283d a86d 803e
000003c0: b6be 043e a7e5 633a 72fa 383b ccf2 32be
000003d0: 4988 163e 877a b8bd 8cc3 2cbe 1c8a f03c
000003e0: 72b5 373f 209b e43d 43dc 953c 9f9d 52bd
000003f0: f14c 67bb 3433 97bd 2c41 9abd 9bdf 963e
0.15567566 0.12526475 -0.12615043 0.15365773 -0.020915058 0.050425615 0.2273791 0.34586203
-0.00121105 -0.105926774 -0.040752575 -0.10685381 -0.017716855 0.5574684 -0.064433165 -0.008785318
-0.010542402 -0.07531063 -0.027391234 0.13244958 0.027608622 -0.0025706596 -0.2022014 -0.10557133
-0.10307816 0.3106291 0.2604634 0.20314601 -0.01778522 0.058615543 -0.39216557 -0.18631308
-0.09278673 0.1297622 -0.05427176 0.15739404 0.0469319 0.105087765 -0.2580754 -0.07164939
0.29911005 0.044149145 -0.17072071 0.12573646 0.019626014 -0.053475723 0.25879046 0.22799774
-0.0012260082 0.005743207 -0.025205567 0.010649351 -0.11169726 0.27477235 0.10915012 0.20511352
-0.014084468 0.07274558 -0.055715166 0.2767583 -0.15057407 0.1896575 -0.12279538 -0.20553818
-0.12795115 -0.25960436 -0.004335531 -0.041615706 -0.1041847 -0.18346897 -0.017829388 -0.092894904
0.13644803 -0.0026210495 -0.15326248 -0.12058824 0.25784114 0.13781418 0.16201122 -0.052327193
0.009484609 -0.06509836 -0.008766462 0.08735868 -0.108013615 -0.068326406 -0.008301191 -0.09119068
-0.18644828 -0.050773602 1.7702936 0.072542824 0.014494884 0.2566836 -0.040401764 -0.05943967
-0.10914946 -0.20666665 0.10413304 0.047768872 -0.25851676 -0.14010021 0.27058727 -0.17346175
-0.102219984 0.93691015 -0.110519074 -0.00046216912 0.03128129 0.044763826 0.091510065 -0.1190704
-0.1766662 -0.04914356 -0.0056240945 0.05624634 -0.18733382 0.0028399148 0.73353964 -0.1040956
0.20838462 0.053390358 0.04264875 0.08983858 0.08204661 -0.37526938 -0.013407016 0.13918218
0.038212936 -0.08741944 -0.16357753 -0.006514251 -0.16067153 0.036410842 -0.10568413 0.06499957
0.32932127 0.019487396 -0.081426546 0.25257555 -0.014392645 0.017479308 0.18383712 0.043607906
0.16239926 0.11699162 0.056569677 0.09982699 -0.10845463 -0.09902969 -0.061739013 0.0025079332
0.1515568 -0.088299364 -0.3831358 -0.08653588 0.04117346 -0.03936155 0.01683186 -0.20104131
-0.079986356 -0.1686419 0.06760181 -0.2221262 -0.16476451 -0.09214909 -0.10437644 -0.021388622
-0.04213783 0.11472644 0.12045472 0.1650532 -0.06921053 0.01626225 -0.09089465 -0.030651504
-0.051329266 -0.13815995 0.109863706 0.042666234 -0.015939532 -0.06883862 -0.1486448 0.10136194
-0.07410671 -0.17439122 -0.117963225 0.0052345814 0.11174028 0.012309266 0.067818075 -0.07166867
0.23679392 0.10657463 -0.10865789 0.10541928 -0.02491399 0.06282336 0.026130827 -0.037504487
-0.14930786 0.069567636 -0.03620593 -0.11692118 -0.04404261 0.045695752 0.05751288 -0.101094276
-0.034363247 0.28179654 0.16783431 -0.025905304 -0.08035936 0.118282095 -0.057437077 -0.14730474
0.043783836 0.31240714 0.08825508 -0.11379293 0.15768787 0.05942522 0.001284723 -0.0129378885
0.049242277 0.21592195 -0.12982395 0.11353176 -0.17499608 0.034470133 -0.036786098 0.17315905
0.19572821 0.06804826 -0.079562806 -0.01808087 -0.09345988 0.19828208 0.041100755 0.2508366
0.12963375 0.00086935837 0.002822545 -0.17475432 0.14700426 -0.09007745 -0.1687147 0.02936273
0.7176124 0.111624 0.018293506 -0.05141985 -0.0035293663 -0.07382813 -0.07531962 0.29467472

out.bias f4 [196]
00000000: 2280 8fbe 905a 5d42 e306 5c42 3088 2b42
00000010: 4072 4d42 d694 2e42 05cc 3642 bc3f 3342
00000020: 4915 3442 439f 3942 9289 4742 71d7 0242
00000030: 5b30 8b41 6bd5 0742 6926 7042 08fd 593c
00000040: 99bf 6f42 189c 3942 915e 5442 7f3b 5e42
00000050: e816 3d42 1b33 5e42 d493 5142 5f6a 1942
00000060: a61c 4042 e85b df41 3cb7 2142 b6fa 1842
00000070: 5733 3a42 c647 4342 0075 bc39 3547 1642
00000080: 989a 5842 9bb4 3a42 ead4 5b42 efe8 2242
00000090: a8a1 4142 cfe2 2d42 451c 2542 ad3c f941
000000a0: d4d7 2d42 0bf0 cc41 a2b3 2a42 d16e 4e42
000000b0: c5e1 6942 8866 39bd 37d8 7642 15a4 1842
000000c0: c4f7 fc41 6ffb 1542 52f9 1742 14ed fb41
000000d0: 35b3 4f42 4890 1842 3d6b e841 1201 0342
000000e0: b771 3142 d186 5042 1b4c 6c42 dafa 7642
000000f0: dcfe 883c ebee 4a42 96d1 4e42 1581 e341
00000100: 7d46 1842 4b1c 4942 f623 0142 6120 0a42
00000110: 3f4a bf41 16c4 0c42 6c1e 6542 94d0 6e42
00000120: e25a 5542 b5b1 3642 b54b 5242 80b9 3ebc
00000130: d1be 5042 81a3 2b42 91b1 3242 5c22 1742
00000140: 230a dd41 9522 9641 ea4e 1542 823c e441
00000150: b621 6d42 bd37 5142 4ada 5b42 e910 3542
00000160: a8ae 8042 3f81 0142 2a7a 453d 808f 1942
00000170: c34e 3942 831e 1242 58f5 2542 1587 1a42
00000180: 08df 1742 bafe 8641 0005 4242 ced9 3442
00000190: 5d14 3442 7f9c 5542 98a2 5742 8170 6e42
000001a0: e499 1442 507e acbb a050 e841 e1f8 f641
000001b0: 329f 0f42 1583 7f41 e231 fd41 7134 0f42
000001c0: 222b 4c42 178c 4842 77e9 1d42 7b26 3842
000001d0: d5a4 3042 34d4 3a42 ad4d 3242 bf15 2242
000001e0: 404f a73c bdaf 5142 7a91 1242 a9bf d541
000001f0: 6bca 2942 81a9 1342 ed08 3842 1612 4442
00000200: f771 d741 1939 2742 ebc6 3642 3047 1842
00000210: f09a 3042 45fb 3542 5ed8 5242 8682 2dbd
00000220: 4b81 2e42 d062 e241 0f1f 2842 1061 a941
00000230: f97e 6142 4dd4 2842 1beb 2642 fd7c 4342
00000240: c477 4442 847c 0042 f85e 3d42 4885 3d42
00000250: 0d02 0842 f48c 2742 88db 6fbc bc85 7b41
00000260: 37b1 0e42 fcea d441 5d68 3a41 e591 0242
00000270: cf70 c241 b396 0b42 7e3c 1742 00ae 1842
00000280: 778c 1542 8921 0a42 49c4 e941 0f0a 0d42
00000290: d714 b641 3cdb a1bc 7a8c 8441 1c01 0a42
000002a0: 1654 2a3d d2df 1bbd 9c3d 7ebd 4091 dd3c
000002b0: bee8 373d 2aec 79bd 38c1 9fbc 58d1 27bc
000002c0: 287a ac3c 0a5e 7d3d 348c af3c acd0 4c3d
000002d0: 2850 71bd 30bb a93b 8cc7 6a3d 7689 6c3d
000002e0: d867 143d 064e 683d a8ff a8bc b073 163d
000002f0: 1e4e 5a3d f6d5 15bd 6c43 1b3d 5078 8fbb
00000300: f0da 923b e819 20bc 54e0 30bd e802 0ebd
-0.28027445 55.33844 55.006725 42.882996 51.361572 43.645348 45.699238 44.81224
45.020786 46.40553 49.884346 32.710392 17.398611 33.958416 60.03751 0.013304956
59.937107 46.402435 53.09235 55.5581 47.27237 55.549908 52.394363 38.353878
48.027977 27.919876 40.42894 38.244835 46.550137 48.82009 0.00035945326 37.56954
54.15097 46.676373 54.957924 40.727474 48.407867 43.471493 41.277607 31.154627
43.46077 25.617208 42.675423 51.60822 58.470478 -0.045263797 61.711147 38.160236
31.62098 37.49554 37.993477 31.49076 51.925007 38.1409 29.052362 32.751045
44.36105 52.131657 59.07432 61.744972 0.016723089 50.73332 51.704674 28.438028
38.068836 50.27763 32.28512 34.53162 23.911253 35.19149 57.27971 59.70369
53.338753 45.673542 52.573933 -0.011640906 52.186344 42.90967 44.673405 37.783554
27.62995 18.766886 37.327065 28.529545 59.28292 52.304432 54.963173 45.266514
64.341125 32.376217 0.048212208 38.390137 46.326916 36.529797 41.489594 38.631916
37.967804 16.874378 48.504883 45.2127 45.019886 53.40283 53.908783 59.609867
37.150284 -0.005264081 29.039368 30.871523 35.905464 15.969502 31.649357 35.801212
51.04212 50.136806 39.477993 46.03758 44.16097 46.70723 44.575855 40.521236
0.020423532 52.42162 36.642067 26.718584 42.447674 36.91553 46.008717 49.017662
26.930647 41.80576 45.694256 38.06952 44.151306 45.49538 52.711296 -0.042360805
43.626263 28.298248 42.03033 21.172394 56.373997 42.207325 41.729595 48.87206
49.11696 32.121597 47.342743 47.380157 34.002003 41.88765 -0.014639743 15.72015
35.67306 26.614738 11.650479 32.642475 24.305082 34.897167 37.809074 38.16992
37.387173 34.53275 29.220842 35.259823 22.760176 -0.01975786 16.568592 34.501083
0.041584097 -0.03805525 -0.062070474 0.0270468 0.044899695 -0.06101624 -0.019501314 -0.0102427825
0.021054342 0.06185726 0.021429159 0.050003693 -0.058914334 0.005179785 0.05731921 0.05774828
0.036231846 0.056715034 -0.020629719 0.036731422 0.053297155 -0.036581002 0.037906095 -0.004378356
0.004481666 -0.0097718015 -0.043182686 -0.03467074

base.em.weight f4 [14, 1]
00000000: 0000 0000 562e 4b43 714d 39c3 11ec 39c3
00000010: 1dac 40c3 8ea3 2843 ab87 41c3 ec4d 4843
00000020: 09b2 4643 0a09 1943 640a 17c3 ce32 72c2
00000030: f015 fec2 0a20 4d41
0.0 203.181 -185.3025 -185.92213 -192.67232 168.63889 -193.52995 200.30438
198.69545 153.03531 -151.04059 -60.549614 -127.04285 12.820322

out.weight f4 [196, 256]
00000000: 1963 1f3e 6745 003e b13e 01be 2655 1d3e
00000010: f79b abbc 9896 4e3d 0dca 683e 5213 b13e
00000020: a6f4 9eba b0ff d8bd 32ea 26bd 50d9 dabd
00000030: f022 91bc 40b6 0e3f 1afc 83bd 93f0 0fbc
00000040: 2286 2dbc ad4e 9abd 8144 e0bc dda0 073e
00000050: a6f3 e13c b68a 2abb ca20 4fbe 063c d8bd
00000060: a426 d3bd f70b 9f3e 9e5a 853e 8205 503e
00000070: 878f 91bc bd0d 703d edc9 c8be 64cb 3ebe
00000080: f806 bebd 78de 043e 9861 5ebd fd23 213e
00000090: 6636 403d c643 d73d 7f1f 84be d8bd 92bd
000000a0: 1923 993e bcd5 343d fcce 2ebe b8bd 003e
000000b0: bcc6 a03c 5c09 5bbd da80 843e c172 693e
000000c0: 48d5 9dba dedb bc3b 797c cebc 5131 2e3c
000000d0: 39d0 e4bd 17ad 8c3e 057a df3d 17ff 513e
000000e0: 8fca 66bc 11f5 943d bb5c 64bd 44b3 8d3e
000000f0: d437 1abe 3d31 423e f39e fbbd 1c79 52be
00000100: d5ff 02be a3ea 84be de67 8fbb 437c 2abd
00000110: 686d d5bd 4adf 3bbe 1fe7 91bc af40 bebd
00000120: 86b8 0b3e 5cb7 2bbb e0ea 1cbe 8af1 f6bd
00000130: 1403 843e 9622 0d3e 35e5 253e 0a55 56bd
00000140: 8430 1b3c f44d 85bd 1af3 0fbc 9ae3 b23d
00000150: 5040 ddbd 21ff 8bbd ea62 08bc c0bd babd
00000160: 4cec 3ebe e82f 50bd db97 e23f d49c 943d
00000170: 1780 6d3c f96a 833e 527c 25bd e095 73bd
00000180: 2f83 dfbd 6ca0 53be 1f39 d53d 2f97 433d
00000190: 4f5c 84be ac7b 0fbe 7883 8a3e 5da8 31be
000001a0: 105c d1bd 38da 6f3f d658 e2bd 1cef feb9
000001b0: 372a 003d 705d 373d a169 bb3d bbdc f3bd
000001c0: fbec 34be c64c 49bd da7a b8bb 9062 663d
000001d0: 03e5 3fbe dd1d 3a3b 41c9 3b3f ec37 d5bd
000001e0: 4461 553e 80ab 5a3d a6ae 2e3d 10f1 b73d
000001f0: c202 a83d fc22 c0be 8734 5cbc 407c 0e3e
00000200: 7a40 1c3d f509 b3bd a37a 27be 2c47 d7bb
00000210: 1487 24be 8521 153d 2d73 d8bd 7f1e 853d
00000220: 7b9c a83e 08a4 9f3c e7bf a6bd 6850 813e
00000230: 177d 6cbc 473c 8f3c f83c 3c3e 649a 323d
00000240: 1445 263e 2a8d ef3d 08bd 673d 2572 cc3d
00000250: 611f debd 5bd3 cabd 3b27 7dbd b65d 213b
00000260: b531 1b3e 4ddf b4bd 2929 c4be 3c50 b1bd
00000270: 81a5 283d 6a51 21bd f8e2 893c 3dd8 4dbe
00000280: 06cb a3bd d9aa 2cbe 647d 8a3d 4571 63be
00000290: 84bf 28be c1c6 bcbd 7fca d5bd 4773 afbc
000002a0: 8b8b 2cbd f2f3 ea3d edbc f63d 6e06 293e
000002b0: bebc 8dbd dd4b 853c 5c22 babd 1f1b fbbc
000002c0: a33e 52bd d179 0dbe 7df8 e03d 18aa 2e3d
000002d0: 68d0 82bc d80b 8dbd 4047 18be e78d cf3d
000002e0: a4c6 97bd f095 32be 2a95 f1bd eea0 aa3b
000002f0: 81d1 e43d f039 493c 91e3 8a3d c3cb 92bd
00000300: 6275 723e 5442 da3d d799 debd 2aea d73d
00000310: 93ed cbbc 89a9 803d 2022 d63c 61a0 19bd
00000320: 80e7 18be b978 8e3d 3e3a 14bd 8a81 efbd
00000330: af87 34bd c612 3b3d b9a9 6b3d fc00 cfbd
00000340: 7ac0 0cbd ab46 903e 9cdc 2b3e 5a64 d4bc
00000350: d198 a4bd e23d f23d 325e 6bbd 6adc 16be
00000360: ae56 333d 2cf3 9f3e 14bf b43d 7317 e9bd
00000370: d96e 213e 3250 733d ba90 a93a e29d 54bc
00000380: 4ab6 493d 6b09 5d3e 76ee 04be 1085 e83d
00000390: 8f3b 33be 8e30 0d3d 6dc2 16bd 9b51 313e
000003a0: fa6c 483e b861 8b3d d5f2 a2bd 60a9 94bc
000003b0: d576 bfbd 750a 4b3e 4459 283d a86d 803e
000003c0: 6ec4 043e 2b32 563a 0b87 3a3b b8f3 32be
000003d0: b088 163e ca7d b8bd c2cf 2cbe e18b f03c
000003e0: 17b1 373f 9784 e43d 81dd 953c 4bb8 52bd
000003f0: 9bdf 69bb 3933 97bd 5944 9abd f3dd 963e
0.15565147 0.12526475 -0.12621571 0.15364513 -0.020948393 0.050436586 0.22733326 0.34585053
-0.0012127354 -0.105956435 -0.04075069 -0.1068598 -0.017716855 0.5574684 -0.06444569 -0.008785385
-0.010591062 -0.075345375 -0.027376415 0.13244958 0.027582001 -0.002602262 -0.20227352 -0.105583236
-0.103101045 0.31063816 0.26045698 0.20314601 -0.017768634 0.05860685 -0.39216557 -0.18632275
-0.09278673 0.1297549 -0.05429229 0.15736385 0.04692688 0.10510974 -0.2580528 -0.07165116
0.2990959 0.044149145 -0.17071146 0.12572372 0.019626014 -0.053475723 0.25879556 0.22797681
-0.0012041712 0.005763515 -0.025205838 0.010631875 -0.11172528 0.27475807 0.10911945 0.20507465
-0.01408638 0.07273305 -0.055752497 0.2767583 -0.15060359 0.18964095 -0.122861765 -0.20554012
-0.12792905 -0.25960264 -0.0043763956 -0.04162241 -0.10421258 -0.18346897 -0.017810402 -0.09289681
0.13644609 -0.002620182 -0.15323973 -0.12057789 0.25783598 0.13782725 0.16200717 -0.052327193
0.009472016 -0.06509009 -0.008785987 0.08734818 -0.10803282 -0.06835771 -0.008324364 -0.09118223
-0.18644828 -0.050826937 1.7702593 0.07256475 0.014495871 0.2566755 -0.040401764 -0.059469104
-0.10913693 -0.20666665 0.104112856 0.0477516 -0.25851676 -0.14012021 0.27053428 -0.17349382
-0.10222638 0.9369235 -0.110521 -0.00048624806 0.03129026 0.044766843 0.091510065 -0.11907335
-0.17668526 -0.049145482 -0.0056298794 0.05624634 -0.18739705 0.0028399148 0.73353964 -0.10411057
0.20837885 0.05338621 0.042647026 0.08981526 0.08203651 -0.3752669 -0.013440258 0.13914585
0.038147427 -0.087421335 -0.16355376 -0.0065697636 -0.16067153 0.03640892 -0.10568843 0.06499957
0.32931885 0.019487396 -0.08142071 0.25256658 -0.014434121 0.017484797 0.18382633 0.04360427
0.16237289 0.11696847 0.05657676 0.09982709 -0.10845829 -0.09903594 -0.06180499 0.0024622506
0.1515568 -0.08831654 -0.38312653 -0.086578816 0.04117346 -0.039384283 0.01683186 -0.2010202
-0.07997708 -0.16862048 0.067621976 -0.22211178 -0.16479307 -0.09217597 -0.10439014 -0.021417273
-0.042125266 0.1147231 0.120477535 0.16506359 -0.06920765 0.016271526 -0.09088585 -0.03065258
-0.051329266 -0.13816 0.109848954 0.042642683 -0.015968516 -0.06887025 -0.1487093 0.101344876
-0.074109346 -0.17440009 -0.11796029 0.0052071726 0.11172772 0.01228188 0.06781686 -0.07167771
0.2367759 0.10657182 -0.10869186 0.1054271 -0.024893558 0.06282336 0.026139319 -0.037506465
-0.1493206 0.0695662 -0.036188357 -0.116946295 -0.04407471 0.0456722 0.057534907 -0.1010761
-0.034363247 0.28178915 0.16783375 -0.025926758 -0.0803696 0.118282095 -0.05746288 -0.14732519
0.043783836 0.31240213 0.08825508 -0.11381426 0.15764941 0.059402652 0.0012936809 -0.012977095
0.04924611 0.21585624 -0.1298159 0.11353505 -0.17503189 0.034470133 -0.036806513 0.17316286
0.19572821 0.06805748 -0.07956473 -0.01814717 -0.09348837 0.19828208 0.041100755 0.2508366
0.12965557 0.0008170928 0.002846184 -0.17475784 0.1470058 -0.09008367 -0.16876128 0.029363574
0.7175459 0.11158102 0.018294098 -0.051445287 -0.0035686258 -0.07382817 -0.075325675 0.2946621

out.bias f4 [196]
00000000: 8082 8fbe 3943 5d42 1e86 5b42 d837 2b42
00000010: d8e7 4c42 784e 2e42 2a8d 3642 3cf2 3242
00000020: fc30 3442 3247 3942 b471 4742 42a3 0242
00000030: 997f 8b41 b41f 0942 083f 7042 08fd 593c
00000040: 9c2d 6f42 a11b 3942 1118 5442 dae8 5d42
00000050: 2c94 3c42 7e32 5d42 592b 5142 6475 1942
00000060: 5bf1 3f42 57c0 df41 3c54 2142 6979 1842
00000070: 46c1 3942 e1dd 4242 0075 bc39 dec0 1542
00000080: 1359 5842 7a7e 3a42 8e6c 5b42 7587 2242
00000090: 4fe0 4042 e07a 2d42 cd27 2542 a285 f841
000000a0: 0ea4 2d42 5dbe cc41 fb74 2a42 7aba 4d42
000000b0: 6d60 6942 8866 39bd 217d 7642 c8f1 1742
000000c0: 1c23 fc41 ebe9 1542 368e 1742 aac4 fa41
000000d0: fec1 4d42 a5b8 1742 5026 e841 d98e 0242
000000e0: e834 3142 0b07 5042 27d5 6b42 6360 7642
000000f0: dcfe 883c 2184 4a42 e242 4e42 2ec5 e141
00000100: 8dfe 1742 de97 4842 8456 0142 33af 0c42
00000110: 3ff2 be41 ada8 0c42 ae93 6442 899f 6e42
00000120: 4d20 5542 9bce 3642 1c49 5242 80b9 3ebc
00000130: 0227 5042 1d10 2b42 795a 3242 44e0 1642
00000140: 6c1f dd41 d88c 9541 7746 1542 668d e341
00000150: c6c3 6c42 63e7 5042 2e44 5b42 a872 3442
00000160: 6de0 8042 a997 0142 2a7a 453d afce 1942
00000170: 95b5 3842 a148 1242 a4b8 2542 851c 1b42
00000180: f9dd 1642 0799 8641 6de8 4142 0548 3442
00000190: dda1 3342 056f 5542 d02f 5742 71a1 6d42
000001a0: 8813 1442 507e acbb acb9 e741 61e2 f641
000001b0: ca85 0f42 2d88 7e41 b0bd fc41 29bf 0e42
000001c0: a3cf 4b42 ec4b 4842 c988 1d42 2a8d 3642
000001d0: 7dda 2f42 be33 3b42 a488 3242 4610 2242
000001e0: 404f a73c e82d 5142 80e4 1242 7750 d541
000001f0: b978 2942 1a69 1342 23f5 3742 c69c 4342
00000200: 9ce3 d641 5f4a 2742 b44b 3542 fb38 1842
00000210: 7f3a 3042 799b 3542 d17e 5242 8682 2dbd
00000220: 255e 2d42 f6d2 e041 8d38 2742 a9e9 a841
00000230: d05c 6142 6d15 2842 6ed8 2642 31fb 4242
00000240: 9cf5 4342 e23b 0042 8f1c 3d42 9047 3d42
00000250: fbb4 0742 7506 2742 88db 6fbc 943b 7d41
00000260: 0451 0e42 2a08 d541 fbb3 3741 fa68 0242
00000270: cf70 c241 eec3 0b42 ccb4 1642 22a7 1842
00000280: 3356 1542 8921 0a42 12cb e841 297f 0c42
00000290: d714 b641 3cdb a1bc 93d8 8341 979f 0942
000002a0: 1654 2a3d d2df 1bbd 9c3d 7ebd 4091 dd3c
000002b0: bee8 373d 2aec 79bd 38c1 9fbc 58d1 27bc
000002c0: 287a ac3c 0a5e 7d3d 348c af3c acd0 4c3d
000002d0: 2850 71bd 30bb a93b 8cc7 6a3d 7689 6c3d
000002e0: d867 143d 064e 683d a8ff a8bc b073 163d
000002f0: 1e4e 5a3d f6d5 15bd 6c43 1b3d 5078 8fbb
00000300: f0da 923b e819 20bc 54e0 30bd e802 0ebd
-0.2802925 55.315647 54.880974 42.804535 51.22641 43.57663 45.637856 44.736557
45.047836 46.319527 49.86104 32.65943 17.437304 34.28096 60.061554 0.013304956
59.79454 46.27698 53.023502 55.477394 47.1447 55.29931 52.29233 38.36464
47.9857 27.968916 40.33226 38.118565 46.438744 48.71668 0.00035945326 37.438347
54.086987 46.623512 54.85601 40.632282 48.21905 43.369995 41.288868 31.06525
43.41021 25.59295 42.61424 51.432106 58.344166 -0.045263797 61.622196 37.986115
31.517143 37.478436 37.888878 31.346027 51.439445 37.930317 29.018707 32.6395
44.301666 52.006878 58.958157 61.594128 0.016723089 50.629032 51.565315 28.22128
37.998585 50.148308 32.334488 35.171093 23.868284 35.164722 57.14422 59.655796
53.281544 45.701763 52.571396 -0.011640906 52.038094 42.765736 44.588352 37.71901
27.640343 18.693771 37.318813 28.444042 59.191185 52.225964 54.81658 45.11197
64.43833 32.398106 0.048212208 38.45184 46.177326 36.570927 41.430313 38.77785
37.71677 16.82472 48.47698 45.07033 44.90807 53.358418 53.79669 59.407658
37.019073 -0.005264081 28.96566 30.860537 35.880653 15.908246 31.59262 35.68668
50.95277 50.074142 39.38358 45.637856 43.963367 46.80053 44.63344 40.515892
0.020423532 52.29483 36.723145 26.66429 42.367893 36.85264 45.98939 48.9031
26.861137 41.822628 45.32393 38.055645 44.057125 45.40183 52.623844 -0.042360805
43.341938 28.103008 41.805225 21.114092 56.340637 42.020924 41.711357 48.745304
48.989853 32.05848 47.27789 47.319885 33.92674 41.756306 -0.014639743 15.827045
35.579117 26.628986 11.481441 32.602516 24.305082 34.941338 37.67656 38.163216
37.33418 34.53275 29.099155 35.12418 22.760176 -0.01975786 16.48075 34.40585
0.041584097 -0.03805525 -0.062070474 0.0270468 0.044899695 -0.06101624 -0.019501314 -0.0102427825
0.021054342 0.06185726 0.021429159 0.050003693 -0.058914334 0.005179785 0.05731921 0.05774828
0.036231846 0.056715034 -0.020629719 0.036731422 0.053297155 -0.036581002 0.037906095 -0.004378356
0.004481666 -0.0097718015 -0.043182686 -0.03467074

exp_avg f4 [14, 1]
00000000: 0000 0000 37ae 19c8 0ab8 6647 9065 6747
00000010: 72de b047 aa49 31c7 4c6f 6747 b9b2 98c7
00000020: 4c3f 82c7 6b43 eec6 b21d a246 be12 8bc6
00000030: a298 4ec5 ec62 b842
0.0 -157368.86 59064.04 59237.562 90556.89 -45385.664 59247.297 -78181.445
-66686.59 -30497.709 20750.848 -17801.371 -3305.5396 92.19321

exp_avg_sq f4 [14, 1]
00000000: 0000 0000 0b09 9c50 f92f 4e4f 6c3e 6b4f
00000010: c34c ca4f 9af7 064f b579 574f 646a a24f
00000020: 4799 9d4f 0ca5 a54e b3f9 964e daf7 844d
00000030: 63d4 ba4d 8b1b f94b
0.0 2.0942707e+10 3.4592504e+09 3.9467366e+09 6.7880566e+09 2.2643738e+09 3.6150776e+09 5.449763e+09
5.288136e+09 1.3895286e+09 1.2664733e+09 2.7885446e+08 3.9181014e+08 3.265103e+07

exp_avg f4 [196, 256]
00000000: 1ebf 6d37 0400 0000 6110 b8b6 65b3 7635
00000010: ce78 dd37 8575 48b6 c247 40b8 36ca 54b8
00000020: 14ec 68b7 88d7 1637 98e6 f337 e85a 5338
00000030: 0000 0000 0400 0080 c678 6c38 69cc 1535
00000040: afb2 44b8 b62b 93b8 395d 99b6 0400 0000
00000050: b805 9937 da76 3eb8 2af1 80b6 6895 b1b6
00000060: 6aab 48b7 e01d 3235 b905 3138 0400 0080
00000070: ff7d f936 d528 9ab8 0400 0080 67ce 0fb6
00000080: 0400 0080 b371 cb38 25da 74b8 be6d 5036
00000090: 70cd 3438 5d9f 5ab7 f81b b2b7 9cbc 0d37
000000a0: 129e 8038 0000 0000 700e 4835 d4c6 9137
000000b0: 0000 0000 0000 0000 d0ac 04b8 1e9a aeb8
000000c0: 132a 4ab7 ee0f 31b7 dd89 4236 4bc7 3634
000000d0: 7b49 6238 7baa 0137 9f90 7837 9963 39b8
000000e0: 806a 4d35 9a61 2b38 5b4a acb8 0400 0080
000000f0: 9389 0eb5 6d90 2cb7 11a9 74b8 59e1 1c36
00000100: eb7f 0ab8 472d aa37 44ad 36b8 578f 77b5
00000110: 001e 16b8 0400 0080 4177 75b6 449e 3a36
00000120: f79c 2835 c62a 6938 2bb1 23b7 b68a d9b6
00000130: e745 b837 41f3 0eb8 8202 fdb6 0000 0000
00000140: 17c0 1838 10b6 9b36 03e5 c3b7 0422 9e37
00000150: 2279 d7b5 1697 afb8 aed5 e3b8 636f 95b5
00000160: 0400 0000 3107 29b8 f225 d9b5 34f1 5fb7
00000170: 7741 9235 e809 5637 0000 0000 2286 4636
00000180: de7e 0fb7 0400 0080 2b1f f4b7 60dc a0b8
00000190: 0400 0000 db5d 8438 ef4e 3fb8 7170 89b8
000001a0: a4c3 dc37 b622 96b7 c94d ac35 7611 5b38
000001b0: 0e1b fc36 6f9b 3636 0400 0080 5727 67b8
000001c0: 7155 e136 ccee b133 53ef 2338 0000 0000
000001d0: 2bf2 2ab8 0400 0080 0400 0080 36a9 c1b7
000001e0: d869 ea37 3386 41b8 b006 4432 7c37 6337
000001f0: 5705 28b7 04a6 b735 e130 50b8 c1e6 13b8
00000200: b86f fcb7 4a13 6835 006f 1eb6 f05b 94b8
00000210: 0400 0000 08ef 3d36 3552 56b8 0400 0080
00000220: 100c 6c37 0000 0000 b653 b6b5 3d5d 4a37
00000230: 1b2a 8cb8 3410 d037 5146 5938 78b9 1d38
00000240: df76 6fb8 ac57 3fb8 c905 d237 52d1 8a37
00000250: 18d1 0637 b688 bdb7 d11c 4db8 836f fab7
00000260: 0400 0000 eb0b 2f38 225a 8535 a4ab 0835
00000270: 0400 0080 400a c1b7 0000 0000 feba 77b7
00000280: 9862 0536 96f8 e9b6 3218 37b6 12b0 e2b5
00000290: b954 08b8 5cd6 51b7 9067 5c37 31be 0138
000002a0: 5367 f537 5e54 2738 df33 f9b6 51ff 0534
000002b0: d9e7 9ab7 ae49 6435 838c 4236 78db 2b38
000002c0: 0400 0080 17a6 0638 b585 90b6 0909 2fb7
000002d0: aebe d436 8bd8 e8b8 fc79 a2b6 bc56 3fb8
000002e0: e730 a737 1f8e 0d37 39f9 8438 71ac bd37
000002f0: 8c0a 9036 47b5 db36 ee5f 1738 ba82 d8b7
00000300: 6c03 4db7 1e36 a7b7 a3f6 32b8 8e52 fa35
00000310: 84d8 c2b6 0400 0000 3fc5 f1b4 0468 d9b6
00000320: 0b34 b6b7 db18 8bb8 15ba 4ab7 7045 a3b7
00000330: 91be 6bb8 0faa 4e37 98c7 96b6 8cc5 8eb6
00000340: 0000 0000 5498 0c37 90c4 5838 8b39 3337
00000350: 21eb c737 0400 0000 54cf 4e38 f420 0fb8
00000360: 0000 0000 290f a534 0400 0000 89a6 33b8
00000370: df0c 0038 aa6e 4ab8 19f7 a137 0666 cbb8
00000380: eda8 02b6 da01 2eb8 06d4 0ab8 42b7 2636
00000390: fa31 e4b7 0000 0000 8b21 feb7 fe33 88b6
000003a0: 0400 0080 15a5 d834 825a 8e35 e0bd 17b8
000003b0: c071 86b7 0400 0080 0000 0000 0400 0080
000003c0: 4379 a7b7 e74e 50b8 9848 d4b6 8f46 3db8
000003d0: 006b 31b8 e67e a4b7 f75c 9ab7 ba13 f3b7
000003e0: 64d5 25b8 72a4 f5b7 6a92 5633 a3e6 2a38
000003f0: b48a 9bb8 0c70 5236 6904 1338 1303 1c38
1.4170799e-05 6e-45 -5.485534e-06 9.1903195e-07 2.6401507e-05 -2.9870728e-06 -4.5843197e-05 -5.0733062e-05
-1.3883244e-05 8.990879e-06 2.9075236e-05 5.0390983e-05 0.0 -6e-45 5.6379264e-05 5.580428e-07
-4.6896454e-05 -7.017648e-05 -4.570608e-06 6e-45 1.8241684e-05 -4.541022e-05 -3.8427725e-06 -5.2924042e-06
-1.1960839e-05 6.635364e-07 4.2205418e-05 -6e-45 7.435446e-06 -7.350898e-05 -6e-45 -2.1428802e-06
-6e-45 9.7009724e-05 -5.8377296e-05 3.1058294e-06 4.3106673e-05 -1.3030917e-05 -2.1232278e-05 8.448169e-06
6.1329585e-05 0.0 7.4526815e-07 1.7377934e-05 0.0 0.0 -3.1632197e-05 -8.325673e-05
-1.2049934e-05 -1.0553731e-05 2.89885e-06 1.7022573e-07 5.3951033e-05 7.728692e-06 1.4815624e-05 -4.4200195e-05
7.652343e-07 4.0860476e-05 -8.215449e-05 -6e-45 -5.309932e-07 -1.0285626e-05 -5.833159e-05 2.337698e-06
-3.3020897e-05 2.0286663e-05 -4.3553548e-05 -9.222326e-07 -3.5790727e-05 -6e-45 -3.657726e-06 2.7808283e-06
6.281329e-07 5.5591365e-05 -9.756807e-06 -6.483252e-06 2.196706e-05 -3.4081986e-05 -7.5402795e-06 0.0
3.641852e-05 4.640555e-06 -2.3352453e-05 1.8850908e-05 -1.6054003e-06 -8.372792e-05 -0.000108640044 -1.1133783e-06
6e-45 -4.0299437e-05 -1.6178803e-06 -1.3347995e-05 1.08969e-06 1.27577005e-05 0.0 2.9582375e-06
-8.553003e-06 -6e-45 -2.910158e-05 -7.6704426e-05 6e-45 6.3117324e-05 -4.561146e-05 -6.553613e-05
2.6317146e-05 -1.7897557e-05 1.2837637e-06 5.222993e-05 7.513335e-06 2.7210588e-06 -6e-45 -5.511133e-05
6.715469e-06 8.285642e-08 3.9085116e-05 0.0 -4.0756695e-05 -6e-45 -6e-45 -2.3086188e-05
2.7944261e-05 -4.613977e-05 1.1410222e-08 1.3543173e-05 -1.0014824e-05 1.3682879e-06 -4.9636586e-05 -3.5262437e-05
-3.0092764e-05 8.6454804e-07 -2.3608445e-06 -7.0743146e-05 6e-45 2.830233e-06 -5.1098137e-05 -6e-45
1.4069505e-05 0.0 -1.358442e-06 1.2061847e-05 -6.683563e-05 2.4803077e-05 5.180232e-05 3.7604448e-05
-5.7092748e-05 -4.56196e-05 2.5036645e-05 1.6548354e-05 8.035706e-06 -2.2594217e-05 -4.8902646e-05 -2.9854249e-05
6e-45 4.173435e-05 9.935504e-07 5.091372e-07 -6e-45 -2.3012166e-05 0.0 -1.4765885e-05
1.9875934e-06 -6.9728803e-06 -2.7283209e-06 -1.6889555e-06 -3.250383e-05 -1.250728e-05 1.3137134e-05 3.0933126e-05
2.925439e-05 3.9894476e-05 -7.426817e-06 1.2479474e-07 -1.8466193e-05 8.5043837e-07 2.8990041e-06 4.0973973e-05
-6e-45 3.2102773e-05 -4.3071e-06 -1.04329165e-05 6.3402904e-06 -0.00011102956 -4.842177e-06 -4.5618726e-05
1.9930723e-05 8.437345e-06 6.340672e-05 2.2610855e-05 4.2927622e-06 6.547812e-06 3.6090547e-05 -2.581008e-05
-1.2219749e-05 -1.9933152e-05 -4.2668205e-05 1.8650478e-06 -5.8068563e-06 6e-45 -4.5033264e-07 -6.479213e-06
-2.1720325e-05 -6.632666e-05 -1.2083464e-05 -1.9463449e-05 -5.6205845e-05 1.2318152e-05 -4.493584e-06 -4.2549273e-06
0.0 8.380117e-06 5.1681476e-05 1.0682629e-05 2.3832139e-05 6e-45 4.9307317e-05 -3.4124547e-05
0.0 3.0744675e-07 6e-45 -4.2832024e-05 3.0529565e-05 -4.8263617e-05 1.930776e-05 -9.698798e-05
-1.9469837e-06 -4.1486557e-05 -3.3099226e-05 2.4842598e-06 -2.720299e-05 0.0 -3.029478e-05 -4.0591685e-06
-6e-45 4.0353248e-07 1.0606166e-06 -3.617804e-05 -1.6027014e-05 -6e-45 0.0 -6e-45
-1.9964418e-05 -4.9664548e-05 -6.3265434e-06 -4.5126824e-05 -4.229974e-05 -1.9609415e-05 -1.840152e-05 -2.8977043e-05
-3.95378e-05 -2.9282852e-05 4.995892e-08 4.0745956e-05 -7.4168114e-05 3.1357658e-06 3.505164e-05 3.719616e-05

exp_avg_sq f4 [196, 256]
00000000: 0b40 123f b26d 8330 ca52 8d3b 7375 ce38
00000010: fee3 2d3f 2381 fa3e 3ff2 6d3f a950 423f
00000020: 0856 123f 3404 9c40 e1b1 0040 9440 893f
00000030: 0000 0000 2093 6321 db57 c03e 52a5 c33e
00000040: 1ffd 2740 c1f9 6c40 a68f 5b3f 721e 1c24
00000050: 1475 fb3f 0648 0741 9ea5 e33a eef6 413d
00000060: 6f65 3d40 1895 b43d 5ed8 a53f 7bfe 7f30
00000070: 181b 073f 17a4 0240 0189 a42d 1671 9a3f
00000080: 3b25 a323 2e16 d83f 2484 a73f 47cf b43e
00000090: 1251 8b3f 8980 7b3e e33c 303f a6c7 9e3f
000000a0: ccc1 103f 0000 0000 75a1 df3d 7983 0c3d
000000b0: 0000 0000 0000 0000 5075 313f 345f 9b40
000000c0: ca99 5a3e 2ca1 b83e d344 cb3d b7bb a23d
000000d0: 4396 953f 4237 b73d 684a 173e 1b02 fb3e
000000e0: 9209 793d 10dd 503e 1335 e440 fc88 3337
000000f0: 915c ab3f c063 c33f 7a57 0f3f 63cb 103f
00000100: c574 fe3f 787f 8d3f ca1f 873f b2b1 c63d
00000110: 11b0 d53f 9917 061e 8ca8 2c3e 6d6b 4c3f
00000120: 1422 273d 56ca 553f 0149 143e fbab 8f3f
00000130: 3d6c 213f d0cd 923f 69d0 f23e 0000 0000
00000140: ed81 1d3e d683 933e 1c85 0941 0804 5b3f
00000150: c641 053d 356d 8c40 3ef4 3041 e662 623c
00000160: db87 011d 4678 803e 404f d43a 080f 853e
00000170: c4ce b83d d902 f43f 0000 0000 dd1d 9d3f
00000180: 8b43 063e d3a2 061f ae36 8540 3631 df3f
00000190: 72e9 6420 79d8 b83f 2b1b 983e 9518 d93f
000001a0: 5471 7a3f b4bc 4e3f cfc4 2b3e d270 ce3f
000001b0: 885d 493d c622 003f e7b2 ca28 8ebd 8240
000001c0: 9ac6 8340 d42e 393a 1552 873e 0000 0000
000001d0: a957 6b3e 8124 8e2b 7c8a 8b2f ab44 263f
000001e0: 1f9d f73d 4c5e 863f acae 8837 9c39 973f
000001f0: 94e2 0040 6c0f 033e 8c6a 333f df2e ec3f
00000200: 79c7 033e c502 9f3d eb33 de3b 1266 733f
00000210: c659 be1c e087 543f a16e 6540 24f3 ab37
00000220: e0ea c63e 0000 0000 03c3 e23e c1f7 0b40
00000230: f77e d33f 77e4 403f 13dc 023f fffc 993e
00000240: 5063 553f 7c77 9c40 681e d53f 2022 c93d
00000250: 942a 813e 2bd7 583f efa4 ab3e e23b 2240
00000260: cb51 072e edbc cb40 ec42 463e c573 fc3f
00000270: c4a0 9037 9e85 1941 0000 0000 f786 af3e
00000280: 9e75 453f 90dc 483e fa95 543c bb38 1a3e
00000290: ba5d 2640 b100 f33f a117 2d41 2152 6d3e
000002a0: 3b2e b73f 2398 b53e cd5b 193e a143 263d
000002b0: b95e 073f 260f 103e 3794 8a3f 1a4f 003f
000002c0: 3796 9138 488a 6a3f 2844 ca3f e727 093e
000002d0: 7361 953f a14d 5e40 3441 613b 5a77 463f
000002e0: 46b7 8e40 af8f 7f3f d1f4 9d3f cc51 a440
000002f0: 731f 2040 80a6 e33f aea5 ad3f 036b 2d40
00000300: 6bb4 4740 13fc 673e b939 ae3f cbd4 173d
00000310: 130f f03d 42ed f330 79b9 963e b8bc f93d
00000320: 548f 3840 c342 e43f b20a f93e 3f14 ed40
00000330: d808 bb40 d5e1 f43f 3067 ee3c 719e 453e
00000340: 0000 0000 be53 103d 894c 713f 56e3 fe3f
00000350: 378a 3e3f d191 f030 325f ff3e 4b58 aa40
00000360: 0000 0000 841b 8838 8a66 1215 cc81 2a40
00000370: 7915 0d40 8b4e 803f 9a15 9d3e a253 9040
00000380: 596d 1a3f 43c3 783e 94da 333f 4f64 d73e
00000390: 13de 6a40 0000 0000 e464 b440 6cd7 963f
000003a0: 6b8f 072c 435a 033d 2d26 ed3d 190d 3a3e
000003b0: 0528 8640 4bbd 9d22 0000 0000 0ce5 5830
000003c0: 8653 153f d332 b93e 2f33 4b3d 6106 0140
000003d0: 4f0d 1540 2865 c540 5115 473e 40fc c03e
000003e0: 1e31 5c3e 0aa4 aa3e 37aa 8c3e d301 9d3f
000003f0: 49d2 8440 bddf f73b f5d3 a03f f918 233e
0.5712897 9.562682e-10 0.0043128477 9.844722e-05 0.67926013 0.48926648 0.92947763 0.7590433
0.57162523 4.875513 2.0108569 1.0722833 0.0 7.710531e-19 0.37567028 0.38212067
2.6248243 3.7027438 0.85766065 3.3852896e-17 1.9645104 8.455084 0.0017368083 0.04735463
2.959316 0.088175 1.2956655 9.31301e-10 0.52775717 2.0412652 1.8705483e-11 1.2065761
1.7688263e-17 1.6881769 1.3087201 0.3531439 1.0884116 0.24560751 0.68842906 1.2404678
0.5654571 0.0 0.10919467 0.03430507 0.0 0.0 0.6931963 4.8553715
0.21347728 0.36060464 0.099252366 0.0794596 1.1686481 0.089460865 0.14774477 0.49025044
0.060800143 0.20396829 7.131479 1.0701126e-05 1.3387624 1.5264816 0.55992854 0.56560344
1.9879385 1.1054525 1.0556576 0.097018614 1.6694356 7.098781e-21 0.1686117 0.7985142
0.040803984 0.83511865 0.14480974 1.1224359 0.63055784 1.1469059 0.4742463 0.0
0.15381594 0.2881152 8.594997 0.85553026 0.03253343 4.388331 11.059629 0.013817525
1.7143243e-21 0.2509176 0.0016197935 0.2598803 0.090238124 1.9063369 0.0 1.2274739
0.13111703 2.851029e-20 4.162925 1.7436893 1.9389592e-19 1.4441062 0.29708228 1.6960627
0.97829175 0.8075669 0.16774295 1.612818 0.049161464 0.5005306 2.2504092e-14 4.085639
4.1179934 0.0007064168 0.2642981 0.0 0.22982658 1.0099839e-12 2.5382352e-10 0.6494853
0.12090515 1.0497527 1.6293801e-05 1.1814456 2.0138292 0.12798852 0.7008445 1.8451804
0.12869062 0.077642 0.0067810914 0.9507762 1.2596351e-21 0.8301983 3.5848773 2.049801e-05
0.3885107 0.0 0.44289407 2.1869967 1.6523122 0.7534861 0.51117057 0.30075833
0.83354664 4.8895855 1.6649904 0.09820962 0.25227797 0.8470332 0.33524272 2.534905
3.0768093e-11 6.366812 0.19361466 1.972283 1.7241e-05 9.595121 0.0 0.34282658
0.77132595 0.19615388 0.01297521 0.15060703 2.5994706 1.8984586 10.818269 0.23175861
1.4310983 0.35467634 0.14976425 0.04059184 0.5287891 0.14068279 1.0826482 0.501207
6.9421185e-05 0.9161725 1.580205 0.13394128 1.1670364 3.473488 0.003437114 0.77525866
4.4598722 0.9982862 1.2340337 5.134985 2.5019195 1.7785187 1.3566186 2.7096565
3.1203868 0.22654752 1.3611366 0.03706817 0.11721625 1.774801e-09 0.2943838 0.12194198
2.883748 1.7832874 0.48640972 7.4087214 5.8448296 1.9131418 0.029101938 0.19298722
0.0 0.035236113 0.9425741 1.9913127 0.7442965 1.7503742e-09 0.49877316 5.323278
0.0 6.4901105e-05 2.9565354e-26 2.6641722 2.2044356 1.002397 0.30680543 4.510209
0.603231 0.24293236 0.702554 0.42068717 3.6698043 0.0 5.6373158 1.1784492
1.9264267e-12 0.032068502 0.11579547 0.18169059 4.192385 4.2755357e-18 0.0 7.890584e-10
0.5833057 0.36171588 0.04960936 2.0160143 2.3289373 6.168598 0.19441725 0.3769245
0.21503112 0.33328277 0.27473614 1.2266182 4.1506696 0.0075645135 1.2564684 0.15927495

exp_avg f4 [196]
00000000: 0534 00b5 713f 82c1 5000 abc1 3e39 30c1
00000010: fcdc 92c1 6f81 e3c1 e278 68c1 e78b 80c1
00000020: 7dc7 05c1 634f 47c1 78ab 99c1 bebd 993f
00000030: 15bc 9141 1d5c c740 2e3f 37bf 0000 0000
00000040: 1c71 7ac0 af90 9bc0 cbcd abc0 4256 39c2
00000050: a363 dbbf 8356 a63f 33d5 19c2 ba6f 7d40
00000060: ab8c a2c0 4c88 91c0 b886 0fbe 9d6a 3dc1
00000070: 3812 2a40 e7d4 b6c1 0000 0000 bcce 09c1
00000080: fd62 23c1 453b 26c1 62e2 6a41 bffc eec1
00000090: bdaa 73c1 de3d 2841 d838 0140 8906 63c0
000000a0: b484 1dbd bbad b63d 95c4 dd40 a9f8 72c0
000000b0: d058 29c1 0000 0000 4f26 51c1 bb24 ddc1
000000c0: 5b5a 7c41 cde3 0841 5468 a1bf 9909 b3c1
000000d0: 9380 f6c1 4ccc 1b40 0aa2 0cc0 373d 433c
000000e0: 2758 87c1 e3fe 78c1 ad04 33c0 3736 15c1
000000f0: 0000 0000 d8a5 83c0 4c84 d5c0 6370 54c2
00000100: 5c64 5bc0 ac04 dac0 f637 26c1 796f dc41
00000110: 4e6e f1bf 0da3 04be 2d45 9641 c17a 07c2
00000120: 4759 0cc2 70a7 edc0 ecbe d4c1 0000 0000
00000130: 9297 12c0 7d9e 87c1 ddcc c2bf fa24 dcbf
00000140: b145 7f41 fcfc 89bf 48ef 0b3c de26 58c0
00000150: 519d 39c1 1f90 59c1 5cb1 7fc1 cc1c 2bc0
00000160: 8808 ab40 9fb8 1f3f 0000 0000 5c3c f93f
00000170: 31f5 d440 cf0d f041 4467 abc1 4f02 18c1
00000180: 321f c9c0 822e e03b c40f 0cc2 5927 7e3f
00000190: 2849 15c1 a243 3cc0 20ac 3dc0 cebd 9340
000001a0: d562 ecc0 0000 0000 a123 81c1 01b6 1ac0
000001b0: fd24 a43e 19f7 a940 fac7 c23e 7105 cb3d
000001c0: 23a0 27c0 795c 76bf 7b16 a0c1 2d17 9bc0
000001d0: 18d8 6ac1 eb55 a041 5ed0 81be 0c3a 02c1
000001e0: 0000 0000 1e39 09c1 6611 3441 82f3 cbbf
000001f0: 35f4 b1bd 8fa5 c3bd 29df 2d3f 135d 25bf
00000200: c833 893f e413 28c0 c3f8 39bf b5d9 02be
00000210: bde7 1ec1 8a67 a13f a07b aac1 0000 0000
00000220: 6107 86c0 d91b 3ac1 8526 5bc0 98c4 76bf
00000230: a78d 76c0 ce8f 8ac0 f0c0 adbf f6c1 60c0
00000240: 6d84 22c0 9c78 e9be ffff 92bf 9da6 6ec1
00000250: 357b 83c0 11ac 0ac0 0000 0000 eb59 ff3f
00000260: 76a7 1abf a11e d8bd 549c d7c1 e133 883d
00000270: 0400 0080 2c88 81bf c3fe 00c1 e507 1ac0
00000280: ad0f 0b3f 0400 0080 2947 06bc 6196 50bf
00000290: 0400 0000 0000 0000 31e5 ddbf 5a82 d7bd
000002a0: 0000 0000 0000 0000 0000 0000 0000 0000
000002b0: 0000 0000 0000 0000 0000 0000 0000 0000
000002c0: 0000 0000 0000 0000 0000 0000 0000 0000
000002d0: 0000 0000 0000 0000 0000 0000 0000 0000
000002e0: 0000 0000 0000 0000 0000 0000 0000 0000
000002f0: 0000 0000 0000 0000 0000 0000 0000 0000
00000300: 0000 0000 0000 0000 0000 0000 0000 0000
-4.7759414e-07 -16.280977 -21.375153 -11.013975 -18.357903 -28.4382 -14.529512 -16.068312
-8.361203 -12.4568815 -19.208725 1.201103 18.216837 6.2299943 -0.7158078 0.0
-3.9131536 -4.8614116 -5.368871 -46.334236 -1.7139782 1.2995151 -38.458202 3.9599442
-5.0796714 -4.547888 -0.14016235 -11.838529 2.657362 -22.853956 0.0 -8.612972
-10.211667 -10.38947 14.680269 -29.873411 -15.229184 10.515104 2.0190945 -3.5472739
-0.038456634 0.08919855 6.930247 -3.796427 -10.584183 0.0 -13.071853 -27.642935
15.772059 8.555615 -1.2609963 -22.379686 -30.81278 2.4343443 -2.19739 0.01191645
-16.918043 -15.562228 -2.7971604 -9.325736 0.0 -4.1139946 -6.6723995 -53.109753
-3.4280005 -6.8130703 -10.388662 27.55443 -1.8861787 -0.12952824 18.783777 -33.869877
-35.087185 -7.426689 -26.593224 0.0 -2.290501 -16.952387 -1.5218769 -1.7198784
15.9545145 -1.078033 0.008540936 -3.3773723 -11.600907 -13.597686 -15.980801 -2.6736326
5.3447914 0.62391084 0.0 1.9471545 6.6549306 30.006742 -21.425423 -9.500564
-6.285058 0.0068414817 -35.015396 0.9927879 -9.33036 -2.941628 -2.9636307 4.6169195
-7.3870645 0.0 -16.142397 -2.4173586 0.3205947 5.3114133 0.38043195 0.09913147
-2.619149 -0.9623485 -20.010977 -4.846579 -14.677757 20.041952 -0.25354284 -8.139172
0.0 -8.576445 11.254248 -1.5933688 -0.08689157 -0.09553062 0.6791864 -0.64595145
1.0718927 -2.626214 -0.72645205 -0.12778361 -9.931577 1.2609723 -21.310364 0.0
-4.1884007 -11.631799 -3.424226 -0.9639373 -3.8523958 -4.3300543 -1.3574505 -3.5118384
-2.5393326 -0.4559983 -1.1484374 -14.915677 -4.10879 -2.166752 0.0 1.9949316
-0.60411775 -0.10552717 -26.951332 0.0665052 -6e-45 -1.0119681 -8.062198 -2.4067318
0.54320794 -6e-45 -0.008195677 -0.8147946 6e-45 0.0 -1.7335569 -0.105229095
0.0 0.0 0.0 0.0 0.0 0.0 0.0 0.0
0.0 0.0 0.0 0.0 0.0 0.0 0.0 0.0
0.0 0.0 0.0 0.0 0.0 0.0 0.0 0.0
0.0 0.0 0.0 0.0

exp_avg_sq f4 [196]
00000000: 0548 1b3b a7dc 4445 831d 0e45 1688 cd45
00000010: 6420 6345 ec89 f745 b972 bd45 8e9f 9145
00000020: bb00 0045 0595 bc44 c67a 8445 32ec 9d43
00000030: 410d 9044 de7b 8e41 f5f0 c244 0000 0000
00000040: b6ee 0645 300a c245 c3ad 2045 a250 9f45
00000050: 76f4 bc45 d5ba 9444 0de4 8d45 be9c a243
00000060: a157 ce43 a924 0246 0c92 7c40 d13e 1444
00000070: 737b a345 90fc 1745 0000 0000 6ea7 3c45
00000080: ae51 b544 3ea8 b845 b12b 9045 3f7d 8645
00000090: 499d e344 1bfd 8745 3187 5343 16f0 bf43
000000a0: b342 8a43 ba24 a23f dae2 b844 72a7 4c45
000000b0: a450 9944 0000 0000 b79d 7e45 2748 e845
000000c0: 794e 1945 b8f6 ad45 4f6f 8945 13d3 7945
000000d0: 89c0 9f43 0b14 2745 d133 1942 f2c0 bf3d
000000e0: 7fee af45 99c3 8945 cabf c844 60c3 4145
000000f0: 0000 0000 3983 4545 35e0 8244 6718 1e46
00000100: eda5 b145 c70c b343 8e6d 0545 7bcf 1844
00000110: e460 c242 baab 6a42 8263 2745 a825 da45
00000120: 0d22 bd45 4606 6845 3116 bc45 0000 0000
00000130: f04b 5944 f654 9d45 e543 5345 5c6b ce43
00000140: dd7a 6545 a338 4545 4db3 ed42 5dd2 4343
00000150: bc38 7a44 7b8d 0046 9d72 7d44 0e59 4444
00000160: 4874 0144 8c35 1345 0000 0000 708f 0f46
00000170: bb81 9f44 0825 4246 fa39 8145 22d1 a343
00000180: 66f1 8e43 57a9 a23e 1340 fd45 2b1b 1944
00000190: 9342 1f45 4b8e 0244 b5a2 7844 d6e4 bd43
000001a0: 5793 7343 0000 0000 760b f145 8ca6 1645
000001b0: f161 b444 55a8 1445 69cd 8943 5336 133d
000001c0: 1ca9 5e43 430b 9e43 797f 8245 a3ed a543
000001d0: d5d4 fb44 e494 8945 0739 8a44 25a1 8045
000001e0: 0000 0000 95db 8145 8b60 9c45 e800 fd43
000001f0: a0af ce40 538a b33f dd7a aa41 6122 0443
00000200: 6e5e 8044 3259 9c43 daa1 0342 df58 3b41
00000210: 25b7 5744 d632 8543 0e03 5544 0000 0000
00000220: 9562 1844 1f5a 8643 37b1 0242 f34d b142
00000230: f2eb ca43 c62c 6a42 2b8d b241 b8d0 1d43
00000240: d05d 9943 13f0 b840 2ab4 4e42 c512 8e43
00000250: a21e 0344 e3db 3a42 0000 0000 1379 9844
00000260: 14d2 b141 69d0 e144 6404 9945 bffb 5a3f
00000270: 81d3 8939 18b0 0442 1090 b643 da32 0d43
00000280: 1e16 6442 e215 d13c d907 373d 375a b840
00000290: 8da9 0637 0000 0000 6ca7 4143 6065 8d3e
000002a0: 0000 0000 0000 0000 0000 0000 0000 0000
000002b0: 0000 0000 0000 0000 0000 0000 0000 0000
000002c0: 0000 0000 0000 0000 0000 0000 0000 0000
000002d0: 0000 0000 0000 0000 0000 0000 0000 0000
000002e0: 0000 0000 0000 0000 0000 0000 0000 0000
000002f0: 0000 0000 0000 0000 0000 0000 0000 0000
00000300: 0000 0000 0000 0000 0000 0000 0000 0000
0.002369405 3149.7908 2273.8445 6577.0107 3634.0244 7921.24 6062.3403 4659.9443
2048.0457 1508.6569 4239.3467 315.84528 1152.4142 17.810482 1559.5299 0.0
2158.9194 6209.2734 2570.86 5098.079 6046.5576 1189.8385 4540.5063 325.22455
412.6846 8329.165 3.946414 592.9815 5231.431 2431.7852 0.0 3018.4644
1450.5525 5909.0303 4613.4614 4303.656 1820.9152 4351.638 211.52809 383.87567
276.5211 1.2667458 1479.0891 3274.4653 1226.52 0.0 4073.8572 7433.019
2452.9045 5566.84 4397.9136 3997.1921 319.50418 2673.2527 38.300602 0.09362973
5629.812 4408.4497 1605.9934 3100.211 0.0 3160.2014 1047.0065 10118.101
5684.7407 358.09982 2134.8472 611.2419 97.18924 58.6677 2678.2192 6980.707
6052.2563 3712.392 6018.774 0.0 869.1865 5034.62 3380.2434 412.83875
3671.679 3155.5398 118.8502 195.82173 1000.8865 8227.37 1013.79083 785.3915
517.8169 2355.3467 0.0 9187.859 1276.0541 12425.258 4135.247 327.63385
285.88593 0.3176982 8104.0093 612.4245 2548.161 522.2233 994.5423 379.78778
243.57555 0.0 7713.4326 2410.4092 1443.0607 2378.5208 275.60477 0.03594048
222.66058 316.08798 4175.934 331.85654 2014.651 4402.6113 1105.7821 4116.143
0.0 4155.4478 5004.068 506.00708 6.4589386 1.4026588 21.309992 132.1343
1026.9509 312.69684 32.90806 11.709197 862.86163 266.39716 852.0477 0.0
609.54034 268.70407 32.67306 88.652245 405.84332 58.543724 22.31893 157.8153
306.7329 5.779306 51.67594 284.14664 524.47864 46.714733 0.0 1219.7836
22.227577 1806.5128 4896.549 0.85540384 0.0002628826 33.171967 365.1255 141.19864
57.0216 0.02552313 0.04468522 5.7610126 8.026499e-06 0.0 193.65399 0.27616405
0.0 0.0 0.0 0.0 0.0 0.0 0.0 0.0
0.0 0.0 0.0 0.0 0.0 0.0 0.0 0.0
0.0 0.0 0.0 0.0 0.0 0.0 0.0 0.0
0.0 0.0 0.0 0.0
