models/pg/working.pt (torch, 206243 bytes, 3 tensors)

net.base.em.weight f4 [14, 1]
00000000: 0000 0000 5079 eebf cea6 8abe 0d0d 6e3f
00000010: 349b cbbf b3dc 283e 7114 163f d398 67be
00000020: edcb 4abf 143a b4bf 6d04 17bf 6c68 0d40
00000030: eea1 573d 7503 b5bf
0.0 -1.8630772 -0.27080387 0.92988664 -1.5906739 0.1649044 0.5862494 -0.22616892
-0.79217416 -1.4080224 -0.5899113 2.2094984 0.052644663 -1.414168

net.out.weight f4 [196, 256]
00000000: 86d4 24bd a09f 40bc 986b e03c 6693 00bd
00000010: c021 33bb 9803 27bd ee87 0cbd b865 763d
00000020: 5adf 193d aef8 203d 102b 8c3c 522b 67bd
00000030: 1875 2e3d 9065 18bc 3ada 0abd b00d 603c
00000040: 20fa 2f3c 90fd 3bbc 1001 423c 803d 6cbd
00000050: f218 4d3d 8877 fbbc 00c8 f038 a487 44bd
00000060: cc21 e63c aeb1 28bd 6c77 cbbc 88d3 4ebc
00000070: de23 67bd a0c7 1a3d 2c2e 533d 489d 063d
00000080: 281c 96bc 502d e5bb 5097 1c3d 90ee 6ebd
00000090: 604a 7ebd 381a 1a3d 38e1 6fbc b4c4 e2bc
000000a0: b0b9 593d 6c37 66bd 1c4e a3bc 58c1 753d
000000b0: 8cff 8e3c 10ec 3f3d 3419 563d f07e 15bd
000000c0: 2c4e 6dbd a0a0 a3bc 4457 2c3d d8c6 df3c
000000d0: 96c5 6bbd 263c 313d a0bb 113c 8235 1c3d
000000e0: f808 963c 3098 463d d8fd d53c 8227 343d
000000f0: a048 663d 3659 1a3d a235 5f3d bc42 e93c
00000100: c067 06bd 20a6 03bd 000d e3bc 1cff c3bc
00000110: 44b2 96bc 84b2 debc 6802 d13c 80c9 4f3a
00000120: 9046 203c 8857 603c bc99 3dbd ba67 67bd
00000130: 64ac 6bbd 10db 793d 5aba 75bd 043d f43c
00000140: 20ed 70bd cedb 13bd b017 903b 08f0 8dbc
00000150: 349b f43c 7a95 543d d476 2a3d 1867 3a3c
00000160: 2a03 2fbd 388e dabc 9066 0abd d82b 05bc
00000170: a0fe b7bb dcbe 2e3d 20c8 a6bc d481 723d
00000180: 4871 923c e87d 683c 08bc 5d3d 3a49 7ebd
00000190: c890 2f3c 6042 ffbc aefe 56bd 5a73 59bd
000001a0: 0893 413c 0e5f 5c3d 7c88 06bd 7499 d1bc
000001b0: 8c67 c03c 40a5 923c 724e 523d 1e88 423d
000001c0: 828e 3d3d 98c9 053c b876 d2bc 08c5 643c
000001d0: 8872 043c 2416 bebc 483c ecbc ce82 00bd
000001e0: 044f 153d b0ef 73bd 60a4 c6bc fcf9 debc
000001f0: bc4a 733d b8bd ab3c 548d e13c c49d ea3c
00000200: f02b e8bc 8036 3cbb cc2d 63bd 78b8 743d
00000210: 80ae 12ba 803b fd3b fcb3 1ebd 4c26 1ebd
00000220: c4ee 493d 80e2 d3bc 36cc 0dbd 808d 1e3a
00000230: c248 513d 62b1 6fbd 901c b4bb 149e 10bd
00000240: 3828 e03c 0050 3c3d 1807 dabc 0004 af3c
00000250: 7460 ab3c aca9 10bd 8c44 103d 9470 24bd
00000260: 16df 64bd 849b e9bc 383e 4cbd 906f b6bc
00000270: 74ea 263d 3832 243d 965f 68bd a053 a63b
00000280: c00c 0dbd a4d0 debc 4a34 223d a021 b63c
00000290: d87b 003d cc2c 78bd 48e4 72bd d0f1 6f3c
000002a0: 2259 193d c02d fc3a f05e abbc 3a28 16bd
000002b0: fe6a 373d 18b8 423c e098 093b 6813 1c3c
000002c0: 4c2f 4cbd 067a 033d a859 e03c e099 af3b
000002d0: fc20 b7bc d8bb 3cbc fe53 5c3d a2fc 5dbd
000002e0: b0f3 7ebc 36af 79bd b0ca 99bb ca27 443d
000002f0: 003a a3bb fafb 263d 4a99 7fbd 0072 a6bc
00000300: e008 1e3d 9c9b d23c cafb 673d 524e 1cbd
00000310: 58aa b33c 38f5 113d 80ed 7aba 6c2d debc
00000320: a06d 3cbb b8b2 043c 5089 0cbc 5004 e3bb
00000330: c8d5 7dbd 0ae2 45bd 1a71 5e3d a418 363d
00000340: 7006 e83b f6d2 5f3d 4e6f 5f3d c6a6 743d
00000350: a09b c9bc f8f2 10bc 246e 733d 709a 84bc
00000360: c0e4 be3a f467 343d 9c4c e83c b01d d23c
00000370: bc4f 25bd 10a3 3a3d 40aa bc3a 28f3 7a3d
00000380: 9c76 a03c 9aea 46bd 9cbb 4fbd a839 f83c
00000390: 942e 7e3d 887c 33bd dec9 18bd b49a f4bc
000003a0: 922c 743d e23c 413d 1c33 85bc ce27 1ebd
000003b0: 5858 93bc c689 753d 700d 4abd 78cd 54bc
000003c0: b09e 5dbc 04f8 0d3d d6fe 40bd 5c80 d7bc
000003d0: f413 c33c 6039 74bc ec51 e23c 94a5 93bc
000003e0: 90de 1bbd d4dc b4bc 0000 4c38 d058 19bd
000003f0: e041 063d 0029 6dba de99 1fbd de33 373d
-0.04024174 -0.011756808 0.027395055 -0.03139057 -0.002733335 -0.04077491 -0.03430932 0.0601556
0.03756652 0.03929966 0.017110378 -0.056437798 0.042592138 -0.009301558 -0.033899523 0.013675138
0.010740787 -0.011474028 0.011841074 -0.05767584 0.050072618 -0.030696645 0.00011481345 -0.04798092
0.028092287 -0.041185074 -0.024837218 -0.012623675 -0.05643069 0.037788033 0.051557705 0.03286484
-0.018323973 -0.006993927 0.03823024 -0.05833298 -0.06208265 0.03762266 -0.014641099 -0.027681686
0.0531556 -0.0562052 -0.019934706 0.05999884 0.017455839 0.046855986 0.05227013 -0.03649801
-0.05793588 -0.019974053 0.04207541 0.027316496 -0.05756148 0.043270253 0.008894831 0.038136967
0.018314824 0.04848498 0.026122019 0.04398299 0.056221604 0.037682734 0.054494508 0.028474204
-0.032813787 -0.03214085 -0.02771616 -0.023925357 -0.01839555 -0.027184732 0.025513843 0.0007926449
0.009782448 0.013692744 -0.04628919 -0.056495406 -0.05753745 0.06099993 -0.05999217 0.02981425
-0.05881989 -0.036098294 0.004397355 -0.01732637 0.029859163 0.051900364 0.04161723 0.0113771185
-0.042727627 -0.026679143 -0.033789217 -0.008128129 -0.0056150705 0.042662486 -0.020359099 0.059205845
0.017876282 0.014190175 0.0541344 -0.062081553 0.010715671 -0.03115958 -0.052488975 -0.053088523
0.01181484 0.05380159 -0.032845005 -0.025585867 0.023486875 0.017901063 0.051344343 0.047493093
0.046278484 0.0081657395 -0.025691375 0.013962992 0.008083947 -0.023203917 -0.028837338 -0.031374745
0.03645231 -0.059554756 -0.024248302 -0.027218811 0.059397444 0.020964488 0.02753321 0.028639682
-0.028341264 -0.0028719008 -0.055463597 0.059746236 -0.00055954605 0.00772804 -0.038745865 -0.03861074
0.04929997 -0.02586484 -0.03461858 0.0006048307 0.051094778 -0.058518775 -0.005496569 -0.035307005
0.027362928 0.04597473 -0.02661471 0.021364212 0.020920016 -0.03531806 0.03522162 -0.040146425
-0.055876814 -0.028516538 -0.049864024 -0.022269994 0.040750936 0.040086955 -0.056731783 0.005075887
-0.034435987 -0.027199097 0.039600648 0.02223283 0.031368107 -0.060589597 -0.059299737 0.014645055
0.03743852 0.0019239709 -0.020919293 -0.036659457 0.04477977 0.011884712 0.0020995662 0.009526111
-0.049849793 0.032098792 0.027386501 0.0053589195 -0.022354595 -0.011519395 0.05379104 -0.054196008
-0.015561029 -0.06095811 -0.0046933517 0.04788951 -0.0049812794 0.040767647 -0.062402047 -0.020318031
0.038582683 0.025708966 0.05663661 -0.03816063 0.021931812 0.03563425 -0.00095721334 -0.027121268
-0.0028751865 0.0080992505 -0.00857766 -0.0069280043 -0.061971456 -0.04831127 0.05430708 0.044457093
0.0070808455 0.054644547 0.054549508 0.05972936 -0.02461034 -0.008846991 0.05943121 -0.016186923
0.0014564022 0.04404445 0.028356843 0.025648922 -0.040359244 0.045565665 0.0014394 0.061267048
0.019587807 -0.048563577 -0.050716028 0.03030093 0.06205614 -0.043819934 -0.03730189 -0.029858924
0.059612818 0.047177203 -0.016259722 -0.03861218 -0.017986462 0.059945844 -0.04932922 -0.012988441
-0.013526604 0.034660354 -0.04711803 -0.026306324 0.023813225 -0.014906257 0.027626954 -0.01802329
-0.03805405 -0.022077955 4.863739e-05 -0.037438214 0.032777667 -0.0009046942 -0.0389651 0.0447272

net.out.bias f4 [196]
00000000: f871 ae3c dc1c 31bd c666 043d 70f2 c5bb
00000010: ccf1 42bd f4c3 fd3c 6800 63bd c0c9 2abb
00000020: 34bc 13bd 886a 563d 1c31 583d 78ff 6e3c
00000030: 46d9 2fbd ea30 453d 9e88 1bbd 6817 6a3d
00000040: 1479 a23c 005c 76bc ec5e 3d3d 2ada 76bd
00000050: f0a9 e13b 3a3d 023d 6a44 5a3d 68b9 473d
00000060: 8cd1 2fbd 1c60 afbc 003e 11ba 7eeb 35bd
00000070: 6ebb 0d3d e4c4 113d 54cf 913c 24dd b43c
00000080: d05a ebbc 4055 40bc aeec 16bd 446f 7cbd
00000090: d67f 10bd 54e3 e73c ae6b 1d3d c219 10bd
000000a0: ccf2 38bd 24f4 58bd 644e 4ebd 387e e03c
000000b0: ec52 563d 52a7 25bd 10b7 56bc 74e9 a83c
000000c0: cc45 f7bc 14e3 023d 32fb 513d 426e 6cbd
000000d0: 381f 69bd b62b 16bd 2437 7a3d 1c30 e23c
000000e0: bce2 25bd 44e2 2cbd c072 183b f62d 63bd
000000f0: 0a85 16bd f491 943c e0d2 bc3b 5011 703c
00000100: d089 7c3d 707a 7cbc d4fc 0b3d 3cd5 de3c
00000110: a6ef 653d 0062 f639 c898 2bbd 9247 11bd
00000120: a0e4 05bb b8fc 4dbc 002a 09bc c8f9 5d3c
00000130: 0483 59bd decd 263d 32d1 05bd c080 a23b
00000140: a093 3b3d d43a 6abd e80b 773c b006 23bd
00000150: e624 0f3d 0054 a239 20f8 a63b 90fa 8a3b
00000160: 0899 11bd d4be 95bc f064 883c f0fd 18bc
00000170: 806c 99ba 6069 3f3d c4d5 94bc f8e3 c53c
00000180: 3c7e 543d 2cdc 8a3c 3ec1 18bd 9e2c 453d
00000190: a063 d43b d6b0 66bd 8037 e23a 4034 e1ba
000001a0: f093 8bbc 3ada 7f3d 180a 433c 5cc6 59bd
000001b0: b03d 0b3c 4050 863b 38f8 8a3c 684f 98bc
000001c0: cc0b 82bc 6cf5 d4bc 00ff 5cbc 449a b33c
000001d0: 8892 7cbd 38e2 c53c 58bd 393c 5277 013d
000001e0: da5f 703d 08a9 fabc 381e 193d 1e44 19bd
000001f0: 88c6 e73c 0cc7 213d 8a69 2cbd 5c3d 05bd
00000200: 4001 383b 124c 45bd fc10 e13c b049 4a3d
00000210: a01f 4c3c 4c1c 8a3c d83d a6bc 68a3 1f3c
00000220: e276 25bd 1c4c b33c f0f9 70bc d0c2 24bc
00000230: e84f b93c e8fd 0b3c dac0 7cbd d875 923c
00000240: 0c35 163d f0e4 15bd b6dd 74bd 6cdd 03bd
00000250: f23b 163d 1648 2a3d 4874 1c3c 58ee 72bd
00000260: 5cb0 b73c 8408 2dbd 2eff 1dbd 2c58 d3bc
00000270: 40aa 973c 042a df3c fe19 373d 8e06 1f3d
00000280: 3432 483d ac5c ef3c 269f 0a3d 943c ef3c
00000290: 5003 d53c e006 723b 4017 aebb e862 08bd
000002a0: 3e8b 6c3d 08db 003c 545d 993c d635 113d
000002b0: 0c10 4cbd 34ef e43c e2db 463d 706b 87bb
000002c0: b844 f83c 3669 62bd b2db 203d bade 723d
000002d0: 8cc7 73bd c0a2 93bb 0052 8ab9 4816 303c
000002e0: 406b 293c 94d0 24bd bc4b 553d 80fa 44bd
000002f0: d4ad cf3c 484f 213c e8d7 3c3c 007a 5abb
00000300: 5018 a73c 3cd9 6fbd 0e7e 653d face 143d
0.021294579 -0.043240413 0.032324575 -0.0060408637 -0.047593877 0.030977227 -0.05542031 -0.0026060194
-0.036068156 0.05234769 0.05278121 0.014587276 -0.042931817 0.04814235 -0.037972085 0.05715123
0.019833125 -0.015036583 0.046233103 -0.06026665 0.006886713 0.03179667 0.0532879 0.0487608
-0.04292445 -0.021408133 -0.000554055 -0.044414036 0.034602575 0.03558816 0.017799057 0.022078104
-0.028729826 -0.011739075 -0.03684681 -0.06162955 -0.035278164 0.02830664 0.03843277 -0.035180815
-0.045153424 -0.052967206 -0.050367728 0.027403936 0.052325174 -0.040442772 -0.013105169 0.020619132
-0.030184649 0.03195484 0.05126495 -0.057722338 -0.05691454 -0.03666278 0.061087742 0.027610831
-0.040499434 -0.04220797 0.0023261756 -0.055463754 -0.03674797 0.018136002 0.005762443 0.014652565
0.061654866 -0.015410051 0.034176663 0.027201287 0.05613675 0.00046993792 -0.04189375 -0.035468645
-0.002043046 -0.01257246 -0.00837183 0.013548322 -0.05310346 0.040723674 -0.032670207 0.004959196
0.045795083 -0.05718501 0.015078522 -0.0398013 0.0349473 0.00030961633 0.005095497 0.004241295
-0.035546333 -0.01827947 0.016649693 -0.009337887 -0.0011705309 0.046731353 -0.018168338 0.024156556
0.0518782 0.01695069 -0.037293665 0.048138253 0.006481603 -0.056320988 0.0017258972 -0.0017181709
-0.017038316 0.062463976 0.011904262 -0.053167686 0.008498594 0.004098922 0.016964063 -0.018592551
-0.015874766 -0.025995933 -0.013488531 0.021924146 -0.06166318 0.024155721 0.011336647 0.031607933
0.05868516 -0.030598179 0.037382334 -0.037418477 0.02829291 0.039496467 -0.042092837 -0.03252922
0.0028076917 -0.04816825 0.02747392 0.04938668 0.012458712 0.016859196 -0.020293161 0.009743549
-0.04039658 0.021886878 -0.014708027 -0.010056213 0.02262111 0.008544423 -0.061707355 0.017878458
0.036671683 -0.036595285 -0.059781753 -0.032193586 0.036678262 0.041572653 0.009549208 -0.059309334
0.022422962 -0.04224445 -0.038573436 -0.02579888 0.018513799 0.027241714 0.044702522 0.03882461
0.048876002 0.029218994 0.033843182 0.02920369 0.026002556 0.0036930367 -0.00531283 -0.03329745
0.05774998 0.007864721 0.01872126 0.035451733 -0.04981999 0.027946092 0.04854954 -0.0041326806
0.030306205 -0.05527612 0.039272018 0.05929444 -0.059516475 -0.0045054853 -0.00026382506 0.0107475
0.010340512 -0.040237978 0.05207418 -0.048090458 0.025351442 0.009845562 0.011526085 -0.0033336878
0.020397335 -0.05855678 0.05602842 0.0363302
